Super-Resolution_CNN/SRCNN_torch/srcnn_e5000_s3_set14.pth (torch, 35338 bytes, 5 tensors)

conv1.weight f4 [64, 1, 9, 9]
000000 3d f0 e0 ba c5 32 6f 3d 55 50 be bd d2 2a ab bd
       -0.001716144 0.058398027 -0.09292666 -0.08357777
000010 fb 5f 32 bd 25 ff ef 3c 49 c4 4c bb c8 08 b0 3d
       -0.043548565 0.029296467 -0.0031244925 0.08595425
000020 d0 07 36 bc 4d 1d cd 3c 5d 3f 17 bd 14 5e d0 bc
       -0.011110261 0.025038386 -0.036925662 -0.025435485
000030 88 6e e0 bd 6c 48 9e bd 85 f1 4d bd b2 d8 29 ba
       -0.10958582 -0.07728657 -0.05027916 -0.00064791285
000040 56 b7 22 3d 04 e5 80 3d cc fb a2 bd c4 13 5b bd
       0.039725624 0.06293681 -0.07958183 -0.053485647
000050 41 42 11 3d b8 d8 b2 3d 88 54 ed bc f4 3e 9e 3d
       0.035463575 0.08732742 -0.028970972 0.07726851
000060 fe 8b c8 bc 55 41 bb 3b 2b 5e c4 3d 90 87 d9 bd
       -0.024480816 0.0057145753 0.095882736 -0.106215596
000070 e9 f4 95 bd 0b c3 08 bd 71 a1 48 bd 6d e6 b9 3d
       -0.073221035 -0.033389132 -0.048982088 0.09077153
000080 d8 12 9f bd b9 e2 68 bd b4 2f a8 bd 5b 58 dc bd
       -0.07767266 -0.056856845 -0.08212224 -0.1075904
000090 95 6c 8d bd 0b 80 b9 3d 65 be 29 3d fb 5c 37 3d
       -0.06905476 0.090576254 0.04144134 0.044766407
0000a0 d5 f5 50 bb cb 1a 83 bd 92 23 33 3c 6c 27 df bd
       -0.0031884809 -0.06401595 0.010933774 -0.10896191
0000b0 a9 a5 ac bd cb 40 80 bd 9d 81 83 3d bc 79 64 3d
       -0.08430035 -0.06262358 0.06421206 0.055780157
0000c0 54 5a 76 bd b3 bd 6f bc 4e c1 80 3d 93 61 d3 3d
       -0.060144737 -0.01463263 0.0628687 0.10321345
0000d0 8e 2c 1c 3d 7f d7 23 3c 29 e3 8f 3d 9c 60 91 bd
       0.03812843 0.010000109 0.07025749 -0.07098505
0000e0 8f 0d 42 3c 20 76 c2 bd ac be af bd 41 b8 86 bd
       0.011844053 -0.09495187 -0.0858129 -0.065781124
0000f0 6b 7b 2c 3d 9b b5 1e 3d 5b 55 8f bd 5a 13 ef 3c
       0.042109888 0.03874741 -0.06998702 0.029184032
000100 60 d4 63 3d 03 00 ad bc de b0 93 bb c7 a4 88 3c
       0.05562246 -0.02111817 -0.004507168 0.016680134
000110 7e 6c 77 3d 1d 70 cd 3d a5 3b b9 bd d2 1d 37 bd
       0.0604062 0.100311495 -0.090445794 -0.044706173
000120 1c 68 26 3d 38 12 b6 3d 66 b5 bd 3d d1 36 be 3d
       0.04062663 0.08890194 0.09263115 0.09287799
000130 c1 74 7f 3c 3b 15 d1 bd 62 41 8a 3b 98 1d 96 bd
       0.015591801 -0.102091275 0.00421922 -0.07329863
000140 4d 27 da bd cb ba c5 3d c4 31 a9 3d f9 48 e4 bd
       -0.10652027 0.096547686 0.08261445 -0.11146731
000150 e6 be 9e 3c 90 9f 9e bc 5c 6d 98 bc 93 8b 50 bd
       0.019378137 -0.019363195 -0.018606834 -0.05091436
000160 3f e9 2e 3d 3e c8 86 bd 63 28 17 3d 7b 5b 58 3d
       0.04270291 -0.06581162 0.03690375 0.052821618
000170 ac eb a1 3d bc f0 28 3d 4a 3f e1 bd de 9d 93 bd
       0.07906279 0.041245207 -0.109983996 -0.07207845
000180 53 2b 63 3d 9a a3 bd 3c 31 83 b1 bd c3 c9 85 bd
       0.05546124 0.0231493 -0.08667601 -0.065326236
000190 dc 0a d4 3d 2c 1c 99 3d 21 87 46 bd 28 63 e5 bc
       0.10353634 0.074760765 -0.048468713 -0.028001383
0001a0 96 c4 d8 bd 0b 07 0b bb dc 5c ab bd c9 86 af bd
       -0.10584371 -0.0021213915 -0.08367321 -0.0857063
0001b0 59 11 17 bc 31 71 65 3c 49 b5 3b bd 0e 09 87 3d
       -0.009220445 0.014004038 -0.045827184 0.06593524
0001c0 30 79 8a bd 75 7a ce 3d ac f1 9b 3d ca e4 bf bd
       -0.06761396 0.100819506 0.076144546 -0.0936981
0001d0 09 8d e2 bc 8f 12 0b 3b bf 52 61 3c 2e 36 d1 3c
       -0.027655141 0.0021220779 0.013752638 0.02553853
0001e0 6f c1 32 3d 2e 00 d9 3b 76 0c 5e bd c0 5b 57 3d
       0.043641504 0.006622336 -0.054211102 0.052577734
0001f0 4d 48 da bd aa df 86 bd 08 49 f8 bc f8 68 63 bd
       -0.106583215 -0.06585629 -0.030308262 -0.055520028
000200 86 a1 1f bd 01 80 ba bd 63 64 c1 bc 5a ba c2 3c
       -0.0389724 -0.09106446 -0.023607438 0.0237705
000210 9b 3e 94 bd 19 57 bb bb 55 e5 a2 3d b8 e5 61 bc
       -0.072385035 -0.00571717 0.07953898 -0.013787679
000220 b2 98 93 3a 39 36 29 bc 0b da b8 3c c1 b0 90 3d
       0.0011260717 -0.010327869 0.022564908 0.07064963
000230 30 8d d7 3d b8 82 90 3d 59 0b d8 3d 6b c3 03 bc
       0.10524976 0.070561826 0.105490394 -0.008042197
000240 b5 e1 cd bd 3e 16 5d bd d1 e4 9a 3d 5e f9 87 ba
       -0.10052816 -0.05397629 0.075631745 -0.0010374
000250 5b 36 62 bd e6 60 ae bd 55 f5 d4 bd 0b 0f c0 bd
       -0.05522762 -0.08514576 -0.10398356 -0.09377869
000260 84 bd b8 bc 9f 24 73 3d ac 30 71 3d 7b 81 db bd
       -0.022551306 0.059361096 0.058884308 -0.10718056
000270 ac f2 8d 3d 76 10 b2 bd ae 7e c0 bc 15 89 38 bd
       0.069310516 -0.08694546 -0.023497906 -0.045052607
000280 29 71 af bc 16 da b2 bc 39 f3 e7 bd 51 b9 d7 bd
       -0.021416264 -0.021832507 -0.11325688 -0.10533393
000290 aa dd af bc 79 09 e7 b8 ca 90 54 bd 62 a7 2c 3d
       -0.021468002 -0.00011016703 -0.051895894 0.042151816
0002a0 41 8e c7 bd b3 e3 77 3b 45 43 f2 3d 99 45 7c bd
       -0.0974393 0.0037824928 0.11829237 -0.06158981
0002b0 2e ce c7 3d 60 ad 4f 3d 32 31 b0 bd 99 4d a0 3d
       0.097561225 0.050702453 -0.08603133 0.078273006
0002c0 d8 e6 42 bc cd 49 53 bd 6e bc c6 3d c2 17 88 bd
       -0.011895858 -0.051584054 0.09703909 -0.066451564
0002d0 55 24 c9 bb 71 fc a1 bc 66 87 d5 3d 6e e7 7c 3d
       -0.0061383643 -0.019773694 0.10426216 0.061744146
0002e0 35 dd 93 3d 53 d7 27 3d 01 ab 0f bd a0 4c b3 bc
       0.07219926 0.040976834 -0.03507519 -0.021887124
0002f0 32 0b 8f bd e8 38 3d 3d 1d 86 ca 3d d4 67 e4 3d
       -0.06984557 0.04619685 0.09888861 0.11152616
000300 de d0 09 bd 68 11 17 3d 1f e0 89 bd 4e 7f 88 bd
       -0.033646457 0.036881834 -0.06732201 -0.066649064
000310 00 7c 80 bd ce ee 7f 3d 19 f3 bd bd 81 e8 0d bc
       -0.06273651 0.0624836 -0.09274883 -0.00866139
000320 20 5a b6 3c 79 24 cd 3d f9 33 82 bd b1 cb 98 bd
       0.022259772 0.10016722 -0.06357569 -0.07460726
000330 f6 e2 9d bd c2 9d 90 3d 33 09 e7 bc 17 ed ab 3d
       -0.07709305 0.0706134 -0.028202629 0.08394831
000340 25 9a 2f 3d 1f 3c 0d 3d 58 64 fc 3c 44 6b ff 3b
       0.042871613 0.034481164 0.030809566 0.0077947695
000350 01 9c 09 3d f4 68 85 bc 3b d7 41 3c 55 6f 25 3d
       0.033596043 -0.016285397 0.0118311 0.040389378
000360 cf 07 db bd 33 9f 93 bd 96 8b af 3d 49 06 b1 bd
       -0.10694849 -0.07208099 0.08571546 -0.08643777
000370 4c 9c 00 bb 28 e8 e8 3d 7c 74 1b 3d a5 cb 80 3b
       -0.001962441 0.11372405 0.037952885 0.0039305263
000380 be 02 b2 bd 64 50 43 3d a6 31 ab bd f4 d5 fc bc
       -0.08691929 0.04768409 -0.08359079 -0.03086374
000390 1f 06 06 bd 7c 23 31 bc 4d 20 d3 3b a8 45 be 3d
       -0.03272068 -0.010811683 0.0064430595 0.092906296
0003a0 fd 6c 94 3c eb 76 de 3d 8d fb 8c 3d 60 ec 86 bd
       0.018118376 0.108625256 0.06883917 -0.06588054
0003b0 14 b1 67 3d d6 f9 93 bd 6d 63 2e bd 80 e7 0d 3d
       0.05656536 -0.07225387 -0.04257529 0.034644604
0003c0 f8 5c 0c 3d 6f 8c a6 3d ce ab 10 bd 43 3e b0 ba
       0.03426835 0.08132254 -0.035320096 -0.001344629
0003d0 1b 39 6b 3d 35 f8 db bd f7 89 a4 3d 88 2b bc bd
       0.057427507 -0.10740701 0.08034127 -0.091879904
0003e0 01 3f 40 3a cd 0e 9b bc 6c a0 6f bd fb af 63 3c
       0.0007333607 -0.018927956 -0.0585026 0.0138969375
0003f0 25 04 bd 3d 2b 07 04 bd 04 0a 87 bd b1 30 28 bd
       0.09229306 -0.0322334 -0.06593707 -0.04106206

conv1.bias f4 [64]
000000 1c 29 3b 3d a6 e3 6d bd 40 38 9c 3d bd 73 a6 3c
       0.0456935 -0.05807843 0.07627916 0.02031886
000010 2a 3d 91 3d 65 f1 dc 3d 5e 3c 11 bd 74 97 cc 3d
       0.07091744 0.1078823 -0.03545796 0.09989825
000020 95 ab c2 3d 0a e4 c0 bd 92 07 23 3d 66 a5 4a bd
       0.09505383 -0.09418495 0.03980214 -0.049474142
000030 96 10 63 3d f0 3c a1 3c 25 3a d9 bd df 56 34 3d
       0.05543574 0.019682378 -0.10606793 0.04402816
000040 01 6e 90 bc ca 57 08 3e c5 be ad 3d 88 18 9a bb
       -0.017630579 0.13314739 0.08483652 -0.0047026314
000050 9a b6 b0 3d cd 43 46 3d f7 74 c0 3d ec c0 7d bc
       0.086285785 0.048404504 0.09397309 -0.015487891
000060 79 6c 07 3d e6 b5 e9 bc 20 d9 9e bb 05 e7 e3 bc
       0.033062432 -0.028529119 -0.0048476607 -0.02782012
000070 7b 5b 3c bd 68 cc 4e 3d fc e2 12 3d 46 58 5a bd
       -0.04598568 0.050487906 0.035861 -0.05330684
000080 23 b0 ae bd 57 0c b7 3c 62 52 b9 bd 97 8b cc 3b
       -0.08529689 0.022344751 -0.090489164 0.0062422263
000090 8a 94 ad bd 19 8b 9c 3d 9f 23 cb 3d 3b 3c 9b bd
       -0.08475597 0.07643718 0.099189036 -0.075798474
0000a0 80 be d3 bd 6c ee 86 bd b6 76 20 3d 12 97 63 bd
       -0.10339069 -0.06588444 0.03917571 -0.055563994
0000b0 b4 c3 d8 bc 37 97 97 bc 57 28 0a 3d 89 00 88 bd
       -0.026460506 -0.018504722 0.033729877 -0.06640727
0000c0 22 8b 14 3d a6 d4 a4 bd 71 51 3d bc 63 cc b0 3d
       0.0362655 -0.08048372 -0.011555062 0.08632734
0000d0 2a cb 93 bd bf 80 86 3d 32 2c 68 3d 00 ac 43 bc
       -0.07216485 0.06567525 0.056682773 -0.011942863
0000e0 7a 21 40 3d f5 31 6d bd fc 07 e8 bb 40 10 34 3d
       0.046906926 -0.05790897 -0.00708103 0.04396081
0000f0 91 4f d8 3d dc 98 54 bd 9d e3 16 bd 1a e8 51 bd
       0.10562051 -0.05190359 -0.036838163 -0.05124674

conv2.weight f4 [32, 64, 1, 1]
000000 78 a6 fd bd ed ee ce 3c ca 83 0c be 27 3e 0a bd
       -0.12385267 0.025260413 -0.13722149 -0.03375068
000010 cb 7b 97 bc d1 23 99 3a 44 77 72 3d bb e3 d1 bd
       -0.018491646 0.0011683648 0.05919577 -0.10248514
000020 b1 d1 00 bd dd 91 2c bc 8c 8e aa bd e5 61 ad 3c
       -0.031449977 -0.010532823 -0.0832797 0.021164844
000030 82 95 0c 3d c8 32 b9 bd 0a 4c c9 3d 2d 76 d4 3d
       0.03432227 -0.09042889 0.098289564 0.10374103
000040 40 8a a0 bc 3b a2 49 bb 0a e6 84 3c 8f 81 a1 bc
       -0.019597173 -0.0030766863 0.016222972 -0.019715099
000050 04 2b cf bd b1 e9 0f 3e 89 af ba 3d 07 53 d7 bd
       -0.101156265 0.1405399 0.09115512 -0.10513883
000060 64 2a e0 bd e3 e4 f2 3d 47 f8 c7 bb e1 dc 2d bb
       -0.10945585 0.11860063 -0.006102595 -0.002652936
000070 3d fc 9b 3d 7a ec 19 3d 71 59 0f 3d 02 06 cb 3d
       0.0761647 0.037579037 0.034997407 0.09913255
000080 8b 6d 79 bc 00 ae f1 3d 42 c0 ad bd 08 e7 a5 bd
       -0.015223871 0.11800766 -0.08483936 -0.08100706
000090 e0 4c ce 3b 30 c6 da bb d8 00 6b 3d 50 b4 b6 bc
       0.0062957853 -0.006676458 0.05737385 -0.022302777
0000a0 68 06 a1 3c db de d4 bc c8 f9 be 3d 60 55 06 bc
       0.019656375 -0.025985172 0.09324986 -0.008199066
0000b0 00 7c fb 3a b8 fe 00 3e 82 09 05 3e c8 dd 03 3e
       0.0019186735 0.12597167 0.12991908 0.12877572
0000c0 7d cb 01 be ae 8e 90 bd c0 d4 e3 bc 80 cf e1 bc
       -0.12675281 -0.07058464 -0.027811408 -0.027564764
0000d0 f4 d1 93 3d b0 fb 6c 3d 10 72 3c bc 2d 33 8f 3c
       0.0721778 0.057857215 -0.011501804 0.017480457
0000e0 0c ab c7 3c 3d 2e f8 3d 3c 9f 83 3d 4b 56 a2 bd
       0.024373554 0.12118194 0.06426856 -0.07926615
0000f0 f8 2f 94 bd 28 eb 21 3d 6e 5c bd bc 53 56 a9 bd
       -0.07235712 0.039530903 -0.023115363 -0.08268418
000100 b4 c6 f7 bd ae 35 93 3c b6 28 18 bd 32 f3 94 bd
       -0.120984465 0.017969932 -0.0371482 -0.07272948
000110 d8 a8 8c 3c ef 49 f9 3d 31 a3 ce 3d cd 41 8a 3d
       0.017170355 0.12172305 0.1008972 0.06750832
000120 3f d4 c1 bd 58 1b 92 3d a8 c1 84 3d 57 36 1d 3d
       -0.09464311 0.07134122 0.064822495 0.0383819
000130 0f c8 00 bd 00 e2 33 bb a2 da 8a bd 35 c1 f7 bc
       -0.03144079 -0.002744794 -0.06779982 -0.030243495
000140 c9 12 bc bc f6 2b a3 bc da c6 fe bd dd a0 34 3d
       -0.022958176 -0.019918423 -0.12440272 0.044098724
000150 57 c9 d7 bd 70 fd c2 bd 41 88 42 3d 6c 8e d1 bd
       -0.105364494 -0.095209956 0.047493223 -0.10232243
000160 3d 34 f4 3d 5a 1f f5 3d c6 20 2a bd f8 30 b4 bc
       0.11924026 0.119688705 -0.04153516 -0.021996006
000170 1e 74 c4 bd 0e 24 ef 3b 0e 50 b1 3c c0 6e 8c bd
       -0.0959246 0.007297999 0.021644618 -0.068570614
000180 17 85 20 3d 84 1f a0 bb 6d f1 16 bd b5 eb 20 ba
       0.039189424 -0.0048865695 -0.036851335 -0.0006138639
000190 72 86 fb bd 3a bc b5 bd b8 36 77 3c ab 39 f4 3d
       -0.12281503 -0.08873792 0.01508873 0.11925062
0001a0 ac bc 97 bd f6 1d a4 3d b5 35 32 3c 48 47 5c bd
       -0.07409033 0.08013527 0.010877063 -0.053778917
0001b0 00 9c 0f 39 e4 6e 6d 3d f5 80 23 3c 1f 67 e2 3d
       0.00013695657 0.05796708 0.009979476 0.11054825
0001c0 be 4a bf bc b0 f3 aa bd a6 55 e7 3d c0 3a 12 bd
       -0.02335107 -0.08347261 0.11295633 -0.03570056
0001d0 a0 6e a2 3d d5 d9 a8 3d 23 5e b5 3c cd 0d da bd
       0.07931256 0.08244673 0.022139614 -0.106471635
0001e0 82 53 fb bd dd f8 68 3d d9 5b fa 3c 73 bd 95 3d
       -0.12271787 0.05687796 0.030561375 0.07311525
0001f0 d4 a3 e1 bd 20 14 8d bc 7b c6 da 3d a7 e4 85 3d
       -0.11017576 -0.01722151 0.106823884 0.065377526
000200 f2 06 d0 3d 44 fd c8 3d 9e f2 1b bd e8 c3 ae bd
       0.10157575 0.098139316 -0.038073175 -0.0853346
000210 de 51 91 bd 0c c7 25 3d f1 5d 2d bd 34 e7 bd bb
       -0.07095693 0.04047303 -0.042325918 -0.005795384
000220 9a 03 98 3c 60 ee 9e 3d 52 b8 8c 3d 4a cb 91 3d
       0.018556405 0.0776031 0.06871094 0.071188524
000230 41 96 fd 3b ec 34 8f 3d 78 b1 6f bd d5 3c 2d bd
       0.007738859 0.06992516 -0.058518857 -0.042294342
000240 30 2b b6 bc b8 ba 7f bd c5 1d e2 3d bb ab a6 bc
       -0.02223739 -0.06243393 0.11040834 -0.02034556
000250 bc 00 1e 3d 93 c1 23 ba c6 a3 6e bb 5d 0c 89 bd
       0.03857492 -0.00062468013 -0.0036413535 -0.06691811
000260 e3 09 7b bb 2e b0 e4 bd b0 1b 5d bd 26 37 c2 3d
       -0.0038305453 -0.11166416 -0.053981483 0.09483175
000270 db eb ef bd b5 fe 9a 3c 3f a4 ce 3c 6f 0b f5 bd
       -0.11714908 0.018920282 0.025224803 -0.119650714
000280 d2 d3 c9 3c e0 e4 67 3d ac 6e b9 3d 10 9d 9c 3c
       0.024637137 0.056614757 0.09054312 0.019117862
000290 1a 1e c9 3d 4a bc 2f 3a 57 13 52 3d 96 79 17 3d
       0.098201945 0.00067037775 0.051287975 0.036981188
0002a0 d3 c1 bc bd 86 fd e1 bc aa 0e b6 bd 56 e9 c6 3d
       -0.092166565 -0.02758671 -0.08889516 0.09712474
0002b0 0c 41 74 3d b1 a4 46 bd 49 a1 ac bc f7 15 e9 3c
       0.059632346 -0.048496906 -0.021073 0.028452856
0002c0 4a 5f e2 bd 18 e4 62 3b e4 63 73 3d 45 a4 64 3c
       -0.11053331 0.0034620818 0.059421435 0.0139551805
0002d0 52 73 3c bc 80 b8 a1 3d 43 9c 55 3d db 91 ec bd
       -0.011502104 0.07896519 0.052150976 -0.11551257
0002e0 24 ec 94 3d 1e 12 c5 bd c3 30 8f 3d 85 fc d3 3d
       0.07271603 -0.09622596 0.069917224 0.10350899
0002f0 34 33 13 3c 88 0a 2d bd 39 90 91 bd d6 25 82 bd
       0.008984376 -0.04224637 -0.071075864 -0.06354873
000300 e5 a5 f6 bc 28 e4 54 bd b9 39 e4 3d c8 52 60 bd
       -0.030108402 -0.0519754 0.11143822 -0.054766446
000310 45 ec bf 3d aa 46 00 be aa fd 99 3d a0 49 24 3e
       0.09371237 -0.12526956 0.07519086 0.1604371
000320 fd 04 99 bd b2 53 0d bd 07 68 d7 3c 10 8c 2b be
       -0.074716546 -0.034503646 0.026294721 -0.16752648
000330 cb 12 9d bd ed 91 0f 3d aa 0f f1 3d 75 e3 83 bd
       -0.076696 0.035051275 0.11770566 -0.06439868
000340 8e 96 2d 3a 12 3b 02 be 70 fc ec bd 49 96 d6 3d
       0.00066218607 -0.12717846 -0.11571586 0.10477883
000350 7b 86 d6 3d 7a d7 2e 3c 86 22 8f bd 1c 40 25 bc
       0.10474869 0.010671491 -0.06989007 -0.010086086
000360 42 d5 77 3d 06 12 ed bd 6d 03 bc bd b5 b3 2b bd
       0.060506113 -0.11575703 -0.09180341 -0.04191943
000370 e2 79 6d bd 81 1b 65 bb 16 e4 a1 3d 12 d1 d1 3c
       -0.057977565 -0.003495902 0.07904832 0.025612388
000380 4a 05 ef bd 3a 2d e7 3d 0d c7 c9 3d 37 20 2f 3d
       -0.11670931 0.11287923 0.09852419 0.04275533
000390 13 43 ad 3d 99 16 67 3d 3b a4 11 3e a2 9e 0a be
       0.08460059 0.056418035 0.14222805 -0.13537076
0003a0 c5 5e 9f bd e3 c2 85 bc ec c3 00 bd 52 04 aa bd
       -0.07781748 -0.01632828 -0.031436846 -0.08301605
0003b0 e6 80 f5 bd 1b a0 a0 bd 6e fc 57 3b c5 db 04 3e
       -0.11987476 -0.07843038 0.0032956856 0.1297446
0003c0 10 eb 8a 3d c8 fc 15 3d be 87 c5 bd e3 4a 5e bd
       0.06783116 0.036618024 -0.096450314 -0.054270636
0003d0 4e dc 37 3c 6a 01 eb bd f1 63 50 bc 09 0e 83 3d
       0.011221958 -0.11474879 -0.01271914 0.06399161
0003e0 3a 0b e3 3d c9 be fd bc c7 18 f8 3d 3a d0 f3 bc
       0.11086126 -0.030974763 0.12114101 -0.029762376
0003f0 42 e2 ce bd a2 f3 f1 3d bc ae 27 3e f2 3d 92 bd
       -0.10101749 0.118140474 0.1637525 -0.071407214

conv2.bias f4 [32]
000000 81 e5 8d 3d d3 d0 4b bd 0c 11 94 3d f2 be c9 3d
       0.0692854 -0.049759697 0.07229814 0.09850873
000010 8d 63 41 3d eb 47 b5 3d 5e 64 c6 bd 20 7a fd 3d
       0.04721408 0.08851608 -0.09687112 0.12376809
000020 47 38 ad bd ee f7 57 3d 1c 15 b0 3c f8 ab 94 3b
       -0.08458 0.05272668 0.02149444 0.004537102
000030 fe 5a b3 3c f4 2a fb bd 29 9c 06 3e 24 73 0e bc
       0.021893974 -0.12264052 0.13145508 -0.008694444
000040 8a 2a ef 3d 94 d4 18 3d 3b b4 50 bd 77 8e 63 3d
       0.116780356 0.037312105 -0.05095313 0.055555787
000050 09 a9 9c bc 8f ca aa bc 94 d2 d1 3c c6 84 e7 bd
       -0.019123571 -0.02084854 0.025613107 -0.113046214
000060 a4 ad 5d bd c6 08 d0 bd d0 12 e6 3c 2e 2c 4c bd
       -0.054120675 -0.101579234 0.028085142 -0.04984682
000070 93 2c dc ba 73 af 85 bd ba ea dc bd 2a 20 d6 bc
       -0.0016797952 -0.06527605 -0.10786958 -0.026138384

conv3.weight f4 [1, 32, 5, 5]
000000 3a 62 41 3b 8c 65 d5 3c 52 14 38 bc 6e f5 0a 3d
       0.002950801 0.026049398 -0.0112353135 0.033925466
000010 fb 52 c6 bc 24 12 e4 3b 05 a5 12 bd 14 09 cb 3c
       -0.02420949 0.0069601703 -0.035801906 0.024784602
000020 06 4a cd bc 7a e8 dc 3b 3a ee 3a 3c 4a 66 1c bb
       -0.025059711 0.0067415806 0.011409337 -0.002386468
000030 6d 5d 3d bb a8 fb 8b bc dd dd 56 3c c8 0b 42 3d
       -0.0028894797 -0.017087772 0.01311442 0.047374517
000040 71 71 72 3d f4 35 1b 3c 53 db b3 bb b4 74 a5 bc
       0.059190217 0.009473313 -0.005488792 -0.02019725
000050 b5 1e 7d 3c 4f 45 03 3d 5b c0 67 3c 0f f4 94 bc
       0.015449216 0.03204852 0.014144982 -0.018182782
000060 25 57 47 ba 1a 98 67 ba 42 ab e7 bc 7d 91 1d bc
       -0.0007604233 -0.00088346156 -0.028279904 -0.009617207
000070 36 86 d8 ba f4 a5 0c bd 42 98 a7 3b 42 2b 1f 3c
       -0.001651949 -0.034337953 0.005114586 0.009714903
000080 fe 24 5c bb c4 fb a2 bb 05 5b 36 3a bc cb 16 3c
       -0.0033591385 -0.0049738605 0.0006956312 0.0092038475
000090 f1 c4 8a bc 96 51 53 bb 46 50 a6 3c 20 27 2a bc
       -0.016939612 -0.0032244674 0.02030195 -0.010385305
0000a0 23 d1 5f 39 7c f1 05 bd 95 76 dc bc 50 64 66 bb
       0.00021344847 -0.032701 -0.026912013 -0.0035155006
0000b0 d3 32 4a bc 55 cd 0c 3d 1f 81 f7 bb dc b0 f1 bc
       -0.012341219 0.034375507 -0.007553234 -0.029503278
0000c0 98 f8 f6 3c 83 37 bb bc 5d 3b ed 3c cc dd 90 bb
       0.030147836 -0.022853618 0.02895897 -0.0044209715
0000d0 28 b0 b8 3b b2 3c 14 bd c6 af 00 3d 98 1d c5 ba
       0.005636234 -0.036190696 0.03141763 -0.0015038727
0000e0 1f ff 9f bc f5 ee e1 bc b0 b2 82 3b 1c 2d 10 bd
       -0.01953083 -0.027579764 0.0039885864 -0.03519927
0000f0 65 24 c7 3c bd 0e 8c 3c 0b ed de 3c a1 09 e4 3c
       0.024309346 0.017096872 0.02721264 0.027836623
000100 6a f5 c6 bc f1 4a 38 bc 74 39 a4 3c 1f 09 a5 3c
       -0.024286944 -0.011248336 0.020046927 0.02014595
000110 d2 fa 04 3d d0 c2 8f bc bf c6 81 3b f6 ea 0a bb
       0.032465763 -0.017548949 0.00396046 -0.0021197177
000120 0a d2 99 3c f5 a6 9b bc c1 4d f4 3c d5 ce 41 bc
       0.018776912 -0.01900051 0.029822232 -0.011829098
000130 46 10 da 3c 68 67 33 3d fb 89 98 bc 0c 99 84 3c
       0.026619088 0.043799788 -0.018620482 0.01618626
000140 88 9f f9 bc 7b cc ee 3c 9f b9 69 3d c9 32 7c 3c
       -0.030471578 0.029150238 0.057061788 0.0153929675
000150 66 23 36 bc 3b 30 f9 bc 87 71 17 3d ff 92 b4 3c
       -0.011116838 -0.030418506 0.036973502 0.02204275
000160 ae 38 f0 3a 6c 51 22 3d 4f 79 05 3c c8 34 93 3a
       0.0018327439 0.03962843 0.008146598 0.001123094
000170 a1 cd dc 3c f5 cf e7 3c 63 ae 29 3d 37 e6 61 3b
       0.02695352 0.028297404 0.041426074 0.0034469494
000180 16 0e 85 3b 91 ca 53 3c b7 ba cd 3c 4d a7 cd bc
       0.004060517 0.012926714 0.025113447 -0.02510419
000190 ac c3 25 3c 1a 07 9f 3c d2 62 98 3c 88 74 0f 3d
       0.010117453 0.019412566 0.018601809 0.035023242
0001a0 e5 49 41 bb 06 76 25 bd fb ea b4 bc d0 a9 4c 3d
       -0.0029493507 -0.04039576 -0.022084704 0.049966633
0001b0 30 b8 15 3b 46 fc cf bc 23 3c 0b 3d 6f c4 5f bc
       0.002284538 -0.025388848 0.033992898 -0.013657673
0001c0 2b 5e 3c 3d 62 45 37 3d dd 9c 66 bb 21 2a d1 3c
       0.045988243 0.044743903 -0.0035188713 0.025532784
0001d0 a6 20 18 3d c2 99 b2 bc d4 28 39 bc 1e c0 86 3b
       0.03714051 -0.021801833 -0.011301238 0.0041122576
0001e0 67 ba 20 3c 47 d3 d5 bc 11 14 07 bd a2 47 e2 3c
       0.009810067 -0.026101721 -0.03297812 0.027622048
0001f0 a2 b3 d5 bc 36 30 2d bd 88 54 bf 3b a6 81 d0 bc
       -0.026086632 -0.042282306 0.0058389343 -0.025452446
000200 67 ad 78 bc da 58 61 bc f6 45 fb 3c 03 5d 22 3c
       -0.015178061 -0.013754094 0.030673008 0.009909871
000210 3b 35 18 3d 40 b7 8f ba 04 2a 26 3d f2 ae 27 bd
       0.03716014 -0.0010964647 0.040567413 -0.040938325
000220 5e 98 cd 3b ad 96 ac bb 1b 48 fb 3b aa c8 2e 3d
       0.006274267 -0.0052669854 0.0076685078 0.042671837
000230 16 86 44 bc 09 38 0e bd 7d be f9 bc 6a 81 22 3c
       -0.011994859 -0.034721408 -0.03048634 0.00991855
000240 93 d3 0e 3a 00 e0 17 3c d5 5f 37 bd 5a e7 02 bd
       0.0005448397 0.009269714 -0.044769127 -0.031958915
000250 ab 57 18 3d 7a 0b b0 3a b2 b9 0e bd 2c 37 cf 3c
       0.03719298 0.0013431155 -0.03484506 0.025294863
000260 10 2d 1d bc 00 11 5b 39 46 73 b3 3c d8 5e 41 3c
       -0.009593263 0.000208918 0.021905553 0.011802398
000270 8b f0 0a bd 88 d7 cf 3b 2f 50 0c 3d c0 e0 05 bb
       -0.033920806 0.006342832 0.034256157 -0.002042815
000280 96 9e d2 3c ba bc fd 3c 68 79 55 3c 1d da 05 bd
       0.025710385 0.03097378 0.013029434 -0.032678712
000290 7a 77 f8 3c 3e c1 e4 3c b0 a5 2d 3c 10 c7 3e bb
       0.030330408 0.027924176 0.010598585 -0.002911035
0002a0 a6 7e c7 bc e8 66 ff 3b 4c 3b 49 bc d7 c5 01 3d
       -0.024352383 0.00779425 -0.012282204 0.031682815
0002b0 f0 5d 10 bd 10 ca f9 3b 00 97 43 ba bb 7e b9 b9
       -0.035245836 0.0076229647 -0.00074611604 -0.0003538037
0002c0 d3 58 1a 3b 9b 6f c0 3c d3 83 d2 bc ff 81 fe 3b
       0.0023551479 0.023490718 -0.025697624 0.0077669616
0002d0 93 26 ee bc 73 dd 88 3c 0c 0e b8 3b 06 1a f8 3b
       -0.029071128 0.016707158 0.005616909 0.0075714616
0002e0 e9 52 7b 3c d1 d0 89 bc 55 47 9c bc 0b af 81 bb
       0.015339592 -0.016823204 -0.019076983 -0.0039576343
0002f0 9f 6f 0c 3d fc 1f 08 bd 1f 50 cb 3c f4 38 f6 38
       0.034286138 -0.033233628 0.024818478 0.000117408024
000300 ca 3b 84 3c 0d 80 aa 3c 54 9d 85 bc 42 9f db bc
       0.01614179 0.020813012 -0.016310371 -0.026809338
000310 4f 1b 84 3c 81 0b d0 3c 53 19 21 3c 3c 9e 53 bc
       0.016126303 0.02539611 0.009832698 -0.012916144
000320 8a 79 72 3b 9b 81 71 3c 35 e2 36 3c 79 52 90 bc
       0.0036998712 0.014740373 0.01116233 -0.017617451
000330 18 04 d0 3c 6a ca 94 bb 51 f8 66 bc d8 0e 31 bc
       0.025392577 -0.004540731 -0.014097289 -0.010806762
000340 22 e0 a0 3b e7 6c 97 bc 28 a7 d8 bc fa d3 9b 3c
       0.004909531 -0.018484546 -0.026446894 0.019021977
000350 34 6a e6 3c 5a 7f 11 bd b2 67 e0 3c cb de a4 bc
       0.028126813 -0.035521843 0.027393196 -0.020125767
000360 10 5f 21 3c 47 8d 07 3d 7d 70 af bc dc ba 55 bc
       0.009849325 0.033093717 -0.021415943 -0.013045039
000370 86 41 2a 3c e6 84 b3 bc 90 ec 5d bc f9 11 f1 bc
       0.010391599 -0.021913957 -0.01354517 -0.029427515
000380 64 36 83 3b 31 e0 09 3d 77 26 8c 3c c6 be 0b ba
       0.0040042866 0.03366107 0.017108185 -0.00053308567
000390 13 fe 22 3d eb d9 15 3d 74 9f 38 bc c6 5a ef 3c
       0.039793085 0.036584776 -0.011268485 0.029218089
0003a0 b2 bd 62 3b 98 4f c9 3c e2 0e 8c 3c 70 fc 4d 3c
       0.003459793 0.024574086 0.01709694 0.012572393
0003b0 10 c5 82 bc 2e 2e 0c bc 2b 5a 0f bc 6e 86 5a bc
       -0.015963107 -0.008555932 -0.008749525 -0.013337715
0003c0 22 77 47 bc 9a 54 94 3c 10 f7 e6 3c 32 04 eb 3c
       -0.0121744 0.018106747 0.02819398 0.028688524
0003d0 10 22 3a 3d 81 e8 cb 3c d2 c9 05 3d b6 89 0e 3d
       0.04544264 0.02489114 0.032663174 0.0347993
0003e0 66 cf 89 3c 61 98 be 3c 23 89 ac bc e0 80 49 bb
       0.016822528 0.02326602 -0.021061486 -0.0030746982
0003f0 79 8f de ba 67 e4 07 bd 2c b5 be 3c e7 9b 56 bc
       -0.0016980014 -0.033176806 0.023279749 -0.013098693
