Super-Resolution_CNN/SRCNN_torch/SRCNN_model_psnr23.7.pth (torch, 112176 bytes, 5 tensors)

weight f4 [128, 1, 11, 11]
-0.008547909 0.033641975 -0.08911052 -0.07816362 -0.024720008 0.04690674 0.01686905 0.06464126
-0.029615995 0.016181137 -0.013488214 -0.030749667 -0.10461303 -0.076710165 -0.047803413 0.012763298
0.049232155 0.059227157 -0.08397655 -0.07441565 0.016473262 0.087747075 -0.017336149 0.06390364
-0.016900966 0.020387309 0.10667529 -0.066621654 -0.054315496 -0.04492993 -0.06892751 0.06388304
-0.04809725 -0.038228855 -0.05851766 -0.07525666 -0.03035008 0.10413133 0.05552942 0.046725277
-0.0119881965 -0.074296325 0.0025560597 -0.080616266 -0.06524933 -0.03864494 0.07410494 0.07750343
-0.018501768 0.010295467 0.06602288 0.08406863 0.019699996 0.0048450506 0.06142771 -0.064750716
0.01415905 -0.06251399 -0.05632219 -0.03787282 0.048297957 0.045342617 -0.055196896 0.01632668
0.045667596 -0.014040724 -0.013048025 0.009952272 0.056493193 0.08759723 -0.057493843 -0.017158397
0.05252142 0.07879213 0.07023217 0.07891008 0.019447768 -0.096793026 -0.0044467854 -0.05877856
-0.08279971 0.096958876 0.08392876 -0.07933575 0.010873097 -0.03257772 -0.021559168 -0.04135074
0.02695809 -0.054544844 0.04024171 0.058895458 0.08967811 0.051295508 -0.0774148 -0.062388994
0.03573614 0.0234361 -0.059313934 -0.055633433 0.091361016 0.07211272 -0.028125431 -0.006164321
-0.080628924 0.0034813972 -0.07147285 -0.07318342 0.0036746007 0.029460419 -0.038889483 0.06555567
-0.038941666 0.09883395 0.07869066 -0.07342377 -0.016688246 0.007945202 0.019596722 0.036673736
0.05354525 -0.05644556 -0.10636906 -0.020499103 -0.14460504 -0.11060021 -0.122920275 -0.10032455
-0.09196772 -0.13606848 -0.080309786 -0.03894879 -0.11078375 -0.057090156 0.0069127437 -0.060723215
-0.050630312 -0.11385571 -0.059428006 -0.023703625 0.0025743644 -0.025910147 0.004082731 -0.09728026
-0.17564458 -0.15131153 -0.042073824 -0.10615554 -0.19186701 -0.18759175 -0.20184219 -0.19612485
-0.1384963 -0.06893787 -0.02942331 -0.16545217 -0.06896516 -0.1883116 -0.10393658 -0.091367126
-0.10387182 -0.11040742 -0.18648112 -0.18859816 -0.12153203 -0.03842769 -0.060697813 0.042112008
-0.04511672 0.0568829 0.16761237 0.0035732433 0.099991895 0.029654292 -0.091233075 0.026693754
-0.025056142 -0.048402596 0.07002164 -0.056788277 0.048494164 0.057325233 0.07537346 0.02774826
0.04127696 0.059689555 -0.018321026 -0.03633646 -0.089384325 0.035312105 0.07578546 0.08693761
-0.0013284222 0.0059812907 -0.06543612 -0.052363575 -0.024195397 0.03393459 -0.07134317 -0.020821081
-0.01895384 0.051104896 -0.056441892 -0.011818341 -0.05613593 0.06397223 -0.028355438 0.11110265
0.03575274 -0.0021617173 -0.018657414 -0.04140054 0.0021823654 -0.011326415 0.046463396 0.0109935235
-0.062354352 -0.032672986 0.11359601 -0.07323254 -0.01640508 0.07607896 0.014484233 -0.0020481166
-0.06652978 0.09245935 -0.061187044 -0.011793644 -0.012900541 0.0236981 -0.0065153637 0.059064306
-0.008978994 0.05535608 0.041458156 -0.05818627 0.071243346 -0.075742245 -0.04130746 0.024092305
0.045254063 0.041359276 -0.011351737 0.04196319 0.08677139 -0.042171422 0.07679436 -0.07111768
0.010319883 0.0039153625 -0.028116152 0.024724985 0.09124916 -0.018416848 -0.026893103 -0.015726455
00000000: 870c 0cbc 2bcc 093d 947f b6bd 3f14 a0bd
00000010: 9d81 cabc 4821 403d f630 8a3c a362 843d
00000020: 3e9d f2bc 4e8e 843c acfd 5cbc bae6 fbbc
00000030: 5b3f d6bd 381a 9dbd 83cd 43bd 271d 513c
00000040: a8a7 493d 2d98 723d e6fb abbd 3b67 98bd
00000050: eff2 863c bdb4 b33d 8a04 8ebc e9df 823d
00000060: e573 8abc 4903 a73c 9378 da3d ef70 88bd
00000070: ed79 5ebd 7208 38bd de29 8dbd 1cd5 823d
00000080: 9f01 45bd dc95 1cbd 37b0 6fbd 2a20 9abd
00000090: bba0 f8bc cf42 d53d d172 633d 0163 3f3d
000000a0: 246a 44bc ac28 98bd 9183 273b 241a a5bd
000000b0: 71a1 85bd 284a 1ebd 55c4 973d 1eba 9e3d
000000c0: 0591 97bc 52ae 283c 0137 873d 2d2c ac3d
000000d0: e361 a13c 3bc3 9e3b 9f9b 7b3d 069c 84bd
000000e0: 5cfb 673c 5607 80bd 19b2 66bd 8820 1bbd
000000f0: 14d4 453d 2eb9 393d 2416 62bd 88bf 853c
00000100: f20d 3b3d 110b 66bc 62c7 55bc db0e 233c
00000110: 6865 673d 2d66 b33d aa7e 6bbd c48f 8cbc
00000120: b320 573d c55d a13d e2d5 8f3d 9c9b a13d
00000130: ed50 9f3c 6c3b c6bd 57b6 91bb cac1 70bd
00000140: e592 a9bd 6092 c63d d7e2 ab3d c87a a2bd
00000150: 1325 323c 3770 05bd da9c b0bc 655f 29bd
00000160: 36d7 dc3c 6a6a 5fbd 7ed4 243d 5d3c 713d
00000170: 28a9 b73d 3d1b 523d a78b 9ebd 9a8b 7fbd
00000180: 0f60 123d 10fd bf3c 2bf3 72bd e2df 63bd
00000190: 7c1b bb3d d5af 933d 4e67 e6bc 13fe c9bb
000001a0: c720 a5bd 2728 643b 5c60 92bd 30e1 95bd
000001b0: 92d1 703b fa56 f13c 944a 1fbd 0d42 863d
000001c0: 4c81 1fbd 7469 ca3d 9228 a13d 345f 96bd
000001d0: cab5 88bc 982c 023c 4e89 a03c 3337 163d
000001e0: 4452 5b3d 7633 67bd 06d8 d9bd bced a7bc
000001f0: 5813 14be 5d82 e2bd a0bd fbbd f576 cdbd
00000200: 9259 bcbd 8955 0bbe 7579 a4bd c488 1fbd
00000210: 97e2 e2bd 5ed7 69bd 4c84 e23b e8b8 78bd
00000220: bb61 4fbd 2f2d e9bd c86a 73bd 1b2e c2bc
00000230: abb6 283b 8441 d4bc 6ec8 853b df3a c7bd
00000240: 2cdc 33be 69f1 1abe 9a55 2cbd 1368 d9bd
00000250: c978 44be 0d18 40be b8af 4ebe f4d4 48be
00000260: f9d1 0dbe 4c2f 8dbd 2709 f1bc 4b6c 29be
00000270: 9b3d 8dbd c2d4 40be b4dc d4bd b01e bbbd
00000280: c0ba d4bd 491d e2bd e8f4 3ebe e01f 41be
00000290: c9e5 f8bd 5a66 1dbd 459e 78bd a47d 2c3d
000002a0: 4fcc 38bd 0bfe 683d 94a2 2b3e 132d 6a3b
000002b0: 8dc8 cc3d 8fed f23c 68d8 babd dcac da3c
000002c0: 8a42 cdbc cd41 46bd 8167 8f3d d39a 68bd
000002d0: d1a1 463d ddcd 6a3d 675d 9a3d 5250 e33c
000002e0: 0812 293d 097d 743d fa15 96bc 8ad5 14bd
000002f0: 210f b7bd 6da3 103d 6835 9b3d 580c b23d
00000300: 741e aeba b4fe c33b 5f03 86bd 307b 56bd
00000310: 6d35 c6bc fffe 0a3d 5e1c 92bd f990 aabc
00000320: 1545 9bbc 5e53 513d 9d2f 67bd b7a1 41bc
00000330: caee 65bd df03 833d aa49 e8bc c989 e33d
00000340: 7771 123d 99ab 0dbb 6fd7 98bc 9d93 29bd
00000350: 0406 0f3b 6e92 39bc 6750 3e3d 2e1e 343c
00000360: 4767 7fbd 1cd4 05bd 06a5 e83d f1fa 95bd
00000370: f263 86bc 49cf 9b3d 474f 6d3c b239 06bb
00000380: c440 88bd 545b bd3d 449f 7abd 213a 41bc
00000390: ca5c 53bc 8522 c23c d57e d5bb 6aed 713d
000003a0: a11c 13bc 0fbd 623d 07d0 293d ba54 6ebd
000003b0: 08e8 913d c01e 9bbd 0332 29bd 3a5d c53c
000003c0: 535c 393d 5868 293d a3fc 39bc 98e1 2b3d
000003d0: 33b5 b13d f1bb 2cbd 5d46 9d3d 25a6 91bd
000003e0: ba14 293c 714c 803b d853 e6bc 0d8c ca3c
000003f0: d7e0 ba3d eede 96bc ed4e dcbc c4d4 80bc

bias f4 [128]
-0.042476945 0.06787015 -0.07015966 0.006218449 -0.0017783984 0.018435176 0.024949798 7.55029e-05
0.048249546 0.009790136 0.04889342 -0.043327585 -0.012838745 -0.032294758 -0.052426226 -0.008238185
0.0018689347 0.033457674 -0.03430725 -0.011231232 -0.014517148 0.032035407 0.020716513 -0.015099053
0.018657474 0.03239351 0.04639548 -0.0018698324 0.05278339 -0.040594827 0.07812054 -0.060799964
-0.034316815 -0.055054672 -0.04147913 0.034856513 0.063519515 0.06530447 0.060049307 -0.01796944
0.0010183699 0.01742212 -0.087466285 -0.027476136 -0.012232759 -0.0099161435 -0.021279966 0.029444829
-0.03747821 -0.042603336 0.03615158 -0.0025421558 -0.049037326 -0.03295393 -0.040231388 0.013724978
-0.026097847 -0.025779521 -0.042949192 -0.07738815 0.03548626 -0.008059805 0.02309027 -0.03767743
0.01322051 0.06872706 0.016530378 0.07269554 0.08183082 0.030646862 0.06947957 0.0016531323
-0.07149419 -0.007224632 0.034967043 0.05708596 0.048356656 0.041064203 0.015337848 0.0050057694
0.020171503 -0.0019343332 0.050233223 -0.03534567 0.04141736 -0.07336809 -0.038785294 -0.012209944
0.06481767 -0.021141194 -0.050508223 0.05516951 -0.008705192 0.030004606 0.021482276 0.09006467
0.025727948 -0.0049975887 0.044409238 -0.009627185 0.064261876 0.090205476 -0.0030567683 -0.019905517
-0.03524732 0.07906309 -0.050573222 0.029697811 0.038983252 0.048313342 -0.072160766 0.05679475
0.030089721 -0.025250535 -0.040109377 0.0075674164 0.07824339 0.07402368 0.04557201 0.10396352
0.022402706 0.01800933 0.0375031 0.042663272 0.09500652 -0.042454824 -0.0070132567 -0.009827514
00000000: 4efc 2dbd 81ff 8a3d deaf 8fbd 22c4 cb3b
00000010: 2619 e9ba 5e05 973c 8563 cc3c 5057 9e38
00000020: 51a1 453d ce66 203c 7744 483d 4478 31bd
00000030: 9959 52bc 8247 04bd e2bc 56bd 74f9 06bc
00000040: 0bf7 f43a ea0a 093d c285 0cbd 3403 38bc
00000050: 55d9 6dbc 8f37 033d adb5 a93c 0562 77bc
00000060: 8fd7 983c 0faf 043d 3009 3e3d 2a15 f5ba
00000070: 6533 583d c346 26bd a9fd 9f3d 6209 79bd
00000080: ca8f 0cbd 0281 61bd 05e6 29bd b4c5 0e3d
00000090: 8516 823d 5abe 853d 43f6 753d a634 93bc
000000a0: d37a 853a d5b8 8e3c 8621 b3bd a215 e1bc
000000b0: e96b 48bc 5277 22bc 5353 aebc 4836 f13c
000000c0: c082 19bd d680 2ebd ae13 143d 4c9a 26bb
000000d0: 5ddb 48bd b3fa 06bd abc9 24bd bbde 603c
000000e0: 27cb d5bc 932f d3bc 7eeb 2fbd ae7d 9ebd
000000f0: 0a5a 113d 460d 04bc ce27 bd3c a653 1abd
00000100: d79a 583c c6c0 8c3d b76a 873c 66e1 943d
00000110: eb96 a73d 210f fb3c 4e4b 8e3d eaad d83a
00000120: 8c6b 92bd 9bbc ecbb 9a39 0f3d f8d2 693d
00000130: a111 463d f032 283d 994b 7b3c 7007 a43b
00000140: b53e a53c 7489 fdba 5ac1 4d3d 9fc6 10bd
00000150: 40a5 293d 0242 96bd 54dd 1ebd 380c 48bc
00000160: 20bf 843d 4c30 adbc b6e1 4ebd 6df9 613d
00000170: 39a0 0ebc 38cc f53c 99fb af3c d373 b83d
00000180: 6bc3 d23c d0c2 a3bb 76e6 353d 57bb 1dbc
00000190: bb9b 833d a6bd b83d 1054 48bb e510 a3bc
000001a0: 7e5f 10bd d4eb a13d de25 4fbd d348 f33c
000001b0: e7ac 1f3d 36e4 453d 06c9 93bd 9da1 683d
000001c0: b87e f63c 36da cebc bb49 24bd 17f8 f73b
000001d0: 123e a03d ba99 973d b7a9 3a3d d3ea d43d
000001e0: e185 b73c 4d88 933c da9c 193d afbf 2e3d
000001f0: c792 c23d 1ce5 2dbd 76cf e5bb 9503 21bc

weight f4 [64, 128, 1, 1]
-0.13633953 -0.055822294 0.1611339 -0.01861989 0.032369196 0.18588348 -0.20252782 -0.10104721
-0.06169368 -0.09435421 -0.06576706 0.20125763 -0.043244485 -0.12021257 0.11298747 -0.13509898
0.026834782 -0.04203861 0.14282337 -0.08637538 0.013318163 -0.096892856 -0.0010354554 -0.14658585
0.13526894 0.062421333 -0.107524015 -0.14110827 0.10024486 0.05226057 -0.050599717 -0.022847125
-0.17231794 -0.047408193 0.06176948 0.01674678 0.09044277 -0.014088182 -0.053268302 -0.06350105
0.10960709 0.06935796 0.13249093 0.057707224 -0.06849425 -0.045003586 -0.07202168 0.061983712
0.1497852 0.013544785 0.007146974 -0.1313452 0.086224385 -0.23954615 0.14185698 -0.12582852
0.0017206103 0.095435746 0.058312953 -0.018272871 -0.078968935 0.053546526 -0.021630216 -0.033961948
0.03554271 0.028009575 -0.08140424 -0.0577141 -0.113094784 0.0041693617 0.09697155 0.046714906
0.036536593 -0.078385 0.03946527 0.15035893 -0.05829652 0.024160001 0.02521285 0.1198864
0.08449682 -0.068105176 -0.10169444 -0.013416195 -0.010396605 -0.09961611 0.10738098 0.06661749
-0.024222283 -0.087779336 0.1395015 -0.084628 0.12403414 -0.032574255 -0.12791663 0.09708557
-0.012329272 -0.014774245 0.027710902 -0.06326386 0.075846665 -0.03905144 -0.024392013 0.08077999
0.16862771 -0.08429323 0.055921834 0.06378057 0.1885391 -0.036892045 0.07839341 0.0019077812
0.021234456 -0.010031827 -0.048811533 -0.14754423 0.013714774 -0.022079788 -0.06395416 -0.07679814
0.13209592 0.002784294 0.21560779 0.04269583 0.025546232 0.18623418 -0.040901437 0.13354507
-0.03571811 -0.045418598 -0.06275752 -0.012458295 0.0070232926 0.107872784 0.078806065 0.058803238
0.021353899 0.02820569 0.0016403643 -0.07290901 0.04889814 -0.077158585 0.014597225 -0.010319293
0.084894165 -0.06927979 -0.02650537 0.09815653 -0.040726125 0.022771278 -0.079033956 -0.03299361
-0.01614866 0.0055641662 0.012526239 0.05434638 0.010311293 -0.046063893 -0.07278348 -0.012697419
0.08914755 -0.06921011 -0.014994932 -0.051781192 -0.07497409 0.066430114 -0.010037754 0.053957473
0.069799446 0.054395515 -0.06823235 -0.017778039 0.0908969 0.04322929 -0.03158703 0.07769549
0.030417666 -0.062149774 0.010833579 -0.054989573 0.024686536 0.12855327 0.10961215 0.011090465
-0.015870148 0.039371774 -0.029700639 0.09335793 0.1045066 -0.045630172 -0.038303252 0.016910981
0.02013434 -0.015788151 -0.0964465 0.05842707 0.058921933 0.046609152 -0.07006463 -0.019670803
-0.021330116 -0.06600276 0.0882782 0.08274225 -0.06341388 -0.012295583 0.050681923 0.08539784
0.10229215 -0.029946072 0.0022740324 -0.041335333 -0.078519166 0.15801647 0.006858482 -0.011791686
0.0402333 0.055873223 0.023605378 0.011233317 -0.0024966102 0.054730024 -0.067771025 -0.07381172
0.077800475 0.013306807 -0.026489709 0.035810523 0.06768146 0.035395976 -0.033315375 0.11304914
0.08038402 0.079506256 0.032924257 0.08939289 0.034550767 -0.031454388 0.051486947 0.0015068266
0.023638953 0.08711171 -0.094447635 -0.08696184 0.090990864 0.01382909 0.073655024 0.022326527
0.0555144 -0.0015604972 0.08752336 0.07663388 0.032724496 -0.00058479875 0.06911685 0.04682475
00000000: 979c 0bbe eba5 64bd 4900 253e bd88 98bc
00000010: 9095 043d 3d58 3e3e 7463 4fbe d7f1 cebd
00000020: 83b2 7cbd c83c c1bd e1b0 86bd 7b16 4e3e
00000030: 2121 31bd 0232 f6bd fa65 e73d 6357 0abe
00000040: 9ed4 db3c ad30 2cbd 4a40 123e 93e5 b0bd
00000050: 6d34 5a3c c36f c6bd 1eb8 87ba 9a1a 16be
00000060: f183 0a3e 83ad 7f3d 8d35 dcbd b07e 10be
00000070: 2d4d cd3d 2e0f 563d a641 4fbd e529 bbbc
00000080: 1d74 30be 182f 42bd ff01 7d3d 8b30 893c
00000090: 0f3a b93d 1ed2 66bc dd2f 5abd d70c 82bd
000000a0: af79 e03d 8c0b 8e3d b4ab 073e 695e 6c3d
000000b0: b746 8cbd ae55 38bd 1a80 93bd a2e2 7d3d
000000c0: 4b61 193e f2ea 5d3c 2a31 ea3b 5b7f 06be
000000d0: 6996 b03d 964b 75be f542 113e 31d9 00be
000000e0: 1a86 e13a d173 c33d 90d9 6e3d fdb0 95bc
000000f0: 77ba a1bd 9a53 5b3d da31 b1bc af1b 0bbd
00000100: 3c95 113d 5674 e53c 44b7 a6bd 9f65 6cbd
00000110: 3d9e e7bd 249f 883b 0599 c63d 2158 3f3d
00000120: 65a7 153d 5188 a0bd 56a6 213d b1f7 193e
00000130: 55c8 6ebd 32eb c53c 2e8b ce3c 0087 f53d
00000140: ab0c ad3d ba7a 8bbd 2d45 d0bd 9acf 5bbc
00000150: 8656 2abc 8803 ccbd 8fea db3d c06e 883d
00000160: cf6d c6bc a7c5 b3bd 7bd9 0e3e 7251 adbd
00000170: 9c05 fe3d 956c 05bd 94fc 02be cdd4 c63d
00000180: b700 4abc ad0f 72bc f901 e33c 7c90 81bd
00000190: 7f55 9b3d 67f4 1fbd c2d1 c7bc fb6f a53d
000001a0: beac 2c3e eea1 acbd 4b0e 653d 639f 823d
000001b0: 6510 413e 1d1c 17bd b98c a03d 840e fa3a
000001c0: e2f3 ad3c 885c 24bc 9aee 47bd d615 17be
000001d0: eeb3 603c ace0 b4bc 66fa 82bd 5848 9dbd
000001e0: 2744 073e b478 363b 4ac8 5c3e d3e1 2e3d
000001f0: 5546 d13c 2cb4 3e3e 4488 27bd 0ac0 083e
00000200: 274d 12bd da08 3abd 0487 80bd e01d 4cbc
00000210: a623 e63b 68ec dc3d 1365 a13d aadb 703d
00000220: 5fee ae3c 9f0f e73c 7e01 d73a 5251 95bd
00000230: 6b49 483d 5205 9ebd 3329 6f3c 4012 29bc
00000240: fedc ad3d 90e2 8dbd ca21 d9bc 4a06 c93d
00000250: 70d0 26bd d58a ba3c 8edc a1bd 4f24 07bd
00000260: 324a 84bc 9c53 b63b db3a 4d3c 4f9a 5e3d
00000270: b3f0 283c 7ead 3cbd 810f 95bd d608 50bc
00000280: fe92 b63d 08be 8dbd 4ead 75bc 8418 54bd
00000290: 048c 99bd 830c 883d 6475 24bc 8302 5d3d
000002a0: 03f3 8e3d d5cd 5e3d 67bd 8bbd 40a3 91bc
000002b0: 2728 ba3d 3211 313d 6761 01bd d01e 9f3d
000002c0: 782e f93c c390 7ebd 537f 313c bf3c 61bd
000002d0: 6b3b ca3c 78a3 033e 567c e03d c8b4 353c
000002e0: 1d02 82bc 4c44 213d c14e f3bc 7132 bf3d
000002f0: 8e07 d63d b4e6 3abd dfe3 1cbd e688 8a3c
00000300: c5f0 a43c 2756 81bc be85 c5bd 3951 6f3d
00000310: 2058 713d 3de9 3e3d 0b7e 8fbd aa24 a1bc
00000320: 7fbc aebc 742c 87bd 33cb b43d c574 a93d
00000330: 23df 81bd 6a73 49bc d997 4f3d 10e5 ae3d
00000340: 8c7e d13d 7751 f5bc ef07 153b 3d4f 29bd
00000350: a8ce a0bd 12cf 213e 1ebd e03b ea31 41bc
00000360: accb 243d 52db 643d 1160 c13c f20b 383c
00000370: 2b9e 23bb 972c 603d 89cb 8abd 992a 97bd
00000380: db55 9f3d cb04 5a3c f200 d9bc 0eae 123d
00000390: 949c 8a3d 5ffb 103d b475 08bd 4f86 e73d
000003a0: 61a0 a43d 2dd4 a23d 96db 063d 9f13 b73d
000003b0: 1b85 0d3d 51d6 00bd fae3 523d b680 c53a
000003c0: 7aa6 c13c a067 b23d c36d c1bd 0d19 b2bd
000003d0: 6b59 ba3d 6893 623c 72d8 963d 1fe6 b63c
000003e0: 1163 633d 9989 ccba 733f b33d 39f2 9c3d
000003f0: 1f0a 063d 2e4d 19ba 238d 8d3d 4fcb 3f3d

bias f4 [64]
0.061242282 -0.065908365 0.08487623 -0.0030504002 0.062588505 0.04323729 -0.041386463 -0.05659288
0.037143573 0.07664818 -0.02228796 0.048155915 0.081380375 -0.020147245 0.088038824 -0.017950773
-0.006156777 0.062726915 -0.031284053 0.052436396 -0.0011475418 0.012986705 -0.04455807 0.014092657
-0.011069946 0.08242616 -0.066290595 0.06090879 0.041354723 0.073629275 -0.046764784 -0.031760156
-0.079341896 0.072564535 -0.014248474 0.066528656 -0.029166523 0.064453855 0.021454994 0.027934264
0.07144503 -0.021686414 0.024439912 -0.03078883 0.022956425 0.033279143 0.042224344 -0.00065212423
0.047357377 -0.04059806 -0.045156177 -0.023412947 0.051117666 -0.06904738 -0.036068834 -0.06113087
0.053570326 -0.018328153 0.07272156 -0.0695077 -0.0047604716 -0.028842933 0.030895684 0.0811958
00000000: 30d9 7a3d f7fa 86bd 97d3 ad3d 39e9 47bb
00000010: 672e 803d 9619 313d da84 29bd f0cd 67bd
00000020: dc23 183d b9f9 9c3d 3d95 b6bc 233f 453d
00000030: c1aa a63d d60b a5bc b34d b43d 800d 93bc
00000040: cabe c9bb f876 803d b523 00bd 8cc7 563d
00000050: 1d69 96ba 30c6 543c 8682 36bd e3e4 663c
00000060: b85e 35bc 0ccf a83d 5dc3 87bd 7f7b 793d
00000070: 9263 293d f2ca 963d 6e8c 3fbd f016 02bd
00000080: 017e a2bd b79c 943d 6e72 69bc 2d40 883d
00000090: a2ee eebc 6200 843d 62c2 af3c 66d6 e43c
000000a0: c651 923d b5a7 b1bc 3636 c83c db38 fcbc
000000b0: 1d0f bc3c b64f 083d 6ff3 2c3d 51f3 2aba
000000c0: cff9 413d 274a 26bd aff5 38bd 82cc bfbc
000000d0: c260 513d b668 8dbd eabc 13bd 5d64 7abd
000000e0: 8f6c 5b3d ec24 96bc 0bef 943d 0e5a 8ebd
000000f0: bbfd 9bbb 0448 ecbc f218 fd3c fc49 a63d

weight f4 [1, 64, 7, 7]
0.011971608 0.0072945054 0.010252838 -0.01301742 0.00037367994 -0.015307952 -0.010642398 -0.0027982176
0.025831511 0.010701917 -0.008651195 -0.004650258 -0.021181663 0.004291477 0.013266081 0.024318356
0.012308587 -0.013298946 -0.007855006 0.010863556 -0.010040981 0.019826038 0.01579801 0.020084003
0.018061703 -0.008872307 0.0061177774 0.004477796 -0.015378846 0.018527506 0.0068889298 -0.014452331
-0.010624367 -5.3162552e-05 -0.015314113 -0.019500753 -0.004443293 -0.019391673 -0.0051279366 0.013293272
-0.01312905 0.008185044 -0.020251218 -0.005149522 0.0111999065 -0.015792672 -0.01884213 -0.0035884029
0.002339366 0.008135507 0.0003898533 0.017138591 0.012676838 -0.0069993204 -0.011376233 0.011953127
0.0038081508 0.0006445027 -0.0022771428 0.008253105 -0.007836312 0.011802444 0.0141419545 0.017852334
0.009458356 0.004176295 -0.010216384 -0.004621743 -0.010429078 -0.0054660104 0.010748227 0.015273499
-0.008905701 -0.017558714 0.011765966 -0.008627622 -0.004035926 0.0081243105 0.005904038 0.0013922345
0.016939297 -0.015938217 -0.007388985 -0.00071418186 -0.0031536177 0.018123012 0.00139787 0.005008828
-0.0037277604 0.003183848 -0.011058749 0.005443921 -0.0048376215 -0.011062374 0.018265149 0.0030507424
0.006672606 -0.005584265 0.0024364542 -0.013973905 0.002586738 -0.0019505336 -0.0024812694 0.007244966
-0.012102357 0.012400064 0.008958173 0.0025724298 0.010403721 -0.012717188 0.01727135 -0.0035312243
-0.009909007 -0.00035450686 0.00020273769 0.0042272764 -0.0025764443 0.0061615948 0.0050428105 -0.0044638887
-0.014052208 -0.017266808 0.016937265 -0.009927335 -0.0032184806 0.009401395 -0.012123429 -0.011934701
0.0019082631 0.0014538112 0.016170546 -0.016903589 0.00014600702 -0.013114066 0.014073649 -0.008182941
0.012168017 -0.014848856 0.017258704 -0.012192126 -0.0030424497 -0.0044020056 0.00038711424 0.010116424
-0.013806906 0.005243692 0.010309735 0.030938108 0.013818652 0.0031787155 -0.026592793 -0.025363002
-0.0154229645 0.009386198 0.026949879 0.0007782651 0.005449611 -0.014982053 -0.0069604637 -0.014181982
-0.0030282708 -0.00704906 -0.008717547 0.0034594068 0.0059382226 0.010036223 0.011450739 0.004160149
-0.010050466 0.0053440286 -0.017914094 -0.0089789005 -0.0062438226 -0.0005871264 -0.008447285 -0.019990465
0.016387088 0.018510437 -0.0010061648 -0.0074833087 0.000235387 0.0147196585 0.0051266644 -0.0034925544
0.005386979 0.018958911 0.015075643 -0.010423285 -0.012659805 -0.005457748 0.0049458677 0.020866493
-0.014540503 -0.021162488 -0.009727437 -0.019474136 0.01868306 -0.0043468964 0.0010284663 -0.016122568
-0.011946121 0.011966907 -0.0067572496 -0.013753535 -0.0117102275 -0.011084922 0.010066706 0.011174017
0.002681665 0.009932341 0.0137394015 0.0059011905 0.0006755073 0.0061137863 0.017155353 0.00969982
-0.004425226 0.017395878 -0.0027062593 0.005394182 -0.0050495863 0.014942826 0.01645081 0.015147937
-0.010354113 -0.014873381 -0.015960677 0.006084648 0.017749222 -0.008449467 -0.005672633 -0.004791225
-0.017838936 0.010713592 0.00080596976 0.011206187 -0.008220925 -0.011651942 -0.011654961 -0.017320447
-0.01673522 0.013600191 -0.0070800376 0.0094864685 0.011265814 -0.0064417496 -0.010232608 -0.011884547
0.009690165 0.016924176 0.006041348 -0.0069112205 0.012964866 0.017268833 -0.00010933495 0.0045162453
00000000: 9024 443c bf06 ef3b 85fb 273c 0447 55bc
00000010: 79ea c339 34ce 7abc 745d 2ebc 4d62 37bb
00000020: 9b9c d33c 1857 2f3c bebd 0dbc 3161 98bb
00000030: 2b85 adbc 859f 8c3b fa59 593c 4a37 c73c
00000040: f5a9 493c d3e3 59bc 48b2 00bc 0efd 313c
00000050: ed82 24bc 376a a23c d46a 813c 3587 a43c
00000060: 23f6 933c 275d 11bc a377 c83b 7aba 923b
00000070: 8ef7 7bbc ffc6 973c 88bc e13b 78c9 6cbc
00000080: d311 2ebc dbfa 5eb8 0ce8 7abc 0bc0 9fbc
00000090: 0b99 91bb 49db 9ebc 4008 a8bb 06cc 593c
000000a0: 3a1b 57bc 901a 063c e2e5 a5bc 52bd a8bb
000000b0: d07f 373c a25f 81bc d05a 9abc 692b 6bbb
000000c0: 0c50 193b ca4a 053c 3965 cc39 3b66 8c3c
000000d0: 83b2 4f3c 8e5a e5bb 6163 3abc 0cd7 433c
000000e0: 2b92 793b d8f3 283a 1e3c 15bb 0838 073c
000000f0: e063 00bc 0a5f 413c a8b3 673c 0f3f 923c
00000100: 38f7 1a3c 4dd9 883b 9f62 27bc fe71 97bb
00000110: b9de 2abc 381c b3bb 5519 303c b33d 7a3c
00000120: 38e9 11bc 4bd7 8fbc 0ac6 403c df5a 0dbc
00000130: cd3f 84bb d41b 053c a976 c13b a37b b63a
00000140: 48c4 8a3c dd90 82bc 4c1f f2bb ef37 3bba
00000150: edac 4ebb b676 943c bc38 b73a 1821 a43b
00000160: 714d 74bb 1ba8 503b c12f 35bc eb62 b23b
00000170: e984 9ebb f63e 35bc cba0 953c f7ee 473b
00000180: e0a5 da3b 36fc b6bb ebac 1f3b cef2 64bc
00000190: 4386 293b 0ca9 ffba cb9c 22bb 2e67 ed3b
000001a0: f748 46bc a329 4b3c 4dc5 123c 3696 283b
000001b0: 5e74 2a3c c15b 50bc a57c 8d3c 1d6c 67bb
000001c0: 6359 22bc 1bdd b9b9 fc95 5439 f784 8a3b
000001d0: 90d9 28bb 34e7 c93b 293e a53b d045 92bb
000001e0: 3b3b 66bc 1f73 8dbc 05c0 8a3c 43a6 22bc
000001f0: 25ed 52bb 4f08 1a3c 59a1 46bc c489 43bc
00000200: af1e fa3a cf8d be3a 1878 843c 6579 8abc
00000210: 7619 1939 61dc 56bc 2a95 663c be11 06bc
00000220: 5d5c 473c 9e48 73bc 2062 8d3c 7cc1 47bc
00000230: d663 47bb b33e 90bb 98f5 ca39 5cbf 253c
00000240: 5c36 62bc 47d3 ab3b 2aea 283c ea71 fd3c
00000250: a167 623c ff51 503b 21d9 d9bc 12c6 cfbc
00000260: 9ab0 7cbc 91c8 193c fec5 dc3c 7d04 4c3a
00000270: a792 b23b 4977 75bc 9a14 e4bb 8b5b 68bc
00000280: f475 46bb cdfb e6bb 0bd4 0ebc 37b7 623b
00000290: 6c95 c23b f86e 243c e19b 3b3c dc51 883b
000002a0: b6aa 24bc f61c af3b 94c0 92bc 3d1c 13bc
000002b0: fb98 ccbb 63e9 19ba 7b66 0abc 0bc3 a3bc
000002c0: 373e 863c 33a3 973c 4ae1 83ba 8b36 f5bb
000002d0: 37d2 7639 b92a 713c 94fd a73b 57e3 64bb
000002e0: 4185 b03b b84f 9b3c d4ff 763c 6dc6 2abc
000002f0: 126b 4fbc e9d6 b2bb f210 a23b 35f0 aa3c
00000300: 4a3b 6ebc f45c adbc d45f 1fbc 3988 9fbc
00000310: 370d 993c 6970 8ebb 9acd 863a 7a13 84bc
00000320: aab9 43bc d910 443c eb6b ddbb 8256 61bc
00000330: 41dc 3fbc 889d 35bc d3ee 243c 3913 373c
00000340: dfbe 2f3b 42bb 223c 3a1b 613c c65e c13b
00000350: 8714 313a 2856 c83b 6289 8c3c feeb 1e3c
00000360: 7c01 91bb cd81 8e3c 7f5b 31bb aec1 b03b
00000370: 0077 a5bb c1d2 743c d9c3 863c 0e2f 783c
00000380: 4ca4 29bc 7baf 73bc f7bf 82bc ba61 c73b
00000390: d166 913c a26f 0abc 7fe1 b9bb b5ff 9cbb
000003a0: f622 92bc 1088 2f3c b747 533a 289a 373c
000003b0: 0fb1 06bc c9e7 3ebc 73f4 3ebc 9ce3 8dbc
000003c0: 4d18 89bc 56d3 5e3c a9ff e7bb 226d 1b3c
000003d0: 4094 383c 5015 d3bb aba6 27bc 67b7 42bc
000003e0: 7fc3 1e3c 92a4 8a3c 80f6 c53b 8577 e2bb
000003f0: 976a 543c 5e77 8d3c c14a e5b8 03fd 933b
