FSRCNN/FSRCNN_torch/FSRCNN_56_12_4_X3_150.pth (torch, 63819 bytes, 22 tensors)

weight f4 [56, 1, 5, 5]
0.08048585 0.016213123 -0.052006118 0.009735532 0.109761626 0.07917475 0.32780918 0.28566056
-0.10845143 0.06911455 -0.15083249 0.26817763 -0.017523449 -0.052430302 -0.1255447 -0.07017721
0.11497857 -0.4828954 0.38497674 -0.018962689 0.012912192 0.25806203 -0.3232496 -0.052728727
-0.056358315 -0.07764066 0.053404573 0.030776972 0.0579309 -0.13449019 0.21837533 0.10764671
-0.19503012 -0.013590382 -0.081019476 0.08533792 -0.13662396 -0.39671057 -0.16269994 0.08052503
-0.051248733 0.16337566 -0.2126849 0.097364224 -0.05333305 -0.13328762 0.17559452 0.097216114
-0.06204476 -0.016402593 -0.07930572 0.007981174 -0.038224056 0.1491214 -0.0088859545 0.08071975
0.04343187 -0.23971269 -0.005323421 0.12660189 -0.06670273 -0.36308643 0.85418326 -0.48719552
0.08000815 0.10644371 0.030089874 -0.23461354 -0.18523313 0.21754114 -0.03384361 -0.08801118
0.08800387 0.047359806 0.024547962 0.015170812 -0.041346762 -0.11918293 0.12576129 -0.031634156
0.049512032 -0.124444045 -0.13870198 -0.041729152 -0.059776776 -0.082727 -0.15998232 -0.38379776
-0.17862675 0.02753605 -0.04292007 -0.024969844 -0.29508564 -0.009190411 0.078474306 -0.00015070947
-0.004643344 0.0746849 -0.03805407 -0.06865031 0.024588507 0.14980683 -0.05994183 -0.041899912
-0.1995036 -0.09799664 -0.11866132 -0.18815818 0.02823119 0.19388413 -0.0003164642 -0.10160239
0.66499466 -0.379309 0.0066317692 0.053577475 -0.2579549 0.06745114 -0.051602714 0.031581655
0.0108388355 0.062485896 0.13626456 -0.18360208 -0.13583691 0.12407204 0.21966477 -0.06630342
0.20179462 0.039352313 -0.10658075 -0.27889523 -0.27313864 0.060632348 -0.21964628 -0.056245364
0.44895908 0.39389944 0.07129553 0.09663561 -0.20924926 -0.231796 -0.15671267 -0.114687674
0.11255851 0.21442021 0.011469687 0.23292828 -0.22942737 -0.078281805 0.3093041 0.07844929
0.29926783 -0.13185026 0.14312997 -0.0933982 -0.29407713 -0.46428037 -0.14940162 -0.13938253
0.1225222 0.05461673 0.4759067 -0.04309208 -0.0039706826 -0.19752191 -0.2634791 0.20749462
0.12758061 0.031107482 0.1418909 -0.04012958 -0.30263695 -0.33154783 0.1723937 -0.12502515
0.030337969 -0.17187557 0.06558512 0.07410813 0.04712003 0.10190584 0.19766513 0.12591365
-0.08957178 -0.009729423 0.10505745 0.32381517 0.1682216 0.1253343 -0.051329352 0.02292606
-0.21156062 0.02711203 0.13326311 -0.014012359 -0.13125844 0.044100843 -0.13194858 -0.0042811097
-0.13657282 0.16284025 0.0055298335 -0.088724196 -0.016233679 0.12014396 0.09817299 -0.08228008
-0.1273495 0.011114462 -0.12534785 -0.08743503 -0.31695527 0.045101218 0.024402441 0.113510564
-0.047679488 -0.22008368 0.17559196 0.117755726 0.0797117 0.009907819 -0.15495096 0.092854835
-0.062330373 0.06326827 0.057913896 0.03865863 -0.15654314 -0.13165577 0.011428041 0.007849535
-0.058132954 0.15473157 -0.08641146 -0.18763019 -0.28734463 -0.45754406 -0.2332374 0.35712996
0.16575103 0.15803343 0.15137193 0.105708204 -0.07543476 -0.16424131 -0.12573335 0.054802507
0.19917944 -0.20712592 -0.06093808 -0.1702737 -0.12329066 0.13884978 0.120290585 -0.08979647
00000000: c4d5 a43d 62d1 843c 5e04 55bd c881 1f3c
00000010: b4ca e03d 5f26 a23d 9bd6 a73e 1a42 923e
00000020: c91b debd ee8b 8d3d d573 1abe 944e 893e
00000030: 568d 8fbc 28c1 56bd ca8e 00be 12b9 8fbd
00000040: e279 eb3d 113e f7be ac1b c53e a457 9bbc
00000050: a98d 533c b520 843e f980 a5be 14fa 57bd
00000060: fad7 66bd 1102 9fbd c1be 5a3d fd1f fc3c
00000070: f448 6d3d ccb7 09be c89d 5f3e e175 dc3d
00000080: fab5 47be 32aa 5ebc 8aed a5bd a6c5 ae3d
00000090: 27e7 0bbe a61d cbbe d09a 26be 4fea a43d
000000a0: 31ea 51bd f34b 273e 12ca 59be e566 c73d
000000b0: c273 5abd 8d7c 08be 0dcf 333e 3e19 c73d
000000c0: a522 7ebd bb5e 86bc 0a6b a2bd 78c3 023c
000000d0: d490 1cbd 48b3 183e 6596 11bc 6550 a53d
000000e0: 9ee5 313d 3e77 75be 1870 aebb eda3 013e
000000f0: 719b 88bd 77e6 b9be c1ab 5a3f b171 f9be
00000100: 50db a33d 29ff d93d 0a7f f63c 883e 70be
00000110: c1ad 3dbe 1bc3 5e3e 999f 0abd 353f b4bd
00000120: 5f3b b43d 5bfc 413d cf18 c93c ff8e 783c
00000130: 395b 29bd 2e16 f4bd 91c7 003e d192 01bd
00000140: 21cd 4a3d 85dc febd e407 0ebe 30ec 2abd
00000150: 7ed8 74bd c66c a9bd 68d2 23be 2481 c4be
00000160: eee9 36be 4893 e13c f5cc 2fbd 8f8d ccbc
00000170: 7715 97be 6193 16bc 23b7 a03d c407 1eb9
00000180: 3127 98bb 66f4 983d 96de 1bbd 8998 8cbd
00000190: d66d c93c f666 193e 9085 75bd 3e9f 2bbd
000001a0: ac4a 4cbe 76b2 c8bd b504 f3bd 8aac 40be
000001b0: 1945 e73c 9089 463e 1beb a5b9 ea14 d0bd
000001c0: 173d 2a3f ca34 c2be 504f d93b 0e74 5b3d
000001d0: aa12 84be d323 8a3d 5e5d 53bd c45b 013d
000001e0: 5f95 313c 36f1 7f3d f088 0b3e 2f02 3cbe
000001f0: d518 0bbe 7b19 fe3d cdef 603e 16ca 87bd
00000200: 40a3 4e3e e42f 213d 0247 dabd 5bcb 8ebe
00000210: d4d8 8bbe a059 783d f4ea 60be 8a61 66bd
00000220: f7dd e53e 30ad c93e 6403 923d e4e8 c53d
00000230: 7045 56be ee5b 6dbe 4979 20be 5fe1 eabd
00000240: 1385 e63d f990 5b3e 5beb 3b3c c084 6e3e
00000250: 02ef 6abe 3652 a0bd 1b5d 9e3e 05aa a03d
00000260: a239 993e c103 07be aa90 123e 8e47 bfbd
00000270: 4791 96be 28b6 edbe bdfc 18be 4bba 0ebe
00000280: ebec fa3d cbb5 5f3d 0baa f33e 5281 30bd
00000290: 801c 82bb 2f43 4abe bce6 86be 7879 543e
000002a0: 7ea4 023e 1ed5 fe3c d94b 113e ea5e 24bd
000002b0: 3bf3 9abe a3c0 a9be f987 303e 9806 00be
000002c0: 5587 f83c 2600 30be 7e51 863d 01c6 973d
000002d0: ef00 413d 02b4 d03d ba68 4a3e 82ef 003e
000002e0: 6971 b7bd 2868 1fbc 5c28 d73d 1acb a53e
000002f0: 4842 2c3e a257 003e ba3e 52bd 6fcf bb3c
00000300: 59a3 58be 0c1a de3c 2076 083e 1894 65bc
00000310: 9d68 06be 16a3 343d 871d 07be 8d48 8cbb
00000320: bfd9 0bbe 98bf 263e 9b33 b53b 08b5 b5bd
00000330: 7efc 84bc 090e f63d ec0e c93d 7582 a8bd
00000340: e867 02be 6f19 363c 305b 00be 2311 b3bd
00000350: f647 a2be 0ebc 383d a1e7 c73c 3a78 e83d
00000360: 914b 43bd 9e5d 61be 61ce 333e ea29 f13d
00000370: e33f a33d 6854 223c 77ab 1ebe ad2a be3d
00000380: 224e 7fbd cb92 813d 1f37 6d3d 8358 1e3d
00000390: d84c 20be c5d0 06be ae3c 3b3c 569b 003c
000003a0: d21c 6ebd f471 1e3e 7ef8 b0bd 2122 40be
000003b0: d61e 93be 3743 eabe c9d5 6ebe bdd9 b63e
000003c0: a3ba 293e 84d3 213e 3e01 1b3e 8b7d d83d
000003d0: 8a7d 9abd e02e 28be 3ec0 00be 9878 603d
000003e0: b2f5 4b3e d118 54be 359a 79bd 3b5c 2ebe
000003f0: d07f fcbd a32e 0e3e e95a f63d 36e7 b7bd

bias f4 [56]
-0.26460138 0.22648567 0.08246166 0.22064157 0.15300617 -0.25028548 -0.117499836 -0.057655893
0.25051895 -0.0777738 -0.3114578 0.1651453 -0.24180393 -0.19685625 0.08013055 -0.020048162
-0.09311245 -0.1257901 -0.27059752 0.0034351044 0.007837957 -0.35641974 0.06140683 0.08558444
-0.080076 -0.0742634 0.13906248 -0.025952268 -0.2717088 -0.06485607 0.28679177 0.28643107
-0.030878585 -0.051982757 0.08566843 -0.20677817 -0.019977568 0.039062977 -0.3030993 -0.016858542
0.047365535 0.10296215 -0.09152606 -0.027374709 0.19477296 0.044778757 0.111903474 -0.20137931
-0.03228238 -0.22161926 -0.19603477 -0.19068356 0.21907875 -0.18841155 0.03301316 -0.11224345
00000000: d579 87be dceb 673e a9e1 a83d ddef 613e
00000010: a6ad 1c3e 6b25 80be c1a3 f0bd 9628 6cbd
00000020: 0544 803e df47 9fbd 6677 9fbe d91b 293e
00000030: 739b 77be af94 49be 7c1b a43d 0b3c a4bc
00000040: bdb1 bebd 1fcf 00be c28b 8abe 7d1f 613b
00000050: c66a 003c a67c b6be ba85 7b3d e546 af3d
00000060: e3fe a3bd 6917 98bd 6566 0e3e da99 d4bc
00000070: 6a1d 8bbe 42d3 84bd 5fd6 923e 18a7 923e
00000080: 16f5 fcbc dfeb 54bd ee72 af3d a8bd 53be
00000090: ffa7 a3bc 8000 203d d52f 9bbe ed1a 8abc
000000a0: 5d02 423d d2dd d23d 0472 bbbd ed40 e0bc
000000b0: 9072 473e ee69 373d a62d e53d 6136 4ebe
000000c0: 873a 04bd 29f0 62be 57bd 48be 8d42 43be
000000d0: 2e56 603e f5ee 40be cf38 073d e5df e5bd

weight f4 [56]
0.11083228 0.43242964 0.82933915 0.24777271 0.8148602 -0.0200637 -0.012265089 1.026986
0.7699188 0.02351501 0.8957547 0.8055249 0.94527864 0.73591447 0.0017382315 -0.10779522
-0.0010174242 -0.0017078593 0.849313 0.2442915 -0.07774614 0.18410929 1.6126285 0.18404245
0.043855708 -0.011477999 -0.0016286003 0.85206944 0.39981294 -0.078262426 1.0782018 0.35688818
0.9159667 -0.044427108 0.07074968 -0.06878166 -0.07745124 1.2591994 1.0268852 0.03464038
0.005424874 -0.008592719 0.9821728 -0.00601213 0.39146897 0.03877438 0.16308154 -0.05176768
-0.024308514 0.22393279 -0.00031003446 0.034452174 0.9195009 -0.08150843 0.8134682 0.45624763
00000000: 09fc e23d 6b67 dd3e 924f 543f 21b8 7d3e
00000010: ae9a 503f a15c a4bc 83f3 48bc 4774 833f
00000020: 6619 453f 8da2 c03c 2e50 653f e136 4e3f
00000030: c8fd 713f e464 3c3f 5fd5 e33a bec3 dcbd
00000040: 175b 85ba 40da dfba 946c 593f 8d27 7a3e
00000050: 5e39 9fbd 2587 3c3e 9c6a ce3f a075 3c3e
00000060: 0ba2 333d 380e 3cbc c276 d5ba 3921 5a3f
00000070: 48b4 cc3e 0d48 a0bd 8402 8a3f 0cba b63e
00000080: cb7c 6a3f 33f9 35bd 35e5 903d 66dd 8cbd
00000090: c19e 9ebd 722d a13f f970 833f 12e3 0d3d
000000a0: 24c3 b13b 7ac8 0cbc ad6f 7b3f 6701 c5bb
000000b0: 9f6e c83e e2d1 1e3d d9fe 263e 590a 54bd
000000c0: a622 c7bc a34e 653e 1f8c a2b9 b91d 0d3d
000000d0: 6964 6b3f e4ed a6bd 743f 503f 4a99 e93e

weight f4 [12, 56, 1, 1]
-0.17570236 -0.33834115 0.27125713 -0.08802739 0.14387985 -0.46680358 0.039854195 -0.06309417
0.04818761 0.37216595 0.08246267 0.06563054 -0.016168943 -0.04734062 0.21180071 -0.24279119
-0.14485222 0.03727099 -0.45031467 0.012556339 -0.05349536 -0.5139616 -0.093821846 -0.19880672
-0.06979689 0.41302553 -0.16061214 0.21762156 0.09036069 -0.09228428 -0.15481886 -0.17756262
0.19932696 0.048984032 -0.064379305 0.13268696 0.27586463 0.086667165 0.20517859 0.033824686
-0.59107536 0.15788856 -0.016824992 -0.14795248 0.23901603 -0.097281344 -0.120847456 0.08573756
-0.41138157 -0.1994306 -0.33036968 0.14070264 -0.016999865 -0.29721752 0.15572955 -0.0696126
-0.09944093 -0.019518482 0.043102182 -0.25349844 0.13253179 0.04437451 -0.02768316 -0.1808548
-0.06645112 0.09110941 -0.035866145 -0.12750982 -0.039171822 0.19313076 -0.05844714 0.0009083343
-0.20912594 -0.010336414 -0.12349766 -0.10571591 -0.046012513 0.067200325 0.0024768326 -0.06943058
-0.10967606 0.046344038 -0.03272973 -0.10348508 -0.02720269 0.070472546 -0.11604549 -0.24822946
-0.124599144 0.059878796 0.05910233 -0.009206525 0.13222437 0.057372417 0.16254117 0.08200551
-0.07820008 -0.056668013 0.22543569 -0.0636362 0.112644345 -0.014354595 -0.048091844 0.035527553
0.06251349 -0.025465885 -0.039621472 0.254063 -0.25279766 -0.009458302 0.09405516 -0.09043653
-0.12117509 -0.09384325 -0.03824462 -0.00286311 -0.18204765 0.058722604 0.19816132 -0.16571009
-0.07125618 0.016249953 0.013183404 -0.138451 -0.20266227 0.042712256 0.02391379 -0.20357132
0.14715439 0.007766343 -0.03929951 0.14376776 0.071439706 -0.027394937 -0.11785276 -0.059465725
0.22806525 0.033196032 0.1913757 -0.1737077 -0.09017161 0.06349757 -0.054762937 0.19401638
0.17738943 -0.12960888 -0.04299359 -0.0013900544 -0.13384408 -0.20058513 -0.3131611 0.11486551
-0.0050237584 -0.05250857 -0.1700824 0.022704294 0.02634041 0.07366391 -0.028026318 -0.004505219
-0.06264062 0.3195687 0.32963246 0.08460329 0.26301852 0.11936595 -0.114381365 0.115320496
0.027444223 0.12116998 -0.31076556 0.0107294135 -0.28088605 -0.22660734 0.36517397 -0.0016843893
-0.40107203 1.0196879 0.12689808 -0.03548131 -0.11927914 -0.10643184 0.13600884 0.087861285
0.5277961 1.2273098 0.1835547 -0.15144128 0.80220026 0.22173534 -0.15028727 0.084598534
-0.25571883 0.5122796 0.34538242 -0.23908341 0.37350294 -0.20292656 0.1275828 0.03573815
-0.2662449 0.20522305 0.1389622 -0.51753134 0.17263597 -0.17021506 0.09571946 -0.25585216
0.06634898 0.7186983 -0.4023166 0.31838134 0.1046955 0.20725451 0.23590608 -0.41542414
-0.13331768 0.04462919 -0.4052657 0.6132709 0.269846 -0.057900615 -0.19499093 0.2871485
0.3600052 -0.123315215 -0.12113341 0.08527634 -0.055320513 -0.058174517 -0.43749082 0.029055556
0.09607954 -0.5612238 -0.24090338 0.25020474 -0.26215905 0.3128455 -0.23726508 0.6251812
-0.40492555 -0.08466506 0.1410161 0.6905111 -0.23827593 0.10268426 0.19914696 -0.1099753
0.05078535 -0.54097897 -0.14301914 0.01947903 0.026709246 0.075579084 0.26769477 0.10597485
00000000: 52eb 33be 0d3b adbe 37e2 8a3e b447 b4bd
00000010: 3d55 133e e100 efbe 273e 233d 8437 81bd
00000020: 5f60 453d 898c be3e 30e2 a83d 4e69 863d
00000030: bb74 84bc 3de8 41bd 49e2 583e 419e 78be
00000040: 2454 14be 77a9 183d a58f e6be 1ab9 4d3c
00000050: f31d 5bbd fd92 03bf ab25 c0bd fd93 4bbe
00000060: acf1 8ebd 1578 d33e 8277 24be 30d8 5e3e
00000070: 070f b93d 8aff bcbd d688 1ebe fad2 35be
00000080: 5e1c 4c3e 7ba3 483d 4cd9 83bd 17df 073e
00000090: 213e 8d3e 8e7e b13d 561a 523e c18b 0a3d
000000a0: b750 17bf 8aad 213e 91d4 89bc db80 17be
000000b0: 9ec0 743e 713b c7bd df7e f7bd 2d97 af3d
000000c0: 9ba0 d2be 8937 4cbe 3726 a9be 5a14 103e
000000d0: 4d43 8bbc e52c 98be 9177 1f3e 0d91 8ebd
000000e0: b0a7 cbbd 39e5 9fbc ea8b 303d 8cca 81be
000000f0: 6ab6 073e 0cc2 353d cbc7 e2bc 0032 39be
00000100: 8617 88bd 9297 ba3d 61e8 12bd ef91 02be
00000110: a272 20bd 12c4 453e 4566 6fbd 481d 6e3a
00000120: 1c25 56be 105a 29bc 57ec fcbd 9581 d8bd
00000130: 9e77 3cbd 53a0 893d 5b52 223b 9f31 8ebd
00000140: d89d e0bd 3fd3 3d3d 9c0f 06bd fcef d3bd
00000150: 2dd8 debc e953 903d 42a9 edbd dd2f 7ebe
00000160: d62d ffbd 7843 753d 4915 723d f7d6 16bc
00000170: d365 073e 57ff 6a3d 3171 263e 81f2 a73d
00000180: 5d27 a0bd b81c 68bd 9dd8 663e b253 82bd
00000190: 14b2 e63d 892f 6bbc f4fb 44bd 5785 113d
000001a0: 1307 803d d59d d0bc 204a 22bd 8c14 823e
000001b0: b26e 81be fef6 1abc fe9f c03d ca36 b9bd
000001c0: a52a f8bd e430 c0bd 64a6 1cbd 04a3 3bbb
000001d0: b36a 3abe 1d87 703d cdea 4a3e e8af 29be
000001e0: c3ee 91bd 9f1e 853c 34ff 573c 19c6 0dbe
000001f0: b386 4fbe 0cf3 2e3d dae6 c33c 0075 50be
00000200: a4af 163e cf7c fe3b 86f8 20bd db37 133e
00000210: fb4e 923d 596b e0bc ca5c f1bd 5592 73bd
00000220: f089 693e 90f8 073d fef7 433e 6ee0 31be
00000230: e5ab b8bd 040b 823d 1a4f 60bd 3bac 463e
00000240: 93a5 353e 31b8 04be 0c1a 30bd 7c32 b6ba
00000250: 6c0e 09be 3066 4dbe a756 a0be 9c3e eb3d
00000260: 579e a4bb 3a13 57bd 152a 2ebe 5bfe b93c
00000270: d8c7 d73c 1bdd 963d 7397 e5bc 84a0 93bb
00000280: ba49 80bd 829e a33e 96c5 a83e 7d44 ad3d
00000290: 5daa 863e 2376 f43d c740 eabd 272d ec3d
000002a0: b5d2 e03c f727 f83d aa1c 9fbe 6cca 2f3c
000002b0: 4cd0 8fbe c10b 68be 15f8 ba3e bac6 dcba
000002c0: 5059 cdbe 2285 823f 92f1 013e da54 11bd
000002d0: 9f48 f4bd f0f8 d9bd e745 0b3e 9ef0 b33d
000002e0: a51d 073f 7d18 9d3f c3f5 3b3e 6c13 1bbe
000002f0: ff5c 4d3f 970e 633e e8e4 19be ff41 ad3d
00000300: 94ed 82be c224 033f f7d5 b03e 48d2 74be
00000310: c73b bf3e fbcb 4fbe 11a5 023e 2b62 123d
00000320: 4051 88be fe25 523e 1b4c 0e3e ef7c 04bf
00000330: 7cc7 303e db4c 2ebe 9008 c43d 0eff 82be
00000340: f9e1 873d 9dfc 373f 71fc cdbe e102 a33e
00000350: 986a d63d 873a 543e 5d91 713e 79b2 d4be
00000360: 6e84 08be 19cd 363d fc7e cfbe 52ff 1c3f
00000370: 4129 8a3e 3229 6dbd b4ab 47be 2105 933e
00000380: 9a52 b83e b08c fcbd cb14 f8bd 5da5 ae3d
00000390: c397 62bd 6748 6ebd ccfe dfbe eb05 ee3c
000003a0: 5ac5 c43d 5dac 0fbf 60af 76be d61a 803e
000003b0: b639 86be 492d a03e 9ef5 72be e00b 203f
000003c0: 6752 cfbe e064 adbd 8666 103e 56c5 303f
000003d0: 9bfe 73be 204c d23d 2eed 4b3e bb3a e1bd
000003e0: 4d04 503d 997d 0abf 9c73 12be 7d92 9f3c
000003f0: 59cd da3c 35c9 9a3d 4a0f 893e 5809 d93d

bias f4 [12]
-0.13959584 -0.07279636 0.005582655 -0.30637756 -0.033393133 -0.11189153 -0.022805896 -0.07931077
0.05408203 -0.0660281 -0.03895 -0.1265893
00000000: 36f2 0ebe 4216 95bd b4ee b63b 85dd 9cbe
00000010: 3dc7 08bd 6327 e5bd 6ed3 babc af6d a2bd
00000020: 1e85 5d3d be39 87bd 098a 1fbd a0a0 01be

weight f4 [12]
-0.02811224 0.876889 0.3239252 0.0022819894 -0.10859156 0.45592815 0.06955654 0.8095554
0.85975903 0.055688553 1.025348 1.0346168
00000000: a44b e6bc cc7b 603f 86d9 a53e 6e8d 153b
00000010: 4065 debd 6a6f e93e a973 8e3d 063f 4f3f
00000020: 2b19 5c3f ae19 643d 9a3e 833f 536e 843f

weight f4 [12, 12, 3, 3]
0.09823104 -0.050559435 0.19652411 -0.2887896 0.53102523 0.34836107 0.14551824 0.26510367
0.03142649 0.35923603 -0.2320544 0.0020372109 0.29078504 0.11878347 0.07431723 0.014823049
0.16878448 -0.15112756 0.25469646 0.08609947 0.41270596 0.06962447 -0.40592325 0.06581661
0.021584654 0.26208097 0.40423405 0.014550734 0.48523796 -0.10096703 -0.68168813 0.14924678
0.40425548 -0.09325105 -0.4510583 -0.20269638 0.3717606 0.18200707 -0.65772635 0.19235009
0.013386199 0.34267825 0.07447349 0.12600452 0.0676825 -0.24140792 -0.26651543 0.26131335
0.043733455 -0.124394014 -0.026674606 0.0054247193 0.08902693 0.28623638 0.37609518 -0.3267795
0.08516763 -0.2879447 -0.21715522 -0.34111762 0.09858121 0.1998002 -0.26262534 -0.090925924
-0.254072 0.18375203 -0.07737543 -0.3132808 0.008334228 0.20878266 -0.25575587 0.17973995
0.045940448 0.08639959 0.52158576 0.08194192 -0.011195965 -0.45636988 -0.046388704 -0.22341298
0.22086126 0.6776201 -0.20910096 0.062393595 0.001827141 -0.7527214 -0.58096534 0.37692174
0.584688 -0.5330437 0.07601735 -0.16591874 0.6058292 0.03726723 0.025903676 -0.21560399
0.03278825 0.0044370303 0.36704794 0.13716538 0.1303575 0.2583144 -0.025605002 -0.120183095
-0.18842226 -0.014701407 0.046539385 0.03416764 -0.0222956 -0.20204176 0.02190873 0.009546516
-0.041194055 0.37487486 0.20610814 -0.20021817 0.03934682 0.027472792 -0.018946122 -0.06481867
-0.10153578 0.116114594 0.066816494 -0.06432303 -0.085169956 -0.09522796 -0.0064230417 -0.06275035
0.11252873 0.0040169377 0.022606775 -0.09853999 0.037208695 -0.09616022 -0.017696727 0.26149833
0.37008417 0.37027395 -0.17298853 0.08796448 0.10393469 0.29395083 0.11499719 0.1634575
0.21022832 0.026273524 -0.05243867 0.15920013 -0.022918932 0.093640134 -0.12232578 -0.15180686
-0.1880814 -0.13382867 0.059852134 -0.103722245 -0.07459003 0.1394697 -0.12675838 -0.019279713
0.014970532 -0.118765734 -0.09006226 -0.017827624 0.02001567 0.12070713 -0.09046968 0.098357
0.045231678 -0.06568097 0.077184275 0.02453691 -0.1061473 0.026755767 -0.024905598 0.12197355
0.07471486 0.055710714 -0.15199538 -0.028167648 -0.065725364 -0.0014521698 0.039673075 -0.23442097
0.120154135 -0.026976533 0.13015574 -0.037157834 0.095684975 0.110430285 -0.07321516 0.071728565
0.0674222 -0.05444231 0.09569197 0.14881267 -0.008626949 0.25687996 0.02851065 -0.008451626
-0.12916102 0.068231545 0.13027637 -0.055355866 -0.07221602 -0.09650621 -0.0066045495 -0.036085118
0.064026 -0.0617271 0.026865462 0.11781021 0.13090768 0.081688866 0.09163782 0.058599092
0.041632608 -0.06808307 -0.0764449 -0.04277218 0.19713905 -0.14624067 0.019525666 0.06132023
-0.14448044 -0.0848865 -0.09367559 -0.013975797 -0.054803703 0.24882314 -0.02994564 -0.3781375
-0.045608733 -0.056193426 0.06302205 0.088430606 0.13396025 0.03319471 -0.13098927 0.026199527
0.0049909144 -0.11216997 -0.03884557 0.1354604 0.12409421 -0.018501528 -0.1463368 0.12438878
0.24275747 -0.1727413 -0.34395465 0.19946492 0.0821594 0.14777061 0.20444007 -0.058617406
00000000: 5b2d c93d 6917 4fbd 9e3d 493e 3bdc 93be
00000010: 45f1 073f 625c b23e bc02 153e abbb 873e
00000020: 10b9 003d c9ed b73e ab9f 6dbe ba82 053b
00000030: c7e1 943e bf44 f33d a233 983d 60dc 723c
00000040: d7d5 2c3e 2fc1 1abe 9367 823e eb54 b03d
00000050: 324e d33e 4697 8e3d 2cd5 cfbe dcca 863d
00000060: 4dd2 b03c 7a2f 863e c4f7 ce3e 3466 6e3c
00000070: 1c71 f83e cdc7 cebd 1d83 2ebf 26d4 183e
00000080: 93fa ce3e 68fa bebd 1df1 e6be a48f 4fbe
00000090: 6857 be3e 1060 3a3e c160 28bf 6cf7 443e
000000a0: ca51 5b3c 8673 af3e 8f85 983d 5407 013e
000000b0: 1f9d 8a3d a333 77be b674 88be ddca 853e
000000c0: da21 333d 4ac2 febd b484 dabc d8c1 b13b
000000d0: c053 b63d 938d 923e 8c8f c03e a54f a7be
000000e0: 5e6c ae3d 7d6d 93be f05d 5ebe f8a6 aebe
000000f0: f2e4 c93d 6c98 4c3e d476 86be 5f37 babd
00000100: ba15 82be 7e29 3c3e 0277 9ebd 5766 a0be
00000110: 498c 083c 1fcb 553e 6ff2 82be c00d 383e
00000120: 0d2c 3c3d 45f2 b03d a586 053f 2ad1 a73d
00000130: 486f 37bc 50a9 e9be 1502 3ebd 5fc6 64be
00000140: 7429 623e 8378 2d3f 901e 56be 6d90 7f3d
00000150: ae7c ef3a 5ab2 40bf 25ba 14bf e3fb c03e
00000160: 1dae 153f 8d75 08bf fcae 9b3d 9ae6 29be
00000170: 9f17 1b3f 86a5 183d f233 d43c 4bc7 5cbe
00000180: f94c 063d 8264 913b b5ed bb3e 1575 0c3e
00000190: 707c 053e c941 843e 95c1 d1bc 8e22 f6bd
000001a0: c4f1 40be 2cde 70bc 15a0 3e3d 5ef3 0b3d
000001b0: 43a5 b6bc 09e4 4ebe f079 b33c fe68 1c3c
000001c0: 19bb 28bd 99ef bf3e 030e 533e fe05 4dbe
000001d0: 222a 213d 9f0e e13c e634 9bbc a7bf 84bd
000001e0: fef1 cfbd 7dcd ed3d 16d7 883d cbbb 83bd
000001f0: 966d aebd e006 c3bd 6178 d2bb 4183 80bd
00000200: 7675 e63d 84a0 833b d831 b93c 56cf c9bd
00000210: 2568 183d a6ef c4bd baf8 90bc 1ce3 853e
00000220: ac7b bd3e 8c94 bd3e e823 31be b926 b43d
00000230: b6db d43d b980 963e a683 eb3d 6761 273e
00000240: 1846 573e 933b d73c eec9 56bd 5c05 233e
00000250: 7cc0 bbbc 66c6 bf3d f085 fabd 4273 1bbe
00000260: 6998 40be 620a 09be 8327 753d 546c d4bd
00000270: a8c2 98bd 25d1 0e3e f3cc 01be 7df0 9dbc
00000280: f646 753c 733b f3bd 9072 b8bd 3d0b 92bc
00000290: e7f7 a33c 4d35 f73d 2b48 b9bd 656f c93d
000002a0: da44 393d bf83 86bd ca12 9e3d a101 c93c
000002b0: c163 d9bd e92e db3c d306 ccbc 45cd f93d
000002c0: 1b04 993d eb30 643d ada4 1bbe d7bf e6bc
000002d0: 059b 86bd bc56 beba 3c80 223d 0d0c 70be
000002e0: 5f13 f63d e4fd dcbc 8c47 053e d032 18bd
000002f0: 7cf6 c33d 4629 e23d d4f1 95bd 6de6 923d
00000300: a714 8a3d e6fe 5ebd 27fa c33d 5962 183e
00000310: 0c58 0dbc c585 833e 2b8f e93c b078 0abc
00000320: c942 04be fbbc 8b3d 2b67 053e d5bc 62bd
00000330: fee5 93bd 0ca5 c5bd fa6a d8bb fdcd 13bd
00000340: 1020 833d 8ed5 7cbd f514 dc3c 7b46 f13d
00000350: aa0c 063e 7e4c a73d 9cac bb3d 9a05 703d
00000360: f486 2a3d 236f 8bbd 258f 9cbd e231 2fbd
00000370: d2de 493e 1dc0 15be 4af4 9f3c ec2a 7b3d
00000380: aef2 13be f9d8 adbd fdd8 bfbd befa 64bc
00000390: d979 60bd 7ecb 7e3e 8f50 f5bc 3d9b c1be
000003a0: 39d0 3abd 142b 66bd b411 813d 1b1b b53d
000003b0: e02c 093e 2df7 073d 0d22 06be 64a0 d63c
000003c0: d38a a33b 5fb9 e5bd 881c 1fbd 22b6 0a3e
000003d0: 1b25 fe3d 8490 97bc 50d9 15be 8bbf fe3d
000003e0: 6a95 783e 18e3 30be d31a b0be 8840 4c3e
000003f0: 3043 a83d 2e51 173e bd58 513e ce18 70bd

bias f4 [12]
-0.10868201 -0.013064846 0.001622944 -0.08020648 -0.0028917396 -0.009578844 -0.008307925 0.07490522
-0.007656325 0.051502597 0.012232783 -0.04660515
00000000: ac94 debd f00d 56bc f7b8 d43a 4c43 a4bd
00000010: 5783 3dbb 95f0 1cbc f71d 08bc e867 993d
00000020: e9e1 fabb 63f4 523d 036c 483c 0be5 3ebd

weight f4 [12]
0.095039666 0.784901 0.6790283 -0.0031851504 1.727798 -0.87226117 0.7729973 0.64034617
1.01561 -0.22309078 0.30750784 1.0332143
00000000: 28a4 c23d 46ef 483f ccd4 2d3f f5bd 50bb
00000010: 7c28 dd3f 824c 5fbf 27e3 453f baed 233f
00000020: 82ff 813f e971 64be ab71 9d3e 5e40 843f

weight f4 [12, 12, 3, 3]
0.09064877 0.08181722 -0.09883986 -0.24436119 0.14279017 -0.08565088 -0.018964082 -0.19307533
0.017712604 0.017042648 -0.001925238 0.05185826 0.24306434 0.029032245 -0.044316996 -0.1242166
0.031134047 0.07357882 0.06116039 0.15205243 0.025637656 -0.11322893 -0.0052624843 -0.041142948
0.12803769 -0.021164894 0.0539578 0.022415416 -0.1875396 -0.12129823 -0.021941839 0.074783996
-0.035987724 0.06912069 0.13360439 -0.17643611 -0.10500423 0.08138217 -0.09266699 0.01497125
0.006085899 0.09048318 -0.1388201 -0.005041336 0.015931757 -0.046042938 -0.34151343 -0.11556647
-0.074415095 -0.06383799 -0.2469625 0.04308263 0.062702976 0.14147614 0.057393834 0.073340446
-0.12508187 -0.15568715 0.0023205874 -0.16015334 0.1257555 -0.025700027 0.108604275 -0.06710942
-0.23152639 0.13070941 -0.12837486 -0.052677464 0.04343538 0.21428314 -0.07637217 0.121057354
0.031084849 -0.015019142 -0.06921929 -0.060246486 0.16889866 -0.0757971 -0.00458433 0.023060663
0.02224131 -0.007860763 -0.0009791177 -0.13112997 -0.2712875 0.09614615 0.12900814 -0.1507325
-0.028275434 -0.05123887 -0.13502367 0.071544595 -0.09269215 0.22020249 -0.031094383 0.13273765
-0.0033690722 -0.11819135 0.022354411 0.04697498 -0.20212352 0.26768082 -0.1294093 -0.12062603
0.21329664 0.09502048 -0.026300324 0.021419417 -0.049314268 -0.40312797 -0.03903708 0.17709458
0.036069248 0.11529776 -0.05641458 0.17578802 0.4502558 -0.15338887 0.0038405487 -0.02077628
0.22025886 -0.10299591 -0.2520825 0.22082342 0.031999674 -0.020626398 -0.114195995 0.40253606
-0.44112903 -0.06159864 0.18387708 0.12158284 -0.12920098 0.28647304 0.02050275 0.18268141
0.21291102 -0.19141562 0.27901804 -0.19477084 0.027575003 0.3798969 0.6610838 0.28168014
-0.1383343 -0.060648892 -0.24487661 0.14204359 -0.06292732 0.330773 0.09217346 -0.12869573
-0.25232193 0.04565914 0.0086071035 0.028479204 -0.057396565 -0.036231954 0.37061805 -0.005237576
-0.015243089 -0.06497388 0.13780528 -0.3848262 -0.14100274 0.039862927 0.2464003 0.07882134
0.00699486 0.1670029 0.016452752 -0.10979049 -0.014803153 0.4170624 0.08341048 -0.26002985
-0.021931062 -0.077074535 0.026362903 -0.18149917 0.13227847 -0.101917334 -0.110325456 0.08455042
0.27712464 -0.22993456 -0.09410774 0.05890977 0.12850918 -0.3864105 -0.34952638 -0.22864908
-0.042120457 0.16725008 -0.7137799 -0.6265395 -0.4764844 -0.18451186 0.022590162 0.6720393
0.22006279 0.023132062 -0.27364606 0.035198648 -0.08617415 -0.056125622 0.013322601 0.09405561
-0.08242506 0.07923681 0.050648812 -0.07862965 0.18842417 -0.12211644 -0.1575163 -0.26071507
0.038649485 0.1516995 -0.1842581 0.07276313 -0.121023506 -0.26860622 0.16444275 -0.017735036
-0.077225216 0.24631633 -0.099626236 -0.17446724 -0.1865943 -0.14679268 -0.0024444386 -0.004719216
0.04482692 0.05923497 0.056118116 -0.29466775 0.065488674 0.051848296 -0.26754385 0.164309
0.13276288 0.07259435 0.067319214 0.003593587 -0.21631175 0.056526892 -0.08352052 -0.07200385
0.566055 0.002001529 -0.23615356 -0.059873346 -0.001487179 0.06479516 -0.09299389 0.023671873
00000000: 10a6 b93d c98f a73d 8d6c cabd d239 7abe
00000010: 9637 123e bb69 afbd 905a 9bbc 8ab5 45be
00000020: 061a 913c 069d 8b3c 4458 fcba 5469 543d
00000030: dce5 783e 08d5 ed3c bd85 35bd 4665 febd
00000040: d40c ff3c 7eb0 963d 5183 7a3d a2b3 1b3e
00000050: 1006 d23c 92e4 e7bd eb70 acbb 8285 28bd
00000060: 501c 033e 0062 adbc db02 5d3d 89a0 b73c
00000070: 620a 40be 356b f8bd 5fbf b3bc 5a28 993d
00000080: dd67 13bd 268f 8d3d 97cf 083e abab 34be
00000090: 750c d7bd b2ab a63d 31c8 bdbd f949 753c
000000a0: 396c c73b 3f4f b93d db26 0ebe cb31 a5bb
000000b0: 5183 823c 8597 3cbd d9da aebe 1dae ecbd
000000c0: f166 98bd 7ebd 82bd bde3 7cbe 6977 303d
000000d0: 6b6a 803d 1fdf 103e cc15 6b3d 8433 963d
000000e0: 7615 00be 746c 1fbe ff14 183b 3dff 23be
000000f0: 0dc6 003e dd88 d2bc eb6b de3d aa70 89bd
00000100: 4115 6dbe b0d8 053e b374 03be 53c4 57bd
00000110: 4ce9 313d 0a6d 5b3e 0369 9cbd ebec f73d
00000120: a7a5 fe3c d912 76bc d8c2 8dbd 05c5 76bd
00000130: c5f3 2c3e 833b 9bbd 2638 96bb b7e9 bc3c
00000140: 6833 b63c 6eca 00bc bd55 80ba ef46 06be
00000150: 32e6 8abe 46e8 c43d b61a 043e 9f59 1abe
00000160: e2a1 e7bc d9df 51bd a543 0abe f985 923d
00000170: 62d5 bdbd c37c 613e a6b9 febc 61ec 073e
00000180: a7cb 5cbb 4e0e f2bd 9920 b73c d668 403d
00000190: 78f9 4ebe 760d 893e df83 04be c80a f7bd
000001a0: 6f6a 5a3e 199a c23d c773 d7bc c677 af3c
000001b0: c2fd 49bd ca66 cebe 58e5 1fbd 4858 353e
000001c0: 59bd 133d 3b21 ec3d fa12 67bd c601 343e
000001d0: ee87 e63e f911 1dbe b7b1 7b3b 0433 aabc
000001e0: 8a8b 613e 85ef d2bd f510 81be 891f 623e
000001f0: 1712 033d b1f8 a8bc 97df e9bd 3519 ce3e
00000200: aadb e1be db4e 7cbd 464a 3c3e 6d00 f93d
00000210: 434d 04be 98ac 923e 62f5 a73c d610 3b3e
00000220: 5905 5a3e 7502 44be 74db 8e3e 0272 47be
00000230: f9e4 e13c d981 c23e ca3c 293f 6138 903e
00000240: 82a7 0dbe f96a 78bd efc0 7abe e073 113e
00000250: 0ae0 80bd 145b a93e 70c5 bc3d d0c8 03be
00000260: 5730 81be 1405 3b3d cf04 0d3c 384d e93c
00000270: a918 6bbd f567 14bd a6c1 bd3e f99f abbb
00000280: 26be 79bc 0711 85bd d41c 0d3e f107 c5be
00000290: 0663 10be 4f47 233d 5c50 7c3e 156d a13d
000002a0: 2335 e53b cf02 2b3e ecc7 863c d6d9 e0bd
000002b0: ed88 72bc 3489 d53e 1dd3 aa3d a222 85be
000002c0: c5a8 b3bc 41d9 9dbd 04f7 d73c ebda 39be
000002d0: 0274 073e 09ba d0bd 50f2 e1bd c528 ad3d
000002e0: 48e3 8d3e f773 6bbe 8fbb c0bd 5f4b 713d
000002f0: e997 033e 99d7 c5be 1ff5 b2be fc22 6abe
00000300: 8086 2cbd 9b43 2b3e 48ba 36bf e564 20bf
00000310: c3f5 f3be adf0 3cbe 010f b93c c40a 2c3f
00000320: 2458 613e 737f bd3c 561b 8cbe 752c 103d
00000330: 137c b0bd fbe3 65bd 0a47 5a3c 3aa0 c03d
00000340: 78ce a8bd e946 a23d 2175 4f3d 9508 a1bd
00000350: 44f2 403e 2f18 fabd f44b 21be 727c 85be
00000360: ec4e 1e3d 1d57 1b3e 28ae 3cbe d604 953d
00000370: 2cdb f7bd c186 89be ae63 283e 1149 91bc
00000380: 4128 9ebd 593a 7c3e d708 ccbd 8aa7 32be
00000390: 9412 3fbe d250 16be e032 20bb a7a3 9abb
000003a0: 6f9c 373d 5ea0 723d 1cdc 653d b1de 96be
000003b0: ed1e 863d e15e 543d 82fb 88be 9e40 283e
000003c0: fef2 073e 59ac 943d a8de 893d 6382 6b3b
000003d0: d480 5dbe be88 673d ce0c abbd c176 93bd
000003e0: fbe8 103f 162c 033b 3dd2 71be c13d 75bd
000003f0: 72ed c2ba 53b3 843d 9573 bebd 84eb c13c

bias f4 [12]
0.112277076 -0.034372516 0.0040993528 -0.0307918 -0.043678086 -0.032304157 0.02910536 0.058719724
0.07616669 0.027613426 0.0148584675 0.015599556
00000000: 86f1 e53d 32ca 0cbd dd53 863b 163f fcbc
00000010: cbe7 32bd 5d51 04bd 5d6e ee3c 1884 703d
00000020: 48fd 9b3d 8d35 e23c ee70 733c 4895 7f3c

weight f4 [12]
-0.054905117 -0.08599314 -0.8159065 0.09163584 -0.06558025 0.80359334 0.21634325 1.0069329
0.7068873 -0.6100599 -0.3470139 0.9596123
00000000: 30e4 60bd 2c1d b0bd 40df 50bf 92ab bb3d
00000010: f04e 86bd 4bb8 4d3f 1689 5d3e 2de3 803f
00000020: 91f6 343f e32c 1cbf ceab b1be 27a9 753f

weight f4 [12, 12, 3, 3]
0.14311187 0.18836123 -0.11532438 0.004196914 0.18547288 -0.16614151 -0.016175818 0.10819685
0.06599646 0.06913193 0.28154308 0.2960848 -0.13098583 0.23874652 -0.022529019 0.19422504
-0.08758409 -0.04639829 0.0984404 -0.09889692 -0.056967683 -0.069148414 0.14347374 0.09178593
0.031954136 -0.2163364 0.12364552 -0.09934725 0.22336236 -0.25119057 -0.12623605 0.13801764
0.0992837 -0.45074964 0.10429697 0.22837086 -0.17452677 0.23896821 0.08173693 0.12256973
-0.22586143 0.1445497 0.022242075 0.0150315445 0.22315411 0.07846935 0.06888884 0.03836067
-0.15393682 0.18758272 -0.07440706 -0.056764774 0.09888537 -0.110728085 0.0063095256 -0.023702255
0.0443504 -0.07700501 0.20794253 -0.30329308 -0.14206105 -0.22055854 0.10366557 0.032555293
-0.078466065 -0.039397623 0.035103533 -0.29713535 -0.07768314 0.0613287 -0.012880479 -0.03866237
0.0062096827 0.10596008 -0.07881215 0.11130413 0.08578037 -0.064584814 -0.11178934 0.08972712
-0.029579366 -0.343464 -0.25295496 -0.109394684 0.33353826 0.036702357 -0.12440355 -0.06869907
-0.06421225 -0.13459034 -0.06979756 -0.2392577 -0.14407603 0.21188919 -0.00852796 -0.31061146
-0.1295329 -0.022100598 -0.27982637 0.1068288 0.07312047 0.16268902 0.043629043 -0.22940288
-0.01820062 0.026227627 -0.060594562 -0.04420356 0.05068891 0.12601086 0.29175213 -0.14518613
-0.033196084 0.12688203 -0.40264717 -0.12200548 0.03912323 -0.37593904 -0.37445855 -0.32126686
-0.52498394 -0.4915485 -0.17278996 -0.00071977696 -0.029566497 -0.19744365 -0.108717166 -0.036269914
-0.06618719 0.23082222 0.2089733 -0.12466309 0.041345596 0.121584825 -0.2309571 0.1822148
-0.04940768 0.093300045 0.83377755 -0.29298455 0.098403625 -0.05847766 0.09524208 0.28207728
-0.17472394 -0.5192467 -0.26514095 -0.48209926 -0.3123961 -0.048705503 -0.01165107 -0.33182964
-0.035534166 -0.13631809 0.5043952 0.015445173 0.50093627 -0.29589513 0.14260161 0.118527055
-0.040186718 0.12857647 0.026697466 -0.107858896 -0.04019849 -0.10061418 0.15629807 0.24306053
0.35718068 -0.45734262 0.08649539 0.15220594 -0.10076239 0.048890907 0.015553773 -0.03116874
0.061212175 -0.13949107 0.33964524 0.08241328 -0.070392594 0.18609539 -0.050984316 0.058289923
0.22374976 -0.27586928 0.28330556 -0.18658014 -0.14723039 -0.25903884 0.10550324 -0.08611878
0.038447894 0.34795684 -0.04574136 0.060996823 0.2809521 -0.0017888246 0.046806894 0.29252213
0.09226228 -0.027031273 0.07919188 0.14561793 -0.0060945167 -0.4739519 0.06675233 -0.013665453
-0.14788663 0.061420638 0.18149205 -0.11894541 -0.16782193 -0.13430159 -0.17328772 0.10098137
-0.039129224 0.25738704 -0.08215675 0.016456183 -0.019406697 -0.034857564 0.117880665 -0.30077204
-0.103857875 -0.2884671 -0.22728115 -0.14542374 0.31131142 0.5770109 -0.0033922424 -0.05329513
-0.19805424 -0.1787032 0.06555887 -0.03695183 -0.03189956 0.025376381 -0.5850959 0.25907916
-0.035373125 0.056784086 -0.029824622 -0.16315149 0.2766938 0.009247013 0.027179755 -0.37680736
0.10535583 0.050818134 0.108938396 0.16227739 -0.018146792 -0.02046293 0.15767547 -0.29375055
00000000: eb8b 123e c4e1 403e 302f ecbd 4486 893b
00000010: 9aec 3d3e 0021 2abe 2683 84bc 4f96 dd3d
00000020: 2729 873d 0b95 8d3d 6a26 903e 6d98 973e
00000030: 2621 06be f879 743e c78e b8bc eee2 463e
00000040: 4a5f b3bd 220c 3ebd 1f9b c93d 788a cabd
00000050: f256 69bd af9d 8dbd c8ea 123e 43fa bb3d
00000060: 57e2 023d 4a87 5dbe dd39 fd3d 9276 cbbd
00000070: 1ab9 643e 0d9c 80be 0644 01be 7f54 0d3e
00000080: 4155 cb3d a8c8 e6be a699 d53d 0dda 693e
00000090: 25b7 32be 15b4 743e b165 a73d d705 fb3d
000000a0: 3848 67be d604 143e 0335 b63c de46 763c
000000b0: 8382 643e 8ab4 a03d 9815 8d3d 1420 1d3d
000000c0: 9da1 1dbe af15 403e bb62 98bd 2e82 68bd
000000d0: 6a84 ca3d 68c5 e2bd 23c0 ce3b 3b2b c2bc
000000e0: c4a8 353d cdb4 9dbd e3ee 543e 3b49 9bbe
000000f0: 7478 11be 19da 61be 9d4e d43d b358 053d
00000100: d1b2 a0bd 675f 21bd b9c8 0f3d 2022 98be
00000110: 5718 9fbd ce33 7b3d a508 53bc 6f5c 1ebd
00000120: 987a cb3b 9901 d93d 4468 a1bd 6bf3 e33d
00000130: 9ead af3d 0b45 84bd cff1 e4bd dac2 b73d
00000140: 6d50 f2bc 83da afbe 5083 81be 520a e0bd
00000150: 87c5 aa3e 3655 163d 4ac7 febd 19b2 8cbd
00000160: b681 83bd 0dd2 09be 06f2 8ebd f8ff 74be
00000170: ab88 13be 7bf9 583e dbb8 0bbc 7708 9fbe
00000180: 46a4 04be 500c b5bc 6745 8fbe 0fc9 da3d
00000190: 2fc0 953d f397 263e 5eb4 323d 97e8 6abe
000001a0: 7719 95bc 52db d63c 0132 78bd cb0e 35bd
000001b0: 2d9f 4f3d fe08 013e 8960 953e acab 14be
000001c0: 9ef8 07bd 5ded 013e c527 cebe 02de f9bd
000001d0: ae3f 203d 157b c0be 08b9 bfbe 177d a4be
000001e0: 5965 06bf 3fac fbbe daef 30be 6aaf 3cba
000001f0: 7035 f2bc ab2e 4abe 1ba7 debd c38f 14bd
00000200: 268d 87bd a95c 6c3e 19fd 553e 5d4f ffbd
00000210: 005a 293d 7701 f93d 0580 6cbe 8496 3a3e
00000220: b55f 4abd 1814 bf3d 7272 553f 1202 96be
00000230: d787 c93d 4586 6fbd 480e c33d 6f6c 903e
00000240: d5ea 32be 5aed 04bf 8ec0 87be b7d5 f6be
00000250: 62f2 9fbe 6c7f 47bd 21e4 3ebc 93e5 a9be
00000260: 468c 11bd f896 0bbe 0b20 013f c00d 7d3c
00000270: 5c3d 003f 917f 97be 2806 123e 50be f23d
00000280: d49a 24bd 8da9 033e a5b4 da3c 20e5 dcbd
00000290: 2ca7 24bd cf0e cebd 9a0c 203e dce4 783e
000002a0: 63e0 b63e d028 eabe 7f24 b13d e0db 1b3e
000002b0: 835c cebd d541 483d 41d5 7e3c 9655 ffbc
000002c0: 9eb9 7a3d bfd6 0ebe fbe5 ad3e 4bc8 a83d
000002d0: fe29 90bd ca8f 3e3e eed4 50bd 6ac1 6e3d
000002e0: a81e 653e bd3e 8dbe 6d0d 913e dd0e 3fbe
000002f0: 90c3 16be bda0 84be 1512 d83d 0b5f b0bd
00000300: 8a7b 1d3d 6627 b23e 4b5b 3bbd ced7 793d
00000310: f4d8 8f3e fe76 eaba 96b8 3f3d 76c5 953e
00000320: 02f4 bc3d b070 ddbc 5a2f a23d de1c 153e
00000330: 83b4 c7bb d3a9 f2be 72b5 883d 10e5 5fbc
00000340: 986f 17be 3594 7b3d 0dd9 393e a799 f3bd
00000350: 83d9 2bbe 5b86 09be 5672 31be 52cf ce3d
00000360: f745 20bd 3cc8 833e cc41 a8bd 1ecf 863c
00000370: cbfa 9ebc cec6 0ebd 6b6b f13d cbfe 99be
00000380: 70b3 d4bd f6b1 93be 64bc 68be f6e9 14be
00000390: 3664 9f3e fdb6 133f 6250 5ebb ff4b 5abd
000003a0: bbce 4abe f9fd 36be bb43 863d cd5a 17bd
000003b0: 1da9 02bd 21e2 cf3c d8c8 15bf 06a6 843e
000003c0: 69e3 10bd 6e96 683d c452 f4bc 2f11 27be
000003d0: cfaa 8d3e c980 173c 14a8 de3c e5ec c0be
000003e0: ccc4 d73d ad26 503d 181b df3d 0b2c 263e
000003f0: 95a8 94bc e0a1 a7bc ae75 213e 7966 96be

bias f4 [12]
-0.26272997 -0.05700382 -0.010716784 -0.025188819 -0.06547122 0.038048934 -0.0377063 0.18889996
0.032965403 0.30491683 0.027709197 -0.04191225
00000000: 8b84 86be d67c 69bd 7395 2fbc c858 cebc
00000010: c615 86bd 33d9 1b3d ec71 1abd fe6e 413e
00000020: bb06 073d 0f1e 9c3e 66fe e23c 2eac 2bbd

weight f4 [12]
0.21494278 -0.06314885 0.46395326 -0.061385207 -0.043363728 -0.72909826 0.6614727 0.7125031
0.9384282 0.65478414 0.10310866 -0.025292099
00000000: f619 5c3e 2f54 81bd 488b ed3e 0e6f 7bbd
00000010: 2a9e 31bd 2fa6 3abf 4656 293f 9a66 363f
00000020: d53c 703f ef9f 273f a22a d33d 6031 cfbc

weight f4 [12, 12, 3, 3]
-0.008251989 -0.10984298 0.085511334 -0.07450209 -0.08363532 -0.07467227 0.06066681 -0.06855822
0.00082912913 0.02470904 0.09143282 -0.050440766 -0.07167434 0.020866252 -0.023112241 -0.007546184
-0.023934983 0.040291388 0.055253696 -0.011742734 0.0054042498 0.08744167 0.06831368 0.045624316
-0.027939834 -0.0398906 -0.003288415 0.0654039 -0.0049841665 0.004837882 -0.10788196 -0.10301684
0.061852247 0.01448312 0.077036195 -0.014277645 -0.026646461 -0.053492468 -0.013400768 -0.0286876
0.15191972 -0.101613864 -0.058425073 -0.07112449 -0.023694236 -0.0063223764 -0.05468683 0.0152275
0.05640202 -0.031352993 0.05382757 -0.013007552 0.024246568 -0.06262666 -0.03768867 0.018552663
0.05890784 0.02408984 0.16109017 -0.04551565 0.0040870504 -0.02167055 -0.0062787537 0.017848777
0.037553474 0.012362329 0.06372403 0.35637638 -0.031129993 -0.042685334 0.08874182 0.05443335
0.0122592915 0.110099 0.00051909493 0.021187574 -0.4012208 -0.0029551121 0.0125507945 0.012938763
0.017769322 0.033194155 0.1414943 -0.028237946 0.1084825 0.2825415 0.03534967 0.04815328
0.07930153 -0.03239548 -0.053278495 -0.13353999 -0.08346043 0.13328922 0.06561128 0.011723383
-0.048901875 0.032977715 -0.0018585419 0.004852779 -0.027060298 0.028460126 0.022641271 0.16291119
0.011079963 -0.026623363 -0.13060947 0.039398964 0.21629904 0.040571976 -0.19346598 0.40435222
0.24947254 0.40217108 0.1683767 0.033441395 0.25420645 -0.6054826 0.6811293 -0.16670562
-0.22134788 0.19820112 0.26765534 0.15441754 0.03960798 0.0483124 0.16968152 -0.18723963
0.05474817 0.46896198 -0.92396456 0.26139304 0.2406294 -0.27363652 -0.034744136 0.05357
0.09447872 -0.014002161 -0.13570789 0.1344264 -0.20215924 -0.08994938 0.0331755 -0.25073203
-0.16970184 0.17606054 0.29755753 -0.39381695 0.28216866 -0.014550304 -0.11038748 0.05983157
0.3933729 0.16863143 -0.23024063 0.08587189 0.19568498 -0.11903872 -0.060369566 -0.07460184
0.19996081 -0.1059474 0.10232694 -0.19363812 -0.0068702917 -0.053560786 -0.18264037 -0.02751322
-0.05348988 -0.16942447 0.17034346 -0.08034264 0.12756652 -0.08539565 0.23541199 0.013780329
-0.33727175 0.03667767 0.0052088685 -0.07006471 0.14719595 -0.078869015 -0.24911839 0.27960333
-0.15948969 -0.6989119 0.05029778 -0.10568745 -0.09237513 -0.07420209 -0.035229515 -0.014082148
0.009557952 -0.17870705 0.01763202 -0.07634146 -0.0978095 0.2158872 0.33999166 -0.15003565
-0.42327422 -0.009276646 0.22517337 -0.05063816 0.100199014 -0.062762275 0.1035902 -0.03381531
-0.23708138 -0.068713285 -0.29699257 -0.5263329 -0.11887556 0.006754427 -0.011895333 -0.09636369
0.009506311 0.09516245 0.08299841 0.11933081 -0.07235768 0.0023233548 -0.1970438 0.102275655
-0.07709874 -0.10876828 0.26020074 0.07753502 0.06284387 -0.18233745 0.05955776 0.14374433
0.21018113 -0.05516779 -0.027486889 0.02393893 -0.11030925 0.3873923 0.12844047 0.23554966
0.012227444 0.024580125 -0.09762685 0.13447985 -0.056339715 -0.17567806 -0.034438312 -0.19844726
0.27433464 -0.04837505 0.1107862 -0.04248942 -0.03186329 -0.044942684 0.009126286 -0.10546979
00000000: 5a33 07bc 5bf5 e0bd 9120 af3d 8d94 98bd
00000010: ff48 abbd c6ed 98bd c37d 783d 4168 8cbd
00000020: ea59 593a 9d6a ca3c 2141 bb3d fa9a 4ebd
00000030: ffc9 92bd b4ef aa3c e255 bdbc fb45 f7bb
00000040: 4c13 c4bc 9508 253d b351 623d 9964 40bc
00000050: 2216 b13b 9e14 b33d 0be8 8b3d 90e0 3a3d
00000060: 14e2 e4bc 5364 23bd 7382 57bb 7bf2 853d
00000070: 3852 a3bb 1887 9e3b 38f1 dcbd 7efa d2bd
00000080: c858 7d3d 9c4a 6d3c 27c5 9d3d c9ec 69bc
00000090: ae49 dabc eb1a 5bbd e58e 5bbc 4202 ebbc
000000a0: d890 1b3e ee1a d0bd 214f 6fbd b7a9 91bd
000000b0: 6a1a c2bc f02b cfbb 4cff 5fbd c47c 793c
000000c0: ce05 673d ff6b 00bd 4c7a 5c3d a11d 55bc
000000d0: bda0 c63c 6842 80bd 6f5f 1abd c1fb 973c
000000e0: 5949 713d 0e58 c53c d2f4 243e 9e6e 3abd
000000f0: aaec 853b 7086 b1bc 01be cdbb 9937 923c
00000100: acd1 193d 5e8b 4a3c bf81 823d f776 b63e
00000110: 5404 ffbc d1d6 2ebd 45be b53d 81f5 5e3d
00000120: 32db 483c 967b e13d df13 083a 9091 ad3c
00000130: d06c cdbe 8eaa 41bb d9a1 4d3c 1bfd 533c
00000140: f890 913c 98f6 073d e2e3 103e 4453 e7bc
00000150: 132c de3d 48a9 903e d1ca 103d 603c 453d
00000160: d768 a23d 1fb1 04bd 8d3a 5abd b5be 08be
00000170: 4ded aabd f87c 083e 355f 863d 6f13 403c
00000180: 554d 48bd a413 073d 519a f3ba 1004 9f3b
00000190: 8fad ddbc 3625 e93c 307a b93c 31d2 263e
000001a0: bc88 353c 3d19 dabc 7dbe 05be cf60 213d
000001b0: 7f7d 5d3e cd2e 263d f21b 46be 4107 cf3e
000001c0: bb75 7f3e 5ee9 cd3e f16a 2c3e d8f9 083d
000001d0: 5927 823e e800 1bbf 7d5e 2e3f e1b4 2abe
000001e0: 05a9 62be 3cf5 4a3e 1f0a 893e a21f 1e3e
000001f0: fa3b 223d 39e3 453d fec0 2d3e bfbb 3fbe
00000200: 9e3f 603d c91b f03e f188 6cbf 4fd5 853e
00000210: 8e67 763e 161a 8cbe de4f 0ebd 376c 5b3d
00000220: 0f7e c13d 5269 65bc 02f7 0abe 13a7 093e
00000230: d502 4fbe 6137 b8bd 08e3 073d f35f 80be
00000240: 52c6 2dbe 3749 343e 7659 983e 60a2 c9be
00000250: 6978 903e 6664 6ebc d512 e2bd f311 753d
00000260: 2c68 c93e b8ad 2c3e 33c4 6bbe 9add af3d
00000270: a561 483e 93ca f3bd 1446 77bd d9c8 98bd
00000280: 87c2 4c3e f3fa d8bd c990 d13d 1249 46be
00000290: 2f20 e1bb 8e62 5bbd 1406 3bbe 6863 e1bc
000002a0: 3418 5bbd 9c7d 2dbe 846e 2e3e af8a a4bd
000002b0: cca0 023e eae3 aebd d70f 713e e4c6 613c
000002c0: e2ae acbe 533b 163d 28af aa3b 167e 8fbd
000002d0: 89ba 163e 1486 a1bd e418 7fbe 2b28 8f3e
000002e0: 4451 23be e4eb 32bf 0c05 4e3d a972 d8bd
000002f0: 2c2f bdbd 44f7 97bd d34c 10bd cfb8 66bc
00000300: f598 1c3c fbfe 36be 0771 903c e958 9cbd
00000310: 5950 c8bd 8911 5d3e 6313 ae3e f2a2 19be
00000320: 66b7 d8be 13fd 17bc d993 663e f669 4fbd
00000330: 2435 cd3d 8289 80bd 1927 d43d ec81 0abd
00000340: 76c5 72be 8db9 8cbd 690f 98be c1bd 06bf
00000350: 0875 f3bd 3e54 dd3b a5e4 42bc 545a c5bd
00000360: 5cc0 1b3c 88e4 c23d 12fb a93d b663 f43d
00000370: 4330 94bd 6d43 183b dac5 49be e675 d13d
00000380: f2e5 9dbd e7c1 debd 0839 853e aeca 9e3d
00000390: 49b4 803d abb6 3abe d6f2 733d b731 133e
000003a0: b939 573e 9ff7 61bd 2f2c e1bc 931b c43c
000003b0: d1e9 e1bd 4958 c63e e685 033e ee33 713e
000003c0: 9e55 483c 425c c93c 96f0 c7bd 16b5 093e
000003d0: 79c4 66bd f3e4 33be 300f 0dbd c235 4bbe
000003e0: 9775 8c3e eb24 46bd e0e3 e23d 6309 2ebd
000003f0: 1583 02bd d215 38bd 6b86 153c 8c00 d8bd

bias f4 [12]
0.22706734 0.103495695 0.01077052 -0.07495108 0.2049728 0.07592258 0.09784918 -0.12466616
-0.090861075 -0.070712246 -0.18491033 -0.14772122
00000000: 5784 683e 8df5 d33d d676 303c f47f 99bd
00000010: 64e4 513e 4c7d 9b3d 2765 c83d f950 ffbd
00000020: 5f15 babd 95d1 90bd 2259 3dbe 3b44 17be

weight f4 [12]
0.7030052 0.053686537 -0.0842174 0.22776085 0.04554637 0.8106143 0.703269 0.35226175
0.9475928 0.80362886 0.3230193 0.2996581
00000000: 26f8 333f 6ae6 5b3d 2c7a acbd 243a 693e
00000010: d58e 3a3d 6b84 4f3f 7009 343f a75b b43e
00000020: 7195 723f 9fba 4d3f c962 a53e c96c 993e

weight f4 [56, 12, 1, 1]
-0.0058833077 -0.006028264 -0.063528106 -0.056744028 0.03576846 0.2925966 0.10218405 -0.074359424
-0.1615941 0.22012222 -0.05554188 -0.12271971 -0.249503 0.08356051 -0.1621525 0.36729416
-0.12476702 -0.11464733 0.11881518 -0.54946804 0.38284934 0.52726024 0.5286587 0.46464482
0.120787635 -0.11328192 0.15740165 0.35772523 -0.357941 -0.40805197 -0.2506863 -0.02273627
-0.023339985 0.043769445 -0.05799522 0.008709481 0.03641699 -0.06570808 0.065761335 0.0458984
-0.07496992 0.10043273 -0.18902478 0.06546521 0.094007514 -0.08378355 -0.06929166 -0.03897253
-0.20233081 0.11658809 -0.14727806 -0.13305338 0.355686 -0.40133712 0.14512016 -0.15012662
-0.056295842 -0.107859135 0.19594732 -0.028137967 0.13385038 -0.15748611 0.10933906 0.32722563
-0.08511913 -0.13466716 -0.0952819 0.0033853464 0.00558546 -0.24149224 -0.1772408 0.20449246
-0.14112051 -0.037641805 -0.15620634 -0.04482356 -0.021524146 -0.07968105 -0.11835771 -0.06792202
-0.050550587 -0.031402867 0.30223292 -0.110203356 -0.3617153 -0.3194551 0.1610722 0.009139617
-0.09691104 0.18509471 -0.13460433 0.3487022 0.19959301 0.09369747 0.16276842 -0.5087547
0.11327549 0.07002645 -0.13397533 -0.04357481 0.22673522 0.009764907 -0.12786105 -0.08812237
-0.13834824 -0.18774734 0.45918646 0.09452659 -0.31939173 -0.30637223 -0.2524728 -0.18098041
0.32137668 0.06541598 -0.13315196 -0.022345114 0.060651317 -0.05937559 -0.05767353 0.0028897533
-0.017119806 -0.01504891 -0.19826466 0.02466107 0.09015723 -0.077446625 -0.12475656 0.14050677
-0.11951248 -0.055379458 -0.04888179 0.01012901 0.0031362968 -0.077998474 -0.01556854 0.04756136
0.28279912 -0.026104022 -0.19406776 -0.04779197 0.26306653 -0.1569789 -0.24120696 -0.22499801
0.01436546 -0.10776405 -0.10998836 0.09392481 0.11719884 0.1370872 -0.022147821 -0.008022986
-0.13561395 0.00023909165 -0.32336044 0.02918174 -0.17444071 -0.01570835 -0.11604184 -0.017110918
-0.012639256 -0.11541379 -0.17789845 -0.01779069 0.04426582 0.021334808 -0.021268778 0.109965295
-0.29254365 0.12091334 -0.03775307 -0.18824069 0.15499617 -0.3618271 0.033096522 -0.2613094
0.36515722 -0.05927311 -0.05162363 -0.11845985 -0.385092 0.14204697 -0.0841949 0.03892921
-0.1333649 -0.285637 0.08324609 0.1218389 0.02439763 -0.39614198 0.24444297 0.4668
-0.08275223 -0.05351738 0.18101177 0.059948757 0.058732595 0.14073302 -0.13251774 0.17555004
-0.042626675 -0.25132662 0.20381404 -0.2760706 -0.16981037 -0.07669902 -0.013124998 -0.09587757
-0.26486173 0.058115423 -0.068832904 0.04496728 -0.18886617 -0.079035304 0.23953213 0.2169299
-0.25282368 -0.28355178 0.074664205 0.28855813 -0.28741556 0.15190305 -0.13780902 0.13191827
0.11505804 0.19206712 -0.37481016 -0.11011172 0.32923946 -0.09186703 -0.03917542 -0.034560185
-0.00038915107 -0.0898214 -0.04246864 -0.016164392 0.05032291 0.1290437 -0.17883952 0.037242834
0.014332328 -0.19257729 -0.0759167 0.19156401 0.11408881 -0.1339292 -0.10610638 -0.056062907
-0.066828616 0.08077258 -0.060987055 -0.18003356 0.29178953 -0.035668604 -0.10427681 0.01772026
00000000: c3c8 c0bb be88 c5bb 061b 82bd 6d6c 68bd
00000010: f381 123d 39cf 953e df45 d13d c149 98bd
00000020: ec78 25be b867 613e e27f 63bd 7954 fbbd
00000030: b77d 7fbe c621 ab3d 4e0b 26be fb0d bc3e
00000040: da85 ffbd 38cc eabd 6055 f33d f0a9 0cbf
00000050: d404 c43e 87fa 063f 2d56 073f ede5 ed3e
00000060: 825f f73d 5a00 e8bd e62d 213e c327 b73e
00000070: 0b44 b7be 30ec d0be f459 80be 6a41 babc
00000080: 7f33 bfbc 9747 333d 658c 6dbd 36b2 0e3c
00000090: fb29 153d f591 86bd e1ad 863d f6ff 3b3d
000000a0: d489 99bd adaf cd3d b68f 41be a012 863d
000000b0: 0387 c03d b696 abbd c9e8 8dbd a9a1 1fbd
000000c0: cf2f 4fbe bdc5 ee3d 0fd0 16be 253f 08be
000000d0: 7a1c b63e 0f7c cdbe 619a 143e cbba 19be
000000e0: 7896 66bd 40e5 dcbd 6aa6 483e 9881 e6bc
000000f0: 1310 093e 0a44 21be 28ed df3d 1e8a a73e
00000100: f052 aebd 30e6 09be 2823 c3bd b0dc 5d3b
00000110: 3c06 b73b be49 77be 9d7e 35be 7966 513e
00000120: e581 10be 4b2e 1abd 8ef4 1fbe e998 37bd
00000130: 6853 b0bc d12f a3bd 8765 f2bd b31a 8bbd
00000140: 220e 4fbd 4ba0 00bd 46be 9a3e 4cb2 e1bd
00000150: bf32 b9be 9e8f a3be 1cf0 243e 55be 153c
00000160: 4c79 c6bd 7889 3d3e b8d5 09be 1889 b23e
00000170: 1c62 4c3e 76e4 bf3d c4ac 263e bf3d 02bf
00000180: fbfc e73d 076a 8f3d d430 09be 807b 32bd
00000190: 472d 683e fdfc 1f3c 02ee 02be 8079 b4bd
000001a0: 29ab 0dbe d740 40be 7d1a eb3e 2897 c13d
000001b0: 5087 a3be d2dc 9cbe 1d44 81be ee52 39be
000001c0: 7c8b a43e d0f8 853d fd58 08be 1a0d b7bc
000001d0: 846d 783d d233 73bd 143b 6cbd 0462 3d3b
000001e0: d63e 8cbc b48f 76bc e405 4bbe 0306 ca3c
000001f0: 5ba4 b83d 569c 9ebd 5e80 ffbd 02e1 0f3e
00000200: f6c2 f4bd 92d5 62bd 4638 48bd 26f4 253c
00000210: 548a 4d3b aabd 9fbd 3113 7fbc b3cf 423d
00000220: 0ccb 903e 1ad8 d5bc b3b9 46be 83c1 43bd
00000230: a8b0 863e 14bf 20be f5fe 76be e165 66be
00000240: 1b5d 6b3c 66b3 dcbd 9441 e1bd a75b c03d
00000250: f205 f03d 9660 0c3e 596f b5bc d872 03bc
00000260: 62de 0abe adb4 7a39 808f a5be 8b0e ef3c
00000270: 96a0 32be ccae 80bc 58a7 edbd 322c 8cbc
00000280: e214 4fbc 115e ecbd 032b 36be c8bd 91bc
00000290: 1450 353d 56c6 ae3c dc3b aebc 7c35 e13d
000002a0: 48c8 95be 6aa1 f73d f7a2 1abd 2bc2 40be
000002b0: 51b7 1e3e 6741 b9be 3890 073d 58ca 85be
000002c0: e3f5 ba3e 5cc8 72bd 4d73 53bd 149b f2bd
000002d0: c72a c5be c374 113e 606e acbd 3c74 1f3d
000002e0: cf90 08be 033f 92be ed7c aa3d ac86 f93d
000002f0: 8add c73c 1fd3 cabe 424f 7a3e 6900 ef3e
00000300: 007a a9bd 0a35 5bbd 265b 393e d48c 753d
00000310: 9791 703d 511c 103e bbb2 07be 64c3 333e
00000320: 4f99 2ebd e2ad 80be a1b4 503e 2059 8dbe
00000330: c5e2 2dbe 6014 9dbd 3b0a 57bc 765b c4bd
00000340: f59b 87be 700a 6e3d 44f8 8cbd 9c2f 383d
00000350: 2266 41be 43dd a1bd e947 753e df22 5e3e
00000360: 1b72 81be b32d 91be 8ce9 983d e4bd 933e
00000370: 2228 93be 798c 1b3e cf1d 0dbe 9515 073e
00000380: 8da3 eb3d 3ead 443e 1ee7 bfbe 4182 e1bd
00000390: 1392 a83e c824 bcbd 6876 20bd fb8e 0dbd
000003a0: f906 ccb9 48f4 b7bd 99f3 2dbd 306b 84bc
000003b0: 651f 4e3d 0824 043e b521 37be f18b 183d
000003c0: 24d2 6a3c fb32 45be 377a 9bbd 5b29 443e
000003d0: 65a7 e93d bc24 09be 4d4e d9bd 38a2 65bd
000003e0: 71dd 88bd 186c a53d 90cd 79bd b85a 38be
000003f0: 7065 953e 3e19 12bd 158f d5bd 142a 913c
