FSRCNN/FSRCNN_torch/FSRCNN_48_12_4_X3_150.pth (torch, 59723 bytes, 22 tensors)

weight f4 [48, 1, 5, 5]
00000000: ae84 b2bd 3635 05bc 844d 63bd 70f2 abbc
00000010: 5712 98bd 414b d93d e768 403d 0e94 b63d
00000020: fdca ddbd a35b b03c 1260 ebbd dc49 04bd
00000030: 736e 113f 9d9e 0dbe 545d 0b3e 036e 0a3e
00000040: b68f 393c 68c0 5ebe e2f2 0b3e f6e5 0bbe
00000050: 375a 52bd 9c26 d7bd e58c a6be 5a9d 96bc
00000060: 386b 1f3c 3e50 bf3d 7728 18bd 381e 93be
00000070: 670f 183e 9e38 f83d 6aa8 0bbe a4c7 b4bd
00000080: 1df7 fbbd 0b37 733d 9fd6 14bd 5cb3 8bbd
00000090: 159d 823e 2749 0abf 4edb 3ebd a4c1 68be
000000a0: 0777 8a3d 493f cdbc 727d fb3c d47e 18bc
000000b0: dbd0 3d3e 313c 893c a72e a0bc 57b8 85bd
000000c0: 6f8c 1bbd c4ec 723d 2004 af3d 14df 703d
000000d0: 8790 60bc 4868 17be 41e7 853d 888d 40be
000000e0: 73c7 2a3d b746 513d 22bd 6abd 77de cfbc
000000f0: 2f9e ae3c 9dcc db3c 2edf f7be 2393 8abe
00000100: 58cd e2bc a120 ea3d 59e5 b9bd 5c9b 0ebe
00000110: 8619 2abd 7dd2 b63d eb4c dbbd 289c 673e
00000120: 699c 0abe fde5 4a3e 4c0b 2fbe 136e 3ebc
00000130: 0491 2d3d 4842 c53e e483 563e e86f 1e3e
00000140: 8e8d 533d 5693 743d 31f3 7abd 327a f4be
00000150: 833a 13be f391 1c3e e272 08be 324f 1dbe
00000160: b58e 8b3e 6c6e 88bd 4275 aebd 4be5 223e
00000170: ee09 3f3d 104a 9abd a336 d23d d82a 023e
00000180: 38a9 8cbe 1619 75be e0d8 813d 1977 5ebe
00000190: 6263 5bbc 2f97 27be e43f c83d 76ee 43bd
000001a0: 35de 653d d4de 8b3d 766c 133d 12b5 67be
000001b0: 1370 03be 8a3e fe3c c305 78be b155 e6bd
000001c0: 5fef 113f fab5 0fbe 418d 91be c539 a23a
000001d0: 49ef debd a58a f3be 74ba fd3d 6ae0 813e
000001e0: a06e df3d b2fb 113e 4de0 5f3d f091 ae3c
000001f0: bb3d 1bbe afed adbd 2b72 3cbe f1ba 87be
00000200: c243 853e bac8 653e b175 ffbb 9617 b53c
00000210: 0886 0bbe 83ca 6e3e ae46 f8bd 6e44 5d3e
00000220: 9c9e 3b3e a6d6 cfbe eee8 ed3e dad3 5f3c
00000230: c7bb eabd 73a0 a13d ff69 2c3d 959b 063d
00000240: 52dd d2bd 25dc 943d f2f2 48bd 1d82 523d
00000250: eb33 2abd fd16 843c 2fc4 7a3e 9072 f9be
00000260: 10c3 8dbd 139a b2bf 0fc2 97bd 9967 bc3e
00000270: e871 3cbe 6ab4 b03e 3618 a33e 65bf d13d
00000280: 3d9f b1bd 9ff4 4bbe fc76 f73d 4969 99be
00000290: 67c3 7bbe 7918 5cbf bf5a 90be a4ea 963e
000002a0: c0bf 73be a436 e4bd 2514 233d ff4a 83bc
000002b0: c2d2 263e 5401 163e 750a 033e 5741 c0be
000002c0: c1b0 be3d 7b5c 633e 55a4 2abc c900 bbbd
000002d0: ea76 913e 48e6 67be 0898 e63c 4850 acbd
000002e0: 05c3 d93d 98d6 193d 823f 81be ba19 ffbe
000002f0: f31e 69be 9ba1 193c ca64 39be 610b 0f3d
00000300: 7013 54bc 0423 783d 5784 c8ba 7cf7 003e
00000310: f76b 3ebe c0e5 033e 2271 1d3e 9e68 c1be
00000320: badc 90be 5421 0fbe d0ae 12bf e6a6 88be
00000330: 7735 efbc 40ee 65bc 74d0 473d 8ec3 443d
00000340: eef8 51bd 7261 cebc dcbe 9f3e 9121 15bd
00000350: adbc 2a3e 7f58 533e 9d80 513e 8362 e0be
00000360: 8ce0 e2be abaa 12bf fa77 273c 26ef b7bd
00000370: 9347 4fbe 20bc b73e e18b 83bd a61e 1cbe
00000380: e170 963d f0d7 b03c 405b cd3d 395a 02bd
00000390: 5dcc fd3d b21e 1d3e 002e aabc 343c ed3e
000003a0: 3a06 543d cb2d 81be dbb2 1ebe 8339 8cbd
000003b0: 3425 07bf 3ac3 93bc 4a09 da3d 42c2 3dbd
000003c0: c34d d2be ce60 e5bf 56fb 21bf 7e9d 483e
000003d0: 7cb7 233e d166 4e3e 5149 a63e e3d1 cd3d
000003e0: d830 81be abf6 c03d d704 d2bd aa7b 073d
000003f0: 9a37 2fbe 81d6 b2bb 1ca7 a8bd 2af9 f0bd
-0.08716713 -0.008130362 -0.055493847 -0.020989627 -0.07425373 0.10610057 0.046975043 0.08914958
-0.108297326 0.02152807 -0.11492933 -0.032297 0.5680916 -0.13830037 0.1360982 0.13518529
0.011325767 -0.21753085 0.13666871 -0.13661942 -0.051355567 -0.10505411 -0.3252937 -0.018385578
0.009730153 0.09341477 -0.037147965 -0.28733993 0.14849626 0.12120174 -0.13638464 -0.08827141
-0.123029925 0.059378665 -0.03633749 -0.068213195 0.2551047 -0.5401787 -0.046595864 -0.22730118
0.06760984 -0.02505459 0.030699465 -0.009307582 0.18536703 0.016752334 -0.019553496 -0.06529301
-0.037975725 0.05930783 0.08545709 0.058806494 -0.013706333 -0.14785874 0.06538249 -0.1880399
0.041694116 0.05109283 -0.057309277 -0.025374634 0.021315662 0.026830966 -0.4841246 -0.2706538
-0.027685806 0.11432005 -0.09076948 -0.13926452 -0.041528247 0.08926866 -0.1070803 0.22618163
-0.13536228 0.19814296 -0.17094153 -0.011622923 0.042374626 0.3852713 0.2094875 0.15472376
0.05164867 0.059710823 -0.06126708 -0.47749478 -0.14377789 0.1529005 -0.13325074 -0.15362242
0.27257314 -0.06661686 -0.08518459 0.15907781 0.04664033 -0.075336576 0.102643274 0.12711656
-0.27472854 -0.23935351 0.06340194 -0.2172512 -0.013390394 -0.16366266 0.09777811 -0.047834836
0.056120116 0.068296105 0.03599211 -0.22627667 -0.12835722 0.03103568 -0.24220948 -0.11246813
0.57005876 -0.14034262 -0.2842808 0.0012376836 -0.10885484 -0.47566715 0.12389079 0.25366527
0.10909772 0.1425617 0.05465727 0.021309823 -0.15160267 -0.084926 -0.18402927 -0.26509812
0.26028258 0.22439852 -0.0077960123 0.022105973 -0.13625348 0.2331944 -0.12122856 0.21608135
0.18322223 -0.4059345 0.46466774 0.013661349 -0.11461597 0.078919314 0.042093273 0.03286322
-0.1029612 0.07268552 -0.049059816 0.051393617 -0.04155342 0.016124243 0.244889 -0.48720217
-0.06921971 -1.395327 -0.074100606 0.3679779 -0.18402827 0.34512645 0.3185441 0.10241584
-0.086729504 -0.19917534 0.12083241 -0.2996314 -0.24586259 -0.8597484 -0.28194234 0.29475892
-0.23803616 -0.11143234 0.039814133 -0.016026972 0.16291335 0.14648944 0.12796958 -0.3754985
0.09311057 0.22203247 -0.010415156 -0.09131009 0.28411037 -0.22646439 0.028148666 -0.0841375
0.106329 0.03755817 -0.25243765 -0.49824315 -0.22765712 0.009376909 -0.18104854 0.03492296
-0.012944087 0.06058027 -0.0015298229 0.12594408 -0.18595873 0.12880611 0.15375188 -0.3777513
-0.282934 -0.13977557 -0.5729799 -0.26689833 -0.029200299 -0.014033854 0.04878278 0.048038058
-0.05126279 -0.02519295 0.31200302 -0.036408965 0.16673537 0.20639227 0.20459218 -0.43825158
-0.4431194 -0.5729167 0.010221476 -0.08981161 -0.20242147 0.35885715 -0.06423164 -0.15246066
0.07345749 0.021587342 0.1002717 -0.031824324 0.12392495 0.1534374 -0.020773888 0.46334994
0.05176375 -0.2523025 -0.15497915 -0.06846907 -0.5279114 -0.018037427 0.10646303 -0.046327837
-0.41074952 -1.7920167 -0.63274133 0.19591329 0.15987962 0.20156409 0.3247781 0.10049798
-0.25232577 0.09422048 -0.102548294 0.03307692 -0.17111054 -0.0054576998 -0.082349986 -0.11766274

bias f4 [48]
00000000: e839 f63d 5639 203e 1732 503e dbf2 83be
00000010: 7926 243e ac28 44be c3a5 0bbe a41a 5c3e
00000020: 1677 6cbb a063 e7bd 2736 87be 5123 57bc
00000030: 319d 2dbe a6d8 7f3d 9236 10bd 6bc8 06bc
00000040: 61ac f73d a545 adbd 78b9 0a3d 532f db3c
00000050: 1052 5e3e 03ea 8abe 47b3 25bd fbcd 98bd
00000060: 4e44 f4be 5269 5b3d 784b 91be 16b1 61be
00000070: 6174 3dbe 8baa 28be 7c39 fcbd 823d 0fbe
00000080: 65f9 53be 452e 383d 1724 8abe 05c6 74bd
00000090: 079e 9b3d 070f d13d b364 78bd 4a6f 54be
000000a0: 672e 0e3d e8c2 01bf e446 c33d 70c7 89bd
000000b0: 70d3 d63d 18a3 1ebe a371 873e 6112 94bd
0.120227635 0.15646872 0.20331608 -0.25771222 0.16030301 -0.1915614 -0.13637452 0.21494538
-0.0036081723 -0.11298299 -0.26408502 -0.013130979 -0.16954495 0.06246247 -0.035208292 -0.008226494
0.120934255 -0.08460549 0.033868283 0.026755964 0.21710992 -0.27131662 -0.040454175 -0.07461163
-0.47708362 0.05356724 -0.2837789 -0.22040209 -0.18501426 -0.16471307 -0.12315652 -0.13988307
-0.20700605 0.044966 -0.2698066 -0.05975916 0.07598501 0.10207944 -0.06064291 -0.20745578
0.03471222 -0.5068803 0.09535006 -0.06727493 0.10489547 -0.15491903 0.26453885 -0.07230068

weight f4 [48]
00000000: e26d d3be 6dc7 943e f8d5 0d3e cea0 a4bb
00000010: 450f ba3e 459e 18bd 8742 49bc 9d4f 123d
00000020: 7327 1fbb 8cae 003b 7a36 7e3f cda3 0dbc
00000030: 51f1 003e bd78 9cbd 4b66 80bb 1aeb 64bb
00000040: df68 f23d 1e9b 6a3c 6187 c23c ab2e 583f
00000050: 9ef0 723f 8b98 083d ecb1 b43f 37dd f53d
00000060: ae8c 17bc c0c6 823f 7cd0 7d3c 5d07 873f
00000070: dea8 7f3f 0450 b3bb 5a37 863e 1b50 533f
00000080: 6f28 06be 9eff 5abe 3fb8 b23d 597d 9d3e
00000090: 0fd8 8f3e a074 413e c278 fb3c 3a53 ca3d
000000a0: 5ea0 5f3f 1679 20bc f436 563f e273 76bc
000000b0: 13f6 04bb 0981 8f3f cfd0 793f 33ae 8c3f
-0.4129477 0.290584 0.13851154 -0.005024052 0.36339775 -0.037260313 -0.012283928 0.035720456
-0.0024284988 0.0019635288 0.99301875 -0.00864501 0.12592055 -0.076402165 -0.0039184443 -0.003493017
0.11836409 0.014319209 0.023746194 0.8444621 0.948984 0.0333486 1.4116797 0.12005084
-0.009249849 1.0216904 0.015491601 1.0549122 0.99867046 -0.005472185 0.26214105 0.82544106
-0.13101362 -0.21386573 0.087265484 0.30759695 0.28094527 0.18892145 0.03069723 0.098791555
0.87354076 -0.009794494 0.836776 -0.015042277 -0.0020288273 1.1211253 0.9758424 1.0990661

weight f4 [12, 48, 1, 1]
00000000: 6d29 81bd 7417 26be 9dc0 41be 239b 20bd
00000010: 59b6 a3bd f7fc c23c 59a8 b43d c9db 143d
00000020: 88c3 ab3d c706 4abe 990f 1e3e 28bc 393d
00000030: f9b6 933c 739d a53d 7d31 fc3c fda2 f83c
00000040: ff3a 02be b123 2e3b 06bc 05bc 5e4f 14be
00000050: 61f4 fcbb 84a7 8bbd 269d df3d 40fd 303d
00000060: c1f3 2ebe 85de d93d 6dc3 cc3d 2dd7 2e3c
00000070: 998b 063d 3a79 89bd 3ec8 323e fca6 8a3d
00000080: d21c 063e 1693 133d 292c 863d dac8 293e
00000090: 0bf9 47bd 053d 47bc 8987 8bbc 34dd 7b3d
000000a0: c91e 2e3c 5c89 eabd 9ccf 643d 59e2 f7bc
000000b0: ba3e 8cbd a027 713d 55d1 35bd e881 e83d
000000c0: 51bc a7bc cac2 20bf 90df 58bd 5da1 cd3e
000000d0: 060c 763d 27f2 7c3d c25f 07bf 9345 653e
000000e0: 649f 58be bfb3 1a3e 85d1 1a3e 8b2a 543d
000000f0: ca44 593d 1a6e 4abe 7f7e 913e 7541 4ebe
00000100: 8e0e c0be 7b93 eb3d 521a ab3d 78db 99be
00000110: 939f 613c 14e7 4f3d ed34 4c3e cf5a 2dbe
00000120: 8600 82bd 93eb f5bc dc98 80be 7362 42be
00000130: 8000 febe c6fd 05bf 5313 123e 338d 78bd
00000140: 3123 da3d 79dc fbbd ccae c2be f657 ba3d
00000150: c19f 10bf f43f a73e 8004 8f3e a458 05bd
00000160: 2183 56bc fbc9 d33e 53c1 22be 053d f93d
00000170: 8485 cc3c 5915 003e f65f 763e 51ff a73e
00000180: 91d7 afbe 79d2 d63b c44c 4e3e 3564 133e
00000190: acf3 78be 7099 6abe f3fe 7dbf 7a93 873e
000001a0: d7ec cebe 7ed7 3ebe ba58 84be 0bc8 563d
000001b0: a057 663e ab85 3f3e 1bd9 a33e f2e4 8f3e
000001c0: b80a c93e fa52 bfbd 7d69 12bd 4f86 abbe
000001d0: 8afb 073e c6ff f03e ea27 febd 5d31 1a3e
000001e0: 8841 65bd ef84 67be fc62 273f 50eb d4be
000001f0: 309c 45be c7ae f8bd 4dbb b6bd 60c9 afbe
00000200: 7a8b 0bbf 22f7 24be acf1 c9bc bc82 e33d
00000210: 6ee1 183f 4d32 803e 0053 4e3d abf6 ae3d
00000220: d50c 85bd 0959 b7be aa34 c23e af10 d23e
00000230: aff1 05bf 84dd 6bbe 6c5a 233c a875 ab3e
00000240: 39c2 6e3d d6fd ca3d c6b7 fb3e 4e35 0b3d
00000250: c8bf 85bd 4ac1 fa3d 9866 b93d e224 073e
00000260: d293 a63e d6cf d3bd d62e 9fbd a82a aabe
00000270: 458c e53d b8ca 08be 50dd c1be 89c0 babe
00000280: 779a 9bbe 41b1 da3c 0c7f 543e 8842 f8bd
00000290: 2eda 48be b009 a53e d0e0 ecbc 3272 fa3d
000002a0: 3144 15be e297 303d 6781 823e b89c c23d
000002b0: 0777 1bbd 2809 9cbe 1c1d 4cbc 3ffd a63d
000002c0: 10e1 cd3b 32fb f4bb 4c4f 1ebe 0683 debc
000002d0: a03c e2bc 7843 2e3e 64a7 81be 1d5f 6d3c
000002e0: 86ca 1f3d d1ff a13e 49ac f3bc b366 13be
000002f0: 00a6 20be 44a7 543d 57ed 243e 1c72 4c3d
00000300: 23ee 7d3d 1d7e b6bd 41a0 bebd 0f6e 15bc
00000310: b7d8 cf3d f722 9fbc dd50 82bc 4dab 7bbd
00000320: 5579 d5bd 5a9e 34bd 43ef abbc ca60 783d
00000330: a416 453d 4902 283d cb31 893d 3ad6 053d
00000340: 44c4 e53c 2d13 42bd a407 f3bb 9ee0 9c3e
00000350: 6066 92be bb76 49be e0fb dc3c 3385 11bc
00000360: ae7c ac3c 7a6e 1a3e 884a 24bd 3841 b43e
00000370: 3935 063d e8c8 e03d c78b b9bc 1a84 5d3e
00000380: 9252 b9bc a604 4f3d e0ab 053d 3780 6abc
00000390: 0426 bebd bbdf 2abe 8e2f 903c bdb8 bf3c
000003a0: d7fc 0b3e f136 f9bc b2fa 97be 6839 a03c
000003b0: 9d4e 753d bfd1 783e fe86 3ebe ebdb 4cbe
000003c0: be63 2e3d 811b a4be 38cd c8bd 6a5d 3cbe
000003d0: bfac c33e 0ca3 9ebe b36e e2be a55f 023f
000003e0: 282e 043f e1ea 563f ee8a 3cbe 4aaa 98bd
000003f0: 268a aabe 6529 4d3e 3b31 4b3e d650 d73d
-0.063067295 -0.16219884 -0.18921132 -0.03921045 -0.079937644 0.023802264 0.08821172 0.036342416
0.08386904 -0.19729148 0.15435638 0.045345455 0.018031584 0.08086672 0.030785317 0.030351156
-0.12717818 0.0026571567 -0.008162504 -0.14483401 -0.007719562 -0.068190604 0.109186456 0.043210268
-0.17085172 0.10638145 0.09998212 0.010671419 0.032847974 -0.06712575 0.17459199 0.06770131
0.13096932 0.036028944 0.06551392 0.16580525 -0.04882149 -0.012160544 -0.017032402 0.061490253
0.010627457 -0.114519805 0.055862054 -0.030259298 -0.06847902 0.05887568 -0.044389088 0.11352903
-0.020475538 -0.62797225 -0.05294758 0.40162173 0.06007006 0.061754372 -0.5288049 0.22389822
-0.21154553 0.1510763 0.15118988 0.051798385 0.053044118 -0.19768563 0.2841682 -0.20142157
-0.37511104 0.11502739 0.083546296 -0.30050254 0.013770956 0.050757483 0.19942065 -0.16929172
-0.06347756 -0.030019557 -0.25116622 -0.18982868 -0.49609756 -0.5234035 0.14265184 -0.060681533
0.106512435 -0.12297911 -0.38023984 0.090988085 -0.56493765 0.3266598 0.2793312 -0.032555237
-0.013092787 0.41365036 -0.1589406 0.12169842 0.024966009 0.12508143 0.24060044 0.32811978
-0.34344152 0.006555852 0.20146471 0.14393695 -0.24311703 -0.22910094 -0.99217147 0.26479703
-0.4041507 -0.18636891 -0.25848943 0.05243687 0.22494364 0.18703334 0.32001576 0.2810436
0.3926599 -0.093419984 -0.035745133 -0.33500907 0.13279548 0.4707014 -0.12409957 0.15057893
-0.0559707 -0.22609304 0.65385413 -0.4158578 -0.19297862 -0.12142711 -0.089224435 -0.34333324
-0.545097 -0.16109899 -0.024651371 0.1110892 0.5971898 0.25038376 0.050372124 0.08543142
-0.06496588 -0.35810116 0.37930804 0.41028354 -0.52321905 -0.2303372 0.009970289 0.33488202
0.058290694 0.099116966 0.49163646 0.033986382 -0.0653072 0.12243898 0.09052771 0.13197663
0.32534653 -0.10342376 -0.07772605 -0.3323567 0.11208395 -0.13358581 -0.3786416 -0.36475018
-0.30391285 0.02669585 0.2075159 -0.12122065 -0.19614479 0.32233953 -0.028915793 0.12228812
-0.14576794 0.043113597 0.2548935 0.09502548 -0.03795531 -0.30475736 -0.012458112 0.081537716
0.006282933 -0.007476234 -0.15459937 -0.027162086 -0.027616799 0.17017925 -0.2532302 0.014488009
0.0390115 0.31640485 -0.029745238 -0.14394645 -0.15688324 0.05191733 0.16106163 0.04991351
0.061994683 -0.08910773 -0.0930791 -0.009120478 0.10148757 -0.019425852 -0.0159077 -0.061442662
-0.10423533 -0.04409633 -0.020988112 0.06063918 0.048117295 0.041017804 0.066989504 0.032675005
0.028047688 -0.04738157 -0.0074166823 0.3064012 -0.2859373 -0.19674198 0.026975572 -0.008881855
0.021055546 0.15081206 -0.04011014 0.35206008 0.0327656 0.1097582 -0.022649659 0.21632424
-0.02262238 0.050541542 0.032634616 -0.014312795 -0.09284595 -0.16686909 0.0176008 0.02340352
0.1367067 -0.030421706 -0.29683453 0.019558623 0.059889425 0.24298762 -0.18606183 -0.20005767
0.04257559 -0.32052234 -0.09804767 -0.1839501 0.38217732 -0.3098377 -0.44225082 0.5092719
0.5163293 0.83952147 -0.18412372 -0.07454355 -0.33308524 0.20035322 0.19842999 0.10513465

bias f4 [12]
00000000: fabf dfbd 731d 69be 12f6 3ebe d29b 7f3b
00000010: 1186 07be 2edd 6cbe b620 7bbe 16ce 6dbd
00000020: 12ec be3d abe2 663d 90aa 27bd df7c 463e
-0.109252885 -0.2276514 -0.18648556 0.0039002788 -0.13234736 -0.23131248 -0.24524197 -0.058057867
0.093223706 0.05636851 -0.040934145 0.19383572

weight f4 [12]
00000000: b502 863f 165e 8bbc 719d b5ba 84ba 513f
00000010: 4b07 833f 48a4 a8bc 8fb1 373e 6f05 b43a
00000020: f8c0 473f 88e5 243f f308 ab3e bdbd 733f
1.0469576 -0.017012637 -0.0013856125 0.81925225 1.0236601 -0.020586148 0.17938827 0.001373453
0.7802882 0.64412737 0.33405265 0.9521139

weight f4 [12, 12, 3, 3]
00000000: a3c8 823d dc89 ba3d 6fa1 383c 33f0 093d
00000010: 3ef6 483e 3768 8f3d 65fc 1dbd eef9 ee3d
00000020: 32a6 25bd 6081 453e 0900 12bd 8fde efbd
00000030: 31af f0bb 98e1 893e 0420 54be ecfe 8d3c
00000040: 2661 4dbe 288e 4f3e 0d07 09bd f0ce c73d
00000050: f392 87bd 6659 4f3c 9e73 54be 8c16 c6bd
00000060: de40 37be 37d8 e33c 843b 1cbe f24e 833d
00000070: 9bf4 23be f0fd 4bbd 5098 4dbe 4a23 3d3e
00000080: 30ef 3bbe f976 bd3d 0668 3e3e 4fe7 9e3c
00000090: 2510 32be d3f9 fdbd 147f 7ebc 0199 8cba
000000a0: fad2 1f3e e439 783d 22ff 093a 8ecb ce3d
000000b0: daa7 b0bc 1981 b03d 5929 953d 60f5 133f
000000c0: 19fa 29be eda7 d83c f5e2 c73d 9de7 9fbd
000000d0: 23eb 713c e665 283d f76f b53c 40b2 f4bd
000000e0: 07d3 efbd f55d 173e 3af4 c2bd aec0 353c
000000f0: a031 01be f942 bebd 7cec ee37 415e 433c
00000100: 811f 5bbe 9bbe 913d 849f 543e 7622 2ebe
00000110: a007 89be 83c5 7bbe 73b4 1d3d 6dcc 713c
00000120: 4989 a63d e4a0 33bd e46b 683d 4116 193e
00000130: ec2c 82bd 2d62 02be 7a34 13bd 8e01 d6bc
00000140: f320 f43d 8c14 97bd b9c9 dbbb 91b1 ccbd
00000150: 3155 b6bd 0fe7 3e3e 6a4c 123e fd81 8ebd
00000160: 7e79 edbd 0b1d 94bd 86ab 083e 0e4c 19be
00000170: 12ff 6fbd 98c3 07be d77b 0c3e 3ee2 08bc
00000180: 8fbc 22be e08e 053e 186c 0ebd a9ff 133b
00000190: 2ab0 113d 18f2 7fbd bd86 4a3d d68a 8bbd
000001a0: 19f6 73bd ac08 77ba 8ee2 76bd d504 4f3c
000001b0: d9af f9bd 9da3 3d3d 8768 d3bd df3c 37bc
000001c0: 09ef 29be 6503 b3bd 2f7e c13c ef62 b43d
000001d0: 6b58 2f3d 79ce e03d 39d9 f8bd 982d 8b3e
000001e0: 5422 0bbe b360 393e 0190 0a3e 9685 16bf
000001f0: 6eb9 d0be 7e56 dd3d b797 f53e a3d7 d2be
00000200: 15c2 22bd 512c 63be ac25 733f 3094 3d3c
00000210: a7f2 bcbe 7509 0ebc 7a0d a9bd cfba 4f3d
00000220: 78c3 52bc ba9d 1f3d 8868 be3e 92c9 d93d
00000230: cca9 60be d14b 663e 1e66 6cbe 92b7 ec3d
00000240: b57b b33d b83f a7bc f0ed 503d 286f 023f
00000250: af47 e2be fc5e babd 561e 853d 4d65 07bc
00000260: 67c7 e2bc ab11 bb3d 6a0d a7bd a9df 62bf
00000270: d4d5 d83d 68b0 803d 1462 df3d b198 5cbe
00000280: 782a 293b 6654 80bd ae83 ff3d bdc2 8ebc
00000290: e5ad b7bd b394 993e 7bec a2be d7ff 003e
000002a0: 78e1 52bc 6366 22be ecc8 063e 02db 603e
000002b0: 6ac9 ccbe 2470 373d 377d c93c af28 073c
000002c0: a5ff 9bbe 97ac d2bd 464c 9a3e 207b 9fbd
000002d0: 1744 253e 69b6 28bd 6f82 dabd 3b43 15be
000002e0: e0f0 1bbd 2677 fdbc 78ca 733e 1b3f d23d
000002f0: 28c6 f33c 1628 c13d f71f 8abe 26a9 433e
00000300: 822f 55be b094 923e a6aa 7ebd 22c9 da3d
00000310: d871 c7bc 66ab 9dbd cae9 cabb 813b ee3c
00000320: 7632 fd3c 497d dfbe 03ed 923e 8e6c 62be
00000330: 2ebe 713e 3686 423e 1dd8 2f3e 443b 17be
00000340: 092f 0cbe 8e7f da3d 11c9 05bd 37b4 6f3e
00000350: 6bbb 14bc 7d4b e1bc 06df 753d c359 8fbd
00000360: f677 5a3d 828d d2bd f902 bfbc f244 c7bd
00000370: 1b39 ca3d ffdf 5d3e c238 35bd 478f cdbd
00000380: 38f7 113d 3830 2abf a267 f53e 7b3c 79bd
00000390: e15c a8bd af9e c2be d9fd ccbe 4f7f 36be
000003a0: b449 e23d 74d5 57be 1a91 a9be a5ef 16be
000003b0: 7717 013e fe5a f33e 7389 08bf 4488 b13e
000003c0: 6fb4 cbbd cc26 163e cb44 8a3d f7d8 043e
000003d0: 0547 55bd aa7c 8c3e 785e e8bc d494 a7bd
000003e0: b9fb a4be bd48 20be d645 abbb 1a07 c9bc
000003f0: e06f d8bc b9a1 5a3d 2dd7 cf3c 4165 af3c
0.06385925 0.09108326 0.0112689575 0.033676337 0.19625184 0.07002299 -0.03857078 0.11668764
-0.0404417 0.19287634 -0.035644565 -0.117123716 -0.007345103 0.26929927 -0.20715338 0.01733347
-0.2005659 0.20269072 -0.03345399 0.09756267 -0.06619825 0.012655592 -0.2074723 -0.09672269
-0.17895839 0.02781306 -0.15257078 0.06411542 -0.16011278 -0.04980272 -0.20077634 0.18470493
-0.18352962 0.09251208 0.1859437 0.019397406 -0.17388971 -0.12401166 -0.0155332275 -0.0010726751
0.15607825 0.060602084 0.0005264153 0.10097419 -0.021564413 0.086183734 0.07283277 0.5779629
-0.16599311 0.02644726 0.097600855 -0.078078486 0.014765534 0.041112803 0.022148116 -0.11948061
-0.11710172 0.14781936 -0.09519239 0.011093302 -0.12616587 -0.09290118 2.8481933e-05 0.011924327
-0.21398737 0.07116433 0.20763975 -0.17005333 -0.2676363 -0.24587063 0.038502168 0.014758212
0.08131654 -0.04385461 0.056743518 0.14949895 -0.063562244 -0.12732764 -0.035938717 -0.026123788
0.11920347 -0.07376966 -0.006707397 -0.099948056 -0.08902968 0.1864283 0.14286962 -0.06958387
-0.115954384 -0.07232102 0.13346681 -0.14970419 -0.058592863 -0.13258207 0.13719116 -0.008354722
-0.15892242 0.13042784 -0.034771055 0.0022582805 0.035568394 -0.062486738 0.049444903 -0.0681359
-0.05956087 -0.00094235945 -0.060274653 0.012635429 -0.121917434 0.046298612 -0.103226714 -0.011183946
-0.16595091 -0.08740882 0.02361974 0.088079326 0.04280893 0.109768815 -0.12150807 0.27183223
-0.13587314 0.18103294 0.13531496 -0.58797586 -0.40766472 0.10807513 0.47967312 -0.41180143
-0.039735872 -0.22184874 0.9497936 0.011570975 -0.3690388 -0.008669247 -0.082545236 0.050715264
-0.012863986 0.03896878 0.37189126 0.106341496 -0.21939772 0.22489859 -0.2308583 0.11558451
0.087638296 -0.020416126 0.051008165 0.5095086 -0.44195315 -0.09100148 0.06499927 -0.008263898
-0.027682973 0.09134229 -0.081568554 -0.8862253 0.105876595 0.06283647 0.10907379 -0.21542622
0.0025812667 -0.06266098 0.12476288 -0.017426843 -0.089687146 0.2999626 -0.31821045 0.12597595
-0.012871139 -0.1585937 0.13162583 0.21958545 -0.39997417 0.04478468 0.02459584 0.008249446
-0.3046848 -0.10286825 0.30136317 -0.07787156 0.16139255 -0.041189585 -0.106694095 -0.14576428
-0.038071513 -0.030940603 0.23807704 0.10265943 0.029757574 0.09431474 -0.26977512 0.19107494
-0.20818904 0.28629065 -0.06217446 0.10682894 -0.024346277 -0.07698707 -0.0061924206 0.029081108
0.03090785 -0.43650272 0.2869645 -0.22111723 0.23607704 0.1899651 0.17172284 -0.14768702
-0.13689817 0.106688604 -0.032662455 0.2340859 -0.009077887 -0.027501816 0.060027145 -0.069995426
0.05333706 -0.10280897 -0.023316847 -0.09729947 0.09874173 0.21667479 -0.04424358 -0.100370936
0.035636157 -0.66479826 0.47930628 -0.060848694 -0.0822084 -0.3801169 -0.4003742 -0.17822002
0.11049214 -0.2107752 -0.33118516 -0.14739855 0.12606607 0.4753036 -0.5333473 0.34674275
-0.09946524 0.14663237 0.067514025 0.1297339 -0.052069683 0.2743886 -0.028365359 -0.081826836
-0.322233 -0.15652747 -0.005226831 -0.02453952 -0.026420534 0.053376887 0.025371158 0.021410586

bias f4 [12]
00000000: 9f42 bcbc 685e 1e3b cfbc 78bc c946 9ebc
00000010: 47a6 a23c 445e 30bd 3928 ba3b 76c3 e23b
00000020: 1c4e 513d e16e 853d 4ebb 403a 110c c0bc
-0.022980986 0.0024165157 -0.015181734 -0.019320862 0.019854678 -0.04305865 0.0056810644 0.0069202734
0.05109988 0.06515289 0.00073521293 -0.023443254

weight f4 [12]
00000000: 7929 703f 186f abbe 1aaa 573f a437 813f
00000010: 6f08 803f 6fda 5a3e d8f1 1dbf f9c5 5f3f
00000020: e5d3 be3d 0ed6 803f 636d 53be e839 6e3f
0.9381328 -0.33483195 0.8424393 1.0095105 1.0002574 0.21372388 -0.6169715 0.8741146
0.093177594 1.0065324 -0.20647196 0.9305711

weight f4 [12, 12, 3, 3]
00000000: 49bf b33b 1e2c e63d 24c2 14bc 12ec 313d
00000010: cb56 493e 5833 f33b 9b49 073e f083 e33b
00000020: 227b 553d 3445 cfbc 938b 293c 7867 453d
00000030: 7344 733d 7620 4e3d d6ca 8abc bfc1 833b
00000040: 7939 d83d 9705 aebc b41d 8b3d 404f db3d
00000050: 0c5f 47bd c2a3 853d 259b 373e 652e 7cbd
00000060: ecef 8b3d 66d4 01be b61a 273d 5289 2c3d
00000070: 6174 6e3d 14d4 633d 2eff 0f3e 3f97 973e
00000080: 3894 ab3d a400 27bd b002 313e 4701 44bc
00000090: 0c20 5bbc a019 8abc 48d3 353c a33a bebd
000000a0: ab33 a6be 3f1a cabd fbb0 283d 033d aebd
000000b0: ba13 bd3d c56c efbd 3e60 c2bd bebc b53d
000000c0: 9cb6 053e a0c5 1bbe 3f61 cf3c 3021 133e
000000d0: 214f 86bd 5e00 c63a 312e 49bd 4b0e 3ebd
000000e0: c48f e9bd 7f27 a2bc b20a 80bc 9405 04bd
000000f0: fedb 903d 3af4 f53d 3a98 67bc 118c 06bc
00000100: e7a2 8e3d 829f 823d c4ed 0b3e 7664 5a3e
00000110: 9dd8 c33d f6f5 b3bc 98fe 6dbd 5882 a0bd
00000120: 3d00 18bc 0b6d d73a 902b 9abd acb7 f8bd
00000130: f996 193e edb3 0ebd 422b fabc 89e6 ccbc
00000140: b9f8 8fbc 0db8 3bbd 6a11 803c 0391 06bd
00000150: d86a 83be b506 1abc 0ae3 b43d 9c72 a03b
00000160: 6fbe 2dbd 730b 19be 0802 d0bc 6882 d9bd
00000170: 913c 853c dba1 cebd 660e 04be 54c3 90bd
00000180: a5a5 cc3c a67d a43d af20 aebd 4dd8 413c
00000190: 1da6 e2bd ec66 f8bc 378b b43d 67dd 4abd
000001a0: a118 fb3c 48da a3bd c8df e9bd 3753 d23c
000001b0: 2a14 90bc 85f6 a3bc 6f32 7dbd 604a 53bd
000001c0: 9023 abbd 4566 063d 0c6f acbd 577f a03c
000001d0: 63a6 febd 7dff f23c 53f6 693d 346b d63d
000001e0: 33d9 ab3d 3144 413d e32a 853c caec 47bd
000001f0: c1ee f23d 32db 0b3e 7cb8 e4bc fa78 f43d
00000200: aff6 433c 98aa bd3d 155e 853e 2b2a 16bc
00000210: 8928 673d 7aa9 60be ccdf 683d 17ed 933d
00000220: 7046 b43d 3bf7 093d 2d83 cf3d c79d f0be
00000230: 4b0d dbbb 021a 1a3d 3ef3 113a 7335 e33d
00000240: cb68 1e3e e45d 393c 3770 063e 0dab 96bd
00000250: 8761 283f 2d6d dcbc aa3b 1bbd 2a60 ddbb
00000260: ca7d 5e3d 24f8 98bc ca4c 10be 9f09 093d
00000270: cb30 b3bc 7748 0c3c 9f0c e83c 0edb 8f3e
00000280: 204d ea3d dfbe aebc 552a 063d 4ece ddbc
00000290: 4de5 ebbd 1c13 69bc c580 733d 7420 c23c
000002a0: ed00 5a3d 1196 da3d 8633 993d 67d3 09bd
000002b0: 312f a73d 1b7e ef3c 7450 f7bc 8482 a7be
000002c0: 94fb 3a3d 1670 d0bd 1733 023d e4e5 af3c
000002d0: c462 293d ff4c 0abc 461f 293b 0f8f 8ebb
000002e0: 4210 be3b 28d8 72bd 2c7c 77be f428 03be
000002f0: cead c9bc 7fcd 2f3d 4643 883a c20e 7dbd
00000300: 6d5a c2bd e360 bb3e d2e9 0a3d b076 a8bd
00000310: 3549 5b3d 2752 fcbd 8c5d 45be 85c6 54bd
00000320: bfb9 40bc 793f 593d 365c 863d a671 62bd
00000330: 3bec c13d 1d07 403d 894f 5a3d 7d48 883d
00000340: 4b61 05be 16a7 92bd bde9 82be 3eed c43e
00000350: f0db 083c b7e6 483d c3c7 80be 0cb4 abbd
00000360: f13e 03be 73e7 dd3d fe92 04bf 6142 663d
00000370: 882b 493e 9ae5 94be 06ef 0d3d 9851 18be
00000380: 225e af3d ca32 a43c 2777 ce3e 2cb7 2dbf
00000390: 4023 ce3b af06 36be a1a2 9bbf 36f7 1bbc
000003a0: 4f63 223e 2331 0d3e bce3 41be f4b6 56be
000003b0: da01 aabe 0b7f 1f3c 161a af3e 640d e23c
000003c0: c0b5 57be da5c 0f3e 107f 29be 4d7b 0d3c
000003d0: f140 60bd 129e 60bc cf66 0cbe db0f cd3d
000003e0: 5988 913d 7d05 86bc ea09 a83d 3415 e03d
000003f0: f9c2 fcbd 96c6 80bc 33a8 653c ec08 af3c
0.0054854495 0.112388834 -0.00907949 0.043438025 0.19662015 0.007421892 0.13211672 0.0069432184
0.05211938 -0.025301553 0.0103482185 0.04819438 0.05939145 0.050323926 -0.016942423 0.004020899
0.10557837 -0.0212429 0.06792775 0.10708475 -0.04867463 0.06525375 0.17930277 -0.061567683
0.06832871 -0.1267868 0.040796958 0.042123146 0.058216456 0.055622175 0.14062187 0.2960758
0.0837788 -0.040772095 0.17286181 -0.011963195 -0.01337434 -0.016857922 0.011097737 -0.09288528
-0.32461295 -0.09868287 0.041184407 -0.08507731 0.09232278 -0.11690668 -0.09491013 0.0887389
0.13057941 -0.15212107 0.025314925 0.14368129 -0.065580614 0.0015106311 -0.049116317 -0.04640035
-0.11404374 -0.019794224 -0.0156301 -0.032231882 0.0707321 0.12009473 -0.014135415 -0.008212105
0.06964665 0.0637808 0.13664919 0.21327385 0.095628 -0.02196787 -0.058104128 -0.07837361
-0.009277401 0.0016435696 -0.0752784 -0.12144408 0.14998998 -0.03483956 -0.030538205 -0.025012271
-0.017574655 -0.04582982 0.015633304 -0.032853138 -0.25667453 -0.009401013 0.08832367 0.004896475
-0.04241794 -0.14945774 -0.025391594 -0.10620576 0.016264232 -0.10089465 -0.12896118 -0.07068506
0.02498133 0.08031778 -0.08502328 0.011831355 -0.1106684 -0.030322514 0.088156156 -0.049527552
0.030651392 -0.08000618 -0.11419636 0.025674446 -0.01758774 -0.02001501 -0.061815675 -0.0515846
-0.083563924 0.032812376 -0.08419618 0.01959197 -0.124340795 0.029662842 0.05711968 0.10469666
0.08391037 0.047184173 0.016255802 -0.048809804 0.11861945 0.13657835 -0.02792 0.11937137
0.011960669 0.09261054 0.2604834 -0.009165327 0.05643514 -0.2193965 0.056854054 0.07222956
0.088024974 0.033683043 0.10132442 -0.46995375 -0.0066849343 0.03762246 0.0005567557 0.11094179
0.15469663 0.011313889 0.13128744 -0.07356844 0.65773815 -0.026907528 -0.037898697 -0.0067558484
0.05431918 -0.01867301 -0.14091793 0.03345644 -0.021873852 0.008562199 0.02832633 0.28096813
0.11440492 -0.021331249 0.032755215 -0.027075913 -0.11518345 -0.014225747 0.059448976 0.023697115
0.05322354 0.10673154 0.074805304 -0.033648875 0.08163298 0.029234936 -0.03018973 -0.32716763
0.04565008 -0.10177629 0.031787004 0.021471925 0.041353956 -0.008441209 0.0025805994 -0.00435055
0.005800278 -0.059288174 -0.24168462 -0.12808591 -0.02461901 0.042920586 0.0010396026 -0.061781652
-0.094899036 0.36597356 0.033914395 -0.08225763 0.053536613 -0.12320357 -0.19273967 -0.051947135
-0.011763035 0.053039048 0.065605566 -0.055284165 0.094688855 0.046881784 0.053298507 0.06654451
-0.13025396 -0.07160775 -0.25568953 0.3846225 0.008353218 0.04904815 -0.25152406 -0.083839506
-0.12816979 0.10835161 -0.5178679 0.056215648 0.19645512 -0.29081422 0.03465178 -0.14874876
0.08562876 0.02004375 0.4032528 -0.67857623 0.006290823 -0.17775987 -1.2159005 -0.009519389
0.15858196 0.13788275 -0.1893453 -0.20968229 -0.33204538 0.009734879 0.3419959 0.027594276
-0.21065426 0.14000264 -0.16552377 0.008635354 -0.054749433 -0.013709562 -0.13711093 0.1001279
0.071060844 -0.016360039 0.08205016 0.10941544 -0.123418756 -0.015719693 0.014017153 0.021366559

bias f4 [12]
00000000: 117f df3c 556c 28bd b164 143d fa16 77be
00000010: e6e9 f9bb eecb 1f3d e040 ae3c f27e d63c
00000020: 938c 4f3d 9410 76bd 3520 52be 3ee8 ec3d
0.02728227 -0.04111894 0.03622884 -0.24129859 -0.00762676 0.039012842 0.02127117 0.02618358
0.05067117 -0.060074404 -0.20520099 0.11567734

weight f4 [12]
00000000: 7f1f 753f 07dd 833f a8fa 363d ac44 423e
00000010: f082 043f 369f 293e 0363 0cbd 1714 983f
00000020: 0803 323d 1fea fdbd 8146 db3e f5f2 9d3f
0.95751184 1.0301827 0.04467264 0.18971509 0.51762295 0.1656464 -0.034274112 1.1881131
0.043459922 -0.12398171 0.42827228 1.233977

weight f4 [12, 12, 3, 3]
00000000: 4077 da3c 6fcc 47bd 2c3c 673b f5de d4bc
00000010: d230 1d3e bd5e 5d3d 0732 1c3d e8b1 1bbd
00000020: bca2 60bd a3cf 3bbc 878e 183d f971 8a3b
00000030: 48dc 95bd 8246 76be de04 83bc 2093 27bd
00000040: 3154 8fbb 590a 00bd ed1e ba3d e043 8039
00000050: 75c7 4bbd 0ce3 9ebe 8837 fd3d 8449 a6bd
00000060: 3bbc 5c3d 4587 193e 72af 2c3d 2a5d 1c3e
00000070: 071e 5f3e 6af1 82bd fae4 e93c 9037 9c3c
00000080: 8169 2dbd 4eba bf3d 2400 af3c 90e4 4d3d
00000090: dd13 33bc 0300 753d 22d8 503d d6dc f1bc
000000a0: 67d5 fb3d 647d 92bd fca8 62bd 5fee 873c
000000b0: 09d4 113d 9ba1 f73d 5739 bcbb 824e 52bc
000000c0: 891d 86be 4e8f c0bc 9128 553b 5174 1dbe
000000d0: ba85 12be 50a3 773d f316 383b e544 d93d
000000e0: 8854 b83d cc7d d93b 00e1 f53c 1363 543d
000000f0: aeeb 9eb8 9dd6 4fbc cc2d 54bd 3c47 2abd
00000100: bd6e e0bd 00d0 a0bc 1915 e93c 2382 45be
00000110: 8150 4f3d e468 dd3d 6172 0c3e 9b1a 9c3d
00000120: d010 37bc ab50 0ebd 6164 913e e112 1dbe
00000130: 2a61 cbbe b0d6 883d e86d 7a3c e140 1cbd
00000140: 7ef5 8abc 2053 093e ac68 2cbb 7c7c 463d
00000150: e219 8e3e d82b 3cbe a651 26bd b209 c13d
00000160: d291 7e3e 304b 9c3d 73f9 a03d 80c3 a13d
00000170: bf00 703d fc4f 93bd 66c5 96be c5a6 9e3d
00000180: 113f acbd 4dd3 23be 845d 343d 2291 92bc
00000190: 1d95 2a3d 5015 16bd 28b4 583d a8ef 0c3e
000001a0: e91e 9ebd 8ff5 b4bd f7d1 843d c750 f5bc
000001b0: 6262 c73c 5d97 223d 5c86 dabc 0deb e53d
000001c0: d420 503e 7a1a 313d 6624 a0bd 8335 293e
000001d0: d482 0cbd 85d2 0b3d e77a f43c 4b1d a9bd
000001e0: a115 473c 9a25 b8bd 04d2 cdbc 0f71 d6bc
000001f0: 3445 f3bd 370e 9abd 17e6 3cbe e4fe 313d
00000200: 5bf9 fb3d d53b e9be 13bf 46bd e556 08bd
00000210: f7e5 7fbe 2ddc b83d 8ad6 4fbd aa87 c63d
00000220: 2035 99bd 103d 943d ddcb 143e 2e34 04be
00000230: 4f70 f6bd 2717 203d ee2c 16bd 861c 09be
00000240: c41a 683b e26c c1bb e6a0 68bd 39d5 8a3d
00000250: 9cf8 d2bb b154 953d ab37 1dbd 97bf ee3d
00000260: cc81 cdbd ff4b 1dbe 0dbe b13d e4bc 3abd
00000270: 78b9 1ebe d52c 113d af6e d0bd 1c88 813c
00000280: fbe5 de3d 7e75 31bd d3a6 4fbd 6bdc 1ebe
00000290: c0d2 afbc eaab a9bd 545e 4cbd c354 a43e
000002a0: 5a8c d2bd b6f5 2dbe ab46 29bd a1f6 7bbd
000002b0: e467 3dbe f683 3dbc efea 1c3d c2af 173e
000002c0: 04a4 ccbd a035 31be b7d7 53bc 1db9 a3bd
000002d0: e5e4 543e bf6d d43e 761b 20bd 11d3 12be
000002e0: f124 0c3e 6d2a 70bd a9c5 90bc 2970 8b3d
000002f0: bcd1 3bbe b6ee cd3d 55f1 453d fbfb b63d
00000300: dbda 35be 8ee0 a13d 0d26 b6bc 37e6 7abc
00000310: a03a 48bd 516b 95bc 72d1 533c 3183 10bc
00000320: 5d69 52bd d57f cdbd a115 bebd 8d6d bfbd
00000330: 9d6a b53d 26a1 44bd 01fb 2cbd 15e4 0a3d
00000340: 0a04 303c 1714 863d 80af de3c ad27 253e
00000350: b0a7 8f3b 63c9 18bc be0f 24bc d487 b2bd
00000360: 9961 eabc 310c f43d cef7 103d 49e3 833c
00000370: 25bc 8c3e 0593 413e 648a 8d3d 2f68 c33d
00000380: 430e 56bd cb50 1d3d cccb 6d3e cea8 d53d
00000390: 1370 793d d6c6 22bf a4fa 72bd ec36 463d
000003a0: f0df bf3d a68a e73c e29b 8d3c cd33 f8bd
000003b0: 9adf 23bd 21bf 313e 0347 423e ea73 5dbc
000003c0: 34dd 63be 716b af3d 7e2c 03bc 1572 3abd
000003d0: ea82 4dbd e2a6 3bbd 7816 1c3d a8fb f6bd
000003e0: 70f7 8ebe 38d7 a93d 33be 823d 45a5 b5bc
000003f0: 895b b6bc 9e63 85bc abcb 93bc b387 46bd
0.026668191 -0.048778947 0.0035283668 -0.02598522 0.15350655 0.054045428 0.038133647 -0.03801146
-0.054842696 -0.011463079 0.0372453 0.0042250124 -0.07317406 -0.24050334 -0.015993532 -0.040911794
-0.00437405 -0.03125987 0.0908793 0.00024464633 -0.049750764 -0.31032598 0.12364107 -0.08119491
0.053890448 0.14993007 0.042159505 0.15269914 0.21788798 -0.06393702 0.028551567 0.019069463
-0.042336944 0.09361707 0.021362372 0.050266802 -0.010930029 0.059814464 0.05098737 -0.029524248
0.12296563 -0.071528226 -0.055336937 0.016593156 0.035602603 0.12091371 -0.00574414 -0.0128361005
-0.2619441 -0.023505833 0.00325254 -0.15376402 -0.14308825 0.06045848 0.002808985 0.10608844
0.09000498 0.0066373106 0.030014515 0.051852297 -7.577926e-05 -0.012685445 -0.051801488 -0.04157184
-0.10958622 -0.019630432 0.028452443 -0.19287924 0.050613884 0.10811022 0.13715507 0.07622262
-0.011173442 -0.0347449 0.28396896 -0.15339233 -0.39722568 0.066815734 0.015284993 -0.03814781
-0.016962763 0.13410616 -0.0026307506 0.04845856 0.27754122 -0.183761 -0.04060521 0.09425677
0.24860314 0.076315284 0.07860079 0.07898617 0.05859446 -0.0719299 -0.29447478 0.077466525
-0.084104665 -0.15998574 0.044034496 -0.01789147 0.04164611 -0.03664142 0.052906185 0.13763297
-0.077207394 -0.08835899 0.0648536 -0.029945744 0.024338905 0.039695133 -0.026675396 0.11226473
0.20325023 0.04323814 -0.078194425 0.1652432 -0.034304455 0.034136314 0.02984376 -0.0825754
0.012151153 -0.08991547 -0.025124557 -0.026176957 -0.11878434 -0.075222425 -0.18447147 0.043455973
0.1230342 -0.4555346 -0.048522066 -0.033285994 -0.24990068 0.0902637 -0.05074171 0.096938446
-0.07480836 0.07238209 0.14530893 -0.1291053 -0.1203314 0.03908458 -0.036663942 -0.13389787
0.0035416344 -0.0059028724 -0.05679407 0.0677895 -0.006438328 0.07291544 -0.038383167 0.116576366
-0.100345224 -0.15361021 0.086788274 -0.045590296 -0.15500438 0.035443146 -0.10177361 0.015811972
0.10883709 -0.04332494 -0.050696205 -0.1551377 -0.021462798 -0.08284743 -0.049894646 0.32095918
-0.10280676 -0.16988263 -0.04132716 -0.0615145 -0.18496662 -0.0115671065 0.038309988 0.1481314
-0.09992221 -0.17305613 -0.012929848 -0.07994292 0.20790441 0.4148998 -0.03908869 -0.14338328
0.13685967 -0.05863421 -0.017672377 0.06808502 -0.18341726 0.10055296 0.048325855 0.0893478
-0.17759268 0.079041585 -0.02223494 -0.015313677 -0.048884034 -0.018239649 0.012928354 -0.008820341
-0.051370014 -0.10034148 -0.09281469 -0.09347067 0.088582255 -0.048005246 -0.042231563 0.033908922
0.0107431505 0.065468006 0.027183294 0.16128416 0.0043840036 -0.009325358 -0.010013519 -0.087173134
-0.028610991 0.11916388 0.035392575 0.016099589 0.27487293 0.1890374 0.069111615 0.09541356
-0.052259695 0.03840713 0.23222274 0.104325876 0.060897898 -0.6358465 -0.05932106 0.04839222
0.093688846 0.028264355 0.017286245 -0.12119255 -0.040008165 0.17358066 0.18972401 -0.013516406
-0.22252351 0.08565415 -0.008006213 -0.045518953 -0.050173678 -0.04581345 0.038107365 -0.12059718
-0.27923155 0.08293003 0.06383934 -0.022173533 -0.022260444 -0.016282853 -0.018041452 -0.048469257

bias f4 [12]
00000000: a13e 003e 134a af3d d2e1 443e 34e2 4e3e
00000010: 77dd b03c a9e9 8fbd 4e9c 7cbe badf 083e
00000020: c433 d43d c629 0b3b dffc 28bd 9e38 ac3c
0.12523891 0.085590504 0.19226769 0.20203477 0.021589978 -0.07026989 -0.24669 0.13366595
0.10361436 0.0021234616 -0.04125678 0.02102309

weight f4 [12]
00000000: d5ca 8fbe 0e6c 503f 56b3 6b3f 5b8e 9dbb
00000010: ab83 27bf fae3 0ebe f70d 313e f3a7 34bd
00000020: 8b1a b2bc 9e35 703f 471a 303d 71f9 da3e
-0.28084436 0.8141488 0.9207052 -0.00480823 -0.65435284 -0.13954154 0.17290483 -0.04410548
-0.021741172 0.93831813 0.04299381 0.42768434

weight f4 [12, 12, 3, 3]
00000000: 07e0 94be 30d3 98be df2e 05be 50ff 3bbe
00000010: acf3 853e 7c7b 12be a286 79be c260 0bb8
00000020: 416d e9bd 611c b6bd 818e 9ebe f406 b0bd
00000030: 2565 c83c 26db 54be 3b11 71be 7538 cf3d
00000040: 48e7 6abe e4ca 4dbe cc5e 993e a4d1 e93e
00000050: 7d88 d0bc cc74 0a3d 0dcc 49be 9243 2a3d
00000060: bf31 a43d 3118 99bd d9ed 293e 5c1f 8fbc
00000070: 872f 353e fb9c 28be fdfe 4eb9 ff30 b23e
00000080: 2a71 fcbe a002 66bc 73d8 8e3e caec 2c3f
00000090: 8634 ba3d 56bd 393b f62a d03d 1e43 80bd
000000a0: a679 713e 6692 32bd 7dbc 4c3e d373 393d
000000b0: bb39 f63c bf52 4abe d731 873d 0589 83bd
000000c0: 63e7 f3bc 2997 833d 3309 97be 2bf0 fe3e
000000d0: 5bc8 933d 0219 42be 7265 073f b2d2 353e
000000e0: 2723 9f3e 4ddb 18bf 682b 19be 0baf 973e
000000f0: 1597 b5be 7240 3f3e d702 97bd 99c9 25bd
00000100: f412 36be db0e ea3c 0741 40bd 916f a53e
00000110: 888c fa3d 1807 cabd 6f28 7cbe 151d d1bc
00000120: 9bf6 84be be13 3cbe 4748 f4be 3bb1 063e
00000130: 2fe2 ae3e 97a5 823c 4cc6 4ebe 96d0 35be
00000140: 0110 663d dfaf a03d 5177 8abd 9c3f d83b
00000150: 3b0e b1bd f0bb 943e 6dae b6bd 6edf ebbd
00000160: 1a01 45be ac84 ebbd 048d 0b3d 4cc4 0abf
00000170: e820 b7be 4287 6cbd 77d9 d5be 642f 713e
00000180: f391 81bb 69da 1d3e 4f98 0b3e abd0 763e
00000190: eb43 0f3e d672 183e 1c72 28be 6eac a1bd
000001a0: 7a1e 59be 38a8 613e 2c47 08be 229a 253e
000001b0: e7c2 febc c610 63bc 0579 4cbe cf74 ac3e
000001c0: d69c bbbd 9ab2 eebd 1f11 3ebd 505e 8cbd
000001d0: c224 9a3d f6be 9eba ffd5 f13d 969f 3b3c
000001e0: 3063 dd3d f162 633d 743a 843c cbd1 ad3c
000001f0: 3b65 ef3d d1c5 b93c dd8d eebc bcf0 22be
00000200: 5043 3a3d e2dc 523b 8b65 59be 3784 023e
00000210: 7c0e 9fbd 3b33 a8bd f22a 1e3e 6846 38be
00000220: 599b 91be f2a8 133f 05b7 543e adf2 04bf
00000230: 1d91 e83e 19a0 e13b a2bf 7c3e a033 323e
00000240: 5746 133c 40c7 073e 6942 e13a 6b89 ddbd
00000250: 9862 d9bd bb46 b4be d69e 5abd b30a 093e
00000260: 1164 68bc d101 dfbe 33e8 9a3d c71f 8fbd
00000270: b69c 2e3e e827 003e 1b5f 62bd c234 e33d
00000280: 2daa aebd ca1e d9bd 9046 04bd 63a3 8a3d
00000290: f5fc bfbd c062 f23e 5c66 7a3e 7d9a f53d
000002a0: 5fad 33be 6053 98bd 14ff 93bd 000c 6b3e
000002b0: 9e16 023e aae4 0c3d cd12 52bd 8097 1abe
000002c0: b295 173e 8f28 16ba db1d fcbe d10e 5dbe
000002d0: 0194 00bf cda4 813e fb49 52bd 852b 3cbe
000002e0: 08da dabe ff98 1d3d dda2 af3d 47dd ee3c
000002f0: e1e4 69bd a85a d93a d79b 97b9 0017 fdb9
00000300: d895 66be 1b4f 97bd 8f79 40be 136d 2a3e
00000310: b017 6dbc 792a d1bb c17b 5bbd bdd4 e8bd
00000320: a64e b43e 4efe 553d 6692 d1be 085a 823e
00000330: 06bf ab3a 0615 9cbe 7d3a e33d 654d 31be
00000340: 6596 e53c ab5f 82bd d298 5cbe 090a 0dbf
00000350: eb91 84bc 8c88 e6bd 9ea7 a1be 1a3a ca3d
00000360: afef bb3c 4b4c b4bd 4b53 86be 312c 213b
00000370: 2cf7 6fbe d0d6 b9bd 7095 52bc 0e02 97be
00000380: a7eb a4bd 832f b6bc af3f 3fbd 83a1 b63d
00000390: 6fa5 963d 7766 413d 75e3 d9bc 333d 863d
000003a0: af78 4fbe 5410 d2bc 3a57 8e3d 6654 1abd
000003b0: 2b7b 333d 7b17 62bc 9b34 07be e482 c3bd
000003c0: d6f0 3dbd 3c37 d1bd 7fa8 693c a390 c1bc
000003d0: 1e67 a93e 66cd 2abe ddd8 aa3b 8e6b 363e
000003e0: 151b 44bf adc0 a53d d20c 11bf 1100 24be
000003f0: 4079 e03b 61cc 2dbc 786a 5c3d a1c9 52bd
-0.2907717 -0.29848623 -0.13006161 -0.18359113 0.2616247 -0.14304918 -0.24367765 -3.3230295e-05
-0.11397792 -0.088921316 -0.30968097 -0.08595076 0.024462292 -0.20786723 -0.23541729 0.1011819
-0.2293979 -0.20096928 0.29955137 0.45667756 -0.025455708 0.033802792 -0.19706745 0.041568346
0.08017301 -0.07475317 0.16594638 -0.017471008 0.17693911 -0.16466133 -0.00019740681 0.34803006
-0.49305087 -0.014038712 0.27899513 0.6754881 0.09092049 0.0028341613 0.10164444 -0.062628016
0.23581561 -0.043596648 0.19993778 0.045276474 0.030056825 -0.19758128 0.06601303 -0.06422619
-0.02977342 0.06425316 -0.29499206 0.4979261 0.07215949 -0.18954852 0.5288917 0.17756155
0.31081507 -0.59709626 -0.14957964 0.29625735 -0.3546683 0.18676928 -0.073735885 -0.04047546
-0.17780668 0.028571537 -0.046937015 0.3231168 0.122338355 -0.09864634 -0.24624799 -0.025526563
-0.25969395 -0.18366906 -0.47711393 0.13153546 0.3415694 0.0159481 -0.20192832 -0.1775535
0.056167606 0.07846045 -0.06761039 0.0065993797 -0.08645292 0.29049635 -0.08919988 -0.11517225
-0.19238701 -0.114999145 0.03407003 -0.54205775 -0.35767293 -0.05774618 -0.41767475 0.23553234
-0.003954166 0.15415348 0.1363232 0.24103038 0.13990752 0.14887556 -0.1644978 -0.078942165
-0.21203032 0.22036827 -0.133084 0.16172078 -0.031098796 -0.01385898 -0.1996804 0.33682868
-0.091607735 -0.11655159 -0.046403047 -0.06853926 0.07526542 -0.0012111354 0.11808395 0.0114516225
0.10809934 0.05551428 0.016141154 0.021218201 0.1168923 0.022677334 -0.02912038 -0.15912145
0.04547435 0.0032175113 -0.21230142 0.12745748 -0.077664346 -0.082128964 0.1544607 -0.17995608
-0.28438833 0.57679665 0.20772941 -0.51932794 0.45423213 0.00688554 0.24682477 0.17402506
0.008988938 0.13259602 0.001718593 -0.10817226 -0.106145084 -0.35210213 -0.053374134 0.13382988
-0.014184014 -0.43556073 0.0756382 -0.06988483 0.17051968 0.12515223 -0.05526648 0.11094047
-0.08528552 -0.10601576 -0.032293856 0.06769445 -0.093744196 0.47340965 0.2445311 0.11992357
-0.17546605 -0.074377775 -0.07226387 0.22953796 0.1270394 0.03439776 -0.05128746 -0.15096855
0.14803198 -0.00057280896 -0.49241528 -0.21587683 -0.50225836 0.25321046 -0.051340085 -0.18375976
-0.4274447 0.038475987 0.085759856 0.029158248 -0.05710304 0.0016582804 -0.00028917074 -0.00048273057
-0.22518098 -0.07388135 -0.18796371 0.16643171 -0.01447098 -0.006383237 -0.053584818 -0.113687016
0.35216254 0.052244477 -0.40932006 0.25459313 0.0013103194 -0.3048479 0.1109514 -0.1731468
0.028025815 -0.063659035 -0.21542671 -0.5509344 -0.01618286 -0.11256513 -0.31573194 0.09874363
0.022941438 -0.08803614 -0.26235422 0.002459299 -0.23434132 -0.09074175 -0.0128530115 -0.29493755
-0.080527596 -0.022239452 -0.046691593 0.08917525 0.07355773 0.04721686 -0.026597718 0.065546416
-0.20260881 -0.025642551 0.06950231 -0.037678145 0.043818634 -0.0137995435 -0.13203661 -0.0954645
-0.046372257 -0.10215613 0.014261364 -0.023628538 0.33086485 -0.16679916 0.0052138404 0.17814466
-0.76603824 0.080933906 -0.5666019 -0.1601565 0.0068503916 -0.01060781 0.053812474 -0.05146182

bias f4 [12]
00000000: 0812 73bd 5adf ecbe 39d5 51be 9bb2 c6bd
00000010: 4e06 e93d adc8 00be d015 59bd e426 7e3e
00000020: 1569 9abe 0aa7 50bd 4db6 5f3e 25b0 773e
-0.059343368 -0.46264154 -0.20491494 -0.09702035 0.11378156 -0.12576552 -0.052999318 0.24819523
-0.30158296 -0.05094055 0.21846886 0.24188288

weight f4 [12]
00000000: d172 163d 4a0a 023e 10b6 723e 6ff4 7c3f
00000010: 51a5 103f 5394 ad3e 1214 7a3f d5b2 f73e
00000020: f802 433e 855a b3bb cc1c 223f 040c 4d3f
0.03673059 0.12699237 0.23702264 0.98810476 0.5650225 0.33902225 0.97686875 0.48378626
0.19044101 -0.0054734373 0.6332519 0.8009646

weight f4 [48, 12, 1, 1]
00000000: 3ccd 05bf ef1d 5abe d559 833d 67fb 5abe
00000010: d45d 393d cfd5 db3d 265e b43d e9aa d2be
00000020: bc50 7a3e 45e3 583e 11c8 493e 609d b93c
00000030: 8e04 213e e48b 1c3d 64ca 963e 5205 c43c
00000040: e93a a4bd 1b86 45be ae47 80be 4137 3fbe
00000050: 5ce4 2fbe 7f06 a0bd 8b31 a83d 7279 1dbd
00000060: dfcb 2a3c ca2b bfbd 25cb a23e 3322 b63d
00000070: 72eb 31bb d905 91bb d540 a73d 8466 32be
00000080: 02cd 8e3e a1dc 033e d3fd 21be b25e 87be
00000090: 9107 6abe 3b48 d73e f974 03be 05d5 2a3d
000000a0: 08aa f2bd d5bd d83d f356 8bbe 0162 33be
000000b0: 1139 cd3c 2576 c7be f51a 24be 0399 0c3e
000000c0: ed24 723d 3d8b d73e 1fa7 dfbd 145e 8e3e
000000d0: 98fb 55be 9f9a 1c3d 45ec 293e 93a3 d3bd
000000e0: d4aa 45be 3878 95be 8caf dcbb d2dc 93bd
000000f0: a189 b7bb fff3 e63d a8d0 bc3c ef6e fe3c
00000100: 7812 833d 789e 0cbe 4dd8 d5bc de15 00be
00000110: 437f 6dbd 7b12 943d fda7 e13d 4a3c 57bb
00000120: 5226 2fbe 97ee e93e bd41 013f 5f1b 673d
00000130: e35a dc3d b2dc cc3e a616 85be 7062 7cbe
00000140: 737b 783e a4cd a63e e32e 8ebd 13a2 f43d
00000150: 2ae7 9cbd e88e 633d 4692 8d3e 77ca f13d
00000160: 5196 983c 38aa 0cbe 5a5e 003e bafd 00be
00000170: 18b1 8a3d 37c8 2c3d 8a3e 873e 2a29 3ebd
00000180: 7a37 fe3d da1c 6bbc 8422 b9bd b364 573d
00000190: 8fbc 25be 3bf1 a13e bbbb b23c ceed b2bd
000001a0: b705 a33d 2404 3ebe 275a f0be 990c 1dbe
000001b0: 7c40 753b 9343 53be c541 75be ded8 a3bd
000001c0: cba3 b43d 3208 153e 082d 8fbe d8b7 25bd
000001d0: c22b 7e3e b4c7 aa3d 81f3 46be b1ac b9be
000001e0: ee5f d6bd b786 1b3f e85e dc3d 0400 073d
000001f0: eba2 3b3e 555a f73e 9d21 43be d211 183e
00000200: 065d 26be 611a 743e acc0 09be 8058 06be
00000210: e65d fdbd 76b9 2f3e fbeb a13e 3741 26bd
00000220: a1fa 9dbe 9253 afbd f5b5 213d f29c 70be
00000230: b0cd e3bd 1a34 81be 15cb 433d 6a96 253e
00000240: dad1 3abd a9e8 9abd fa4c 15be 4b46 3cbd
00000250: 557c 633c 867f 713d cea6 43bd f96e a43d
00000260: ecd8 7a3b 0e83 653d 685f 1b3e b1a6 9d3e
00000270: c556 36bd e5ca f23e c08e 063e 38c5 5d3d
00000280: 5d6b dabd ae49 b53e 4c26 07be f355 05be
00000290: eca9 8a3e 16fb a7be 3535 08be 7b35 cf3d
000002a0: ff94 163c fccd c23d f917 36be bc2f af3d
000002b0: fcac f43d 5b49 0dbe 9834 bdbd 3802 93be
000002c0: 0dab 17be 78b3 133e bb82 f53d 096d 5237
000002d0: 4ffb c13c d685 c2bc 41ed 933d d6b2 853d
000002e0: 3da4 933d 033a 4d3e a93e bf3c 95f4 923e
000002f0: 8976 cd3d 266e 70bc 839b 6b3b ceab 673e
00000300: c44a 06be b52e be3e 698e 0ebc 246e 343e
00000310: 65c3 0bbe dc85 9c3e 024f 52be 0f06 a5bd
00000320: d195 e93e a794 7b3e c0a7 fb3d 1925 10bf
00000330: 4dff e4bc a7d5 b03e 0331 ce3d 247a 47bd
00000340: 88d5 16be ea5a 823e 4968 463e d80b bf3d
00000350: cb94 93be eae6 d2bb eb57 a9be 26cc 843e
00000360: 1b57 6abc 4a11 4dbc c10b c83d 5b7f 693e
00000370: 01cb 9fbc d4a5 0e3e 845f a2bc 5a7f 98bd
00000380: 5233 5abd 0092 8cbd a3c2 713d 36c7 e83d
00000390: 813c 343e b431 393e 081d ab3e c432 cc3e
000003a0: a78a 6a3d 62bd 723b 0052 1a3e 4032 acbe
000003b0: 0a32 a6be 21ec 9fbd 6230 d6bd 196f 293e
000003c0: 4c64 003e 6c83 703e 9bd0 70be 0596 673e
000003d0: 699b 93bd b2b8 86bd 5ae0 3ebe d1b3 1ebd
000003e0: a4a5 55bc 04c1 4bbd 3ca6 e4bd 9141 553e
000003f0: 9d19 d8bd 0a1d eabd ff4f 263e f525 a3bd
-0.5226629 -0.21300481 0.064136185 -0.21384965 0.045255497 0.1073414 0.0880702 -0.4114602
0.2444486 0.21180446 0.19705226 0.02265805 0.15724394 0.038219348 0.29451287 0.023928318
-0.08019049 -0.19289438 -0.25054687 -0.18673421 -0.17176956 -0.07813739 0.082125746 -0.038445897
0.010424583 -0.09334524 0.31795612 0.08893242 -0.0027148393 -0.004425746 0.081666626 -0.17421919
0.27890784 0.12877132 -0.15819483 -0.26439434 -0.22854449 0.42047295 -0.1283759 0.041707058
-0.11848837 0.105830826 -0.27214774 -0.17517854 0.025051625 -0.38957325 -0.16025908 0.13730244
0.059117246 0.42098418 -0.10920548 0.2780615 -0.20896757 0.038233396 0.16594036 -0.10333934
-0.19303447 -0.29193282 -0.006734794 -0.072198525 -0.0056011234 0.11277007 0.023048714 0.031058757
0.06400007 -0.13732326 -0.026104117 -0.12508342 -0.057982694 0.07230087 0.11018369 -0.0032842332
-0.17104462 0.45689842 0.50490934 0.056422587 0.10759523 0.40012127 -0.25993842 -0.24646926
0.24265842 0.32578766 -0.06942537 0.11944976 -0.076612785 0.055556208 0.2765066 0.11806195
0.018626364 -0.13736808 0.12535992 -0.12596789 0.06772059 0.042183127 0.264149 -0.046425976
0.12412925 -0.0143501405 -0.090397865 0.05258627 -0.1618521 0.31629357 0.021818032 -0.08736764
0.079600744 -0.18556267 -0.4694378 -0.15336837 0.003742247 -0.20631246 -0.2395087 -0.080003485
0.088203035 0.14553908 -0.27964044 -0.04045853 0.2482138 0.083388716 -0.19428827 -0.36264566
-0.10467516 0.60752434 0.107602894 0.032959 0.18323867 0.48311105 -0.19055791 0.14850548
-0.16246423 0.23838188 -0.13452405 -0.13119698 -0.12371425 0.17160591 0.3162535 -0.040589537
-0.30855277 -0.08560862 0.03948017 -0.2349737 -0.11123216 -0.25235063 0.047801096 0.1617066
-0.045610286 -0.07563908 -0.14580145 -0.045965474 0.013884624 0.058959506 -0.0477665 0.08028979
0.0038276268 0.056033187 0.15173113 0.30791238 -0.044516344 0.4742042 0.13140392 0.05414316
-0.10665009 0.35407776 -0.13198203 -0.13021068 0.27082765 -0.3280875 -0.13301547 0.101176225
0.009190797 0.09511945 -0.17782582 0.085540265 0.11947057 -0.13797514 -0.09238547 -0.2871263
-0.14811344 0.1442393 0.119878255 1.2542362e-05 0.023679404 -0.023745459 0.07222987 0.06528251
0.0720906 0.20041661 0.023345308 0.28702226 0.100323744 -0.014674699 0.0035950847 0.22624132
-0.13114458 0.3714501 -0.008700945 0.1762014 -0.13648756 0.30570877 -0.20537952 -0.08057796
0.45622113 0.24568425 0.12287855 -0.56306607 -0.027953768 0.34538004 0.10067942 -0.048700467
-0.14729893 0.25459987 0.19375719 0.09328431 -0.28824458 -0.0064362185 -0.3307489 0.25937003
-0.014302994 -0.012516329 0.09767867 0.22802489 -0.01950598 0.13930446 -0.019820936 -0.074461654
-0.0532716 -0.06863785 0.05902351 0.113661215 0.17601205 0.18085366 0.33420587 0.3988248
0.057261135 0.003703915 0.15070343 -0.33632088 -0.32460052 -0.0780871 -0.10458447 0.16546287
0.1253826 0.23487633 -0.23517077 0.22615822 -0.072073765 -0.065781966 -0.18640271 -0.038745705
-0.01303998 -0.04974462 -0.11164519 0.20825793 -0.1055176 -0.1143132 0.16241454 -0.07966224

bias f4 [48]
00000000: e24a 60be ac32 bebd b1c4 64be 5609 85bd
00000010: cb1a cc3b a63d f43d 0248 bdbc 2329 0c3e
00000020: e39f 9fbe 4fb3 b8be eb47 87bd 9f8b 26bd
00000030: 81d9 0e3e 1841 c4bc dffc 9a3d 51aa 863e
00000040: 68f6 aa3d 9c8d 01be 628f 273e 641e 973d
00000050: 0851 243e 6b35 ad3d fffc 2b3e 0a47 c63c
00000060: c75c 973e e490 90be 0fbd 8fbe 77d2 453e
00000070: 7ae7 24be f6b0 763e 2c78 39be cb1b 073e
00000080: 911e 6bbc 51f2 2c3d fe95 253d 4677 283e
00000090: 93b9 20be ff03 22be d13e a0bd 985e 8cbe
000000a0: 06d4 1d3e 4c47 2d3e 321b 75be 5a43 433e
000000b0: c6ab a7be 9218 23bd 2d27 fabe 380c 443d
-0.21903566 -0.09287009 -0.22340657 -0.06495921 0.00622878 0.11925821 -0.023105625 0.13687567
-0.3117667 -0.36074302 -0.06605514 -0.040660497 0.13950159 -0.02395682 0.075677626 0.26301816
0.083477795 -0.12651676 0.1636329 0.073788434 0.16046536 0.08457454 0.16795729 0.024203796
0.2956297 -0.28235543 -0.28073928 0.19318567 -0.16103926 0.24090943 -0.18112248 0.13194196
-0.014350549 0.04222328 0.040426247 0.16451749 -0.15695791 -0.15821837 -0.07824481 -0.2741592
0.15412912 0.16921729 -0.23936155 0.19068661 -0.3274824 -0.039818354 -0.48858014 0.047863215
