FSRCNN/FSRCNN_torch/FSRCNN_48_12_2_X3_150.pth (torch, 46345 bytes, 16 tensors)

weight f4 [48, 1, 5, 5]
0	0xbe00ba48	-0.1257106
1	0x3e2cbf1f	0.16869782
2	0x3d081ea3	0.033232342
3	0xbd84e66d	-0.06489263
4	0xbd8ee29a	-0.069768146
5	0x3e6afc1e	0.22947738
6	0x3d8a3dba	0.06750055
7	0x3ec90e60	0.3926878
8	0xbc3bb54f	-0.011456802
9	0x3e1eaa00	0.15494537
10	0xbdc7b575	-0.09751407
11	0xbe31065f	-0.17287587
12	0xbf323957	-0.69618744
13	0x3ddbc814	0.10731521
14	0xbde01e5c	-0.109432906
15	0xbcc41244	-0.023934491
16	0x3ddf88a2	0.109147325
17	0x3d9a728b	0.075413786
18	0x3d93aa6e	0.07210241
19	0x3d6a40d3	0.057190727
20	0xbd15023f	-0.036379095
21	0x3e674111	0.22583415
22	0xbe64b078	-0.22332942
23	0xbc327e4e	-0.010894371
24	0xbcbdc9c3	-0.023167497
25	0xbde54765	-0.11195258
26	0x3a9ca3d7	0.0011950684
27	0xbd77f96c	-0.0605406
28	0x3d84eb17	0.06490152
29	0x3d834dbf	0.06411313
30	0xbd7dd3f7	-0.061969724
31	0x3ea6b5fe	0.32560724
32	0xbddc8991	-0.10768426
33	0xbd9342a7	-0.07190447
34	0xbdfbdd8d	-0.12298117
35	0x3cd2ce90	0.025733262
36	0xbe8e3075	-0.27771345
37	0xbd5f5f13	-0.05453403
38	0x3e18fb71	0.14939667
39	0xbdcbed1d	-0.09957335
40	0xbd471e1b	-0.048612695
41	0xbde7fc9e	-0.1132748
42	0xbe39333a	-0.18085948
43	0xbe518933	-0.20462494
44	0xbe8159a0	-0.2526369
45	0xbd846f1e	-0.064665064
46	0x3db17b43	0.086660884
47	0x3dc92391	0.09821237
48	0xbd7fe74b	-0.062476438
49	0xbe92d7af	-0.2868018
50	0x3dd89cdb	0.10576793
51	0x3dfdf607	0.124004416
52	0xbc808846	-0.01568998
53	0x3dacf961	0.08446003
54	0xbe65599b	-0.22397463
55	0x3d6324c8	0.055455
56	0x3da74bd5	0.08168761
57	0xbe0e7814	-0.13912994
58	0xbe408da9	-0.18804039
59	0x3dc516b4	0.09623471
60	0x3b6afd75	0.0035856639
61	0x3e1f404f	0.15551876
62	0xbe2fa7b2	-0.17153814
63	0xbda1c684	-0.07899192
64	0xbe05e603	-0.13076024
65	0xbe0054dc	-0.12532371
66	0xbe77243e	-0.24134919
67	0x3dbbbb70	0.0916661
68	0x3c06722d	0.008205933
69	0x3e493044	0.19647318
70	0xbe5365f9	-0.20644368
71	0xbd3cc140	-0.046082735
72	0x3daace3d	0.08340118
73	0x3d43e465	0.047825236
74	0x3dda6160	0.10663104
75	0xbd1c1e52	-0.038114853
76	0x3e3eba02	0.18625644
77	0xbe352b35	-0.17692263
78	0xbe83c09d	-0.2573289
79	0xbf41ddb9	-0.75728947
80	0xbd2e7ee2	-0.042601474
81	0x3e8ba8d9	0.27277258
82	0x3e1586b4	0.14602166
83	0x3e878283	0.2646676
84	0xbf22c1c6	-0.63576925
85	0xbe231501	-0.15925981
86	0x3e111a84	0.14170271
87	0xbea3af84	-0.31969845
88	0x3d08e3bf	0.03342032
89	0xbf02359c	-0.5086305
90	0x3cb465ca	0.022021193
91	0x3e038275	0.12842734
92	0x3e85dba3	0.26144132
93	0xbd86ebb9	-0.06587929
94	0xbe880d2c	-0.2657255
95	0xbd2731f0	-0.04081911
96	0x3de1173c	0.1099076
97	0xbdcef50d	-0.101053335
98	0x3d1836cb	0.03716163
99	0xbe8376a6	-0.2567646
100	0x3e041b2f	0.12900995
101	0x3dbb56bd	0.091474034
102	0xbd917ebf	-0.07104253
103	0xbe189252	-0.14899567
104	0xbe287d96	-0.16454157
105	0x3e0ea720	0.1393094
106	0xbeb8e8cf	-0.3611512
107	0xbe0a09d6	-0.13480315
108	0x3e149327	0.14509259
109	0x3d977ab7	0.07396453
110	0xbdf31909	-0.118700095
111	0x3e3b84ba	0.1831235
112	0x3df0f49d	0.11765406
113	0x3e0c5d1d	0.13707395
114	0x3de296e7	0.110639386
115	0xbe20c888	-0.15701497
116	0xbd050aa8	-0.032480866
117	0x3ea27fc1	0.31738093
118	0xbddeba52	-0.108753815
119	0x3d607107	0.05479529
120	0x3ccbd1b5	0.02488027
121	0xbc5c7462	-0.013455482
122	0x3c8f28f7	0.017475588
123	0x3d145a07	0.03621867
124	0xbdcf001a	-0.10107441
125	0x3d592836	0.053016864
126	0xbcb92ed1	-0.022605332
127	0xbbc8dc5b	-0.006129784
128	0xbd1b39ad	-0.0378968
129	0x3dee1158	0.11624402
130	0x3c86551c	0.016398005
131	0xbd289989	-0.041162048
132	0xbe29a8f4	-0.16568357
133	0xbe1953e5	-0.1497341
134	0x3e2ab3c1	0.16670133
135	0xbdc395a6	-0.095500275
136	0xbd6001e2	-0.054689296
137	0x3e6cdfb6	0.23132214
138	0x3e638d36	0.22221836
139	0xbe8d5629	-0.27604797
140	0x3d18a089	0.037262473
141	0x3d388904	0.045052543
142	0x3eaa8e04	0.33311474
143	0xbce908b6	-0.028446537
144	0xbe84f6bd	-0.25969496
145	0xbdaba9e5	-0.08382014
146	0x3dae720a	0.08517845
147	0xbda94824	-0.08265713
148	0xbdbf6875	-0.093460955
149	0x3d49b847	0.049248006
150	0xbcd9ae80	-0.026572466
151	0xbe523ffc	-0.2053222
152	0x3c1b3a63	0.00947437
153	0x3e5d1ced	0.21593066
154	0x3dbc7d87	0.0920363
155	0xbdeb950c	-0.11503038
156	0x3e5fa1c1	0.21839048
157	0x3e161035	0.1465462
158	0xbda589aa	-0.08082898
159	0xbd4c44ea	-0.04987041
160	0x3cabb554	0.020960487
161	0x3e3ae375	0.1825083
162	0xbf531bf0	-0.82464504
163	0x3db03e43	0.086056255
164	0xbd0e912b	-0.03480641
165	0xbcfbb280	-0.030724764
166	0xbd66b720	-0.056326985
167	0x3eaa1331	0.33217767
168	0xbd0dbcd1	-0.034603897
169	0x3db755bb	0.08951899
170	0x3dcd2add	0.10017941
171	0xbdd9cf1a	-0.106352046
172	0x3e5a3e26	0.2131277
173	0x3c911d54	0.01771418
174	0xbdd7e504	-0.10541728
175	0x3d9c845e	0.076424345
176	0xbda0015e	-0.07812761
177	0xbd438c1b	-0.047741037
178	0x3dc5a6cb	0.09650954
179	0xbd6bc171	-0.057557527
180	0x3d1305a1	0.03589404
181	0xbd8cbf86	-0.06872468
182	0xbd74dcfe	-0.059781067
183	0x3e332065	0.17492826
184	0x3d1c4ae3	0.038157355
185	0x3e073d69	0.1320702
186	0xbbedc84c	-0.0072565433
187	0xbf292c8f	-0.66083616
188	0xbe688bf9	-0.22709645
189	0x3e45a44f	0.1930096
190	0xbccdbbde	-0.025113996
191	0x3f17710f	0.5915689
192	0xbe8fd2e4	-0.28090584
193	0xbd9315da	-0.07181902
194	0xbe80ce78	-0.25157523
195	0xbe2c7b2f	-0.16843866
196	0xbdb680b6	-0.089112684
197	0x3e58b7eb	0.21163909
198	0x3d08cbf4	0.03339763
199	0x3d4072f6	0.046984635
200	0x3c78e5fb	0.01519155
201	0xbdc7ad79	-0.09749884
202	0x3dba5d80	0.09099865
203	0xbda5474f	-0.08070242
204	0xbf5f0e8a	-0.8713156
205	0xbc6f82f5	-0.014618625
206	0xb9f7c4aa	-0.00047258037
207	0xbd9ee475	-0.077584185
208	0x3db134d9	0.08652658
209	0xbf56ba9f	-0.8387851
210	0x3e5805da	0.21095982
211	0xbecdc7c2	-0.40191466
212	0x3eb3a31f	0.3508539
213	0x3e873cfd	0.26413718
214	0xbf3a7c26	-0.72845685
215	0xbb4276c4	-0.002967284
216	0xbe013441	-0.1261759
217	0x3db7bb27	0.08971243
218	0x3e10ffb5	0.14160044
219	0xbfb0b420	-1.380497
220	0x3d38e98f	0.045144614
221	0xbe23db91	-0.16001727
222	0x3dac7e17	0.08422487
223	0xbdc0d78f	-0.094161145
224	0xbf299f81	-0.6625901
225	0x3e75bc2e	0.23997566
226	0xbdbdd19c	-0.092684954
227	0xbdf2551c	-0.118326396
228	0xbd6299d9	-0.0553225
229	0xbd0b3c8f	-0.0339933
230	0xbdcdd7d6	-0.10050933
231	0x3e31a4fe	0.17348096
232	0x3e5fb3b1	0.2184589
233	0x3db69357	0.089148216
234	0xbcd3ec04	-0.025869377
235	0xbda2c56f	-0.07947814
236	0x3c3b46b3	0.01143043
237	0xbf265812	-0.64978135
238	0xbd1076b4	-0.035269454
239	0xbbace165	-0.0052758926
240	0x3ddaeed4	0.10690084
241	0x3e1cabd0	0.15299916
242	0xbdd9498d	-0.10609732
243	0x3dfa9362	0.12235142
244	0x3e06edec	0.13176697
245	0xbe177f16	-0.14794573
246	0x3dff515d	0.12466691
247	0xbe334c41	-0.17509557
248	0x3d388a73	0.04505391
249	0xbde24261	-0.11047817
250	0xbd88660d	-0.0666009
251	0xbddd171b	-0.10795423
252	0x3cfa4830	0.030552
253	0xbd573a33	-0.052545737
254	0xbc86ac0b	-0.016439458
255	0x3d3c47e9	0.045967016

bias f4 [48]
0	0x3cb005ea	0.021487195
1	0x3e3f80e4	0.18701512
2	0x3d5e6a4b	0.054300588
3	0xbddc486f	-0.10756003
4	0xbcce7b87	-0.025205387
5	0xbe18a371	-0.14906098
6	0x3b854920	0.004067555
7	0x3e8770a7	0.26453134
8	0x3c75a3c6	0.01499266
9	0xbe046496	-0.12928995
10	0xbe4f225c	-0.20227951
11	0xbe1a5912	-0.1507304
12	0xbdc1a393	-0.094550274
13	0xbe801e73	-0.2502323
14	0xba81fe46	-0.0009917698
15	0xbe9238a4	-0.28558838
16	0x3e20117d	0.15631671
17	0x3d865c15	0.06560532
18	0xbd3b722c	-0.04576318
19	0xbd94a93b	-0.07258841
20	0x3e5ea78f	0.21743606
21	0xbd261d4d	-0.040555287
22	0x3d3cf2bf	0.04612994
23	0xbe8555c7	-0.26042005
24	0xbd82a739	-0.063795514
25	0x3dd22bb8	0.10262245
26	0xbe2a69b5	-0.16641887
27	0x3d310aed	0.04322331
28	0x3df92ae7	0.12166386
29	0xbf034199	-0.5127197
30	0x3d930d02	0.071802154
31	0x3cb8cfe4	0.022560067
32	0x3e169d02	0.14708331
33	0xbc6e85c3	-0.0145582585
34	0x3d903e88	0.07043177
35	0xbe9f6162	-0.31128985
36	0x3d9c9dcb	0.07647284
37	0x3d9996a0	0.074994326
38	0x3d2039d5	0.039117653
39	0xbd978a4f	-0.07399427
40	0xbea106d0	-0.3145051
41	0x3e2ebe4b	0.17064779
42	0xbdc00985	-0.09376816
43	0xbe46fad4	-0.19431621
44	0xbc9fb90c	-0.019497417
45	0xbe6a22d8	-0.22864854
46	0xbeabee02	-0.33580023
47	0xbde5d558	-0.11222333

weight f4 [48]
0	0x3d421984	0.047387615
1	0x3d4108c4	0.0471275
2	0x3e6115e5	0.21981008
3	0xbbffc7ba	-0.0078057917
4	0x3dfb9f03	0.122861885
5	0x3c18f6a4	0.009336147
6	0x3f71334f	0.94218916
7	0xbed0bbca	-0.40768272
8	0x3c552868	0.013010122
9	0x3ecb671e	0.3972711
10	0x3c6d0c6c	0.014468294
11	0xbcdc1d9b	-0.026869586
12	0x3d6df5ac	0.05809562
13	0x3fbea839	1.4895087
14	0x3e7ef0cf	0.24896549
15	0x3f7d8714	0.9903424
16	0x3f6e62b1	0.9311934
17	0x3ecdb809	0.4017947
18	0xbca62a5a	-0.020283867
19	0x3e98fe81	0.2988167
20	0x3f7a42d8	0.97758245
21	0x3e93a553	0.2883707
22	0x3e3e93b6	0.18611035
23	0x3e342f68	0.17596209
24	0x3f967e40	1.1757278
25	0x3f02eb66	0.5114044
26	0x3fb6a897	1.42702
27	0x3f2697e1	0.650755
28	0x3eb6d2ac	0.35707605
29	0xbc8e68bf	-0.017383931
30	0xbe1a69c1	-0.15079404
31	0x3f341230	0.7034025
32	0xbb082e04	-0.002077938
33	0xbec70a42	-0.38875014
34	0x3da57284	0.08078483
35	0xbcd6d01f	-0.026222287
36	0x3d77877c	0.060431942
37	0x3edabf06	0.42723864
38	0x3f7ccf77	0.98754066
39	0xbc01cb3a	-0.007921988
40	0xbc235904	-0.009969953
41	0x3f79800f	0.97461027
42	0xbf4b881a	-0.7950455
43	0xbe3325dc	-0.17494911
44	0xbecb0536	-0.39652413
45	0xbc2197c8	-0.009862848
46	0x3c51e06a	0.012809852
47	0x3f18ea73	0.5973274

weight f4 [12, 48, 1, 1]
0	0x3df450ad	0.1192945
1	0x3d863345	0.06552748
2	0xbcf0e163	-0.029404348
3	0xbdf355db	-0.1188161
4	0xbdd305e8	-0.10303861
5	0xbb37ea61	-0.0028063285
6	0xbe30c47d	-0.17262454
7	0x3d714870	0.058906972
8	0xbe5b247a	-0.21400633
9	0xbeb0bd3c	-0.34519374
10	0x3dd84013	0.10559096
11	0xbe279b74	-0.16367894
12	0xbe56f7f4	-0.20993024
13	0xbdcc8d52	-0.09987892
14	0x3e8557c4	0.26043522
15	0x3d6caf3e	0.05778431
16	0x3eaa5eb7	0.33275387
17	0x3e4618cc	0.19345397
18	0x3e683d26	0.22679576
19	0x3d4fe063	0.0507511
20	0xbde4305a	-0.11142035
21	0x3cfef03b	0.03112041
22	0x3e49dfa3	0.19714217
23	0x3d963e38	0.07336086
24	0x3e0b3022	0.1359258
25	0x3c4e30ea	0.012584904
26	0x3c710d64	0.014712665
27	0xbe353c8b	-0.17698877
28	0xbe83f75c	-0.25774658
29	0xbd11663e	-0.035497896
30	0x3d7dbb9a	0.06194649
31	0x3d28156d	0.04103606
32	0x3e543ae0	0.20725584
33	0x3d899519	0.06717891
34	0xbc8fe7bc	-0.017566554
35	0x3e47d16f	0.19513486
36	0x3bfb5477	0.007669981
37	0x3e45ddfa	0.19322959
38	0x3e2fff33	0.17187195
39	0xbcf9b9ba	-0.03048407
40	0xbdfed246	-0.1244245
41	0xbe9e55e3	-0.309249
42	0xbc1a9ea0	-0.009437233
43	0x3d3d8c66	0.046276473
44	0x3ce0fbac	0.027463757
45	0x3d3afc5d	0.04565083
46	0xbe53bc79	-0.20677365
47	0x3da09aaf	0.078420036
48	0x3e0888b0	0.13333392
49	0x3da84999	0.08217163
50	0xbb385144	-0.002812461
51	0x3c8926a6	0.016742062
52	0xbcfb32db	-0.030663898
53	0xbc97392b	-0.018459877
54	0x3ead1738	0.33806777
55	0xbc4f4569	-0.012650826
56	0xbe08040c	-0.13282794
57	0x3e764dde	0.24053141
58	0x3dce8072	0.10083093
59	0xbc39e5ea	-0.01134632
60	0xbdb81be3	-0.08989694
61	0xbe18a5fe	-0.14907071
62	0x3dccdbf6	0.10002892
63	0xbe33e76d	-0.1756875
64	0xbeabe03b	-0.33569512
65	0x3dbfda3c	0.09367797
66	0x3d83a381	0.0642767
67	0xbd2d0ec1	-0.0422504
68	0x3d1376b4	0.036001876
69	0xbe20e0bb	-0.15710728
70	0xbb764c16	-0.0037581972
71	0x3d062d45	0.032758016
72	0xbe777f4a	-0.2416965
73	0x3e3846bd	0.17995735
74	0xbe106e9d	-0.14104696
75	0x3d1bce8c	0.038038775
76	0x3c95aa18	0.018269584
77	0x3d842fa3	0.064543985
78	0x3cf6e137	0.030136688
79	0x3e279327	0.16364728
80	0xbe4350c3	-0.19073777
81	0xbe3d7ee6	-0.18505439
82	0x3c73a070	0.014869794
83	0x3dda871b	0.106703006
84	0xbcc7ebed	-0.02440449
85	0x3eac80f5	0.33692136
86	0xbe7ea4de	-0.2486758
87	0xbdd8721d	-0.105686404
88	0xbd226a46	-0.03965213
89	0x3dc3ba62	0.09557034
90	0x3d709c4a	0.0587428
91	0x3d16ffbd	0.036864985
92	0xbc342fc0	-0.010997713
93	0x3d815fba	0.063170865
94	0x3ea893f8	0.3292539
95	0x3e738246	0.23780164
96	0xbd9820e1	-0.07428146
97	0xbe3591c7	-0.17731391
98	0x3d13cc7e	0.03608369
99	0xbbd088dd	-0.0063639716
100	0xbd51f08d	-0.051254798
101	0x3d62a119	0.055329416
102	0xbe3f3076	-0.1867083
103	0x3e823c9b	0.25436863
104	0x3daff8b1	0.08592356
105	0x3d0a8a74	0.033823445
106	0xbeaf0a85	-0.34187713
107	0x3f05ce0b	0.5226752
108	0x3ea28f42	0.31749922
109	0x3d586a18	0.052835554
110	0x3d8dc435	0.06922189
111	0x3d99a041	0.07501269
112	0x3e861efa	0.26195508
113	0xbdb6a338	-0.0891785
114	0xbca350e3	-0.01993603
115	0x3d95550c	0.07291612
116	0x3dc53c17	0.09630602
117	0xbe3a0a8a	-0.18168083
118	0xbde7dff5	-0.11322013
119	0x3dc6d1f3	0.097080134
120	0xbd028222	-0.031862386
121	0x3ebee480	0.37283707
122	0xbbc8f3ab	-0.006132563
123	0xbc014af7	-0.007891408
124	0x3c802c2e	0.015646067
125	0xbdd20782	-0.10255338
126	0x3dd9fa1d	0.106434084
127	0x3c922257	0.01783864
128	0x3dd8992c	0.1057609
129	0xbc7e30c9	-0.015514561
130	0xbdc4b974	-0.09605685
131	0x3e4df752	0.20113876
132	0xbcbe8e52	-0.023261223
133	0xbe40dc6a	-0.18834081
134	0xbd5a005a	-0.05322299
135	0x3bfb4efb	0.0076693273
136	0x3df98aeb	0.121846996
137	0x3d8c0bd0	0.068381906
138	0xbd69d298	-0.057085603
139	0xbec41d27	-0.3830349
140	0xbf1e1031	-0.61743456
141	0x3e036c89	0.12834372
142	0x3f33ba24	0.70205903
143	0x3d9aa790	0.07551491
144	0xbdd6368a	-0.10459621
145	0x3ce254c0	0.027628303
146	0xbd18edf2	-0.037336297
147	0xbe278129	-0.16357864
148	0x3dd8708d	0.10568342
149	0x3dab229b	0.0835621
150	0x3d793afb	0.060847264
151	0x3d44dacb	0.04806022
152	0xbc82e680	-0.015979052
153	0xbe466076	-0.19372734
154	0xbe1cd6bf	-0.15316294
155	0xbdef1e4a	-0.11675699
156	0x3dda6f1d	0.106657244
157	0xbe0b4973	-0.13602237
158	0x3e8a459e	0.2700624
159	0xbd92f66d	-0.07175908
160	0xbd77a5f5	-0.060461003
161	0xbddb2de3	-0.107021116
162	0x3decc5d2	0.11561169
163	0x3c4e02f9	0.012573951
164	0xbd2674a4	-0.04063858
165	0x3e8106ca	0.25200492
166	0x3e2a0e84	0.166071
167	0x3d8a93dd	0.06766484
168	0xbc9cb2c2	-0.019128207
169	0xbd3eb5a3	-0.04655994
170	0xbe6dff00	-0.23241806
171	0xbd94c1a4	-0.072634965
172	0x3e0937c0	0.13400173
173	0xbe46d74a	-0.19418064
174	0xbcf1b714	-0.029506244
175	0xbdb4e8ab	-0.088334404
176	0xbe5ee259	-0.21766032
177	0x3e0b9547	0.13631164
178	0x3e093098	0.13397443
179	0x3c178fd4	0.0092506
180	0x3d8fb8be	0.07017659
181	0x3c7f2f4f	0.015575244
182	0xbd9e6ad5	-0.0773522
183	0xbd9207e6	-0.07130413
184	0xbc16fdef	-0.009215816
185	0x3d1be25c	0.03805767
186	0xbdc90fb5	-0.09817449
187	0xbe3700b8	-0.17871368
188	0x3d8fe25c	0.070255965
189	0xbeb09c3a	-0.3449419
190	0xbe0a9d96	-0.13536677
191	0xbd6e2c00	-0.05814743
192	0x3e62c31d	0.22144742
193	0xbe879494	-0.26480544
194	0xbe8108ae	-0.25201935
195	0xbdb03b06	-0.08605008
196	0xbee12f80	-0.43981552
197	0xbeccf424	-0.40030015
198	0xbeca6a8c	-0.39534414
199	0x3ec91e7e	0.39281076
200	0x3e163b70	0.14671111
201	0x3dac3dcb	0.084102236
202	0xbef54357	-0.4790294
203	0xbf683df2	-0.9071952
204	0x3d8f2683	0.069897674
205	0xbd5f12ed	-0.05446141
206	0x3f0466f8	0.5171962
207	0x39d2b3fd	0.00040188423
208	0x3ebc5987	0.36787054
209	0x3eb6a8cf	0.35675666
210	0x3e95101b	0.2911385
211	0xbedc0f4b	-0.42980418
212	0xbd9f0012	-0.07763685
213	0xbe8cfa21	-0.27534583
214	0x3d276831	0.04087085
215	0xbeb20252	-0.34767395
216	0x3de038b5	0.10948316
217	0xbf0ae37e	-0.54253376
218	0x3dffdff2	0.12493886
219	0x3e2c3772	0.16818026
220	0xbe3d1601	-0.18465425
221	0xbe66a33e	-0.2252321
222	0x3f107704	0.56431603
223	0xbdd4f688	-0.103985846
224	0xbe5a65d6	-0.2132791
225	0xbdcd5949	-0.100267954
226	0xbd612cc9	-0.05497435
227	0xbf245b87	-0.6420216
228	0xbdd67e3a	-0.104732946
229	0x3d097924	0.033562794
230	0xbdf4b6c6	-0.11948924
231	0x3e1e5492	0.15461949
232	0xbcbb7713	-0.022883927
233	0x3ec0802e	0.37597793
234	0xbe4f21e1	-0.20227768
235	0xbedb197a	-0.42792875
236	0xbef64b24	-0.48104203
237	0x3e6e4958	0.23270166
238	0xbe87c233	-0.2651535
239	0x3e4e94a4	0.2017389
240	0xbd5d458f	-0.054021414
241	0xbdb1e982	-0.08687116
242	0x3c93af00	0.018027782
243	0xbd82432e	-0.0636047
244	0x3e01d557	0.12679039
245	0x3e2523c6	0.16126928
246	0xbe035918	-0.12826955
247	0x3d283588	0.041066676
248	0x3d47f63b	0.048818808
249	0xbeb28460	-0.3486662
250	0xbe1cde41	-0.15319158
251	0x3d95c4ed	0.07312951
252	0x3dbc2f6b	0.09188732
253	0xbcb13274	-0.021630503
254	0xbd4ca3f4	-0.049961045
255	0xbcd0d7eb	-0.025493583

bias f4 [12]
0	0xbd8e70fc	-0.06955144
1	0x3e047450	0.12934995
2	0x3d096c18	0.03355035
3	0x3e46c60d	0.19411488
4	0xbe0d1c9f	-0.1378045
5	0xbba07798	-0.004897069
6	0x3cb1c5ca	0.021700758
7	0x3be0f758	0.006865423
8	0xbe3349b6	-0.17508587
9	0xbc287a4e	-0.010283066
10	0xbc9bafc0	-0.019004703
11	0xbd6dc4b6	-0.058048926

weight f4 [12]
0	0x3eb225f6	0.34794587
1	0x3f76f773	0.9647133
2	0x3fad2399	1.3526489
3	0x3f60a39e	0.8774966
4	0xbd949c6f	-0.072564
5	0x40318345	2.773637
6	0x3e82c67e	0.25542063
7	0xbe4bc876	-0.19900689
8	0x3f6c662d	0.9234341
9	0x40068e21	2.1024249
10	0x3f764fe3	0.9621565
11	0x3e0913a2	0.13386396

weight f4 [12, 12, 3, 3]
0	0x3e70db4a	0.23521152
1	0x3c9300b6	0.017944675
2	0xba145d82	-0.00056596857
3	0x3e29b93a	0.16574565
4	0xbe36e18e	-0.1785948
5	0xbdee20dd	-0.11627362
6	0x3d6cedc2	0.05784393
7	0xbe8caad8	-0.27474093
8	0xbdef67c2	-0.11689712
9	0xbd422746	-0.047400735
10	0xbd8f7a01	-0.07005692
11	0xbd3f697a	-0.04673145
12	0xbe81a810	-0.25323534
13	0x3eedb271	0.46425202
14	0xbe69b117	-0.2282146
15	0xbe3ce08b	-0.18445031
16	0xbe0d8ac0	-0.1382246
17	0x3d3c93bb	0.046039324
18	0xbe10bfc0	-0.14135647
19	0x3ce1c0b7	0.027557714
20	0xbd50bb52	-0.050959893
21	0xbd5c5f09	-0.05380157
22	0x3e98a0f5	0.298103
23	0x3d4a80f0	0.04943937
24	0x3e187a51	0.1489041
25	0x3bab2b2c	0.0052236523
26	0xbdc8f7e0	-0.098129034
27	0xbd805343	-0.06265881
28	0xbdabce0b	-0.08388909
29	0xbd7d12ff	-0.061785694
30	0xbe577624	-0.21041161
31	0x3e105a5d	0.14096971
32	0xbe1e6d62	-0.15471414
33	0x3da0e388	0.07855898
34	0x3ce44b36	0.027867895
35	0xbd604d52	-0.05476124
36	0x3eacab87	0.33724615
37	0x3eac092a	0.33600742
38	0xbe2aaefb	-0.16668312
39	0x3e0ac8c0	0.13553143
40	0x3e25e8e5	0.16202123
41	0xbe6aec0a	-0.22941604
42	0x3d969d3f	0.07354211
43	0x3eadcf70	0.33947325
44	0x3e8c5476	0.2740819
45	0xbc47be67	-0.012191392
46	0x3d24bc1a	0.04021845
47	0xbded7be2	-0.115958944
48	0x3e2a5ade	0.16636226
49	0x3e04d6d6	0.12972578
50	0x3cb729be	0.022358771
51	0xbe60fe73	-0.21972065
52	0x3d203705	0.03911497
53	0x3d43012b	0.047608536
54	0x3d811d3c	0.06304404
55	0x3e59a8c1	0.21255781
56	0xbd272418	-0.040805906
57	0x3ec4bc6a	0.38425
58	0x3eb51ad1	0.35372022
59	0xbe4ec47d	-0.20192142
60	0x3e665ee8	0.22497141
61	0x3db5010b	0.088380896
62	0x3ca3497b	0.0199325
63	0xbe5abb4e	-0.21360514
64	0xbe823a21	-0.25434974
65	0x3e113c90	0.14183259
66	0x3e4bbc91	0.19896151
67	0x3e395888	0.18100178
68	0x3e09bdd0	0.13451314
69	0xbe1b03d0	-0.15138173
70	0xbdbe4a0a	-0.092914656
71	0xbba2d31a	-0.004969013
72	0xba9c7208	-0.001193584
73	0x3d37cf47	0.04487541
74	0xbe4fbaa0	-0.20286036
75	0xbdb48b9e	-0.08815692
76	0xbde0bf6d	-0.109740116
77	0xbcaaf14d	-0.020867014
78	0xbde26973	-0.11055269
79	0x3dfda42d	0.1238483
80	0xbe1ce743	-0.15322594
81	0xbdab271d	-0.0835707
82	0x3e456801	0.19277956
83	0x3da5443a	0.08069654
84	0x3dff154a	0.124552324
85	0xbf133368	-0.57500315
86	0x3e16172a	0.14657274
87	0x3d0d921e	0.034563176
88	0xbd03df91	-0.03219563
89	0x3cb1ad4e	0.021689083
90	0x3cc46343	0.023973113
91	0xbd968cab	-0.07351049
92	0x3c63d43e	0.013905583
93	0xbcc962da	-0.024583269
94	0xbeb96cda	-0.3621586
95	0xbd21ffd4	-0.039550617
96	0x3d60653c	0.054784045
97	0x3c7188e6	0.014742112
98	0x3d5e2d8b	0.054242652
99	0x3e063bc6	0.1310874
100	0xbdf24f5e	-0.11831544
101	0xbe13fe0a	-0.14452377
102	0xbc46a33e	-0.012123881
103	0xbe920b82	-0.28524405
104	0xbe82b4aa	-0.2552846
105	0x3db592a0	0.08865857
106	0xbdcd5d8d	-0.10027609
107	0xbd5f08a9	-0.05445162
108	0x3c2dac11	0.010600106
109	0x3e6d7f2a	0.2319304
110	0x3de57e06	0.11205678
111	0xbde20e73	-0.11037912
112	0xbe39f791	-0.18160845
113	0xbcec2168	-0.028824523
114	0xbd1674b9	-0.03673241
115	0x3be79f94	0.0070685837
116	0xbca18f4f	-0.019721655
117	0x3d5f2d42	0.05448652
118	0xbba8da53	-0.0051529794
119	0x3ecd1fe9	0.40063408
120	0xbe27b2f1	-0.16376854
121	0x3eb489c8	0.3526137
122	0xbe27427b	-0.16333954
123	0xbd16a9c7	-0.036783006
124	0xbd514118	-0.05108747
125	0xbe3aadc5	-0.1823035
126	0x3da80919	0.0820486
127	0x3ea0f61c	0.31437767
128	0x3d9771f2	0.0739478
129	0x3e4e2eac	0.20134991
130	0x3c03ca96	0.008043906
131	0xbcfa1822	-0.030529086
132	0xbd2953d4	-0.04133971
133	0xbdb30e61	-0.08742977
134	0xbcfeab60	-0.031087577
135	0x3de508d6	0.11183326
136	0x3ec1fa08	0.3788607
137	0xbdef990e	-0.11699115
138	0xbeae8935	-0.34089056
139	0xbec8b314	-0.39199126
140	0xbe591e56	-0.21202978
141	0x3e2bda9c	0.16782612
142	0xbde97062	-0.113983884
143	0x3e1b3ba3	0.15159468
144	0x3dbd2965	0.09236411
145	0xbdb81948	-0.08989197
146	0xbddb7c31	-0.10717047
147	0x3dc5899a	0.09645386
148	0x3e92fbf5	0.28707853
149	0xbd0e89de	-0.03479945
150	0x3e0129b2	0.12613562
151	0x3e06e839	0.13174523
152	0x3e420ea7	0.18950902
153	0x3dda923e	0.10672425
154	0xbde423d4	-0.11139646
155	0x3d0baeb1	0.034102146
156	0x3dbb269b	0.09138223
157	0x3da00d22	0.07815005
158	0xbc3d1d95	-0.011542697
159	0xbde31ee0	-0.11089873
160	0x39b31f79	0.0003416499
161	0x3d35a7a0	0.044349313
162	0x3dcbfee9	0.0996073
163	0x3d83f80f	0.06443798
164	0x3d0e9ca1	0.03481734
165	0x3d892798	0.06697005
166	0xbddc0c47	-0.10744529
167	0x3e344cd3	0.17607431
168	0x3e36462e	0.17800209
169	0x3e641ad3	0.22275858
170	0x3dc30246	0.09521918
171	0x3dc594df	0.096475355
172	0x3e1b9423	0.15193228
173	0x3e316216	0.17322573
174	0x3e1aaac6	0.15104207
175	0x3dccdf9f	0.1000359
176	0x3e625ad1	0.22104956
177	0x3df0e0ef	0.11761653
178	0x3de674ba	0.112527326
179	0x3d67010a	0.056397475
180	0xbdb467fa	-0.088088945
181	0x3eb7834f	0.35842368
182	0xbcd05cf2	-0.025434945
183	0xbd0c7911	-0.034295145
184	0xbee93d76	-0.45554703
185	0xbc9e9f2e	-0.019363012
186	0xbd04e126	-0.03244128
187	0x3d0434e7	0.032277014
188	0xbd2bb97e	-0.041924946
189	0x3e9f36d7	0.31096527
190	0x3ed8415f	0.42237374
191	0x3c183c11	0.009291665
192	0x3d0fc2ff	0.035098072
193	0xbec96446	-0.39334315
194	0xbdd1d5ee	-0.10245882
195	0xbd23846c	-0.03992121
196	0x3da0b8b6	0.07847731
197	0xbd952b07	-0.072835974
198	0xbe445318	-0.19172323
199	0x3e1c4940	0.15262318
200	0x3d94d51a	0.072672084
201	0xbdfb6d40	-0.12276697
202	0xbe3288a3	-0.17434935
203	0xbe33432e	-0.17506096
204	0x3e1d7e4d	0.15380211
205	0x3d9473a6	0.07248621
206	0x3d80475f	0.06263613
207	0x3c9eb318	0.019372508
208	0x3e8fd050	0.28088617
209	0xbc354485	-0.0110637
210	0x3e61e1a3	0.2205873
211	0xbd365a17	-0.04451951
212	0xbd01ff1a	-0.031737424
213	0xbe8ba599	-0.27274778
214	0xbe15a543	-0.14613824
215	0xbd7c6869	-0.06162301
216	0x3c80c65b	0.015719583
217	0xbce19b4d	-0.027539873
218	0xbbd97d4c	-0.006637251
219	0xbf123edc	-0.57127166
220	0x3e06ef9e	0.13177344
221	0x3e89c265	0.26906124
222	0xbe065ca4	-0.13121277
223	0xbe0d5909	-0.13803495
224	0xbdb8625a	-0.09003134
225	0xbda4b192	-0.08041681
226	0x3d09c062	0.033630736
227	0x3d30106f	0.042984422
228	0x3e3f35e1	0.18672897
229	0xbed784bc	-0.42093456
230	0x3eb59454	0.35464728
231	0x3c54d9e3	0.012991401
232	0xbe92be24	-0.2866069
233	0x3e3a8940	0.18216419
234	0xbecc1a72	-0.39863926
235	0x3e219d1f	0.15782593
236	0xbc6c96be	-0.014440237
237	0xbecb7895	-0.39740434
238	0x3ea0fc5c	0.31442535
239	0xbdbdbeec	-0.09264931
240	0x3bb329db	0.005467636
241	0xbdc25d75	-0.09490482
242	0x3d3d6f27	0.04624858
243	0xbe039e28	-0.128533
244	0xbe915749	-0.28386906
245	0x3e5bfeb4	0.2148388
246	0xbf1f58ac	-0.6224468
247	0xbe14179c	-0.14462131
248	0x3f191680	0.5979996
249	0xbee4f726	-0.4471981
250	0x3bc5747b	0.0060258484
251	0x3dcd2e42	0.100185886
252	0x3e536586	0.20644197
253	0xbe7a21c5	-0.24426945
254	0x3eb5debf	0.35521504
255	0xbdf3b059	-0.1189887

bias f4 [12]
0	0xbdb90105	-0.090333976
1	0x3d081d18	0.03323087
2	0x3a34502a	0.00068784005
3	0x3b8c76a8	0.004286606
4	0x3d13158b	0.035909217
5	0x3d6a7c4c	0.057247445
6	0x3d6850e5	0.056717772
7	0x3b08a1e1	0.002084844
8	0x3d6ff950	0.058587372
9	0x3e045030	0.12921214
10	0x3dc6abb4	0.097007185
11	0xbc0b2e9b	-0.008494998

weight f4 [12]
0	0x3e9e698c	0.309399
1	0xbeb02e5a	-0.34410363
2	0xbd6edd21	-0.058316354
3	0xbcd42b05	-0.02589942
4	0xbf5531f6	-0.8327936
5	0xbd4bfba1	-0.04980052
6	0x3f66c25a	0.90140307
7	0xbe45d839	-0.19320764
8	0x3f2b117d	0.6682356
9	0x3ed64686	0.4185068
10	0x3f7cf535	0.98811656
11	0x3f1fa6c8	0.62363863

weight f4 [12, 12, 3, 3]
0	0xbbde6417	-0.006786834
1	0xbd262e7f	-0.040571686
2	0x3d783e92	0.060606547
3	0x3d3cc79e	0.046088807
4	0xbea57016	-0.32312077
5	0xbd134b1f	-0.035960313
6	0x3c8f4605	0.017489443
7	0x3c0b171c	0.008489396
8	0x3c40ed2c	0.011775296
9	0xbd04cfeb	-0.03242485
10	0x3c6f4cef	0.014605745
11	0x3ccf38cd	0.02529564
12	0x3c1d4f18	0.009601377
13	0x3c36f66e	0.011167152
14	0x3bf1ff9b	0.007385207
15	0x3bd8b43e	0.0066132834
16	0xbc9ea980	-0.019367933
17	0xbd06b435	-0.032886703
18	0xbd9fdbe7	-0.07805615
19	0x3d1d3057	0.03837618
20	0x3b97b7fb	0.0046300865
21	0x3d6cd501	0.057820324
22	0x3e6179f4	0.22019178
23	0xbe5b24fa	-0.21400824
24	0x3b71b9ba	0.0036884383
25	0xbd5d054b	-0.053960126
26	0xbd560bc3	-0.05225731
27	0xbe0665b9	-0.13124742
28	0xbd6296fa	-0.055319764
29	0xbcb2d636	-0.02183066
30	0xbdfe81c4	-0.124270946
31	0x3da54558	0.08069867
32	0x3c9f5e8e	0.019454267
33	0x3bb3943f	0.005480319
34	0xbd56a66c	-0.052404806
35	0x3d01a204	0.03164865
36	0x3c9659ed	0.018353427
37	0xbcb07e7e	-0.021544691
38	0xbd772b0e	-0.060343795
39	0xbccc7703	-0.024959093
40	0x3cf60baa	0.030034859
41	0x3d7a9e9c	0.061186418
42	0x3bfe3f97	0.0077590453
43	0x3ced29b1	0.028950544
44	0xbccae10f	-0.02476552
45	0x3c102b49	0.0087993825
46	0xbd1687ce	-0.036750607
47	0x3d18dd13	0.037320208
48	0x3c6f4f09	0.014606246
49	0x3d8536e2	0.06504609
50	0xbcd63db9	-0.026152479
51	0x3d2dc8e7	0.042427924
52	0xbd66e88e	-0.056374125
53	0x3cd6b242	0.026208047
54	0xbd81ce70	-0.06338203
55	0xbd1a45f5	-0.037664372
56	0xbcfc5cfa	-0.030806053
57	0x3dc3804a	0.095459536
58	0xbea02677	-0.31279346
59	0x3cffbb3a	0.031217206
60	0xbcc27fae	-0.023742523
61	0x3c9da74b	0.01924481
62	0x3c8eaca9	0.017416315
63	0x3c35dafa	0.011099571
64	0xbd6a906f	-0.05726665
65	0xbcc9d770	-0.024638861
66	0xbce622ec	-0.028092824
67	0x3de4a9a0	0.11165166
68	0xbcc39db8	-0.023878917
69	0xbc7a69a4	-0.015283976
70	0xbe03a870	-0.12857223
71	0x3d50c794	0.050971583
72	0xbd237e5a	-0.03991542
73	0x3b901f70	0.004398279
74	0x3d3b6e60	0.04575956
75	0x3d371825	0.04470076
76	0x3dbaa49a	0.091134265
77	0x3d7f1578	0.062276334
78	0xbb2c2f0d	-0.0026273162
79	0x3c684dbd	0.0141786905
80	0xbd8bc68a	-0.06824978
81	0xbd9d98c7	-0.076951556
82	0x3d8230c8	0.063569605
83	0xbd3c127a	-0.045916058
84	0x3da1aa21	0.07893778
85	0x3e87605c	0.26440704
86	0x3d7a784f	0.06114989
87	0xbd8f2703	-0.06989863
88	0x3dad9b20	0.08476853
89	0xbd2c4152	-0.04205448
90	0x3d7ed590	0.062215388
91	0x3ce9c880	0.028537989
92	0x3c89347f	0.016748665
93	0x3dcf62e1	0.101262815
94	0x3ee3a2cc	0.44460142
95	0x3cc4c8d9	0.024021553
96	0xbc39db7a	-0.011343831
97	0x3ce24df4	0.027625062
98	0x3d2a4ba7	0.041576054
99	0x3c2dbb91	0.010603801
100	0x3dc3aca0	0.0955441
101	0xb9df8046	-0.00042629446
102	0xbe2bf206	-0.16791543
103	0xbe87d376	-0.2652852
104	0x3d4ca3d1	0.049960915
105	0xbcc67ad5	-0.024228493
106	0x3d7e5713	0.06209476
107	0x3c86d79d	0.016460234
108	0xbcf04b61	-0.029332818
109	0x3e551e88	0.20812428
110	0x3cdff689	0.027339237
111	0xbe0f513d	-0.13995834
112	0x3f127488	0.5720906
113	0xbea37a17	-0.31929085
114	0x3b905258	0.0044043474
115	0x3cda605c	0.026657276
116	0xbca51b46	-0.020154607
117	0xbd104323	-0.035220277
118	0x3a0bc9b1	0.00053324836
119	0x3d426dbe	0.04746794
120	0xbd43a96e	-0.047769003
121	0x3df87263	0.121311925
122	0xbd9b3b16	-0.07579629
123	0xbd424e8c	-0.04743819
124	0x3d89b51e	0.067239985
125	0xbde09eca	-0.109677866
126	0x3cb94a14	0.022618331
127	0xbe076fc9	-0.13226236
128	0x3e35b055	0.17743047
129	0x3e130167	0.14356004
130	0xbf3479aa	-0.70498145
131	0x3df78500	0.120859146
132	0x3da0db80	0.07854366
133	0x3d71251e	0.05887329
134	0x3d7086f3	0.058722448
135	0xbe2d2b88	-0.16911137
136	0xbd0819a1	-0.033227567
137	0xbc8b7be6	-0.017026853
138	0xbee63185	-0.44959655
139	0x3f1fd026	0.62426984
140	0x3cd9e7fe	0.02659988
141	0xbda4d508	-0.08048445
142	0x3d220f7f	0.03956556
143	0xbd091421	-0.033466462
144	0x3b0d4967	0.0021558644
145	0xbddd8b8a	-0.108176306
146	0xbd863fee	-0.06555162
147	0x3e3ce9aa	0.18448511
148	0xbe88c9b6	-0.26716393
149	0x3e245036	0.16046223
150	0x3dcca3c7	0.099921755
151	0xbc0ccd82	-0.008593919
152	0x3cc27b8a	0.023740549
153	0x3dae8505	0.08521465
154	0xbde873d2	-0.11350216
155	0x3c12b16f	0.008953436
156	0xbe1cc9d7	-0.15311371
157	0x3e07539e	0.13215491
158	0xbe1fc63f	-0.15602969
159	0xbe3ff57f	-0.18745993
160	0x3d9d35cc	0.076762766
161	0xbdc8468d	-0.097790815
162	0xbdf9c14a	-0.1219507
163	0x3d26d173	0.04072709
164	0xbd820db5	-0.06350271
165	0x3da922c0	0.08258581
166	0xbcf8a9b8	-0.030354366
167	0xbd6bc1e2	-0.057557948
168	0x3d673ecf	0.056456383
169	0xbd2389de	-0.039926402
170	0x3d1aa4c7	0.0377548
171	0x3d823854	0.063584
172	0xbddd75da	-0.10813494
173	0xbd2ea50a	-0.042637862
174	0xbdab43b1	-0.083625205
175	0x3e22842c	0.15870732
176	0xbcef84c8	-0.02923812
177	0xbdee7282	-0.116429344
178	0x3e0575e9	0.1303326
179	0x3bccffa2	0.0062560597
180	0x3d6810bf	0.056656595
181	0x3ca12ef3	0.019675707
182	0xbc3f29f8	-0.011667721
183	0x3e826c63	0.25473318
184	0xbde50e79	-0.11184401
185	0xbe99d6a1	-0.3004656
186	0x3d4d08f8	0.05005738
187	0x3dc3f7fb	0.09568783
188	0xbdfc6d98	-0.12325591
189	0xbc2c6a11	-0.010523335
190	0xbc99a57f	-0.018755672
191	0x39fc70a0	0.00048149098
192	0x3e0b13a4	0.13581711
193	0x3ca23d87	0.01980473
194	0xbe3b2a78	-0.1827792
195	0x3ca85240	0.020547032
196	0x3d9ac168	0.075564206
197	0xbd4edc0b	-0.050502818
198	0xbdb1b7df	-0.08677649
199	0x3cb59599	0.02216606
200	0x3ce03e5b	0.027373483
201	0xbe8ffca9	-0.28122452
202	0x3eb0255b	0.344035
203	0x3d942dc0	0.072352886
204	0xbca5cb42	-0.020238522
205	0xbc6a5a45	-0.0143037485
206	0x3b1b96c1	0.002374098
207	0xbcf69d35	-0.030104259
208	0x3cb95537	0.022623641
209	0xbd548430	-0.051883876
210	0xbdb1e998	-0.086871326
211	0x3e763f3b	0.24047558
212	0xbda5c38e	-0.0809394
213	0xbd4211ad	-0.04738014
214	0x3d82543f	0.06363725
215	0xbdc16ee3	-0.09444978
216	0xbd8d6d05	-0.069055595
217	0x3eb2a72e	0.34893173
218	0x3e60c961	0.2195182
219	0x3e3957a7	0.18099843
220	0xbeabfa9e	-0.33589643
221	0xbde19793	-0.110152386
222	0xbceca5cf	-0.028887657
223	0x3e6672a2	0.22504666
224	0x3de36f2f	0.11105191
225	0xbe653ce5	-0.2238651
226	0xbed32d44	-0.41245472
227	0x3e3d719a	0.18500367
228	0xbe29ec6d	-0.16594096
229	0xbe72aa65	-0.23697813
230	0xbdfde646	-0.12397437
231	0xbcc3e688	-0.023913637
232	0xbc1d63a7	-0.0096062785
233	0x3e113e3f	0.14183901
234	0xbdbc30e1	-0.091890104
235	0xbf109e4b	-0.56491536
236	0x3e610baf	0.21977113
237	0x3e0db3ab	0.13838069
238	0x3d93727d	0.07199571
239	0xbf11dea8	-0.5698037
240	0xbb92a996	-0.0044757826
241	0xbbdd8056	-0.0067596836
242	0x3e9cf5e8	0.30656362
243	0xbf315dfb	-0.6928403
244	0xbe051c8d	-0.12999173
245	0xbe03c591	-0.12868334
246	0xbea6603d	-0.324953
247	0x39c04e59	0.00036679467
248	0x3e1d2af4	0.15348417
249	0x3e1e9d69	0.15489735
250	0x3e4c901e	0.19976851
251	0xbd68a247	-0.056795385
252	0x3e9b5305	0.30336776
253	0xbe9e55b5	-0.30924764
254	0xbeb144dc	-0.34622848
255	0xbdfc8370	-0.12329757

bias f4 [12]
0	0x3cf674ff	0.030085085
1	0x3e774f0f	0.24151252
2	0x3d3cf58b	0.046132606
3	0xbea1194f	-0.3146462
4	0x3ddace3f	0.106838696
5	0x3cf20055	0.029541174
6	0xbdf56ddc	-0.11983845
7	0x3d595a27	0.05306449
8	0x3d048d45	0.032361288
9	0x3c45c94d	0.01207192
10	0xbe7a92cc	-0.24470061
11	0xbe83aa7d	-0.2571601

weight f4 [12]
0	0x3f6f5cb3	0.9350082
1	0x3fb1a51c	1.3878512
2	0x3e36015b	0.17773955
3	0x3e84730f	0.25869033
4	0x3e069079	0.1314105
5	0x3f6120c7	0.8794064
6	0x3dd0b7ff	0.101913445
7	0x3e1b96dd	0.15194269
8	0x3ee1493e	0.44001192
9	0x3d477b02	0.048701294
10	0x3f06ec9d	0.52704793
11	0x3e944ccc	0.2896484

weight f4 [48, 12, 1, 1]
0	0x3dfa015d	0.12207291
1	0xbe816e85	-0.25279632
2	0x3e242643	0.1603022
3	0x3c8ec910	0.017429858
4	0xb94f6020	-0.00019776868
5	0xbe2e7376	-0.17036232
6	0xbe82b1ab	-0.25526175
7	0x3c7450b1	0.014911816
8	0xbccf16e5	-0.025279472
9	0x3dec7d1a	0.11547299
10	0x3ef113e7	0.47085497
11	0xbf14171e	-0.57847774
12	0x3d020d57	0.031751003
13	0x3e357b12	0.17722729
14	0xbd1fefbb	-0.039046984
15	0xbdb01611	-0.08597959
16	0x3e729712	0.23690441
17	0x3d1b9530	0.037984073
18	0x3e7c5905	0.24643333
19	0xbc3625bc	-0.011117395
20	0xbd05100b	-0.032486003
21	0xbe4145e7	-0.18874322
22	0x3ef91860	0.4865141
23	0xbe6c3ab7	-0.23069273
24	0x3e4d4b5e	0.20048282
25	0x3dbb841e	0.09156059
26	0x3cf54c73	0.02994368
27	0x3d159293	0.036516737
28	0xbd96f937	-0.07371753
29	0x3cef29bd	0.029194707
30	0x3e0ed180	0.13947105
31	0xbe07ca5e	-0.1326079
32	0x3daf5f0d	0.085630514
33	0xbe18d724	-0.1492582
34	0xbdfba0f6	-0.1228656
35	0xbd3f80b3	-0.046753597
36	0x3c27c73d	0.010240373
37	0xbe8de5f6	-0.2771451
38	0x3ea5968e	0.32341427
39	0x3eaa819a	0.33302003
40	0x3e1bbcfa	0.15208808
41	0x3d5cb85a	0.05388675
42	0x3e0c69d2	0.13712242
43	0x3e44a694	0.1920417
44	0xbea00829	-0.31256226
45	0x3e8c560c	0.274094
46	0x3e155be0	0.14585829
47	0xbcabc9a3	-0.020970171
48	0xbe6ae521	-0.22938968
49	0x3e120f6f	0.142637
50	0x3ecfc756	0.4058177
51	0x3e30231e	0.17200896
52	0x3de51623	0.11185863
53	0xbe582387	-0.21107303
54	0x3dd7a5ab	0.105296455
55	0xbda61e03	-0.08111193
56	0x3de62b17	0.112386875
57	0x3e850812	0.2598272
58	0x3e76d2d4	0.24103862
59	0x3e942811	0.28936818
60	0x3d9fef32	0.07809295
61	0xbea9abb3	-0.3313881
62	0x3dd870e7	0.105684094
63	0xbdf7f9cd	-0.121081926
64	0xbe51c459	-0.20485057
65	0x3e454aba	0.19266787
66	0xbddecb15	-0.108785786
67	0xbd95492b	-0.07289346
68	0xbe145808	-0.14486706
69	0x3dca4c69	0.09877855
70	0x3e57cb3a	0.21073619
71	0xbcc2317b	-0.023705235
72	0x3dd1f2c3	0.10251381
73	0x3e4870fc	0.1957435
74	0xbea33f15	-0.31884065
75	0x3ebf1566	0.37321013
76	0xbd420aae	-0.047373466
77	0xbe3370ab	-0.17523448
78	0xbe036cca	-0.12834468
79	0xbe9e9c5f	-0.30978677
80	0xbda40ea6	-0.080106065
81	0x3e6dd594	0.23226005
82	0x3eb1a9e9	0.34699944
83	0xbde18870	-0.110123515
84	0xbc115bab	-0.008871953
85	0xbc6047b5	-0.013688971
86	0xbd83839a	-0.064215854
87	0xbe727c98	-0.23680341
88	0xbeaa3163	-0.33240804
89	0xbd2412e0	-0.040057063
90	0x3cf40627	0.02978809
91	0xbdd32d74	-0.10311404
92	0xbe66f3a2	-0.22553876
93	0x3e13ad8e	0.14421675
94	0xbe1d2528	-0.15346205
95	0xbd5b13fa	-0.053485848
96	0x3e9a53eb	0.3014215
97	0xbdcb6262	-0.099308744
98	0x3dc02cd5	0.09383551
99	0xbe0ee588	-0.13954747
100	0xbd74db4a	-0.059779443
101	0xbde1f072	-0.110321894
102	0xbdb8af4d	-0.09017811
103	0x39ecd97e	0.00045175472
104	0xbd51d99f	-0.05123293
105	0xbd2dd031	-0.042434875
106	0xbda0401a	-0.078247264
107	0xbe63d19a	-0.22247925
108	0x3dfc2379	0.12311453
109	0x3e0b922b	0.13629977
110	0x3d93817d	0.07202432
111	0xbe8d0054	-0.27539313
112	0xbd8f0f32	-0.0698532
113	0x3d8e786b	0.06956562
114	0x3d0cc0d3	0.03436358
115	0xbc8d187d	-0.017223591
116	0x3de19d11	0.11016286
117	0xbc08cd34	-0.0083497055
118	0xbe405243	-0.1878138
119	0xbe436404	-0.19081122
120	0x3deb3e99	0.11486549
121	0xbdf3c56b	-0.11902889
122	0x3e189f16	0.14904436
123	0xbe3952bc	-0.18097967
124	0xbe5e134e	-0.21687052
125	0xbdb26619	-0.0871088
126	0x3ea57b71	0.3232074
127	0xbdf2f3ea	-0.11862929
128	0xbe42bce2	-0.19017366
129	0xbf1247b3	-0.57140654
130	0xbde05069	-0.10952837
131	0xbdacf06c	-0.08444294
132	0x3ee4c87f	0.44684216
133	0xbe002975	-0.12515815
134	0xbefd1c66	-0.4943573
135	0x3cecaf33	0.028892135
136	0xbef41df7	-0.4767911
137	0xbeb8a266	-0.360614
138	0xbe8da528	-0.27665067
139	0xbed42791	-0.41436437
140	0xbddbf795	-0.10740582
141	0x3e7ee3cf	0.2489159
142	0x3f09844b	0.5371749
143	0xba6b93c0	-0.0008986555
144	0x3e0e4a75	0.1389559
145	0x3d65e3e5	0.05612554
146	0x3d9332e1	0.07187439
147	0xbea879d5	-0.3290545
148	0x3e38c3d1	0.18043448
149	0xbd804eb1	-0.06265009
150	0xbe1cc752	-0.1531041
151	0xbbc014d0	-0.005861856
152	0x3e401e6e	0.18761608
153	0x3dc9bebd	0.098508336
154	0xbe478770	-0.19485259
155	0x3e0f29e4	0.13980824
156	0xbd2c61f9	-0.04208562
157	0x3e6d86d5	0.23195966
158	0xbda02747	-0.078199916
159	0x3e281d22	0.16417363
160	0xbcc23363	-0.023706144
161	0xbce127ac	-0.027484737
162	0xbc7e30d0	-0.0155145675
163	0x3e493ffd	0.19653316
164	0xbe76a5be	-0.24086663
165	0xbec73ee4	-0.3891517
166	0x3e6e23ea	0.23255888
167	0x3dd5bc24	0.104362756
168	0x3eae0a87	0.33992407
169	0x3d900f93	0.070342205
170	0x3dabf470	0.08396232
171	0x3d38df85	0.04513504
172	0xbd93ea2f	-0.07222401
173	0x3dfa368c	0.12217435
174	0xbd3e1fa6	-0.0464169
175	0x3c840e25	0.016120026
176	0x3d76a682	0.060217388
177	0x3d215e6f	0.0393967
178	0xbe40fa55	-0.18845494
179	0x3d337e1b	0.043821435
180	0x3e7c85fb	0.24660484
181	0x3df50ec4	0.11965707
182	0xbe16b4ec	-0.14717454
183	0xbeaeb62d	-0.34123364
184	0x3ce342b7	0.027741773
185	0x3e0ae8ab	0.13565318
186	0x3d969457	0.07352512
187	0xbb91c5f0	-0.004448645
188	0x3e0c81b7	0.13721357
189	0xbe271076	-0.16314873
190	0x3d2f12ac	0.042742416
191	0x3dfffb7f	0.12499141
192	0x3e9426d6	0.2893588
193	0x3ccfeabd	0.025380487
194	0x3d7eb0f2	0.062180467
195	0xbde990e2	-0.11404587
196	0x3dfbd785	0.122969665
197	0x3d15a4b4	0.036534026
198	0xbd1dd258	-0.038530678
199	0xbd691b8f	-0.056911048
200	0xbbfff9b8	-0.007811751
201	0x3cee7e2d	0.0291129
202	0xbdbf7497	-0.093484096
203	0x3d32c100	0.04364109
204	0x3da8c91a	0.08241482
205	0x3e62d910	0.22153115
206	0xbe7827d9	-0.2423395
207	0xbe7679d3	-0.2406991
208	0xbe0318b9	-0.128024
209	0x3f149bdb	0.58050317
210	0xbe629f5c	-0.22131103
211	0xbe9344d1	-0.2876344
212	0xbf28c91e	-0.6593188
213	0xbc9f6ebf	-0.019461988
214	0xbead2a67	-0.33821413
215	0xbe32e033	-0.17468338
216	0xbcddc357	-0.027070684
217	0xbc9c62de	-0.019090112
218	0xbe7c2cc4	-0.24626452
219	0xbdee3156	-0.11630504
220	0xbd485035	-0.048904616
221	0xbe9d1ce8	-0.30686116
222	0xbd76306d	-0.060104776
223	0xbd506c6c	-0.05088465
224	0x3cd35fcb	0.025802514
225	0x3d6c3ad1	0.05767328
226	0x3d90de3d	0.070736386
227	0xbdba554b	-0.090982996
228	0x3e515878	0.20443904
229	0x3c46462a	0.012101689
230	0x3db06466	0.086128995
231	0xbeccc792	-0.3999601
232	0xbd6bf956	-0.057610832
233	0x3dff0288	0.12451655
234	0x3c75d52a	0.015004436
235	0x3e0ac42a	0.13551393
236	0x3b9ed194	0.004846761
237	0xbe3ea45e	-0.18617389
238	0xbe24a8bc	-0.16079992
239	0x3e197306	0.14985284
240	0xbdec70e7	-0.11544972
241	0xbd1cfb35	-0.038325507
242	0xbc5469dc	-0.012964692
243	0x3d8ce20d	0.06879053
244	0x3dd9db74	0.106375605
245	0x3e3c7cab	0.18406932
246	0xbf22b1ab	-0.6355235
247	0xbf0ef653	-0.5584461
248	0x3e7c03c4	0.24610811
249	0xbeac2094	-0.33618605
250	0x3e7204c7	0.23634635
251	0x3e81d18e	0.2535519
252	0xbe400aa2	-0.18754056
253	0x3e709f6d	0.23498316
254	0xbe10fc5d	-0.14158769
255	0xbeb04e10	-0.34434557

bias f4 [48]
0	0x3d746c0c	0.059673354
1	0x3c0cb450	0.008587912
2	0x3ca975fe	0.020686146
3	0xbe102fa4	-0.14080673
4	0xbe246e03	-0.16057591
5	0xbd43cef8	-0.047804803
6	0xbc6bbc4f	-0.014388158
7	0xbd5420ff	-0.05178928
8	0x3d8961f9	0.0670814
9	0xbcca4af8	-0.024693951
10	0xbe0d1e0e	-0.13780996
11	0xbae46c84	-0.001742736
12	0x3d14fcc5	0.036373872
13	0xbd077042	-0.03306604
14	0x3df293c0	0.11844587
15	0x3dc63301	0.09677697
16	0x3dc26f70	0.09493911
17	0xbe3cf467	-0.18452607
18	0x3d8ae834	0.067825705
19	0x3daab282	0.08334829
20	0xbdf454fb	-0.11930271
21	0xbda750d4	-0.081697136
22	0xbe6113b7	-0.21980177
23	0x3e10bfe4	0.141357
24	0x3c97b0b2	0.018516872
25	0x3d4fca49	0.050730024
26	0x3db953c3	0.090491794
27	0x3dc9e3b3	0.09857883
28	0x3d961102	0.07327463
29	0x3d3dd680	0.04634714
30	0x3d6ef802	0.058341987
31	0x3c5241d1	0.012833075
32	0xbd84871c	-0.064710826
33	0x3d7d939d	0.061908353
34	0x3dbefe59	0.09325857
35	0x3d8283e7	0.063728146
36	0x3dc4d917	0.09611719
37	0xbdcf3707	-0.101179175
38	0xbcf13f07	-0.029449
39	0xbd2007c0	-0.03906989
40	0x3d448825	0.0479814
41	0xbe4a3e49	-0.19750322
42	0x3d261e25	0.04055609
43	0x3dc28d78	0.09499639
44	0x3d2559d2	0.040368862
45	0x3de2a3b2	0.11066379
46	0xbbd84300	-0.006599784
47	0xbea7a569	-0.32743385

weight f4 [48]
0	0x3ed02169	0.4065049
1	0x3ecfbaa1	0.40572074
2	0x3f0a756d	0.5408543
3	0x3e640db4	0.22270852
4	0x3e7afc90	0.24510407
5	0x3ea2acc8	0.31772447
6	0x3f0a78e7	0.5409073
7	0x3e750198	0.23926389
8	0x3f3b7b0c	0.7323463
9	0x3f06661c	0.52499557
10	0x3e8cd245	0.27504173
11	0x3d801349	0.06253678
12	0x3f3f227d	0.74662
13	0x3e8d0300	0.2754135
14	0x3f50b8c0	0.81531906
15	0x3f7994d0	0.97492695
16	0x3f425017	0.7590346
17	0x3de3218e	0.110903844
18	0x3f85bb22	1.0447733
19	0x3f6635a6	0.8992561
20	0x3e1afc87	0.15135394
21	0x3f354fc1	0.7082482
22	0x3e7b699d	0.24552007
23	0x3f6286c9	0.88486916
24	0x3e8cb79a	0.27483827
25	0x3e3e905e	0.18609759
26	0x3ff9bd44	1.9510884
27	0x3f8dea2f	1.1087092
28	0x3e41b87b	0.1891803
29	0x3f7eda81	0.9955216
30	0x3f4a47e5	0.7901595
31	0x3ee4d972	0.44697148
32	0x3ec7626c	0.38942277
33	0x3f01e6e1	0.5074292
34	0x4046fa63	3.1090324
35	0x3f5e0702	0.86729443
36	0x3fa1c38e	1.2637804
37	0x3e2b4555	0.16725667
38	0x3f4053c6	0.7512783
39	0x3f18fbc2	0.5975915
40	0xbe2ae163	-0.1668754
41	0x3e9f6441	0.31131175
42	0x3eea031e	0.45705503
43	0x3fd1ce3e	1.6391065
44	0x3f512032	0.8168975
45	0x3f0f1b59	0.55901104
46	0x3f4daef1	0.80345064
47	0x3f0d0da1	0.5509892

weight f4 [48, 1, 9, 9]
0	0xbb8e8838	-0.0043497346
1	0xbde5fa47	-0.11229377
2	0xbc70695c	-0.014673557
3	0xbd7d8622	-0.061895497
4	0x3d663418	0.056202024
5	0x3c9ea16b	0.01936408
6	0x3d1af9f3	0.037836026
7	0x3b5f87bd	0.0034108006
8	0x3c988913	0.01862005
9	0xbd8bf3a7	-0.06833582
10	0xbdf2ab25	-0.118490495
11	0xbd3abee5	-0.045592207
12	0x3d566a43	0.052347433
13	0x3d9ea9a8	0.07747203
14	0xbc5076f0	-0.012723669
15	0x3d54252f	0.051793274
16	0x3dca1460	0.098671675
17	0x3d655638	0.055990428
18	0x3c377956	0.011198362
19	0x3d35fc86	0.04443028
20	0xbcf1ad1e	-0.029501494
21	0x3ba2c6bf	0.00496754
22	0x3d968392	0.07349314
23	0x3cada072	0.02119467
24	0xbc913aa9	-0.017728167
25	0xbd74fb1e	-0.059809797
26	0x3d241bb8	0.040065497
27	0xbb2e7e94	-0.002662574
28	0xbaa3d7da	-0.0012500242
29	0x3cc1f30f	0.02367547
30	0xbcbd9b4b	-0.023145339
31	0x3b354a48	0.0027662683
32	0x3d003a50	0.03130561
33	0xbc91023d	-0.017701263
34	0xbdac9abf	-0.08427953
35	0xbd3a85ac	-0.045537636
36	0x3db8c380	0.09021664
37	0xbd5937af	-0.05303162
38	0x3c3ce4b9	0.011529141
39	0x3c5b8845	0.013399188
40	0x3df47d77	0.11937993
41	0x3d74bfa3	0.05975307
42	0xbdd86477	-0.10566037
43	0xbe0262e7	-0.12733041
44	0xbbb4d44d	-0.0055184723
45	0xbdc59f2e	-0.09649502
46	0xbd8d3a75	-0.068959154
47	0x3cba4c5b	0.022741487
48	0x3d96d4eb	0.0736483
49	0x3d35a676	0.044348203
50	0xbd0fc739	-0.035102103
51	0xbd9a841d	-0.0754473
52	0xbd927fb5	-0.071532644
53	0x3dfeaf64	0.12435797
54	0xbd986a4a	-0.07442148
55	0xbd8c025b	-0.06836387
56	0x3b1cd190	0.002392862
57	0x3c4b16a2	0.012395533
58	0x3da57d13	0.08080497
59	0xbd9579b8	-0.07298607
60	0x3dbcd912	0.092210904
61	0x3da4888c	0.08033857
62	0x3e01e885	0.12686355
63	0xbcbd805b	-0.023132494
64	0xbd9f160d	-0.07767878
65	0xbc86f456	-0.01647393
66	0x3d6ddfb9	0.058074687
67	0x3baf871f	0.005356684
68	0xbd5e5be5	-0.054286856
69	0xbcd2beec	-0.025725804
70	0x3e150e29	0.14556183
71	0x3d1e1f8d	0.038604308
72	0xbaf978a4	-0.0019033146
73	0xbd593bf4	-0.05303569
74	0xbd8ea7c7	-0.06965595
75	0xbd1ed9c5	-0.0387819
76	0xbd8fa7cb	-0.07014426
77	0xbcf89440	-0.030344129
78	0xbd3757be	-0.04476141
79	0x3caefe7a	0.021361578
80	0x3d3b89aa	0.045785584
81	0x3d032746	0.032019876
82	0x3c4fdfe5	0.012687658
83	0xbc9ea788	-0.019366995
84	0x3d9498fa	0.072557405
85	0x3b980985	0.0046398067
86	0x3c225f83	0.009910467
87	0x3d15cba2	0.036571153
88	0x3c14a4f5	0.009072532
89	0x3c914cb3	0.017736768
90	0xbba1e279	-0.0049403277
91	0x3d18479a	0.03717766
92	0x3e0302a1	0.12793972
93	0x3cbbcc03	0.022924429
94	0x3d604531	0.054753486
95	0x3d8e04be	0.06934498
96	0x3c9b0358	0.018922493
97	0x3c7f44a4	0.01558033
98	0x3c612e04	0.013743881
99	0xbd15627e	-0.036470883
100	0x3c9d17b5	0.019176343
101	0xbd14bcb0	-0.03631276
102	0xbab0d9e9	-0.0013492677
103	0x3cbba855	0.022907415
104	0x3ce52c8e	0.027975347
105	0x3c9148cb	0.017734906
106	0xbaac2a6d	-0.0013135202
107	0xbd23e582	-0.040013798
108	0xbc5613f1	-0.013066278
109	0x3c30c66c	0.010789495
110	0xbc017501	-0.007901431
111	0xbdd789ff	-0.105243675
112	0xbda01e1b	-0.07818242
113	0xbd84eb01	-0.06490136
114	0x3c3f1959	0.011663758
115	0xbca9ac4b	-0.020712039
116	0xbc4fea60	-0.012690157
117	0xbd2a6f7a	-0.04161022
118	0xbcb62dd9	-0.022238659
119	0xbd3a6ffe	-0.04551696
120	0xbd8b8ab1	-0.06813563
121	0xbcf77ba5	-0.030210325
122	0xbcee1ffb	-0.029067984
123	0x3d15dc72	0.036587186
124	0x3bdd8a10	0.006760843
125	0x3d4af6c2	0.049551733
126	0x3c8ddc19	0.017316865
127	0xbd43724a	-0.047716416
128	0x3da11a2c	0.0786632
129	0x3e087ec0	0.13329601
130	0x3dd66d53	0.10470071
131	0xbd626526	-0.055272244
132	0x3d16218d	0.03665309
133	0xbbe6c0f7	-0.007042046
134	0xbc70ddee	-0.01470135
135	0xbd5db483	-0.054127228
136	0xbda176ab	-0.07883962
137	0x3dac5f3e	0.084166035
138	0x3e18934a	0.14899936
139	0x3dea1f4c	0.11431751
140	0xbd70a213	-0.058748316
141	0xbdf97ba2	-0.12181784
142	0xbd978d2c	-0.07399973
143	0x3c6cd8cc	0.014455985
144	0xbd864694	-0.065564305
145	0x3c8e9626	0.01740558
146	0x3d8c6425	0.068550386
147	0xbbce1f27	-0.0062903347
148	0xbc02d827	-0.007986105
149	0xbde1f1c8	-0.11032444
150	0xbda65369	-0.08121378
151	0xbd161f6f	-0.03665107
152	0xbd007b22	-0.03136743
153	0x3a964966	0.0011465966
154	0x3c897561	0.016779603
155	0x3c824662	0.015902702
156	0x3c7c4985	0.015398388
157	0xbdaa2b01	-0.083089836
158	0xbd30d0be	-0.043167822
159	0x3d9fb05d	0.077973105
160	0xbbedad19	-0.007253301
161	0xbc676768	-0.014123775
162	0x3d8d2704	0.06892207
163	0xbb9b8f2b	-0.0047472916
164	0x3d757056	0.059921585
165	0xbd45fd03	-0.048336994
166	0x3a3099f0	0.00067368057
167	0x3cf8d46b	0.030374726
168	0x3d6d8586	0.057988666
169	0xbd66af5b	-0.056319576
170	0xbd06b0e4	-0.03288354
171	0xbd7edd62	-0.062222846
172	0xbddc2184	-0.1074858
173	0x3cd2f773	0.025752759
174	0xbdd6b986	-0.104846045
175	0xbd1358e1	-0.035973433
176	0xbd1924de	-0.037388675
177	0x3c116873	0.008875
178	0xbbe2d758	-0.0069226436
179	0xbdb2eb8b	-0.087363325
180	0xbd5302e2	-0.05151642
181	0xbc8ace85	-0.01694418
182	0xbd5c8314	-0.053835943
183	0x3cf5248c	0.029924653
184	0x3c9e9256	0.019356888
185	0xbd9d7ff4	-0.07690421
186	0x3db7c38b	0.08972844
187	0x3cc55318	0.024087474
188	0xbd5308d2	-0.051522084
189	0x3b17df09	0.002317371
190	0x3cc2d458	0.023782894
191	0xbc415579	-0.011800163
192	0xbdaeea33	-0.08540764
193	0x3d8f1f4f	0.069883935
194	0x3d40a491	0.047031943
195	0xbd9e4176	-0.077273294
196	0xbe0202a0	-0.12696314
197	0x3d661150	0.056168854
198	0x3c9da755	0.01924483
199	0xb9ff29da	-0.00048668572
200	0x3d725773	0.05916543
201	0x3b4e8d13	0.0031517192
202	0x3d3cd182	0.04609824
203	0x3e11b7e9	0.14230312
204	0x3d693983	0.056939613
205	0x3da92005	0.0825806
206	0xbd91da7d	-0.071217515
207	0xbd1c3768	-0.038138777
208	0x3cc222f7	0.023698313
209	0xbc3c6329	-0.011498251
210	0x3d57582e	0.05257433
211	0x3c4c26c7	0.012460417
212	0x3dc9a60b	0.09846123
213	0x3d3b343f	0.045704123
214	0x3d96e3ce	0.07367669
215	0xbc9d6eb6	-0.01921783
216	0xbcb84c6f	-0.022497384
217	0x3d7a5872	0.061119504
218	0x3dad8704	0.08473018
219	0x3db62352	0.088934556
220	0xbe00b305	-0.1256829
221	0xbd81add8	-0.06331986
222	0xbcc4572f	-0.023967354
223	0x3a982d06	0.0011610098
224	0x3cf2d880	0.02964425
225	0x3d7332cb	0.05937461
226	0x3b3098d9	0.0026946573
227	0xbcc4b6f1	-0.024013015
228	0x3d11de46	0.035612367
229	0x3db55d99	0.08855743
230	0x3d93f1c6	0.07223849
231	0xbd5abae9	-0.053400908
232	0xbd8e769c	-0.06956217
233	0x3cdbfdde	0.026854452
234	0xbb48a55d	-0.0030616142
235	0xbcb7e252	-0.022446785
236	0xbdf26216	-0.11835115
237	0x3cf5895e	0.029972728
238	0xbc0763bd	-0.008263526
239	0xbc4a8d7d	-0.012362835
240	0x3d19d253	0.037554096
241	0x3da1cce9	0.07900412
242	0x3db46665	0.08808593
243	0x3d811f80	0.06304836
244	0xbd887f8d	-0.066649534
245	0x3d91145d	0.07083962
246	0x3d58c078	0.052917928
247	0x3d5ce599	0.0539299
248	0xbcd6e1fd	-0.026230806
249	0xbc1f908e	-0.009739054
250	0xbd48ad56	-0.04899343
251	0xbc3d9c3b	-0.011572893
252	0xbc2eaed9	-0.010661804
253	0xbd103c8d	-0.035213996
254	0xbdf4c065	-0.11950759
255	0x3d12f660	0.035879493
