FSRCNN/FSRCNN_torch/FSRCNN_48_16_4_X3_150.pth (torch, 78027 bytes, 22 tensors)

weight f4 [48, 1, 5, 5]
0	0xbc0c6a7f	-0.0085703125
1	0x3d11c014	0.03558357
2	0x3df6976a	0.12040599
3	0x3c0e71cc	0.0086941235
4	0x3de49e6e	0.111630306
5	0x3dfa4fd3	0.122222565
6	0x3d1d1c2f	0.038356956
7	0xbeeb71fd	-0.45985404
8	0x3e709412	0.23493984
9	0x3e35ad84	0.17741972
10	0xbe22d635	-0.15902026
11	0xbd29dea2	-0.041472085
12	0x3e905892	0.28192574
13	0xbeb18f8f	-0.3467984
14	0xbd8c5fbc	-0.068541974
15	0x3d9b4335	0.07581178
16	0xbef291b4	-0.47376788
17	0xbd69dad7	-0.057093468
18	0x3df1d2a9	0.11807758
19	0xbb6c0cd4	-0.0036018388
20	0x3f0b2de6	0.5436691
21	0x3b7fb288	0.0039016325
22	0xbe0a06c4	-0.13479143
23	0xbe057067	-0.1303116
24	0xbebf85ef	-0.3740687
25	0xbde2221d	-0.11041663
26	0xbe3f044a	-0.1865398
27	0x3c3a4534	0.011369038
28	0x3cad8652	0.021182213
29	0x3df35795	0.11881939
30	0xbabbb2fd	-0.001432031
31	0xbe0f5959	-0.13998927
32	0x3e1de205	0.15418251
33	0x3e88a49a	0.2668808
34	0x3e689430	0.22712779
35	0x3dd7baeb	0.10533699
36	0x3e53b22f	0.2067344
37	0xbed68759	-0.41900137
38	0x3eb11448	0.34585786
39	0xbe8f4ef1	-0.27989915
40	0xbd1915c0	-0.037374258
41	0x3d8748a4	0.06605652
42	0xbeb024bc	-0.34403026
43	0x3ea3c00d	0.3198246
44	0x3d8d90ea	0.06912406
45	0x3c091dff	0.008368968
46	0xbd8e970c	-0.06962404
47	0xbd98e6c9	-0.07465894
48	0x3d044c84	0.032299533
49	0x3d4f2100	0.05056858
50	0x3ddc0f09	0.10745055
51	0x3e04aa77	0.12955652
52	0xbd423a75	-0.04741903
53	0x3dd79213	0.10525908
54	0x3e180e3a	0.14849177
55	0xbd11c1ca	-0.035585202
56	0xbbd178c5	-0.0063925707
57	0x3e65d85c	0.22445816
58	0x3b944d13	0.0045257895
59	0x3d89b435	0.06723825
60	0xbdaa8736	-0.08326571
61	0xbd894d61	-0.06704212
62	0x3e8bc65f	0.27299783
63	0x3e613692	0.21993473
64	0xbe20ba59	-0.15696086
65	0x3dc20b3c	0.09474799
66	0x3d4760d6	0.048676334
67	0x3d28d374	0.041217282
68	0x3de052ad	0.10953269
69	0x3d3a15e5	0.045431037
70	0x3c565b00	0.0130832195
71	0x3dc5b3cd	0.09653435
72	0xbd93edc1	-0.07223082
73	0x3d5d0bd1	0.053966347
74	0x3d96ec5f	0.07369303
75	0xbdf995f2	-0.12186803
76	0x3c341fd7	0.010993919
77	0x3dea4533	0.1143898
78	0x3d1615b5	0.036641795
79	0xbd047084	-0.032333866
80	0xbdaac8a9	-0.08339054
81	0xbe655247	-0.22394668
82	0xbe3292bf	-0.17438792
83	0xbe3d01ac	-0.18457669
84	0x3e438d19	0.19096793
85	0xbe133ef6	-0.14379486
86	0xbec35373	-0.38149604
87	0xbe7d9eb2	-0.24767569
88	0xbe259800	-0.16171265
89	0xbbf91894	-0.007601807
90	0xbd502be5	-0.05082311
91	0x3dc75b2d	0.09734187
92	0xbe5350b0	-0.20636249
93	0xbe2f7f03	-0.17138295
94	0xbd52f3b5	-0.05150195
95	0x3dbe683d	0.092972256
96	0x3d4df290	0.050280154
97	0xbd427ad8	-0.047480434
98	0x3c2aaab9	0.01041668
99	0x3dbdd928	0.09269935
100	0xbe2dca6e	-0.16971752
101	0xbe76f566	-0.2411705
102	0x3e1c1a1e	0.15244338
103	0x3dd723fa	0.10504909
104	0xbf132664	-0.57480454
105	0x3f26888a	0.6505209
106	0xbf36ea48	-0.71451235
107	0x3c35c270	0.011093721
108	0xbe3ee6ad	-0.18642683
109	0x3e3eda3d	0.18637939
110	0xbec9e2cf	-0.39430854
111	0x3e30d547	0.17268859
112	0x3e328082	0.17431834
113	0x3d9ba612	0.07600035
114	0xbe4f0df7	-0.20220171
115	0xbe89f5b3	-0.26945266
116	0xbea289fa	-0.31745893
117	0x3dee2eb1	0.116299994
118	0x3e28f868	0.1650101
119	0xbeb96bca	-0.3621505
120	0x3e9733aa	0.29531604
121	0xbe27b4d6	-0.16377577
122	0x3d19a013	0.037506174
123	0xbdf3c781	-0.11903287
124	0x3e0cf337	0.13764654
125	0x3dd3d1d3	0.10342755
126	0xbe14256c	-0.144674
127	0x3d454cbf	0.048168894
128	0x3b621125	0.0034495082
129	0x3e171fcf	0.14758228
130	0xbe39d36a	-0.18147054
131	0xbded142f	-0.11576115
132	0xbe0b6819	-0.13613929
133	0xbdee1808	-0.11625677
134	0xbded22f9	-0.11578936
135	0x3bf0c4f0	0.0073476955
136	0x3d9cc77a	0.07655235
137	0x3f00f830	0.50378704
138	0xbd62b2f8	-0.05534646
139	0x3e06b7a3	0.1315599
140	0x3e09c463	0.13453822
141	0x3dc1bd1a	0.094598964
142	0x3d97a91b	0.07405301
143	0x3e194e8e	0.14971372
144	0x3c890e79	0.016730534
145	0xbdb0c54a	-0.0863138
146	0xbda0be69	-0.07848818
147	0xbdc33fdc	-0.095336646
148	0xbe03d1df	-0.12873028
149	0xbcfdbaa9	-0.030972796
150	0xbe2d8779	-0.1694621
151	0x3e7dc944	0.24783808
152	0x3e525ce3	0.20543246
153	0x3dc9be98	0.09850806
154	0xbdc99158	-0.09842175
155	0x3e559716	0.20858416
156	0xbd88f11b	-0.06686612
157	0xbf069143	-0.525654
158	0x3f08ed7b	0.53487366
159	0x3e8d4aa8	0.2759602
160	0xbda6b9f3	-0.08140936
161	0xbe818014	-0.25293028
162	0xbf21ccc8	-0.63203096
163	0xbeba1126	-0.36341208
164	0x3e669842	0.22519019
165	0xbe4e09d8	-0.20120943
166	0xbe6f658d	-0.23378582
167	0x3db3a825	0.087723054
168	0xbdd9371c	-0.106062144
169	0xbdce7243	-0.100803874
170	0x3d4aebba	0.049541213
171	0x3ea5d3b0	0.32388067
172	0x3e67bcc0	0.22630596
173	0x3e94c793	0.29058513
174	0xbc22690f	-0.009912743
175	0x3e4812b6	0.19538388
176	0x3e3b2623	0.18276267
177	0xbf478159	-0.77931744
178	0x3daefce2	0.08544327
179	0x3ea2e415	0.31814638
180	0xbe8a8eec	-0.27062166
181	0xbeb401a9	-0.35157517
182	0xbe843148	-0.2581885
183	0x3e5f4fc1	0.21807767
184	0x3b2af64a	0.002608674
185	0x3e347c07	0.17625438
186	0x3db22a44	0.08699468
187	0x3e1816ce	0.1485245
188	0x3e582770	0.21108794
189	0xbe2944af	-0.16530107
190	0xbe2e9b18	-0.17051351
191	0x3cfb9947	0.030712737
192	0xbdb4bc5a	-0.08824988
193	0xbcf97b58	-0.030454323
194	0x3dce2bfb	0.10066982
195	0xbde01d67	-0.10943108
196	0x3db1517b	0.08658119
197	0x3e3501ae	0.17676422
198	0x3d9f1d68	0.07769281
199	0x3dcf2896	0.10115163
200	0xbe27f9aa	-0.16403833
201	0x3d872a37	0.06599849
202	0xbd62fb21	-0.055415276
203	0x3d1ed5e6	0.03877821
204	0xbe3abc35	-0.18235858
205	0x3ce87ddc	0.028380327
206	0x3d98a325	0.07452992
207	0x3e2a243f	0.1661539
208	0x3dd5b9a3	0.10435798
209	0xbd8767f6	-0.06611626
210	0x3e10a131	0.1412399
211	0xbe03074a	-0.1279575
212	0x3ee72984	0.4514886
213	0x3e9740ea	0.29541713
214	0x3e4d4177	0.20044504
215	0xbca6a624	-0.020342894
216	0x3d648a37	0.055795874
217	0x3dce075d	0.10059998
218	0xbe068cb9	-0.13139619
219	0xbcad7d9f	-0.021178065
220	0xbcf4cfdd	-0.029884273
221	0x3db6211e	0.08893035
222	0xbd8348e5	-0.06410388
223	0xbdfcc24e	-0.12341748
224	0x3dd02b1d	0.10164473
225	0x3db7674e	0.08955251
226	0xbe4776ee	-0.19478962
227	0x3dbfff33	0.09374847
228	0xbe6fd74f	-0.23421977
229	0xbd3a7cdb	-0.045529228
230	0x3d3fd0ae	0.04682987
231	0x3df081ac	0.11743483
232	0xbd1aad42	-0.037762888
233	0x3dcf6580	0.101267815
234	0x3dd5c9c3	0.104388736
235	0x3dc57bea	0.09642775
236	0xbe29b982	-0.16574672
237	0x3edbb71b	0.42913136
238	0x3e72a7dd	0.23696847
239	0xbc6cecf0	-0.014460787
240	0xbe0776c2	-0.13228896
241	0xbcdd32c5	-0.027001748
242	0xbdad9921	-0.08476473
243	0x3dda72d7	0.10666435
244	0xbde6146c	-0.11234364
245	0xbab4f066	-0.0013804554
246	0x3d498fde	0.049209468
247	0xbe0c22bb	-0.13685124
248	0x3e0f301c	0.13983196
249	0x3dfb57d4	0.12272611
250	0x3d715058	0.058914512
251	0xbded2fef	-0.11581408
252	0xbe2087bf	-0.15676783
253	0xbe0c2004	-0.13684088
254	0x3e1df7f3	0.15426616
255	0x3da5abc7	0.080894046

bias f4 [48]
0	0xbd5ec10d	-0.054383326
1	0xbe4ff720	-0.20309114
2	0xbe8a6306	-0.27028674
3	0x3d4b1590	0.04958111
4	0x3d03636a	0.03207723
5	0xbe096579	-0.13417615
6	0xbe1d6e8f	-0.15374206
7	0xbe5d78e0	-0.21628141
8	0xbe867096	-0.2625777
9	0xbdf7fc2f	-0.12108647
10	0xbe853d15	-0.26023164
11	0x3d987c3b	0.0744557
12	0xbe80aa1f	-0.25129792
13	0x3e80ba1a	0.25141984
14	0x3e5ba4bd	0.21449561
15	0xbd7c5a7b	-0.061609726
16	0xbe8eb284	-0.27870572
17	0xbe7a581d	-0.24447675
18	0xbe8c4211	-0.27394155
19	0xbd81da9f	-0.06340527
20	0x3b386488	0.0028136093
21	0xbddc3b69	-0.10753519
22	0xbe0afbfe	-0.1357269
23	0x3d32a0af	0.04361027
24	0x3e30fbad	0.17283507
25	0x3d275810	0.040855467
26	0x3d4b4747	0.049628522
27	0xbf122655	-0.5708974
28	0x3e85f491	0.26163152
29	0xbd8ed0c9	-0.06973416
30	0x3df26cfe	0.11837195
31	0x3d0d72b2	0.03453321
32	0xbc734db8	-0.014850073
33	0xbe8b3ff4	-0.2719723
34	0xbd2074ae	-0.039173774
35	0x3e6ad5a7	0.22933064
36	0x3e48767d	0.1957645
37	0xbd0af00a	-0.033920325
38	0x3de45947	0.11149841
39	0x3df60bb5	0.12013952
40	0x3d3d7525	0.046254296
41	0x3e1fcc74	0.15605336
42	0x3d397e2a	0.045286335
43	0x3c60d1ab	0.013721864
44	0x3d454493	0.0481611
45	0x3ca40ff4	0.020027138
46	0xbb9411e4	-0.0045187343
47	0x3e635f03	0.22204213

weight f4 [48]
0	0xbacf0073	-0.001579298
1	0x3c0964d6	0.008385858
2	0x3f88eff8	1.0698233
3	0x3e8cb4f9	0.2748182
4	0x3b9b4e25	0.00473954
5	0x3f7118f3	0.94178694
6	0xbcb1ea97	-0.021718306
7	0x3d2f9f02	0.04287625
8	0x3f8a5063	1.0805782
9	0x3f7e67a0	0.9937687
10	0x3cc95f0e	0.024581458
11	0x3c2317e4	0.009954426
12	0x3f44596b	0.7669894
13	0x3f7574c5	0.958813
14	0x3f7bfeba	0.98435557
15	0x3db1d916	0.08683984
16	0xbd3923fa	-0.045200326
17	0x3f613921	0.87977797
18	0xbc14e6cc	-0.009088229
19	0xbc406e88	-0.011745103
20	0x3d011020	0.03150952
21	0x3d3c3529	0.045949135
22	0x3c0b85c9	0.008515784
23	0x3b6ad674	0.003583339
24	0x3f781f2e	0.96922576
25	0x3f6602d2	0.89848053
26	0xbc0f002e	-0.00872807
27	0x3b94d514	0.0045420025
28	0x3d355e12	0.044279166
29	0x3ec87314	0.39150298
30	0x3b1d30e1	0.0023985433
31	0x3edf4e0d	0.43614236
32	0x3e7108f4	0.23538572
33	0x3a842f3d	0.0010084879
34	0x3ebdf695	0.3710219
35	0x3f768b0c	0.9630592
36	0x3e843f22	0.25829417
37	0xbd0e655e	-0.03476464
38	0x3d543571	0.05180878
39	0x3f14158d	0.57845384
40	0x3f9b79e9	1.2146579
41	0x3ce7ef32	0.0283123
42	0x3e01eb5a	0.12687436
43	0x3eb76307	0.3581774
44	0x3f63d016	0.8898939
45	0x3eebf459	0.4608486
46	0x3f24feb7	0.64451164
47	0xbb4f0204	-0.0031586895

weight f4 [16, 48, 1, 1]
0	0x3e542f7f	0.20721243
1	0xbe7c60bb	-0.24646275
2	0xbd93d18a	-0.07217701
3	0x3f14dc59	0.58148724
4	0xbb8387ab	-0.0040139756
5	0x3ed88549	0.42289189
6	0x3e70f835	0.23532183
7	0x3d9edb88	0.07756716
8	0xbb696115	-0.0035610844
9	0xbe6168b4	-0.22012597
10	0xbf5bf199	-0.85915524
11	0x3e8291fa	0.25501996
12	0xbe1b1a8d	-0.15146847
13	0xbdfd8b50	-0.123800874
14	0xbdf979c5	-0.12181429
15	0x3e9a56e3	0.30144414
16	0x3da8587e	0.082200035
17	0xbe9b4ecc	-0.30333555
18	0xbeb960be	-0.3620662
19	0x3e8f61db	0.28004345
20	0xbe8605db	-0.26176342
21	0xbd4faf47	-0.050704267
22	0xbd7b7041	-0.06138635
23	0xbe0a7456	-0.13520941
24	0x3c2c2d8a	0.010508904
25	0x3e8b57ac	0.27215326
26	0x3d4b3ca6	0.049618386
27	0xbe697c6e	-0.22801372
28	0xbebe8b20	-0.3721552
29	0xbe80dd5e	-0.2516889
30	0x3e55ea4a	0.20890155
31	0x3d9451a7	0.072421364
32	0xbe28fd1a	-0.165028
33	0xbf0fdbff	-0.5619506
34	0x3ab1f392	0.0013576618
35	0xbdcc1ba9	-0.09966213
36	0x3e17c21d	0.14820142
37	0x3d48673f	0.04892659
38	0x3b58c7c6	0.0033078059
39	0xbda631c2	-0.08114959
40	0xbb061f93	-0.0020465597
41	0xbeef3d35	-0.46726385
42	0x3cdae45d	0.02672022
43	0xbe013f3b	-0.12621777
44	0x3e4f2108	0.20227444
45	0x3d8b3f11	0.06799138
46	0xbcf51c0e	-0.029920604
47	0xbee7c18e	-0.45264858
48	0x3d7a05a8	0.06104055
49	0xbe8651da	-0.26234323
50	0x3e3bb6b1	0.1833141
51	0x3d194d7f	0.03742742
52	0x3e3dfb0d	0.185528
53	0x3e5eeab7	0.21769224
54	0xbd5edd8f	-0.054410513
55	0xbe642446	-0.22279462
56	0x3e2ab755	0.16671498
57	0x3e4abf8a	0.19799629
58	0x3d1e2e38	0.038618296
59	0x3dca39ff	0.09874343
60	0x3dfaa64e	0.12238751
61	0xbebd7465	-0.37002864
62	0xbea3e37c	-0.32009494
63	0xbd02a942	-0.031899698
64	0xbe772ed6	-0.2413896
65	0x3d7a228e	0.06106811
66	0xbd18efba	-0.037337996
67	0xbed64e5b	-0.41856655
68	0xbd4d16af	-0.05007046
69	0xbd102a8e	-0.035196833
70	0xbd22fb03	-0.039790165
71	0x3e5e0303	0.21680836
72	0xbddfd0a7	-0.10928469
73	0x3e7fd0d3	0.24982004
74	0xbe580cef	-0.21098684
75	0x3e7cc86d	0.24685831
76	0x3de9423b	0.113895856
77	0xbde2d4b2	-0.11075725
78	0xbd60967e	-0.05483102
79	0xbd2a7dd8	-0.04162392
80	0xbdd44676	-0.10365002
81	0x3e4c7a27	0.19968472
82	0x3c643470	0.013928518
83	0xbea402e0	-0.32033443
84	0xbe5825c2	-0.21108153
85	0xbe96ef5c	-0.29479492
86	0xbd4ee2e3	-0.050509345
87	0xbe204fed	-0.1565549
88	0x3d2d9c30	0.04238528
89	0x3c399e3d	0.011329231
90	0x3e50fd57	0.20409141
91	0xbcfc5aa0	-0.030804932
92	0x3e0841be	0.13306329
93	0x3b4d24cf	0.0031302457
94	0x3dfe62a6	0.124211594
95	0x3e59b96a	0.21262136
96	0x3def3631	0.11680258
97	0xbe7ad7d1	-0.2449639
98	0xbd90c39a	-0.07068558
99	0xbdb3f369	-0.08786661
100	0xbf11b5cd	-0.5691803
101	0xbd88f681	-0.06687642
102	0x3ef13f74	0.47118723
103	0xbcf9c1ae	-0.030487861
104	0x3e408322	0.18800023
105	0xbd0b5b4f	-0.034022626
106	0x3d2b119b	0.041764837
107	0x3cb64b8a	0.022252817
108	0xbe2541d5	-0.16138394
109	0xbdd77eaa	-0.10522206
110	0x3e06cc03	0.13163762
111	0xbecfe958	-0.40607715
112	0xbe9b9b64	-0.3039199
113	0x3c7cfddf	0.015441387
114	0xbe56ef29	-0.2098967
115	0x3e4208db	0.1894869
116	0xbe475849	-0.19467272
117	0x3dbc9719	0.09208507
118	0xbd923367	-0.071387105
119	0x3ca09e99	0.019606875
120	0xbe04b763	-0.12960581
121	0xbdbd0361	-0.0922916
122	0xbd81f4c2	-0.06345512
123	0x3f52c596	0.8233274
124	0x3bd727e6	0.0065660356
125	0xbd388703	-0.045050632
126	0xbe67b51c	-0.22627681
127	0xbe2b32e9	-0.1671864
128	0x3b350828	0.002762327
129	0xbde0c47e	-0.10974978
130	0x3ce0398d	0.027371192
131	0xbce01330	-0.0273529
132	0xbd118513	-0.0355273
133	0xbde3227f	-0.11090564
134	0xbdba722c	-0.09103808
135	0x3e356f86	0.17718324
136	0xbd51db70	-0.051234663
137	0x3ee65547	0.44986936
138	0xbe031b2a	-0.12803331
139	0xbc8e9bed	-0.017408336
140	0x3e43f8c8	0.19137871
141	0x3bfba851	0.007679977
142	0xbdad391b	-0.08458158
143	0xbe298971	-0.16556336
144	0xbcd9ffae	-0.026611175
145	0x3af61697	0.0018775043
146	0xbb2e2cc3	-0.0026576973
147	0xbe280852	-0.16409424
148	0x3f3c76c2	0.7361871
149	0xbe1a4883	-0.15066724
150	0x3ec141cf	0.3774552
151	0xbe63033a	-0.221692
152	0xbe4bc568	-0.19899523
153	0xbda3fed9	-0.08007593
154	0xbe93beb8	-0.28856444
155	0xbe37d057	-0.17950569
156	0xbd133f85	-0.03594925
157	0xbe5ae636	-0.21376881
158	0x3d1ba3c8	0.03799799
159	0xbdec232c	-0.11530146
160	0x3f045bd5	0.51702625
161	0xbdcd36ba	-0.10020204
162	0x3f793a3e	0.97354496
163	0xbf3b7b68	-0.7323518
164	0xbd198ce9	-0.037487898
165	0x3d4292f9	0.047503445
166	0x3d2e4ed7	0.042555656
167	0xbe2a13ab	-0.16609065
168	0x3cb48b14	0.022038974
169	0xbd348d5f	-0.044080134
170	0x3ec644f5	0.38724485
171	0xbe2bacf2	-0.16765192
172	0xbe225531	-0.1585281
173	0x3e2b9164	0.16754681
174	0x3d50e1b0	0.050996482
175	0x3d8b7a98	0.06810492
176	0xbdb0ec55	-0.08638827
177	0xbe5cf304	-0.21577078
178	0xbddec8ba	-0.10878129
179	0xbe100cdc	-0.14067405
180	0xbf2ba9a0	-0.670557
181	0xbeb466c2	-0.35234648
182	0x3e06232d	0.13099356
183	0xbd1b0bdd	-0.03785311
184	0xbe009a4e	-0.12558863
185	0xbe18d673	-0.14925556
186	0x3ea1a9d8	0.31574893
187	0xbe76a372	-0.24085787
188	0xbdf7f1d5	-0.12106673
189	0xbc63f9f4	-0.013914574
190	0x3e2b9a10	0.16757989
191	0xbd847076	-0.06466763
192	0x3d0dccf3	0.034619283
193	0xbd229e25	-0.0397016
194	0xbe004e2b	-0.12529819
195	0x3e2dab55	0.16959889
196	0x3e08bcec	0.13353318
197	0xba88dd03	-0.0010441843
198	0x3de7fb0d	0.11327181
199	0xbd17be62	-0.037046798
200	0xbe43694e	-0.1908314
201	0xbe1753b6	-0.14778027
202	0xbd4f4ae5	-0.050608534
203	0x3d4547f4	0.048164323
204	0xbcef78f3	-0.029232478
205	0x3de34dce	0.110988244
206	0x3e1c0a5d	0.15238328
207	0x3cce0266	0.025147628
208	0x3dc2eccb	0.09517821
209	0xbdac6ba8	-0.08418971
210	0xbe05f3ed	-0.13081332
211	0xba2d8f53	-0.0006620783
212	0x3d049559	0.03236899
213	0x399ae944	0.00029546965
214	0xbd99fe1c	-0.07519171
215	0xbc94e443	-0.01817525
216	0x3de97101	0.11398507
217	0xbc73c875	-0.014879336
218	0x3dd7b49e	0.10532497
219	0xbc9a4f58	-0.018836662
220	0x3cf35b09	0.029706495
221	0xbd539e8e	-0.05166488
222	0x3bb4a1d9	0.005512458
223	0x3dd8b8d6	0.1058213
224	0x3d3fbfcf	0.046813782
225	0xbda0e1a0	-0.078555346
226	0x3cc74fad	0.024329985
227	0x3daca694	0.0843021
228	0x3e07cdaf	0.13262056
229	0x3d8bf725	0.068342485
230	0xbc0f8c9c	-0.008761551
231	0x3ce3c32c	0.027803026
232	0xbd8f04c8	-0.06983334
233	0x3bfbb7f0	0.007681839
234	0xbc81c8a0	-0.015842736
235	0x3d0a0ce5	0.033703703
236	0x3c7cfb61	0.015440793
237	0xbbab5856	-0.0052290363
238	0xbcf17f53	-0.029479658
239	0x3d782e7e	0.060591213
240	0x3db68196	0.08911435
241	0xbd59d83a	-0.053184725
242	0x3dc3fc1b	0.0956957
243	0xbe234878	-0.15945613
244	0x3eb16198	0.3464477
245	0x3e0e49b6	0.13895306
246	0x3e3c5b83	0.18394284
247	0x3c625450	0.013814047
248	0x3dcb0b07	0.09914213
249	0x3df21a5d	0.11821435
250	0x3b7b8960	0.0038381442
251	0x3c354050	0.011062697
252	0x3ccb4bd1	0.024816426
253	0xbd5d2ce9	-0.053997908
254	0x3de49748	0.11161667
255	0x3d3fd90f	0.046837863

bias f4 [16]
0	0xbd08390b	-0.033257525
1	0xbefce33f	-0.49392125
2	0xbc650ee9	-0.013980606
3	0xbcfe063e	-0.031008836
4	0x3e363790	0.17794633
5	0xbdf56300	-0.119817734
6	0xbde552e2	-0.11197449
7	0xbd136313	-0.035983156
8	0xbcf9417a	-0.03042673
9	0x3c83d75e	0.016093906
10	0xbd5397f6	-0.051658593
11	0xbe261454	-0.16218692
12	0x3d7007fa	0.058601357
13	0xbd04c56f	-0.03241485
14	0x3d3834e5	0.04497232
15	0x3d02d741	0.031943563

weight f4 [16]
0	0x3b4728a6	0.0030389219
1	0xbaacf5bd	-0.0013195794
2	0x3f153dba	0.5829731
3	0x3db3536a	0.08756144
4	0x3f8249c2	1.0178759
5	0x3f6d0169	0.92580277
6	0xbd4458ad	-0.04793613
7	0x400b7797	2.1791742
8	0x3f746f86	0.9548267
9	0x3f250203	0.64456195
10	0x3f153017	0.58276504
11	0xbd2ca0bd	-0.04214548
12	0x3f666c83	0.90009326
13	0xbbbba2d7	-0.005726199
14	0x3f1de6b5	0.61680156
15	0x3f25361f	0.6453571

weight f4 [16, 16, 3, 3]
0	0xbce32746	-0.027728688
1	0xbe9f18d5	-0.31073633
2	0xbd8e7774	-0.069563776
3	0x3da898ad	0.082322456
4	0x3cefc58c	0.029269002
5	0xbcf16b72	-0.02947018
6	0x3e1b91f7	0.151924
7	0xbd8ccfe4	-0.068755895
8	0x3dfecbf8	0.12441248
9	0x3df04626	0.1173213
10	0x3def138f	0.116736524
11	0x3e033956	0.1281484
12	0xbd7b6a7d	-0.061380852
13	0x3cf0bf7f	0.029388187
14	0xbcad36bf	-0.021144269
15	0x3cca3522	0.024683539
16	0xbce05bb7	-0.027387483
17	0x3dd10da6	0.10207681
18	0x3d5aa440	0.053379297
19	0xbdb60a31	-0.088886626
20	0x3def232b	0.1167663
21	0x3c6d2a4a	0.0144754145
22	0xbd7dae10	-0.061933577
23	0xbe0ea872	-0.13931444
24	0xbde83a6b	-0.11339267
25	0x3e231b83	0.15928464
26	0xbb806295	-0.003918002
27	0x3e5c472a	0.21511522
28	0x3d457ec7	0.048216607
29	0xbce40562	-0.027834598
30	0xbdf33339	-0.11875004
31	0x3d8996c6	0.06718211
32	0x3e932cea	0.28745204
33	0x3d82fc6b	0.06395801
34	0xbbf2f7b5	-0.007414783
35	0xbca5488a	-0.02017619
36	0xbc85047f	-0.016237495
37	0xbdb4c6dc	-0.08826992
38	0x3d7f73e5	0.062366385
39	0xbda201c7	-0.07910495
40	0xbe8fed01	-0.28110507
41	0xbe18f7ef	-0.14938329
42	0xbc5422ee	-0.012947781
43	0x3c9ed310	0.019387752
44	0xbba81583	-0.0051295175
45	0x3d16f767	0.036857035
46	0x3d8b2858	0.06794804
47	0xbd576434	-0.052585796
48	0xbcc54d6c	-0.02408477
49	0x3df29b21	0.11845995
50	0x3d6d0231	0.057863418
51	0xbca2fdb0	-0.019896358
52	0x3e1e73c3	0.15473847
53	0xbd1a336f	-0.037646707
54	0xbc87ead8	-0.016591474
55	0xbdc513a6	-0.09622888
56	0xbe5ed6a5	-0.21761568
57	0xbe1aa728	-0.15102828
58	0xbe0de4e3	-0.13856845
59	0x3e00eee2	0.12591127
60	0xbca82ff0	-0.02053067
61	0x3e68e27b	0.22742645
62	0xbe22f6f9	-0.15914525
63	0xbd82ae0f	-0.06380855
64	0x3c9b19fd	0.01893329
65	0xbd85e2b2	-0.06537379
66	0x3ca07556	0.0195872
67	0x3e0d3227	0.13788663
68	0xbda73f1b	-0.08166333
69	0x3cd9b24f	0.026574282
70	0xbd04e292	-0.032442637
71	0x3ba2841c	0.0049595963
72	0xbd4ebebc	-0.050474867
73	0x3ac215bf	0.0014807506
74	0xbdec4aa3	-0.11537673
75	0x3da486ee	0.08033548
76	0x3e98834e	0.29787678
77	0x3d47767e	0.048696987
78	0xbdb39aed	-0.08769784
79	0xbb884682	-0.004158796
80	0xbd5c9e80	-0.053862095
81	0xbe07eaa5	-0.13273104
82	0xbaa67d71	-0.0012702179
83	0x3d7f9bc1	0.062404398
84	0xbd1202d7	-0.03564724
85	0x3d5960c9	0.053070817
86	0xbc61a67a	-0.013772601
87	0xbd9cd3db	-0.07657596
88	0x3d62c81b	0.055366617
89	0x3d7243e7	0.059146788
90	0xbbf1c0c1	-0.0073777144
91	0xbe63e02c	-0.22253484
92	0xbd23e1a4	-0.04001011
93	0xbd5f96bc	-0.05458711
94	0xbd8efcf2	-0.06981839
95	0x3dedb389	0.11606509
96	0xbd1afb1a	-0.037837125
97	0xbe2b211c	-0.16711849
98	0xbd368e6f	-0.04456943
99	0xbbc10b59	-0.0058912453
100	0xbd75db65	-0.060023684
101	0x3d90eed9	0.070768066
102	0xbe1cf95e	-0.15329501
103	0x3d8a4d5f	0.067530386
104	0x3c4401dc	0.011963334
105	0xbd88095d	-0.06642411
106	0xbd984a6c	-0.0743607
107	0x3ccfea44	0.025380261
108	0xbe0fdb5a	-0.1404852
109	0x3bc03582	0.0058657536
110	0x3cde4927	0.027134491
111	0x3dee404b	0.11633357
112	0x3c78b03d	0.015178737
113	0xbdbef93d	-0.09324882
114	0xbc909b44	-0.017652161
115	0x3d35296b	0.044228952
116	0x3c910561	0.01770276
117	0xbd90a088	-0.07061869
118	0xbd2e97cb	-0.04262523
119	0x3ce44cfd	0.027868742
120	0x3da0459e	0.078257784
121	0x3d80b1a1	0.0628388
122	0x3bea796a	0.007155587
123	0xbe2d7260	-0.16938162
124	0x3e5fb3b1	0.2184589
125	0xbd46f665	-0.048574824
126	0x3da35740	0.07975626
127	0x3e36ec96	0.17863688
128	0xbc938b64	-0.018010803
129	0x3c808ff0	0.015693635
130	0x3da0a9a3	0.07844856
131	0x3c8240f7	0.015900118
132	0xbe177080	-0.14789009
133	0xbc8d35c7	-0.017237557
134	0xbc773a19	-0.015089535
135	0x3dd3d8ac	0.10344061
136	0xbe838ef9	-0.25695017
137	0x3dab31c7	0.08359104
138	0xbdc14d86	-0.094386145
139	0x3e38426a	0.17994085
140	0x3e73757d	0.23775287
141	0x3d138247	0.036012914
142	0x3ca92cca	0.02065124
143	0xbe6b1268	-0.2295624
144	0xbe352e58	-0.1769346
145	0xbea3efe5	-0.32018963
146	0x3dd2cbdc	0.10292789
147	0x3db17077	0.08664029
148	0x3d70c485	0.058781166
149	0x3d5c8980	0.053842068
150	0x3cbb6595	0.022875587
151	0xbe604357	-0.21900688
152	0x3e617307	0.22016536
153	0x3d7e16a4	0.06203331
154	0xbe2f09f7	-0.17093645
155	0xbeaa96b6	-0.33318108
156	0x3bc8ced1	0.00612817
157	0xbeafd310	-0.34340715
158	0xbded1166	-0.11575584
159	0x3eacba45	0.33735862
160	0x3eef58c5	0.46747413
161	0x3e95422a	0.29152042
162	0x3dfbde21	0.12298227
163	0x3da67f6e	0.08129774
164	0xbd9fde26	-0.07806043
165	0x3cd51852	0.026012573
166	0x3e661c79	0.22471799
167	0x3e4952a2	0.19660428
168	0xbe1a630f	-0.1507685
169	0xbdb61712	-0.08891119
170	0xbe76f60a	-0.24117294
171	0x3cd25685	0.025676021
172	0x3dcfbcac	0.10143408
173	0x3e27071d	0.16311307
174	0xbcb47975	-0.022030571
175	0xbe14dffe	-0.14538571
176	0xbe0b51f0	-0.13605475
177	0x3df5da63	0.120045446
178	0x3d6cdea8	0.05782953
179	0x3e47331b	0.19453089
180	0xbd679d89	-0.05654672
181	0xbc83f69e	-0.016108807
182	0x3c950d0c	0.018194698
183	0xbd04f5f8	-0.032461137
184	0x3e64a57b	0.22328751
185	0x3d07c1bd	0.033143748
186	0xbc4c1dd5	-0.012458284
187	0xbd119b97	-0.035548773
188	0xbbbb56d5	-0.0057171383
189	0xbd37539d	-0.044757474
190	0xbd8d5cd3	-0.069024704
191	0xbdd5e48c	-0.104439825
192	0xbe289450	-0.16462827
193	0xbed58f4f	-0.41710898
194	0xbda2e521	-0.07953859
195	0xbbbe5798	-0.005808782
196	0xbdde9259	-0.10867757
197	0xbc8bc734	-0.01706276
198	0x3d8926c3	0.06696846
199	0xb901a47e	-0.00012363677
200	0xbeaad17d	-0.33362952
201	0xbc486be7	-0.012232757
202	0x3d929813	0.07157912
203	0xbeab084f	-0.33404776
204	0xbd972ae6	-0.07381229
205	0xbebb936e	-0.36635917
206	0xbd10d9a6	-0.035363816
207	0x3d592986	0.053018115
208	0xbbce0e87	-0.006288353
209	0x3df56166	0.11981468
210	0xbd3e3c0e	-0.04644399
211	0xbe93a3ab	-0.28835806
212	0x3e657746	0.2240878
213	0x3e0750dc	0.13214439
214	0xbdbd29b6	-0.09236471
215	0x3dc130ac	0.094331115
216	0x3caf4008	0.021392837
217	0x3d98dad4	0.07463613
218	0xbd8e5511	-0.06949819
219	0xbe8eb0b8	-0.278692
220	0xbeecf602	-0.4628144
221	0x3d95bad5	0.07311026
222	0xbe153979	-0.14572705
223	0xbd1f9c4b	-0.038967412
224	0xbac9691e	-0.001536641
225	0x3e7a98a3	0.24472289
226	0x3da54636	0.08070032
227	0xbe566829	-0.20938171
228	0x3d5eb93d	0.054375876
229	0x3d873bde	0.06603216
230	0x3c9ddd5a	0.019270588
231	0x3e15cdd0	0.14629292
232	0x3df27d05	0.11840252
233	0xbe8427cf	-0.25811622
234	0xbc97d61b	-0.01853471
235	0xbe411f22	-0.18859532
236	0x3da6f2c8	0.081517756
237	0xbe893764	-0.26800072
238	0x3ed6abae	0.41927856
239	0xbe502c82	-0.20329478
240	0xbdac8202	-0.084232345
241	0x3c8a08eb	0.016849956
242	0xbca940c8	-0.020660773
243	0x3e412b38	0.18864143
244	0x3ebeed5f	0.37290475
245	0xbc285dd0	-0.010276273
246	0xbd7a4523	-0.06110109
247	0x3e26f9ef	0.1630628
248	0x3e077aec	0.13230485
249	0xbe2c8545	-0.16847713
250	0xbd7b7380	-0.061389446
251	0x3e474b4d	0.19462319
252	0xbe5ad430	-0.21370006
253	0x3c5aa16d	0.013344151
254	0xbd86fe08	-0.06591421
255	0x3d0ec5a8	0.03485647

bias f4 [16]
0	0x3dad40f2	0.08459653
1	0xbe411ec5	-0.18859394
2	0xbdad3caf	-0.0845884
3	0xbd8ae8c0	-0.06782675
4	0xbc07d471	-0.008290396
5	0xbe8880dd	-0.26660815
6	0x3cf9e092	0.030502591
7	0x3d755b55	0.059901554
8	0xbdc1ad40	-0.09456873
9	0xbb4a2ec4	-0.0030850628
10	0xbbde7b56	-0.006789605
11	0x3d3bb2b8	0.045824736
12	0x3c3b3335	0.011425783
13	0xbb4d25f0	-0.003130313
14	0xbd08bfe9	-0.033386145
15	0xbea89cab	-0.32932028

weight f4 [16]
0	0x3f683a8f	0.90714353
1	0x3dee67ce	0.11640893
2	0x3c452dc7	0.01203484
3	0x3e42c210	0.19019341
4	0x3e7f8f31	0.24956967
5	0xbd9d48a7	-0.07679873
6	0xbe808a4f	-0.2510552
7	0x3f879969	1.0593692
8	0x3e0cb5b7	0.13741194
9	0xbe9b2cdc	-0.30307662
10	0xbf5e306e	-0.8679265
11	0xbf018f82	-0.506096
12	0x3d8bd1c6	0.068271205
13	0x3f6eed18	0.93330526
14	0xbe846ef8	-0.25865912
15	0xbc85c9ca	-0.016331572

weight f4 [16, 16, 3, 3]
0	0x3dfd6aed	0.1237391
1	0x3c84df80	0.016219854
2	0x3e025f6d	0.12731715
3	0xbd8b0d46	-0.06789641
4	0xbdf1a4dd	-0.11799023
5	0x3ca2a301	0.019853117
6	0xbd8bfba0	-0.06835103
7	0x3dd47c64	0.10375288
8	0x3d71c1fe	0.059022896
9	0x3e44172a	0.19149461
10	0x3df19224	0.11795452
11	0xbe7825e0	-0.24233198
12	0xbe8d3ac5	-0.275839
13	0x3de6784a	0.11253412
14	0xbe64c154	-0.22339374
15	0xbe01fdae	-0.12694427
16	0x3ef9b6c4	0.48772252
17	0x3da4803a	0.0803227
18	0xbe5b0985	-0.2139035
19	0xbdd5608c	-0.104188055
20	0xbe78de0c	-0.24303454
21	0xbe3205b5	-0.1738499
22	0x3ca5a447	0.020219935
23	0x3e207288	0.1566869
24	0xbdebdbcf	-0.115165345
25	0x3e88599a	0.2663086
26	0xbdc8558e	-0.09781943
27	0x3e08d17e	0.13361165
28	0x3db1ccaa	0.08681615
29	0x3c3bca8a	0.011461863
30	0xbe90c964	-0.2827865
31	0xbd4806a5	-0.04883446
32	0x3df4a0a2	0.11944701
33	0x3e1326de	0.14370295
34	0x3b088707	0.0020832436
35	0x3d7490b7	0.059708323
36	0xbc5de805	-0.013544087
37	0x3e92e955	0.28693643
38	0x3d486e75	0.048933465
39	0x3e037bf3	0.12840252
40	0xbe73cdf8	-0.2380904
41	0x3e5b5eb1	0.2142284
42	0x3d29e539	0.04147837
43	0xbe1e2eab	-0.1544749
44	0xbded3e1d	-0.11584113
45	0xbd05f7ff	-0.03270721
46	0x3e0284f9	0.12746038
47	0x3d89932e	0.067175254
48	0xbd86394c	-0.06553897
49	0x3e4dd81a	0.20101967
50	0xbe924af1	-0.285728
51	0x3e7bccbd	0.2458982
52	0x3c4f229b	0.012642528
53	0x3c003a5f	0.007826417
54	0x3dc7a3ad	0.097480156
55	0x3ce8c5c6	0.028414618
56	0xbe187b94	-0.14890891
57	0xbe12e1b6	-0.14343914
58	0xbe18a780	-0.14907646
59	0xbe144df7	-0.14482866
60	0xbd733012	-0.059372015
61	0xbd907040	-0.0705266
62	0xbe8c65fe	-0.27421564
63	0x3dfe1cd4	0.12407842
64	0x3ca00054	0.019531406
65	0x3c80bda1	0.015715422
66	0xbd1b49d6	-0.037912212
67	0xbea3dbea	-0.3200372
68	0x3ddadd25	0.10686711
69	0xbd1f280a	-0.038856544
70	0x3d53b511	0.05168635
71	0x3d88b0b9	0.06674332
72	0xbe89d812	-0.2692266
73	0x3dfc4ac8	0.12318951
74	0x3e9ce90c	0.3064655
75	0x3cb1cb5b	0.021703413
76	0x3ca15b6b	0.019696912
77	0xbd8b46c0	-0.06800604
78	0x3e404772	0.18777254
79	0xbdf677dd	-0.12034581
80	0xbe3440ae	-0.17602798
81	0x3dce4678	0.100720346
82	0x3d43a2d6	0.047762714
83	0x3dfaa87d	0.12239168
84	0x3e2dff0f	0.16991828
85	0x3e44c041	0.19213964
86	0x3eafc68f	0.34331176
87	0x3ddd58c8	0.10807949
88	0x3bb5f1df	0.005552515
89	0x3e9066d6	0.28203458
90	0x3ce0f1df	0.027459083
91	0xbd289be5	-0.041164298
92	0xbd152f6e	-0.036422186
93	0xbea553ff	-0.32290646
94	0x3dab932d	0.08377681
95	0xbda60a81	-0.08107472
96	0x3e0e1a12	0.13877133
97	0x3e101140	0.1406908
98	0x3d799c13	0.06093986
99	0xbe17932d	-0.14802237
100	0x3d84cf72	0.064848796
101	0x3d2e7c92	0.04259927
102	0xbc03a4c0	-0.008034885
103	0xbdd583e5	-0.104255475
104	0x3db46522	0.08808352
105	0xbd0e83a1	-0.0347935
106	0xbcf868e6	-0.030323457
107	0xbda88479	-0.08228392
108	0x3d7d7540	0.061879396
109	0x3bf0870c	0.0073403176
110	0x3b37a2bc	0.0028020581
111	0x3d988541	0.07447291
112	0xbe23b33c	-0.15986341
113	0xbcadaffd	-0.021202082
114	0x3c17e601	0.009271146
115	0x3dce8e3b	0.10085722
116	0xbd296bd1	-0.041362587
117	0xbe1f8761	-0.15578987
118	0xbd84ab8e	-0.06478034
119	0xbdbfe111	-0.093691
120	0xbe811ad8	-0.25215793
121	0x3dd54d39	0.1041512
122	0x3d484ac8	0.048899442
123	0xbcbfa0cb	-0.023392102
124	0x3cfe62ca	0.031052966
125	0xbd33f7f4	-0.04393764
126	0xbe567078	-0.20941341
127	0xbe0074de	-0.12544581
128	0xbcf84f5d	-0.03031128
129	0x3e130b07	0.14359675
130	0xbe5bdea7	-0.21471654
131	0xbe6100e6	-0.21972999
132	0x3d93a3b9	0.07208962
133	0xbdf305dc	-0.11866352
134	0xbe84aee4	-0.2591468
135	0xbae3ecc8	-0.0017389292
136	0x3e283cd8	0.1642946
137	0x3d051dce	0.032499127
138	0x3c575f5a	0.013145292
139	0x3d18e218	0.037324995
140	0x3e23cf3f	0.15997027
141	0x3e004075	0.12524588
142	0x3e85bf22	0.26122385
143	0x3d9f0775	0.07765094
144	0xbdb9a598	-0.090647876
145	0xbdadf7e3	-0.08494546
146	0xbe171070	-0.14752364
147	0xbc12e9a2	-0.008966835
148	0x3e00e6e1	0.12588073
149	0x3c0ccbb2	0.008593487
150	0x3e16e514	0.14735824
151	0xbde2c263	-0.110722326
152	0xbd5045df	-0.050847884
153	0xbc853f1e	-0.016265448
154	0x3dfc3445	0.12314657
155	0xbdb1f793	-0.08689799
156	0xbebe54b2	-0.37173992
157	0x3f1789be	0.5919455
158	0xbe595a0e	-0.2122576
159	0xbd24abad	-0.040202785
160	0xbe7bdcef	-0.24595998
161	0x3d180bcd	0.03712063
162	0x3e917fc0	0.28417778
163	0xbd8d39c4	-0.068957835
164	0xbdbcd32c	-0.09219965
165	0x3d834399	0.064093776
166	0xbef08d9e	-0.46983045
167	0xbe3337a9	-0.17501701
168	0xbe39472c	-0.18093556
169	0xbee154e6	-0.44010085
170	0x3dafa3e2	0.0857618
171	0xbec2baef	-0.38033244
172	0x3dd78726	0.105238244
173	0x3e192bcf	0.14958118
174	0xbbeb12d5	-0.007173876
175	0x3e98212d	0.2971281
176	0xbe527507	-0.20552455
177	0xbec5611b	-0.38550648
178	0x3da23fde	0.07922338
179	0x3e3d5de2	0.18492845
180	0x3e2990bd	0.1655912
181	0xbdeff5df	-0.11716818
182	0x3da12480	0.0786829
183	0xbdbcc736	-0.09217684
184	0xbdc2787a	-0.09495635
185	0x3e33b9ab	0.17551295
186	0xbdba6d7a	-0.09102912
187	0xbcb3f06d	-0.02196523
188	0x3db7603c	0.08953902
189	0x3e35c090	0.17749238
190	0xbd094fb5	-0.03352328
191	0xbbfd76a9	-0.0077350927
192	0x3f220de0	0.6330242
193	0xbed02a9b	-0.40657505
194	0x3e60eb51	0.21964766
195	0x3e4f35a4	0.20235306
196	0xbe329ea0	-0.17443323
197	0xbdc01a0e	-0.093799695
198	0xbe1ba77f	-0.15200613
199	0xbe49c4d1	-0.19703986
200	0x3e20f696	0.15719065
201	0xbec3773e	-0.38176912
202	0xbf103480	-0.5633011
203	0x3e2a0eb7	0.16607176
204	0xbe68501c	-0.2268681
205	0xbf1b4589	-0.6065298
206	0x3e56aeb4	0.20965081
207	0xbea81de9	-0.3283532
208	0xbdfdd6f3	-0.12394514
209	0x3bf9cf58	0.0076235943
210	0xbe987731	-0.29778436
211	0x3f0bcb38	0.5460696
212	0xbdf785cd	-0.12086067
213	0x3e029827	0.12753354
214	0xbd9e5a80	-0.07732105
215	0xbdbbadec	-0.09164032
216	0x3d8e2767	0.06941109
217	0xbce8702f	-0.028373806
218	0xbe915943	-0.28388414
219	0xbd9f2efc	-0.077726334
220	0x3e03dbf5	0.12876876
221	0xbd94d4d1	-0.07267154
222	0x3db26b2f	0.0871185
223	0x3e4284f4	0.1899603
224	0x3dacfc8d	0.08446608
225	0x3da67615	0.08127991
226	0x3e360ebe	0.17779061
227	0x3dd8a792	0.105788365
228	0xbda1fb4e	-0.07909261
229	0x3ed3f53b	0.41398033
230	0x3d78c536	0.06073495
231	0x3afa633f	0.0019103064
232	0x3ecb6ac5	0.39729896
233	0x3d3e2092	0.04641778
234	0xbc198aee	-0.009371502
235	0xbd55e3fb	-0.052219372
236	0x3c93e94a	0.018055577
237	0x3e3cdcd1	0.1844361
238	0x3dfd7caf	0.12377297
239	0x3d8aca85	0.06776909
240	0xbc1c5147	-0.009540862
241	0xbe009c19	-0.12559547
242	0x3b5bdeb9	0.00335495
243	0x3e0c7563	0.13716654
244	0x3e647e53	0.22313814
245	0xbc67e49f	-0.014153629
246	0x3e22529a	0.15851822
247	0x3e440cc6	0.19145498
248	0xbe8a379d	-0.26995555
249	0x3e5aac06	0.21354684
250	0xbd1c30fe	-0.03813266
251	0x3d0b791e	0.034051053
252	0x3dfa4680	0.12220478
253	0xbe0bbc6c	-0.13646096
254	0xbe40eab7	-0.18839537
255	0x3eb91d8e	0.3615536

bias f4 [16]
0	0x3d46f1de	0.048570506
1	0x3cf3e1b8	0.029770717
2	0x3d2899d2	0.04116232
3	0x3b16f80d	0.0023036033
4	0xbd5e4a6d	-0.054270197
5	0xbd13d248	-0.03608921
6	0x3e15c3fa	0.1462554
7	0x3d5ea58f	0.054357108
8	0x3cf28fb9	0.029609548
9	0x3e149f3d	0.1451387
10	0xbd6caff9	-0.057785008
11	0x3da9a1b7	0.08282798
12	0xbd296327	-0.041354325
13	0x3dd4ee8c	0.10397062
14	0x3c9adee8	0.018905118
15	0x3d98df63	0.07464483

weight f4 [16]
0	0x400cd97b	2.200774
1	0xbe43e9d7	-0.19132172
2	0xbd3634ac	-0.044483826
3	0xbea66a55	-0.32503
4	0xbedc4cf1	-0.43027452
5	0x3f60c8e6	0.87806547
6	0x3baa3f42	0.005195529
7	0x4001bed2	2.0272717
8	0x3ecfe680	0.40605545
9	0x3f705d29	0.9389215
10	0xbd0e83ce	-0.034793667
11	0x3da47791	0.08030618
12	0xbd5d4ec2	-0.054030187
13	0x3f848efa	1.0356133
14	0x3f660144	0.8984568
15	0x3e9c7804	0.30560315

weight f4 [16, 16, 3, 3]
0	0x3d0ac4b9	0.033879016
1	0xbd157bb4	-0.036494926
2	0xbddca993	-0.10774531
3	0xbc90fd40	-0.017698884
4	0xbbc4421a	-0.005989325
5	0x3e3ca094	0.1842063
6	0xbda50a7a	-0.08058639
7	0xbc372195	-0.01117744
8	0xbd8a3c45	-0.06749777
9	0xbc896d57	-0.01677577
10	0x3e25cd5e	0.16191623
11	0xbe01d56e	-0.12679073
12	0xbdf07489	-0.11740977
13	0x3c8a90b9	0.016914712
14	0x3e2aa106	0.16662988
15	0xbb4bcb49	-0.003109651
16	0x3cf59416	0.02997784
17	0x3e0c655a	0.13710538
18	0x3e0ca8ab	0.13736217
19	0x3d1a9d48	0.03774765
20	0x3d674d1a	0.056470014
21	0x3e8d0fe3	0.27551183
22	0x3db40258	0.087895095
23	0xbdfc839c	-0.1232979
24	0xbe66b422	-0.22529653
25	0xbf212eae	-0.6296185
26	0xbe55128c	-0.20807856
27	0xbddff7c6	-0.10935931
28	0x3cb06b68	0.02153559
29	0x3ca424cc	0.020037077
30	0x3dd22b20	0.10262132
31	0xbd31703a	-0.04331992
32	0xbd67149b	-0.056416135
33	0xbde5078e	-0.111830816
34	0x3e286611	0.16445185
35	0xbd66fa19	-0.056390855
36	0x3c84cb66	0.01621027
37	0x3e831258	0.25599933
38	0x3b5f5948	0.0034080315
39	0x3d62dd87	0.055387046
40	0x3db8d0ed	0.090242244
41	0x3e4c6c2d	0.19963141
42	0x3d819a3c	0.06328246
43	0xbdad5c6b	-0.08464893
44	0xbdd9b9a6	-0.10631113
45	0x3dd03507	0.10166364
46	0xbd8b43c0	-0.06800032
47	0xbd336fa8	-0.043807656
48	0xbd9d4c97	-0.07680624
49	0xbe2ab420	-0.16670275
50	0xbd79a95e	-0.060952537
51	0xbd20c827	-0.03925338
52	0xbf157b35	-0.58391124
53	0xbeb5fd90	-0.35545015
54	0x3c6a8f12	0.014316337
55	0x3de65778	0.11247152
56	0xbe267c4c	-0.16258353
57	0x3d80f874	0.06297389
58	0x3da477eb	0.08030685
59	0x3dc64c2f	0.096824996
60	0xbebed95c	-0.37275207
61	0xbf1f36e5	-0.6219314
62	0xbe090dc1	-0.13384153
63	0xbd598644	-0.05310656
64	0xbb27c704	-0.00256008
65	0xbd80d114	-0.062898785
66	0xbccbea25	-0.024891922
67	0x3de3be3d	0.111202694
68	0x3d6caae1	0.05778015
69	0x3d88febc	0.06689212
70	0xbdd27f9a	-0.10278244
71	0x3e710b3a	0.23539439
72	0xbd8bd928	-0.06828529
73	0x3e4f783c	0.2026071
74	0xbe140aea	-0.14457288
75	0x3dbd197e	0.09233378
76	0x3dda0948	0.106463015
77	0xbd93c8b0	-0.072160125
78	0x3e868659	0.26274374
79	0xbef9ecfc	-0.48813617
80	0x3cb83ed4	0.022490896
81	0xbaa07e1e	-0.0012244617
82	0xbd0cee72	-0.034407087
83	0xbdf32024	-0.11871365
84	0x3d8961b4	0.067080885
85	0x3e2c51a2	0.16828015
86	0x3dbe6280	0.09296131
87	0xbf056170	-0.521018
88	0xbf1ffad8	-0.6249213
89	0xbecfa6a3	-0.4055682
90	0x3c3aeb2e	0.01140861
91	0x3da570fd	0.080781914
92	0xbc913254	-0.017724194
93	0xbd8e5773	-0.06950273
94	0xbe7e37c9	-0.24825968
95	0xbe884396	-0.26614064
96	0x3befb915	0.0073157647
97	0x3e397068	0.18109286
98	0xbf15029a	-0.58207095
99	0xbdc6b3b3	-0.09702244
100	0xbcaff68f	-0.021479873
101	0xbea0057b	-0.3125418
102	0x3ea305a2	0.31840235
103	0x3e713502	0.23555377
104	0xbcadd86e	-0.021221366
105	0xbdd16b93	-0.10225596
106	0xbf2a0e75	-0.6642831
107	0x3f481333	0.78154296
108	0x3c1fc68c	0.009751927
109	0x3d3fc3f3	0.04681773
110	0xbd2bf1ee	-0.04197877
111	0x3d83b55d	0.06431077
112	0xbe21c223	-0.15796714
113	0x3ca83137	0.02053128
114	0x3d88a13a	0.066713765
115	0xbdb52162	-0.08844258
116	0x3e524710	0.2053492
117	0x3dc010f8	0.093782365
118	0x3e373dba	0.1789464
119	0xbd0125a8	-0.031530052
120	0x3ad53fb4	0.0016269595
121	0x3d916df1	0.07101048
122	0x3d440cb6	0.047863685
123	0x3da648ca	0.08119352
124	0xbe8a288b	-0.26984057
125	0xbdbd40ff	-0.09240913
126	0xbd70bd2b	-0.058774155
127	0xbe2e1158	-0.16998804
128	0xbd7bf463	-0.061512362
129	0xbe18ee95	-0.14934762
130	0x3ebbbf9e	0.3666963
131	0x3db711f7	0.089389734
132	0x3e292c04	0.16520697
133	0xbdc7b951	-0.09752143
134	0xbdd73b52	-0.10509361
135	0x3e125014	0.1428836
136	0xbe3bccba	-0.18339816
137	0x3d9020f3	0.070375346
138	0x3d31ad45	0.043378133
139	0x3d9ba67b	0.07600113
140	0xbdc7e3d0	-0.09760249
141	0x3e159813	0.14608793
142	0xbda08cad	-0.07839332
143	0xbd506a58	-0.050882667
144	0xbb929408	-0.004473213
145	0x3dde9455	0.10868136
146	0xbe17fb80	-0.14842033
147	0xbe1d99e3	-0.15390734
148	0xbdc613fc	-0.096717805
149	0x3df40c9c	0.119164675
150	0xbe0e2c4f	-0.1388409
151	0x3e4bff5a	0.19921628
152	0xbdb2b80d	-0.08726511
153	0x3da697dc	0.081344336
154	0x3c29b645	0.010358398
155	0xbe597390	-0.2123549
156	0x3e162e4a	0.14666095
157	0x3e07408d	0.13208218
158	0x3d9e95a0	0.077433825
159	0x3d49927d	0.049211968
160	0xbd127cd2	-0.03576357
161	0xbe5bddd5	-0.21471341
162	0x3c26dc0d	0.0101843
163	0xbde5d3de	-0.11222051
164	0xbce4420e	-0.027863529
165	0x3e85fd06	0.26169604
166	0x3d221b7e	0.039577
167	0x3db714e1	0.08939529
168	0xbe713cad	-0.23558302
169	0xbeaeb351	-0.34121183
170	0xbd02b522	-0.031911023
171	0x3e5449e0	0.20731306
172	0x3eb031ea	0.3441308
173	0x3daace63	0.083401464
174	0x3c55394c	0.013014149
175	0xbf1050de	-0.56373394
176	0x3b99681f	0.0046816017
177	0x3e010d36	0.12602696
178	0x3e00f14f	0.12592052
179	0xbc9ce60b	-0.019152662
180	0xbd12e23b	-0.03586028
181	0x3e788284	0.24268538
182	0xbcbded6d	-0.023184502
183	0xbbf708b0	-0.0075388774
184	0xbd8db574	-0.06919375
185	0xbe2012ee	-0.15632221
186	0xbdc1bc0b	-0.094596945
187	0x3d476899	0.048683736
188	0x3d845dc6	0.06463198
189	0xbe8d18e8	-0.27558064
190	0xbe7c4e5f	-0.24639271
191	0xbcb56c13	-0.02214626
192	0xbcfce137	-0.03086911
193	0xbe432796	-0.1905807
194	0xbd76fb57	-0.06029829
195	0xbe2442fa	-0.16041175
196	0x3d1e7a84	0.03869106
197	0x3cf7dba3	0.030256098
198	0xbdb45ea3	-0.08807113
199	0xbe42ad46	-0.19011411
200	0xbd6dd5d4	-0.05806525
201	0xbdfb6fe6	-0.12277202
202	0x3e590ea2	0.21196988
203	0x3ddb9a30	0.10722768
204	0xbd87d8ce	-0.06633149
205	0x3e0a1f1f	0.13488434
206	0x3d554c55	0.05207475
207	0x3e3d79ac	0.18503445
208	0x3e80e1cd	0.25172272
209	0xbcfece35	-0.031104187
210	0xbe040f14	-0.12896377
211	0xbe831a35	-0.25605932
212	0xbe1fcccb	-0.15605466
213	0x3da5e69f	0.08100628
214	0xbdb296ff	-0.087202065
215	0x3c81381c	0.015773825
216	0xbc612639	-0.013742023
217	0xbd858e44	-0.06521276
218	0x3e206cc7	0.15666495
219	0xbf05ebc5	-0.5231288
220	0xbe222b96	-0.15836939
221	0x3d306ecd	0.043074418
222	0x3ddde3ec	0.10834488
223	0x3ec585a2	0.38578516
224	0xbd4e547e	-0.050373547
225	0xbea28888	-0.3174479
226	0xbe5deba0	-0.21671915
227	0xbe296c94	-0.16545326
228	0xbdda4b3c	-0.10658881
229	0x3deb161c	0.114788264
230	0x3cd436a2	0.025904957
231	0xbe6a2aaf	-0.22867845
232	0xbc8975b0	-0.01677975
233	0x3ca19220	0.019722998
234	0x3de241ec	0.1104773
235	0x3e2af591	0.16695239
236	0x3d9e6348	0.0773378
237	0x3e889706	0.26677722
238	0xbdc73848	-0.09727532
239	0xbd39b4b6	-0.045338355
240	0xbdfeff05	-0.12450985
241	0x3c66713d	0.014065084
242	0xbd159749	-0.03652123
243	0x3d46fb63	0.048579585
244	0x3e66caea	0.22538343
245	0x3f3af655	0.7303212
246	0x3e17eddb	0.14836828
247	0xbea06037	-0.31323406
248	0xbe30b05c	-0.17254776
249	0xbe13ed89	-0.14446081
250	0xbe29675c	-0.16543335
251	0xbe574e1a	-0.21025887
252	0x3d52056b	0.0512747
253	0x3bbbe46c	0.005734017
254	0x3e113da8	0.14183676
255	0xbd53fa55	-0.051752407

bias f4 [16]
0	0x3e0abf03	0.13549428
1	0x3de9db3d	0.114187695
2	0x3e36f958	0.17868555
3	0x3e43b49e	0.19111869
4	0xbe0bf6c6	-0.13668355
5	0x3d5f1957	0.054467525
6	0x3e43430e	0.19068548
7	0x3cc4dab4	0.024030067
8	0xbe958a5f	-0.2920713
9	0xbc872bc1	-0.016500356
10	0x3e2c5a4c	0.1683132
11	0xbe750462	-0.23927453
12	0x3e38abeb	0.18034332
13	0x3d41eca9	0.047344837
14	0x3d6de1e1	0.058076743
15	0x3d308419	0.04309473

weight f4 [16]
0	0xbd08eebb	-0.033430796
1	0x3e8a68e7	0.2703316
2	0x3c1116ce	0.008855535
3	0x3f79be42	0.97555935
4	0x3d698221	0.057008866
5	0x3c87d937	0.016583068
6	0xbef08ca9	-0.46982315
7	0x3f612d40	0.8795967
8	0xbb89d67c	-0.0042064767
9	0xbd8d3750	-0.06895316
10	0x3e49e934	0.19717866
11	0x3d305e14	0.04305847
12	0xbf6b4d68	-0.9191499
13	0x3dadccf9	0.08486361
14	0xbe44f401	-0.19233705
15	0x3c30912c	0.010776799

weight f4 [16, 16, 3, 3]
0	0xbd18df7b	-0.037322503
1	0x3d939de4	0.072078496
2	0xbd253711	-0.04033572
3	0xbc8f8577	-0.017519696
4	0xbc7e51f4	-0.015522469
5	0xbcc0b5f1	-0.023524256
6	0xbc636e1d	-0.0138812335
7	0x3c40fc7e	0.011778949
8	0x3c8a4f27	0.016883446
9	0xbbce3d69	-0.0062939418
10	0x3d23f035	0.040024
11	0x3bd29613	0.0064265816
12	0x3dc565dc	0.09638569
13	0xbbde0651	-0.0067756553
14	0xbccd3308	-0.025048748
15	0xbdcaab45	-0.09895948
16	0x3c42ec3f	0.011897146
17	0xbd28130f	-0.0410338
18	0x383fec2e	4.5757908e-05
19	0x3d2f015d	0.04272591
20	0xbe35774a	-0.17721286
21	0x3a9c860e	0.0011941807
22	0x3e99fc36	0.30075234
23	0x3cec92c3	0.028878575
24	0xbc67a715	-0.014138957
25	0x3db44fa9	0.088042565
26	0xbe0f7ee7	-0.14013253
27	0x3d59ba86	0.0531564
28	0x3d6637a2	0.0562054
29	0x3ce31143	0.027718192
30	0x3e0c4859	0.13699473
31	0x3e900dec	0.28135622
32	0x3da7dd43	0.08196499
33	0xbcdf72ae	-0.027276363
34	0x3db20521	0.086923845
35	0xbc70441d	-0.014664677
36	0x3b8270a2	0.003980712
37	0xbdbbe880	-0.09175205
38	0xbd2db18c	-0.04240565
39	0x3c943cff	0.018095491
40	0xbdecd85b	-0.11564704
41	0xbc72690d	-0.014795554
42	0xbd41edbf	-0.047345873
43	0xbcbb2e60	-0.022849262
44	0xbca6338e	-0.020288255
45	0xbd161cbf	-0.03664851
46	0xbc0f3caf	-0.008742495
47	0xbd1a7d80	-0.037717342
48	0xbd8e0ca9	-0.069360085
49	0xbe3338a6	-0.17502078
50	0x3cf1bb46	0.029508244
51	0xbac86449	-0.0015288676
52	0xbd0fa73e	-0.035071604
53	0x3c066994	0.008203883
54	0xbce10cd9	-0.027471947
55	0xbb8e3564	-0.0043398608
56	0x3c4191b6	0.011814525
57	0xbc45b1a1	-0.012066276
58	0xbb7c958e	-0.003854129
59	0x3b031b88	0.0020005424
60	0x3b1d8227	0.0024033876
61	0x3c221642	0.009893002
62	0xbc8cc793	-0.017185008
63	0x3b19f485	0.0023491692
64	0x3db6e0e8	0.08929616
65	0x3d0f214f	0.034943875
66	0x3c7c8ced	0.015414459
67	0xbed1a590	-0.40946627
68	0x3b97aefe	0.004629015
69	0xbca13ce4	-0.019682355
70	0x3d514309	0.05108932
71	0xbd1a5c60	-0.037685752
72	0xbb4020cf	-0.002931643
73	0x3cfaedc9	0.030630963
74	0x3b924c3c	0.0044646543
75	0x3cdd6ad1	0.027028473
76	0xbd5b4683	-0.053534042
77	0x3d8e0058	0.06933659
78	0xbcf17f2f	-0.029479591
79	0xbd255aa8	-0.04036966
80	0xbd96f3d1	-0.07370723
81	0x3c59c61c	0.013291862
82	0xbc539bea	-0.012915591
83	0x3cd39808	0.02582933
84	0x3ca9b655	0.020716826
85	0xbd8aec42	-0.06783344
86	0x3ce7b0cd	0.028282547
87	0xbbc7d51b	-0.006098402
88	0x39105969	0.00013766218
89	0xbc91e3d3	-0.01780883
90	0xbc141d07	-0.009040124
91	0x3c5c270e	0.013437046
92	0x3c6fe6e4	0.014642451
93	0x3c2705e6	0.010194277
94	0x3ddb538c	0.10709295
95	0x3d0d37cb	0.034477036
96	0x3bf7ba79	0.007560071
97	0xbcc7e7d0	-0.024402529
98	0x3c825d6f	0.015913693
99	0x3c4cf52a	0.012509624
100	0xbca01bd2	-0.019544516
101	0x3d08a41a	0.033359624
102	0x3d2ce650	0.04221183
103	0xbd4ccb9c	-0.049998865
104	0xbbe26256	-0.006908695
105	0xbc5f50db	-0.013630117
106	0xbdc95236	-0.098301336
107	0xbc92d1b8	-0.017922267
108	0x3ceab99b	0.028652957
109	0x3d07d0f3	0.033158254
110	0xbd190474	-0.037357762
111	0x3bc6c2fd	0.006065725
112	0x3e28c631	0.16481854
113	0xbcbe97a3	-0.023265665
114	0xbc3565d2	-0.011071639
115	0xbce06de8	-0.027396157
116	0x3be1fe63	0.0068967803
117	0xbcc8dfec	-0.024520837
118	0x3cf46550	0.029833466
119	0xbcd3437b	-0.025789013
120	0xbbdd714b	-0.0067578903
121	0xbbebd950	-0.0071975365
122	0x3d1ba90b	0.03800301
123	0x3c03fde4	0.008056138
124	0xbc3251bc	-0.010883745
125	0xbb3f9709	-0.002923431
126	0xbb5a0476	-0.003326682
127	0x3d32b9cb	0.043634217
128	0xbc8b2dc9	-0.016989606
129	0x3d18fd56	0.037350975
130	0xbc91e50d	-0.017809415
131	0x3d009132	0.03138847
132	0xbd513f19	-0.051085565
133	0x3b10e844	0.0022111097
134	0xbbb57ff5	-0.0055389353
135	0x3c877364	0.016534515
136	0xbd2c906f	-0.04212993
137	0xbc3b97ea	-0.011449793
138	0xbe155ec7	-0.14586936
139	0x3d42f081	0.047592644
140	0xbcce86bc	-0.02521073
141	0xbccbcb56	-0.024877232
142	0x3c90bff4	0.017669655
143	0xbcca5491	-0.024698528
144	0x3da225fb	0.079174004
145	0x3d9038df	0.07042097
146	0x3ea29c2f	0.31759784
147	0xbe38804e	-0.18017694
148	0xbe80666e	-0.25078148
149	0xbc7c78e4	-0.015409682
150	0x3d184762	0.03717745
151	0x3d3c4a7c	0.04596947
152	0xbd0e654b	-0.03476457
153	0x3cb08800	0.021549225
154	0x3d9817a7	0.07426386
155	0xba51c59c	-0.00080021634
156	0x3dca8768	0.09889108
157	0x3ddd32b1	0.10800684
158	0xbe3155d4	-0.17317897
159	0x3d530756	0.051520668
160	0xbc722021	-0.014778168
161	0xbdf13179	-0.11777014
162	0x3c280ad8	0.010256492
163	0xbce962a2	-0.028489415
164	0x3d9f1639	0.077679105
165	0x3c50f2b0	0.012753174
166	0xbe525f8a	-0.20544258
167	0xbbf5a778	-0.0074967705
168	0xbd340e39	-0.043958876
169	0xbcc8e411	-0.024522813
170	0xbdbcf621	-0.09226633
171	0x3b8b6fa6	0.004255253
172	0x3d7cd509	0.061726604
173	0x3d56445f	0.052311298
174	0xbd997b37	-0.074942045
175	0xbd70d1a3	-0.058793675
176	0xbdc7535d	-0.09732697
177	0x3d33bd67	0.0438818
178	0xbd3d8cea	-0.046276964
179	0x3cc400b5	0.023926118
180	0x3c87b16c	0.016564094
181	0xb9f83a1d	-0.00047345544
182	0xbe4714ec	-0.19441575
183	0x3c58a5dd	0.013223139
184	0x3daf64cc	0.08564147
185	0x3dbaf607	0.09128957
186	0xbce41951	-0.027844103
187	0xbce0de63	-0.027449792
188	0xbca62ee6	-0.020286035
189	0xbe144667	-0.14479981
190	0xbe154b41	-0.14579488
191	0xbe1270b6	-0.14300808
192	0x3dcbbba7	0.09947901
193	0x3dfaf632	0.12253989
194	0xbc7361a0	-0.014854819
195	0xbd99fce0	-0.07518935
196	0xbda61863	-0.0811012
197	0xbd0876ad	-0.033316303
198	0x3d974cd0	0.07387698
199	0x3d267a74	0.040644124
200	0xbab8e49d	-0.0014106218
201	0x3c2203f3	0.009888637
202	0x3cdc3956	0.026882809
203	0x3d93d3e3	0.072181486
204	0x3de3d90b	0.11125382
205	0x3e08c974	0.13358098
206	0x3c9a95ed	0.018870318
207	0x3d87feab	0.06640371
208	0xbc70ae0b	-0.014689933
209	0xbb4b6250	-0.003103394
210	0xbbffab76	-0.007802422
211	0x3e91a794	0.28448164
212	0x3dc626d5	0.09675375
213	0x3d1c826b	0.038210314
214	0x3d903cfb	0.07042881
215	0x3b4ff0f6	0.0031729317
216	0x3dcab9b7	0.098987035
217	0x3e0be243	0.13660531
218	0xbd6840ee	-0.056702547
219	0xbdc27aae	-0.094960555
220	0x3e9c4535	0.3052155
221	0xbd07854b	-0.033086102
222	0xbdc8e163	-0.09808614
223	0xbce812c5	-0.028329263
224	0x3e0e5256	0.13898596
225	0x3dd73e01	0.10509873
226	0x3e067115	0.13129075
227	0xbd64f2e6	-0.05589571
228	0x3da288b4	0.0793623
229	0xbdac15b3	-0.08402576
230	0x3d979c8f	0.07402908
231	0xbcaf8880	-0.021427393
232	0x3dd6125f	0.10452723
233	0xbd526946	-0.051369928
234	0x3c4c7b8d	0.012480629
235	0x3d290b05	0.041270275
236	0xbb88e29c	-0.0041774046
237	0xbcf649db	-0.030064514
238	0x3dd21c60	0.10259318
239	0x3d9be848	0.076126635
240	0x3d63aa32	0.055582233
241	0x3e09faac	0.1347453
242	0x3cc976cf	0.024592785
243	0xbd21291e	-0.039345853
244	0xbd8f0606	-0.06983571
245	0x3df6b235	0.12045709
246	0x3cab5f6f	0.02091953
247	0x3da88b8f	0.08229744
248	0xbde0d733	-0.10978546
249	0x3d17ea76	0.037088834
250	0xbc2d1a38	-0.010565333
251	0x3cbac1d3	0.0227975
252	0xbdcfe6b0	-0.10151422
253	0x3d9aedc3	0.07564881
254	0x3db99db4	0.090632826
255	0xbd4e8da8	-0.050428063

bias f4 [16]
0	0x3e1cc815	0.153107
1	0x3db6e694	0.08930698
2	0x3d1123bb	0.035434466
3	0xbcf5d801	-0.030010225
4	0x3e1e16ed	0.15438433
5	0x3d9dba26	0.077015206
6	0xbe0cc935	-0.1374863
7	0x3e5089cd	0.20365067
8	0x3e750ca7	0.23930608
9	0x3dd247e7	0.102676205
10	0x3d9e22bb	0.07721468
11	0x3e91531c	0.2838372
12	0xbe6cecf7	-0.2313727
13	0x3e37fb95	0.17967065
14	0x3e37402f	0.17895578
15	0xbeb44f0d	-0.3521656

weight f4 [16]
0	0x3f44d1f4	0.76882863
1	0x3f62f3f4	0.8865349
2	0x3dbff484	0.093728095
3	0x3f4abc4a	0.79193556
4	0x3f4f271b	0.80919045
5	0x3ea6a057	0.32544205
6	0x3e27d6fb	0.16390602
7	0x3c87276e	0.016498294
8	0x3e42eae1	0.19034912
9	0x3cfdda6b	0.030987939
10	0x39708523	0.00022937781
11	0x3f48072d	0.7813595
12	0x3e738463	0.2378097
13	0x3e0e4393	0.13892965
14	0x3b6970c6	0.0035620197
15	0x3e41ed0e	0.18938085
