FSRCNN/FSRCNN_torch/FSRCNN_48_16_3_X3_150.pth (torch, 67178 bytes, 19 tensors)

weight f4 [48, 1, 5, 5]
000000 e1 1b 11 3e 07 8f db 3d 93 ce 69 bd 4e 7f ca be
       0.14170791 0.1072064 -0.05708177 -0.3955025
000010 fe 62 16 3e e8 a7 d1 bc 87 f3 73 be 5d e7 02 3e
       0.146862 -0.02559276 -0.23823367 0.1278357
000020 f6 bb 07 3f e4 ec df be 23 8a b7 3d a8 5e 18 3e
       0.5302118 -0.4373542 0.08961894 0.14879858
000030 b4 c5 c2 be 16 06 94 3d bf b2 a9 3d e7 09 7d be
       -0.3804146 0.07227723 0.08286046 -0.24710809
000040 dd 5d 1e 3e d0 83 07 3e cb 14 f1 bd bc ce 3c 3c
       0.15465494 0.13233876 -0.11771544 0.011523899
000050 e9 b2 33 3e b6 b4 b9 be 11 85 46 3e d4 b8 01 3d
       0.17548718 -0.36270684 0.19386698 0.031670406
000060 96 1f e9 3d 02 d3 48 3d 7c 5b 78 3c 09 81 48 3e
       0.11382978 0.049029358 0.01515853 0.19580473
000070 00 f7 08 bc ca 75 88 3d 83 a4 39 be fe 2c 89 bd
       -0.008359671 0.066630915 -0.18129162 -0.06698035
000080 f8 5c 6f 3e 60 98 25 be 7b a8 04 bd 25 74 01 be
       0.23375309 -0.16171408 -0.032387238 -0.12641962
000090 29 de 8e 3d 3f df fc 3e bf e4 da 3d c5 ca 6f 3d
       0.069759674 0.49389073 0.10688161 0.058542985
0000a0 42 dd d3 3c 3e 4e 69 3e 9b 27 12 bd e2 f6 53 3e
       0.02586234 0.22783753 -0.035682302 0.20699647
0000b0 f6 b9 8f bd 94 1b 8d 3d 5c c7 5e bd 70 60 9c 3c
       -0.07017891 0.06890026 -0.054389343 0.019088954
0000c0 90 3c 2b bd 64 83 2d be f5 8f e8 3d 7c 2c 42 be
       -0.041805804 -0.16944653 0.113555826 -0.18962282
0000d0 62 c8 f5 3d 22 27 9d 3c 12 5b ec bd b3 f1 af bd
       0.120011106 0.019183699 -0.11540808 -0.08591022
0000e0 f4 05 ba bd 0f 99 d9 3d c1 e0 91 bb 04 90 f1 3c
       -0.09083167 0.10624897 -0.0044518416 0.029487617
0000f0 0f 99 88 3c dd c9 03 3d a2 9b ed 3e 74 a5 d7 3d
       0.016674547 0.032174934 0.464078 0.105296046
000100 69 1d 6a be 49 58 5e 3d 8a d5 9d 3c d0 3f c7 bd
       -0.22862782 0.054283414 0.019266862 -0.09728968
000110 88 c1 90 be 14 cd 4e be 0a 60 2e bd ec dd 4d 3d
       -0.28272653 -0.20195419 -0.04257206 0.05026047
000120 02 66 19 be e3 95 32 3e 0c 17 8e 3e e0 6c 6a bd
       -0.14980319 0.1743999 0.27751958 -0.057232738
000130 34 0f 3a bc 84 b9 88 bd ee 21 92 bd dc 3b e9 bc
       -0.011356164 -0.06676009 -0.07135378 -0.028470926
000140 0d d4 42 3d be fb d0 3d 85 bf 29 3d 1e 50 0c be
       0.04756551 0.10204266 0.041442413 -0.13702437
000150 2d 95 38 bd 51 50 09 3d fb 13 1c 3d fd 88 9a be
       -0.04506414 0.03352386 0.038104992 -0.3018264
000160 42 b1 0c 3d 4b 1f 90 bc 8f 67 50 3d 82 f1 8c bd
       0.034348734 -0.017593047 0.05088001 -0.068820015
000170 07 ff 11 bb f7 b6 3b bd fb 76 3d 3e e2 73 39 bd
       -0.0022277252 -0.045828786 0.18502419 -0.04527653
000180 6d 6f da bd e3 4f 15 3e bd a6 47 3d 3b 7c e1 bd
       -0.10665784 0.14581256 0.048743 -0.11010023
000190 c3 20 52 3c e7 cf 3b 3d 93 8d b7 bd 7f 62 c8 bd
       0.012825194 0.045852568 -0.0896255 -0.09784412
0001a0 f2 0a 26 3e 46 bd 15 be e9 34 a0 be b6 2d 05 3f
       0.16215113 -0.14622983 -0.31290367 0.52022874
0001b0 77 a1 42 be fc 5f 1b 3a 71 ed 78 be b4 9e 9b be
       -0.19006906 0.00059270835 -0.24309327 -0.30394518
0001c0 21 d3 d5 3d 9e ff 03 bc 3e 25 13 3d 17 80 87 bd
       0.1044066 -0.008056549 0.03592419 -0.06616228
0001d0 28 a3 fb 3d e5 ef 2e 3e 8d f5 92 bd 0f 7c 3d bd
       0.12286979 0.170837 -0.07175741 -0.04626089
0001e0 10 dd 95 3d 40 95 2f be 10 44 31 3c 0c cc d1 3c
       0.07317555 -0.17146778 0.01081945 0.025609992
0001f0 0f 9f 25 3d c9 32 34 3e 89 ee 6e 3e 33 be 09 be
       0.040434893 0.17597498 0.23333181 -0.13451461
000200 9e 62 81 be d6 9a 6e 3e b8 a2 59 3c cd 2b 87 be
       -0.2527055 0.23301253 0.013283424 -0.26400605
000210 82 9d d7 3d ba ee d7 3e 9a d5 74 be 61 a4 db bd
       0.10528089 0.4217432 -0.23909608 -0.10724712
000220 fb 2b 56 be fb 69 e8 3e f4 35 af be f6 1b 46 be
       -0.20915215 0.45393357 -0.3422085 -0.19346604
000230 72 ad 4a be 8e 1b 8b 3e 09 46 f9 be 0b a6 cd 3b
       -0.19792727 0.2716946 -0.48686245 0.0062758974
000240 cb 15 23 3e 3a 60 45 3c 97 c7 04 3d 79 71 07 be
       0.15926282 0.012046868 0.032416906 -0.1322688
000250 bc 95 92 bd f9 3b 99 3d 05 a6 80 be f0 1e ac bd
       -0.07157466 0.07482142 -0.25126663 -0.08404338
000260 ec e9 5a be 5b 7e 04 be 59 c4 b5 bd 6f 31 36 bc
       -0.21378297 -0.12938826 -0.08875341 -0.011120184
000270 a4 e2 87 3e 6f 13 46 3e 54 54 a6 be 88 df 97 be
       0.265401 0.19343351 -0.32486212 -0.29662728
000280 d9 bf aa 3e 2f 48 7a 3e ea 44 02 be 6b f7 43 3d
       0.33349493 0.24441598 -0.12721601 0.047843378
000290 dd 29 41 be 8e 38 bf be 3c 1d 9f be 86 fe 46 3e
       -0.18863626 -0.37347835 -0.31076992 0.1943303
0002a0 6d 38 cb 3e bb ab 04 3f fd cd 64 3e 69 88 43 be
       0.39691487 0.5182454 0.22344203 -0.19095005
0002b0 34 ca 10 be dc b5 9a be 2a 71 84 3e b6 2e 55 be
       -0.14139634 -0.30216873 0.25867587 -0.208186
0002c0 3e 27 e4 3d f8 44 54 3d c3 00 1f be 71 10 15 3e
       0.11140297 0.051823586 -0.15527634 0.14557053
0002d0 1e 96 c9 3d bd 90 1d be 60 16 53 bb 0d 0a be bd
       0.09843086 -0.15387245 -0.0032209381 -0.09279261
0002e0 01 31 81 3e f6 dc 0c be 4b ce 14 3d 36 f2 fc bd
       0.252327 -0.13756165 0.03632955 -0.123508856
0002f0 60 e6 bb be f6 b3 4b 3e 3a 45 db 3d 00 f8 1c be
       -0.366992 0.19892868 0.10706563 -0.1532898
000300 5b 88 b4 be b0 79 df 3d 37 8d 3d 3e 01 2c ef bb
       -0.3526028 0.10911882 0.185109 -0.007298947
000310 15 ff 41 3e 80 f8 8c 3e df 38 25 be 6f 82 e1 bd
       0.18944962 0.2753334 -0.16134976 -0.11011206
000320 e1 c6 17 3c ee 7c 92 bd 25 ac cc 3d 57 82 b6 bd
       0.009263725 -0.07152735 0.099937715 -0.08911579
000330 53 7a e7 3b a2 ba 9c bc 94 0c 1a bc 1d b5 b3 3d
       0.0070641427 -0.019131962 -0.009402413 0.08774779
000340 cd 7a fc 3d 83 d3 4f bd 22 d0 16 bd 66 16 d5 3d
       0.1232811 -0.050738823 -0.036819585 0.10404663
000350 be 01 2a bf a5 3d 97 be 6a ad e3 3d 45 77 98 ba
       -0.6640891 -0.2953922 0.111170605 -0.0011632225
000360 95 de 2d 3d d3 0c 8f bd 2a 87 87 bd cd f2 be bb
       0.0424486 -0.06984868 -0.066175774 -0.005827284
000370 fe d9 a0 3b 68 b0 a6 bd b0 2e 15 bc 62 49 1e 3e
       0.004908799 -0.081391156 -0.009105369 0.15457681
000380 47 85 95 bd 46 80 e0 bd ed 43 1d 3e d0 ff 9b 3e
       -0.07300811 -0.10961966 0.15357943 0.30468607
000390 e6 c3 a6 bd cb 6d a4 3d 03 65 12 3e ab eb f5 3d
       -0.081428334 0.08028754 0.14296345 0.12007841
0003a0 1d 0f 24 bf ae b6 91 ba 1b 6d ef 3d 57 7c 01 3e
       -0.6408556 -0.0011117065 0.11690732 0.12645088
0003b0 78 40 c9 be f0 36 27 c0 c0 52 71 bd 6f 8b 8c bd
       -0.39306998 -2.612728 -0.058916807 -0.06862532
0003c0 04 c2 5f 3c 02 07 77 3d 0d fd af be 9f 39 b4 3e
       0.013657097 0.060309418 -0.3437275 0.3520021
0003d0 16 77 ec bd 04 6b d8 be e9 ae 76 3e 05 fa b9 bd
       -0.11546151 -0.42269146 0.2409016 -0.090808906
0003e0 56 22 1f 3d e1 ec 2e bf 5f a1 60 3e 47 4d 1d be
       0.038851105 -0.683302 0.21936558 -0.1536151
0003f0 d2 7a 9f bd cf b2 6f bd c1 fc 18 3e 95 14 d1 bd
       -0.07787098 -0.058520135 0.14940168 -0.10209004

bias f4 [48]
000000 29 ce c3 bd 1e 27 4e be 9b b9 83 be b5 df 38 3e
       -0.09560806 -0.2013211 -0.25727543 0.18054087
000010 f5 53 8e bd 92 09 36 3d c7 ef 1c bf be be a9 3d
       -0.06949607 0.04444272 -0.6130337 0.08288334
000020 97 c8 ff 3d 0f 21 21 3d 08 75 f6 bd 46 5b 2a 3d
       0.12489431 0.039338168 -0.12034041 0.04159095
000030 bd e9 33 3d b0 9c 07 3e 43 1c 9f bb 30 41 62 3d
       0.043924082 0.13243365 -0.004855664 0.05523795
000040 2f a8 15 be ba a0 de be 0c f3 4c 3d 97 07 ba be
       -0.14614938 -0.43482 0.050036475 -0.36333916
000050 78 a3 80 3e 26 bd 39 3e e7 30 5c 3c 98 1f 22 bc
       0.25124717 0.1813856 0.013439394 -0.009895228
000060 e0 33 0d bf 79 cc 1b bd b0 33 84 3c 13 58 8c 3e
       -0.5515728 -0.038036797 0.016137928 0.27410945
000070 f6 f6 2a be 4f b6 30 bd 00 5f 56 3d 32 e8 9f bd
       -0.1669577 -0.043142613 0.052336693 -0.078079596
000080 d6 2a 91 bd a6 44 d3 bd e6 92 c8 3d c6 49 b0 bd
       -0.070882484 -0.10315828 0.09793644 -0.08607821
000090 cc f6 1c bd c9 dd b8 3c 39 a7 2a be cb a1 48 3d
       -0.0383213 0.022566693 -0.16665353 0.048982423
0000a0 0e 3a e6 bd 08 5c ec 3d aa 8c c1 3d a1 ec d9 bd
       -0.11241542 0.11540991 0.09450658 -0.106408365
0000b0 f7 99 79 bc 78 8f c1 3c 32 cd 45 be 64 49 3f be
       -0.015234462 0.023627982 -0.19316557 -0.1868034

weight f4 [48]
000000 c6 82 7f 3d 8a 9e 8b 3f 5c 1a 89 3d 32 05 32 bd
       0.062380575 1.0907757 0.06694481 -0.043461986
000010 cc c8 93 3c e8 7f a1 3c e1 95 6b 3b ce 97 b5 3c
       0.018040083 0.01971431 0.003594749 0.022167113
000020 dd cb 49 3e 28 b9 3d bb ee 68 76 3d bf ed fc bd
       0.19706674 -0.0028949473 0.060158662 -0.12350034
000030 67 3f 4d 3e f9 48 6e 3f 0d 1f 8e be 4c ce d6 bd
       0.20043717 0.930801 -0.27758065 -0.10488567
000040 31 68 b3 bc 82 48 d6 bc 85 bd 5c 3d e1 9b 9c bd
       -0.021900268 -0.026157621 0.053891677 -0.07646919
000050 32 bb 1c 3e 93 0b 7e 3f 24 38 75 3e dd 67 76 3f
       0.15305784 0.9923641 0.23947197 0.9625223
000060 12 31 87 bd d5 30 56 3c f7 62 83 3f a7 86 80 3f
       -0.06601156 0.013073166 1.0264577 1.0041093
000070 b1 d4 24 be 0a 5a 62 3f 8c 79 57 3d cd 8e e6 bc
       -0.1609676 0.8841864 0.05260615 -0.028144265
000080 3a 9b 14 bc 0a 61 cb 3e d5 48 40 3f 9d 3c c1 3d
       -0.009070212 0.39722472 0.7511113 0.09435389
000090 b1 c1 16 3e 64 31 5b bd 26 35 50 3f c6 5f a0 bc
       0.14722325 -0.0535139 0.813311 -0.019576918
0000a0 19 8b 67 bd bd 18 38 3e f8 ce 48 3f 0b 9f cc 3b
       -0.05652914 0.17978187 0.7844081 0.0062445453
0000b0 84 9d 8e 3f 13 db d4 3c 4e 48 a4 bc 3e ef b6 3f
       1.114182 0.025983369 -0.020054009 1.4291761

weight f4 [16, 48, 1, 1]
000000 00 79 c7 bd 39 a7 1b 3e 50 93 4d 3e 4e 39 fd 3c
       -0.09739876 0.15200509 0.20075727 0.030911114
000010 8a dc 33 3d 27 9e 98 3d a0 ce 84 bf b0 93 14 3c
       0.043911494 0.0745204 -1.0375557 0.009068415
000020 df f1 23 3e c9 23 76 3d fe eb 01 be 21 a5 47 bc
       0.16010235 0.06009272 -0.1268768 -0.012185366
000030 bc 17 70 bd a7 b7 2e 3e 92 10 96 bc 38 b3 72 3d
       -0.058616385 0.17062245 -0.018318448 0.059252948
000040 8e 8c 34 3d ab 56 c7 bc a9 9e b4 bb 3b 2a 79 3d
       0.044079356 -0.024333319 -0.005512078 0.06083129
000050 6f 5c 06 be 70 60 0a 3e ca a3 22 bc eb 40 c2 3e
       -0.13121198 0.1351335 -0.009926746 0.37940153
000060 79 5e ae bb 98 26 1d 3e 55 9f 95 3c ff 21 98 be
       -0.0053213206 0.15346754 0.018264452 -0.29713437
000070 bb ac d6 bc a5 68 df bd 5b 69 b8 3d 05 cf 3b bb
       -0.026205411 -0.10908631 0.0900447 -0.0028657329
000080 31 3e 63 bc ac c0 c1 bc b0 06 2e be c2 e1 21 be
       -0.013869808 -0.023651443 -0.16994739 -0.15808776
000090 cc 35 1f be 0d d6 98 3a c4 8d d7 bd 46 ce 1e be
       -0.15547866 0.0011660472 -0.105250865 -0.15508375
0000a0 12 2a 27 3e a9 25 16 be af 41 dd 3d 60 5e 85 bd
       0.16324642 -0.14662804 0.10803544 -0.06512141
0000b0 ab 84 07 be f1 30 19 3d 93 6e 58 3e f5 7a 23 bd
       -0.13234203 0.03740019 0.2113593 -0.039912183
0000c0 50 19 80 3e 06 ee 12 be 61 b7 c9 bd 7c d6 94 3d
       0.25019312 -0.14348611 -0.0984943 0.07267472
0000d0 18 82 1c 3e 96 2e 21 3d c5 1e 48 be f6 be 95 be
       0.15284002 0.03935107 -0.19542988 -0.29247254
0000e0 59 92 39 3e 65 e3 b0 3c 23 e2 d7 3e d7 41 a4 3d
       0.18122233 0.021592805 0.42164716 0.080203705
0000f0 8e 42 a3 3e a0 e4 b1 3e 55 5e 0d 3d 46 94 37 be
       0.31886715 0.3474474 0.03451379 -0.17927656
000100 42 de 4b 3e 79 c5 75 3d 9d 92 fc 3e 19 38 cd bd
       0.19909003 0.060002778 0.49330607 -0.100204654
000110 02 fa 86 bd 6d ed f6 be e0 e8 01 3c d7 55 2c 3e
       -0.06590654 -0.48228016 0.007929057 0.1682962
000120 37 f0 ca be b6 af 2b 3e c5 09 1c 3d 22 ea e7 3e
       -0.39636394 0.16766247 0.038095254 0.45295817
000130 3d 20 84 3e 5b a5 60 3e b7 67 ce 3d e4 e7 6b be
       0.25805846 0.21938078 0.10078376 -0.23037678
000140 77 de ae 3d 52 95 fe be ae 58 23 be eb aa d1 be
       0.085385256 -0.49723297 -0.15951797 -0.40950713
000150 c1 50 0c be 9f 60 c8 be 4e ca 14 be 6f 18 57 be
       -0.1370268 -0.39136216 -0.14530298 -0.21005414
000160 55 75 95 3e d9 f2 35 bd 6c 9c d8 bd 8a 2a a3 3e
       0.2919108 -0.04442105 -0.1057671 0.31868392
000170 1f 45 97 3c 48 cf 02 bf 84 36 0d be 07 4d 41 3e
       0.018465577 -0.51097536 -0.13790327 0.1887704
000180 fe 49 2d 3e cb 61 8b bd f3 b5 ae 3e d2 4d 31 be
       0.16922757 -0.06805762 0.3412319 -0.17314842
000190 db f1 84 3e 48 85 91 be 63 cd ec 3f 2c 7c 2f be
       0.2596577 -0.28421998 1.8500179 -0.17137212
0001a0 cf 00 66 3e 24 be b9 3e 2f f6 21 3e 9f cd 38 3e
       0.22461246 0.36277878 0.15816568 0.18047188
0001b0 14 c7 85 bd af 5a a6 be 44 3a 95 3e fc 8d 6c 3d
       -0.06532112 -0.3249106 0.29146016 0.057752594
0001c0 ec 5b 2c be 51 1a 8a 3e e5 8c ca 3d d7 00 2d 3c
       -0.1683194 0.26973203 0.09890155 0.010559282
0001d0 5a aa 67 3e 82 fe c4 bd bb a2 9c 3d 7d b9 94 bd
       0.22623578 -0.09618856 0.07648226 -0.072619416
0001e0 f8 de a7 be 38 34 1a be c0 6e 0e 3d 9c 86 f1 bc
       -0.327873 -0.15058982 0.03477359 -0.029483132
0001f0 51 29 ac 3d 18 8c 06 3d e9 d2 9a bc ab 4f a7 3b
       0.08406318 0.032848448 -0.018899398 0.0051059327
000200 5e 2e ba 3d 0f 52 db 3d 1e ab 72 be e8 0f 14 3c
       0.09090875 0.10709011 -0.23698089 0.0090369955
000210 bf 25 74 be 9b e7 7c be a6 90 1a 3d f2 c1 4b be
       -0.23842524 -0.24697725 0.037735604 -0.19898203
000220 5a 85 2d 3e ca b3 a4 3d d3 c7 50 be 1b 70 64 be
       0.16945401 0.080421045 -0.20388727 -0.2230839
000230 95 7c 97 bd 84 63 4e 3e 42 5c 4e bd 0c d7 e1 bd
       -0.07396809 0.2015515 -0.050380953 -0.11027345
000240 cb 8f a9 bc 13 93 28 3e 5a 4c 40 be 56 f9 0b 3a
       -0.020698449 0.16462354 -0.18779126 0.0005339583
000250 7b 7c 52 bc c0 cb 03 3e 1a d7 3d 3e 95 53 42 bc
       -0.012847061 0.12870693 0.18539086 -0.011860748
000260 1b c3 53 bd 5c d5 f8 bd b3 90 ee 3c 6f e6 83 bd
       -0.05169974 -0.1215007 0.029121732 -0.06440436
000270 37 4f ff bd b8 43 f1 bd f6 f0 4c bd 97 d0 36 bc
       -0.12466281 -0.117804945 -0.050034486 -0.01115813
000280 f1 5f dd bd ec 6f 0c be f8 f3 f2 bd 3f b0 5a bd
       -0.10809315 -0.1371457 -0.118629396 -0.053390738
000290 26 dc 1f 3e b7 33 0b 3f a1 4c 11 3e e5 7b ad 3c
       0.15611324 0.54375786 0.14189388 0.021177242
0002a0 35 42 43 3e 7a 0c 42 bd f5 2c 05 bd 64 5b b4 be
       0.19068225 -0.04737518 -0.032513577 -0.35225976
0002b0 58 d6 ba 3b 5b 1b 83 be 54 30 1b be 6e 71 84 3d
       0.0057018213 -0.25606808 -0.15155154 0.064669475
0002c0 0e c0 2a 3e 56 ad d7 bc 26 d2 18 be b2 79 cd bc
       0.16674826 -0.02632777 -0.14923915 -0.025082443
0002d0 48 36 be bd 15 04 46 3e 23 01 00 be 26 57 2a 3e
       -0.09287697 0.19337495 -0.12500434 0.16634807
0002e0 ae 52 8b bd b1 f2 49 bc 74 ae 42 3e 49 e2 46 3e
       -0.06802879 -0.012325929 0.19011861 0.19422258
0002f0 21 fd 9b 3d dd 10 01 3d 26 63 01 be 43 3c 91 3d
       0.0761664 0.031510223 -0.12635478 0.07091572
000300 3a 3c 0c 3e 39 cb dd bd 24 9d 28 3e d7 46 61 bb
       0.1369485 -0.10829777 0.16466194 -0.00343745
000310 a8 3f 79 3e bf 43 9c 3c 47 de fc 3d ec 9c 90 bc
       0.24340689 0.019075273 0.123470835 -0.017652951
000320 35 c9 11 3f 68 50 39 3e 4c be e6 bd fe 86 b8 bc
       0.5694764 0.18097079 -0.11266765 -0.022525307
000330 49 aa 10 3d d9 18 a8 3e ee e7 e5 3d 9a cb cc ba
       0.035318647 0.32831457 0.11225878 -0.0015624643
000340 1b 76 3f be 3d 33 3f bd e6 6f 6d be 47 67 9e bd
       -0.18697397 -0.046679724 -0.23187217 -0.07734542
000350 d4 0e 8f 3c b7 e3 d8 bc 38 b4 27 3e 43 da 1c bd
       0.017463125 -0.02647577 0.16377342 -0.038294088
000360 40 d4 bf 3d 35 e8 d6 3d c7 fc 3c bd 28 5d 37 3e
       0.09366655 0.10493509 -0.046139505 0.1790663
000370 4a bd b5 3d 38 cb 8b 3e f5 0d 23 be f8 21 ef bc
       0.08873995 0.2730348 -0.15923293 -0.029191002
000380 6a b7 b6 bd 2f 07 41 be 54 eb 4d be 48 4b ad 3c
       -0.08921702 -0.18850397 -0.20109302 0.021154061
000390 ca 97 44 3e 9d e3 a5 3c 88 c9 c6 bd bc 14 85 bd
       0.19198528 0.020250136 -0.09706408 -0.064980954
0003a0 12 95 25 be 84 0d 9b be 2f 8b 4f 3c a0 b9 89 bd
       -0.16170147 -0.3028375 0.012667461 -0.06724858
0003b0 fb c2 3b 3e 4c c1 04 3d 95 89 8d be 4d 8b a6 bd
       0.18336098 0.032410905 -0.2764403 -0.08132038
0003c0 04 9e ca bd ba 7b b6 be 63 05 76 be 71 57 a4 3d
       -0.0989342 -0.3564127 -0.24025492 0.080244906
0003d0 8f fa 6c be 34 ba 37 be 03 82 4f bf 21 f6 56 be
       -0.23142456 -0.17942125 -0.8105776 -0.20992328
0003e0 15 cc 44 3e 82 fb 01 3e 51 3a 29 3c 07 aa 96 3b
       0.19218476 0.12693599 0.010328845 0.0045979056
0003f0 69 16 42 bd ab 7d b8 bd e8 c5 81 3d 41 82 23 3e
       -0.047384653 -0.09008344 0.06336576 0.15967657

bias f4 [16]
000000 8d da 51 3d 92 91 2e bd 90 21 57 3d 31 e2 22 be
       0.051233817 -0.042619295 0.052522242 -0.15906598
000010 5b 48 50 bd f5 9a 73 3c 12 2d a0 3c 09 b0 af 3d
       -0.050850254 0.014868488 0.019552741 0.08578498
000020 bd 60 34 3d 7c b6 a0 bd e6 94 62 bd 35 f3 95 bc
       0.04403757 -0.07847306 -0.055317782 -0.018304447
000030 c0 94 67 be 49 3c 18 3c ca 58 ee bd f5 86 13 bd
       -0.22615337 0.009291717 -0.11638029 -0.036017377

weight f4 [16]
000000 96 6b 5d 3f 6c 7c 72 be 65 4a 3d 3f 6b f5 75 3f
       0.8649229 -0.23680276 0.7394164 0.96077603
000010 1f e9 5e 3f 0d f4 72 3c 75 5f 21 3f 84 95 6e 3f
       0.87074465 0.014828694 0.6303628 0.9319689
000020 c8 28 4a 3e dd 1f 8b 3f eb 38 8d 3f bb f0 b8 3e
       0.1974212 1.0869099 1.1032995 0.36121163
000030 d5 53 87 ba 20 e9 dc be 83 d7 65 3f 86 99 e8 3d
       -0.0010324667 -0.4314661 0.8978197 0.11357407

weight f4 [16, 16, 3, 3]
000000 8e af 2c 3d fa 2a 4f be e2 61 11 be 54 a9 21 bd
       0.04215961 -0.20231238 -0.14197496 -0.039468125
000010 0e 9a be 3e 05 95 33 3e 06 ff 03 be 26 0b 0d 3d
       0.3722691 0.17537315 -0.12890252 0.03443446
000020 1e 46 1d be be e9 59 bd 54 be 5c 3d 66 fb 82 3d
       -0.15358779 -0.05320143 0.05389245 0.06395607
000030 ae e3 4e 3d 43 17 1c bc 59 55 34 3e 8f 6e eb 3d
       0.0505101 -0.00952703 0.17610683 0.11495697
000040 4e 60 87 bc 34 00 e5 bd 58 c8 86 3d c4 66 88 bc
       -0.016525414 -0.11181679 0.06581181 -0.016650565
000050 2a 04 00 3c 63 c8 b2 3c 72 5e 86 bd 5c 29 18 3e
       0.007813493 0.021824067 -0.06560983 0.14859527
000060 73 85 1b 3c 15 3b c4 3b 1b 2b 27 3e 4a 60 c9 bd
       0.009492266 0.0059884884 0.16325037 -0.09832819
000070 0d 60 fc bd 5c 8d b8 bd 08 cc 70 be a8 8b 1d 3f
       -0.12323008 -0.09011337 -0.23515332 0.61541224
000080 13 e1 55 bc 7b 52 0d be 0c 9b 8a bb e4 f7 50 be
       -0.01305415 -0.13800995 -0.004229909 -0.20407063
000090 4b 30 be bd 58 e5 a4 3d c8 a2 5d 3c bf fe 80 3d
       -0.09286555 0.08051556 0.01352758 0.06298589
0000a0 c6 63 b6 be 53 33 ea bd 51 ca 57 bd c8 96 29 3e
       -0.35622996 -0.114355706 -0.05268318 0.16561425
0000b0 80 d8 32 bd e5 68 bc 3c ee 12 d1 3b 2d 69 e5 bd
       -0.0436635 0.022999236 0.0063804304 -0.11201701
0000c0 a4 5b e3 3c 8c ea a3 bd 65 0c fd bc 74 d7 dc 3b
       0.027753659 -0.08003721 -0.0308897 0.006739551
0000d0 1e ba 42 bd a6 69 94 bd af 9b 25 bb 20 9a 05 be
       -0.047540776 -0.07246713 -0.0025269797 -0.13047075
0000e0 18 41 7e 3d 64 4b bc bd 7d 8f c9 bc 7d ad 89 bd
       0.062073797 -0.09194067 -0.024604553 -0.067225434
0000f0 87 08 97 3d 08 b5 0b be 11 e2 e0 3d 31 c2 97 bd
       0.07374673 -0.13643277 0.10980619 -0.07410086
000100 69 66 2b 3e 94 ca c0 3d b4 73 1d 3d a7 65 12 bf
       0.16738285 0.09413639 0.03844042 -0.5718636
000110 ae 73 cd bd 60 a4 18 3e 11 c1 04 3e 44 46 a3 3b
       -0.1003183 0.14906454 0.12964274 0.0049827415
000120 ef cb ff bd 55 1b 8b bd 85 6c 2b 3e 72 6f a3 3b
       -0.12490069 -0.067923225 0.16740616 0.0049876506
000130 7c 60 8a bc 78 8f 39 3d 3c 3e 04 3d 23 36 1c 3d
       -0.01689171 0.045302838 0.032285914 0.038137566
000140 a4 f4 c1 3c fb c5 80 bc 45 16 c2 3d b7 93 1a be
       0.023676224 -0.015719404 0.09476904 -0.15095411
000150 66 18 85 3e db 08 29 be 77 88 a6 bb bb 4e ab bd
       0.25995177 -0.16507284 -0.005082186 -0.08364626
000160 03 81 5d 3d 9d b0 53 3d 8f 47 5e bd ac 4f 41 3e
       0.054078113 0.051682103 -0.054267462 0.18878049
000170 ad 82 41 3d 0a 4a f3 3c 33 10 4f 3e 85 c9 21 3e
       0.047243763 0.02969839 0.20221023 0.1579953
000180 26 fa 4f 3d 17 9d 60 3a 38 b2 ef 3b 33 8f 61 3c
       0.05077567 0.000856833 0.0073149465 0.0137670515
000190 08 2d 1f bd a3 5e f5 bd 85 48 17 bd 7f c0 8c 3d
       -0.038861305 -0.11980941 -0.036934394 0.06872653
0001a0 1f 68 c8 3d 51 76 f3 bc 5c 35 c2 3c f1 4f 5b bd
       0.097854845 -0.029719504 0.023707084 -0.053543035
0001b0 14 e9 9f 3d 8e 12 f9 3d e7 54 59 3e 7f 76 d7 3d
       0.07808128 0.12161742 0.21223794 0.10520648
0001c0 52 3a 0f bd 71 20 fe 3d 06 7c 32 3e 03 7d c0 bd
       -0.034967728 0.124085315 0.17430124 -0.09398844
0001d0 64 15 c9 bd ec e8 96 bd bb 6b 2f 3d fa ac 1d 3d
       -0.09818533 -0.07368645 0.04282735 0.03849504
0001e0 cc 0a 83 bd 0a e2 8b bd 1c 04 89 3d e8 04 06 bc
       -0.06398544 -0.06830223 0.06690237 -0.008179881
0001f0 fc cf ae 3d c8 83 92 3c 3a 24 28 bc 62 e6 8c 3d
       0.085357636 0.017885104 -0.010262543 0.068798795
000200 47 a6 a8 3d d9 79 c9 bc b3 a7 80 3e cf 9c 0b 3e
       0.0823484 -0.024594234 0.25127944 0.13634036
000210 0f 92 52 3d 1c 9c 0f 3e 7f 91 13 3d 93 94 26 bc
       0.051408824 0.14024395 0.036027428 -0.010167259
000220 da e6 dd bd 9c e6 b7 bc 00 a7 e8 bd 8c 49 4e 3e
       -0.10835047 -0.02244883 -0.11359978 0.20145243
000230 98 07 eb 3d bf 06 30 be dd 6c d3 bc a3 d4 17 bd
       0.11476058 -0.17190073 -0.025808746 -0.03706802
000240 e5 30 8d be 49 61 04 3e f8 3b 24 be ef 99 13 3e
       -0.27576366 0.12927736 -0.16038501 0.1441419
000250 57 8e d0 bd 8c c9 33 3e c6 0b e0 3d 30 67 37 bd
       -0.10183399 0.17557353 0.109397456 -0.04477614
000260 db 48 40 bb a1 64 86 3e 71 64 16 3f a2 92 b7 bd
       -0.00293403 0.2624865 0.5874701 -0.08963515
000270 93 bf c1 bd cb dc da bd a3 60 90 3e 85 0e c4 3d
       -0.09460368 -0.10686644 0.28198728 0.09573082
000280 50 50 a2 3e 4d 04 c3 3e cb 98 33 3e 17 fa b8 3d
       0.317019 0.3808922 0.17538755 0.09032076
000290 59 79 3d be 66 4b d1 3d db b1 28 3d 50 47 e1 bd
       -0.18503322 0.10219459 0.04118524 -0.1099993
0002a0 63 3c 72 be 8e 8e 27 be cf 01 41 3e 6f 40 18 bd
       -0.23655848 -0.16362974 0.18848346 -0.037170824
0002b0 cf a2 61 3e df 17 80 3b e1 91 31 3e c4 45 1b be
       0.22034763 0.0039090957 0.17340805 -0.15163332
0002c0 f4 14 a4 bd 32 90 69 3d 20 c9 ff 3d e5 83 b2 3d
       -0.08011809 0.05702228 0.124895334 0.08716563
0002d0 96 54 be 39 c0 89 b5 3b 59 fa 0e 3e c0 24 31 be
       0.00036302645 0.0055401027 0.13962688 -0.17299175
0002e0 0c e6 19 3c b7 4f 6d 3d d4 95 bd 3d 26 ea 80 be
       0.009393226 0.05793735 0.09257093 -0.2517864
0002f0 45 4d 15 3e 65 ff 7e be aa 05 0a 3d 96 a8 02 3f
       0.14580257 -0.24902113 0.033696808 0.5103849
000300 1b 11 8c 3e a2 2c 03 be 28 6d 42 3d b9 56 d8 bd
       0.273568 -0.12809995 0.04746738 -0.10563416
000310 f0 47 42 be 78 5a 24 3e 7c d7 b1 3d 9a 29 8d 3d
       -0.18972754 0.16050136 0.086836785 0.068927005
000320 3e 69 7b bc b6 6a 09 be 9c 3e 1f 3e f1 86 9f 3d
       -0.015344916 -0.13419613 0.15551227 0.0778941
000330 ce 91 00 be 74 c6 08 be 14 1e 11 be a3 92 5d be
       -0.1255562 -0.13356954 -0.1417163 -0.21637969
000340 e6 38 eb 3d b4 48 aa 3e 36 e4 24 bd c2 b6 a9 3d
       0.11485462 0.33258593 -0.0402567 0.082868114
000350 b4 ad 11 bd 3c 65 b5 bd 9f 25 73 3e d5 5e 1a 3c
       -0.035566047 -0.088571995 0.2374482 0.009422024
000360 67 8b 4e 3f 93 c6 91 be a7 83 a4 be aa f8 c9 3c
       0.8068146 -0.28471813 -0.32131693 0.024654705
000370 03 eb 40 3c 39 ff 20 bb 4d 9b 39 3e 48 ac cb be
       0.011774781 -0.0024566187 0.18125649 -0.39779878
000380 ba a2 46 3e 99 eb 54 be 9a b8 89 bd b7 5c 2f 3d
       0.19398013 -0.20792998 -0.06724663 0.04281303
000390 be e1 2a 3e 56 e0 0a 3e 13 bf 44 3e 43 1f 9b bd
       0.16687676 0.1356214 0.19213514 -0.07574322
0003a0 01 42 11 3d 43 e3 5a be 90 03 b2 bd ee b1 2d bc
       0.035463337 -0.21375756 -0.08692086 -0.010601504
0003b0 64 dc 0e be b1 52 97 3d c8 ec 46 be 35 9f b8 bd
       -0.1395126 0.07388819 -0.19426262 -0.09014741
0003c0 fc 05 2b bd 03 b1 37 be 53 37 a4 3d f4 52 b8 3d
       -0.041753754 -0.17938618 0.08018365 0.09000197
0003d0 74 83 cf bd f6 c5 51 3d 3d 2d 9f 3e 99 5d 31 bd
       -0.101324946 0.05121418 0.31089202 -0.043302152
0003e0 33 2d c3 3d 6b 08 e1 bd a4 86 c7 3b e4 8f b5 3d
       0.095301054 -0.10987934 0.0060890485 0.088653356
0003f0 62 67 75 bd 43 fb 33 3e 61 6f 80 3e a3 4d 89 3e
       -0.059913047 0.17576317 0.25084975 0.26817045

bias f4 [16]
000000 a6 d2 37 3e 7e 09 ce bd ef c0 b8 bb c5 f0 85 3c
       0.1795145 -0.10060404 -0.005638234 0.01635016
000010 f1 93 f9 3d d2 df 33 bd 2e 38 e0 be 38 48 fc bd
       0.12186421 -0.043914624 -0.43792862 -0.12318462
000020 d5 7c 8c 3d c0 ad 90 3d 3c 17 2e bd d8 24 b3 be
       0.06859747 0.0706439 -0.042502627 -0.34989047
000030 3b 6a 1a 3c 1c d9 77 bd 18 b4 4b bd e7 37 ef bc
       0.009424741 -0.060509786 -0.049732298 -0.029201461

weight f4 [16]
000000 7a 6d 84 3f b7 1f 8d 3e 60 a2 06 3e 45 61 00 bf
       1.034591 0.2756326 0.13147879 -0.5014842
000010 5c 65 63 3f a5 99 74 3d f0 0f 23 bd b0 f4 58 3e
       0.8882654 0.05971684 -0.03981012 0.21187091
000020 92 f6 f0 3e a8 41 de 3d 7f 5d 2e be b8 cc 0d 3b
       0.47063118 0.10852367 -0.17027853 0.0021636914
000030 c9 86 fd 3d b0 4d 31 3e 2c e9 4a 3c 30 4b 81 3e
       0.12379224 0.17314792 0.012384694 0.25252676

weight f4 [16, 16, 3, 3]
000000 ab 6a 1f 3e eb 14 84 bc de 44 3c be 2e 36 bc 3d
       0.15568034 -0.016123256 -0.18385646 0.091900215
000010 3f a1 42 3b 0a a0 18 be 0a dc 99 3d 7f ea 59 3d
       0.002969816 -0.149048 0.07512672 0.05320215
000020 a0 48 5a be bd b6 ec bd e1 ed 63 be f8 32 bd 3e
       -0.21316767 -0.11558292 -0.22258712 0.3695295
000030 b2 0d 10 3f fb 28 05 bf c1 ce 26 be c8 a4 38 be
       0.562709 -0.52015656 -0.16289808 -0.18031609
000040 d9 3c 7f 3c 93 d7 e5 bb 97 64 9f 3d ba 6c ce bd
       0.015578472 -0.007014224 0.07782858 -0.10079332
000050 84 68 f3 bd fb 13 a9 3c 27 46 3d 3e c0 a8 2c be
       -0.11885169 0.02063941 0.18483792 -0.16861248
000060 66 d5 59 3d ad 63 bb 3e 74 c2 53 be 57 c7 a4 be
       0.05318203 0.36599484 -0.20679647 -0.32183334
000070 78 a0 35 be 4e 0f 39 bd 88 29 c4 be 76 fd ff bd
       -0.17736995 -0.04518061 -0.38312936 -0.12499516
000080 16 c2 b5 3e 39 e4 ca be 1a 17 81 3d 76 b9 7a 3e
       0.35499638 -0.39627245 0.063032344 0.2448481
000090 dc 63 2b bf e4 3a df 3e 1a a2 f8 3c 0c 23 9b be
       -0.6694925 0.43599617 0.030350734 -0.30300176
0000a0 38 70 45 bd c9 f9 2e 3e cb c5 cb 3e a5 44 4c bd
       -0.048202723 0.17087473 0.39799342 -0.049870152
0000b0 96 af 38 3e fa d5 e5 3e ed c0 9e bd 7b 83 1d 3e
       0.1803573 0.44889814 -0.077516414 0.15382187
0000c0 2b 18 b5 3e e4 67 91 be 16 50 36 3e d1 ef dc 3e
       0.3537 -0.28399575 0.17803988 0.43151715
0000d0 84 67 a9 3d cb c4 c7 bd 95 94 b9 3d fc 10 6c bf
       0.08271697 -0.09754332 0.09061543 -0.92213416
0000e0 f8 22 ac bd b7 c0 3b 3f 86 b6 93 bf 05 4b 30 3e
       -0.08405107 0.73340935 -1.1540077 0.17216118
0000f0 4c fc 44 be 65 a8 c1 bd 90 c6 8b 3c 81 82 69 be
       -0.19236869 -0.09455947 0.017062455 -0.2280369
000100 fa 77 1e be 9a f8 90 bd b5 63 30 be 39 8d 94 be
       -0.15475455 -0.07078667 -0.17225535 -0.29013994
000110 b9 64 f2 3e 64 f0 5b be f2 b5 04 be 51 26 44 be
       0.4734247 -0.2147842 -0.12960032 -0.19155242
000120 80 ea 60 be b7 59 73 3e aa d0 04 be 75 3f d0 bd
       -0.21964455 0.23764692 -0.12970224 -0.101683535
000130 53 43 36 3d de f6 90 3d 55 be 1f bd a5 2c 0b bd
       0.0444978 0.07078336 -0.038999874 -0.033978123
000140 91 c0 6c 3d 0c a3 dd bd 4d ec b9 3d d0 19 2f 3d
       0.057800833 -0.10822114 0.09078274 0.042749226
000150 f7 f8 e8 3e 5d fd 27 bf 76 a3 e7 3d 65 ae 0f bf
       0.45502445 -0.65620977 0.113104746 -0.5612548
000160 f8 2b 68 be fc 0d 36 3f 25 da c0 be e5 8b a2 be
       -0.22673023 0.7111509 -0.3766643 -0.31747356
000170 bd 8f 6e be 96 9d 1c bf d7 12 3f 3d 50 37 f4 be
       -0.2329702 -0.6117796 0.046648826 -0.4769845
000180 c7 c4 c6 bd 91 5f 38 3e ea c8 88 3d c0 cd 09 3d
       -0.09705501 0.18005206 0.06678946 0.033643484
000190 20 21 2a bf eb af 97 be 02 37 9c 3e 84 32 58 bf
       -0.66456795 -0.29626402 0.30510718 -0.8445208
0001a0 3f aa b8 3e 46 bc ed bd a6 8e 96 bd a4 94 dd bc
       0.36067387 -0.11608176 -0.07351427 -0.027048416
0001b0 ce 1c 0a 3e 2d c0 a5 be bc 2e 2e 3d 45 5a cc 3c
       0.1348755 -0.3237318 0.042525038 0.024945388
0001c0 37 47 60 bf 75 28 b9 3e 57 2f c8 3d 5f 2d 7a bd
       -0.87608665 0.3616368 0.09774654 -0.061078425
0001d0 12 58 b9 3e 31 92 52 be 46 3a 3a 3e a4 74 d3 bd
       0.36200005 -0.2056358 0.18186292 -0.10324982
0001e0 33 df cc 3d 26 79 f6 be 6b 71 30 3d b1 5d d5 3d
       0.10003509 -0.48139304 0.043076914 0.10418261
0001f0 61 b9 45 3e 3c 46 4d be a5 95 c1 bd b4 c8 48 be
       0.19308998 -0.20046324 -0.094523706 -0.19607812
000200 fe 97 c4 3e 42 11 96 be ad a0 b8 3e 4f 00 bc 3d
       0.3839721 -0.29310042 0.36060086 0.09179746
000210 6a 80 5a bf 04 a1 cc bc ac c2 1d be 1e d9 cc 3e
       -0.85352194 -0.024979122 -0.15406293 0.40009397
000220 c8 9b 88 3e de 04 aa 3e aa 53 c9 3d 7a 5b 34 be
       0.26681352 0.33206838 0.09830411 -0.1761302
000230 1c ab d6 3d e3 25 00 3e 04 dc 0e be 03 99 c6 3c
       0.10481855 0.12514453 -0.13951117 0.024242884
000240 f5 2d 3f 3d 16 c9 38 3e 18 69 63 3d 3b d2 3d 3e
       0.046674687 0.18045458 0.055520147 0.18537228
000250 a7 a2 e1 be 2c 4f f5 3d 31 38 ac 3d be cf 88 3d
       -0.44069406 0.119779915 0.08409155 0.06680249
000260 05 32 02 3e 15 60 6d 3d 2d 25 ae 39 2c 3e 9f 3c
       0.12714393 0.05795296 0.00033215564 0.019438826
000270 39 6b 29 bd a7 9d 9b bd c1 aa c4 bc cc 68 37 3e
       -0.04136202 -0.07598429 -0.024007203 0.1791107
000280 7d 93 51 3d 34 0c 89 3d db 4e 84 bd 88 95 07 3c
       0.051166046 0.06691781 -0.06460353 0.008275397
000290 fe 23 73 3d 76 aa f8 3c f6 8c af be 51 56 89 3d
       0.059360497 0.03035472 -0.34287232 0.06705917
0002a0 99 3f 7c bd 75 b7 e2 bd 79 ab 39 3d fc dc f4 3c
       -0.06158409 -0.11070148 0.045329545 0.02989053
0002b0 02 e2 61 bd fe 3d e7 b9 9e b1 45 3d 40 d8 dd bd
       -0.05514718 -0.0004410594 0.048265092 -0.10832262
0002c0 68 ac 19 bd 2c 35 45 bd e9 50 2c be a3 fc df bd
       -0.037517935 -0.04814641 -0.1682774 -0.109368585
0002d0 5d 9e a9 bd 49 4f 32 be 04 6f f7 bb 9f 89 91 be
       -0.082821585 -0.17413057 -0.007551076 -0.2842531
0002e0 53 94 e3 3e 03 d8 4d be 2c 5f c0 3c 97 22 11 be
       0.444491 -0.20101933 0.023482881 -0.14173351
0002f0 51 d6 0c 3d cf ab 5e be f1 8a fe bd ef 2d 00 be
       0.034384076 -0.21745227 -0.12428845 -0.12517522
000300 10 d0 e5 3d 83 09 59 3e 25 83 b3 bd 4c 6d ec 3c
       0.112213254 0.21195035 -0.08765248 0.02886071
000310 0e 55 aa 3d e0 7a 05 bb 45 14 13 bc 3f 35 a5 bd
       0.08317004 -0.0020367429 -0.008977001 -0.080667965
000320 df c5 5d bc 85 6d 25 bd 1f a4 92 bb 52 43 63 3d
       -0.013535946 -0.04038765 -0.004475131 0.055484124
000330 da 21 df 3c 54 f7 d1 3c 27 63 8a bb e4 7f 96 bd
       0.027237821 0.02563063 -0.0042232457 -0.07348612
000340 d9 3a 73 3d a2 85 51 3e 64 86 5e be 9f f7 96 3e
       0.059382293 0.20461133 -0.21730953 0.29485795
000350 4e 1c 1a bc 83 f3 98 be 1a ce b7 be 47 c6 fb bc
       -0.009406162 -0.29873285 -0.3589943 -0.030734194
000360 57 9a cb 3c 22 16 87 bc 92 dd 8b bd 52 17 c5 bc
       0.024853868 -0.016490046 -0.068293706 -0.024058972
000370 01 7f 6a be 2e e6 4b bd ee 38 92 bd ed e7 1f 3d
       -0.2290001 -0.049780063 -0.07139765 0.03903954
000380 bb 0b 77 bd ec f8 b1 bd 06 f0 11 bd 62 31 e0 bd
       -0.06031392 -0.08690056 -0.035629295 -0.10946919
000390 18 36 2a be e4 50 f4 be a0 81 d3 bd 48 68 a8 3d
       -0.16622198 -0.47717965 -0.103274584 0.08223015
0003a0 fa 70 41 3e a0 35 64 be 6a f4 78 3d 15 0d 3d bd
       0.18890753 -0.22286081 0.060779966 -0.046155054
0003b0 53 63 41 bd 2c da 30 3c 32 bd fa bd 1c 87 14 3d
       -0.047213864 0.010794204 -0.122431174 0.036261663
0003c0 ee ff f6 bd cf a4 08 bd 5e 25 54 3c 0a c6 12 be
       -0.120605335 -0.0333603 0.012948362 -0.14333358
0003d0 73 9b 32 be a1 9c 1a 3e c4 5b a3 be 4b 1b 00 bf
       -0.17442112 0.15098812 -0.3190595 -0.50041646
0003e0 a3 51 61 bd 34 2a cd 3c f2 96 6b be 8f 4e a4 3d
       -0.055009495 0.025044538 -0.230068 0.08022796
0003f0 f7 1b 49 be fb e3 81 bd ec b2 50 3c 7c e6 95 bc
       -0.19639574 -0.06342312 0.012737971 -0.01829838

bias f4 [16]
000000 39 50 98 bd 83 65 0c bb 1c 1d d2 3d 47 fe b5 3d
       -0.07437176 -0.002142281 0.102594584 0.0888639
000010 d5 41 ae bd 71 21 fa 3d 37 00 41 be 5a 78 25 3e
       -0.0850865 0.1221341 -0.18847738 0.16159192
000020 cd af 4b be c5 8c b0 bd 8a 81 6d bc 62 af c6 bd
       -0.19891281 -0.086206 -0.014496217 -0.0970142
000030 8a 6d 0a 3e a1 92 ea 3c 23 d4 48 3c 8f 0e 41 bd
       0.13518348 0.028634371 0.012257609 -0.047133025

weight f4 [16]
000000 9b 9c 17 bd 9c 1a 71 3f 01 f5 f4 3d 0b 60 01 3e
       -0.037014585 0.9418123 0.11960793 0.12634294
000010 7f f0 bc 3e e1 0c 2e bf ad bf a4 3e dc c0 0a be
       0.36902234 -0.679884 0.32177487 -0.13550133
000020 4a f4 a1 3e 10 54 19 3d ac 8f b0 bc 3d 48 78 3e
       0.3163169 0.037433684 -0.021552883 0.24246307
000030 0e 9d ad bd ca 1a d6 3d 61 37 00 3d 8f 53 b1 bb
       -0.084772214 0.10454328 0.031302813 -0.0054115723

weight f4 [16, 16, 3, 3]
000000 62 51 a6 bd e8 72 65 bd 8c d7 4e be 63 20 87 bd
       -0.08120991 -0.056017786 -0.20199412 -0.06597974
000010 24 24 0b 3c 75 13 e5 3d 30 62 47 bd 43 81 62 3e
       0.008492503 0.11185352 -0.048677623 0.22119622
000020 09 2e 5f bb d2 1f b0 bd 21 9e 07 3e 05 4a e1 3b
       -0.0034054539 -0.08599819 0.13243915 0.006875279
000030 d8 82 d3 3d d1 d2 da 3c 03 b8 47 3d 85 40 ef bb
       0.10327691 0.026711853 0.04875947 -0.0073013925
000040 e6 5a 6d 3d 11 e6 90 3c f7 41 26 3c 94 2e a0 be
       0.057948016 0.01768783 0.010147563 -0.31285536
000050 c2 54 9d 3d bf 40 e7 3d a1 03 76 be f0 56 a4 be
       0.07682182 0.11291646 -0.24024822 -0.32097578
000060 11 7a 15 bd d2 31 69 be f6 7c 3d be 8d cc 00 be
       -0.036493365 -0.22772911 -0.185047 -0.1257803
000070 a0 3a 76 be d5 50 c0 bc 3e 77 0d 3d d2 1a 3e be
       -0.24045801 -0.023476044 0.034537546 -0.18564919
000080 6b 75 b7 bc f0 e6 9d 3d 0d 0e 40 bd b5 5a a0 3a
       -0.022394856 0.077100635 -0.0468884 0.0012234064
000090 0c ac 04 3d 56 aa c4 3d 17 85 7e 3d 2c 3f 07 bd
       0.03239064 0.096028015 0.062138643 -0.03301923
0000a0 5a 8e 20 3e 24 87 96 bb e8 5c c7 3b ac 9c 43 bd
       0.15679303 -0.0045937467 0.0060840733 -0.047756836
0000b0 46 d3 eb 3c 06 e8 90 3d 43 0c 8a 3d 33 12 90 3d
       0.028787266 0.07075505 0.0674062 0.07034721
0000c0 c1 a8 98 bd 66 ac 23 be 3b 38 78 bd 11 f4 b1 3d
       -0.07454062 -0.15983734 -0.0606005 0.0868913
0000d0 af a5 8e bd ee 86 93 bd f1 1d 74 bb ea 81 9f 3d
       -0.069651954 -0.0720347 -0.0037249292 0.07788451
0000e0 c0 59 c1 3d 20 7f ab 3a 89 01 06 3e 39 a5 e3 3d
       0.094409466 0.0013084151 0.13086523 0.11115498
0000f0 c7 7e 1d bd b0 b0 d8 3d 34 72 1c 3d 5b cb 2a 3e
       -0.038450982 0.105805755 0.03819485 0.16679136
000100 2f ad bb bd 1d cc ac bc 07 46 ce 3c 4a b2 cc bd
       -0.091638915 -0.021093423 0.025179876 -0.099949434
000110 9f 2f 8a bc 40 56 4f 3c 31 62 e0 3c ca f9 97 3d
       -0.01686841 0.012654841 0.027390571 0.0742069
000120 c2 2f b9 3d a2 20 5e 3e ff 4c 1b 3e a1 23 d6 3c
       0.09042312 0.21692136 0.1516609 0.026140036
000130 6c f7 7d 3e 8c 73 37 3d 81 2b da 3d ef 36 07 3e
       0.24801415 0.04478793 0.10652829 0.13204549
000140 ce f7 f1 bb bd 1e 2a bd a7 3e 50 be 87 e0 cb bd
       -0.007384277 -0.04153322 -0.203364 -0.099549346
000150 e5 0e 82 be ae 5e ad 3d 1e ea 37 3e ce 01 03 be
       -0.2540199 0.08465324 0.17960402 -0.12793657
000160 45 a5 a6 bd d4 24 0a 3e 84 87 25 3d fc 82 39 be
       -0.081369914 0.13490611 0.04041244 -0.18116373
000170 49 76 7b bd a1 8a e1 bd 36 4c 58 be 15 b6 72 be
       -0.061392102 -0.110127695 -0.21122822 -0.23702271
000180 61 f4 89 bd 84 23 0c 3d 5a 7f 30 be b9 05 ab 3c
       -0.06736065 0.034213558 -0.17236081 0.020876752
000190 3f da 1a bd 7e 72 d1 bd 72 43 aa bb 78 92 e8 bd
       -0.037805792 -0.10226916 -0.0051960284 -0.11356062
0001a0 2d 8c 6a bc 07 41 e4 3d 5e 18 3b 3e 9c 33 bf 3d
       -0.014315647 0.111452155 0.18271014 0.093360156
0001b0 a6 5b 0d 3e 95 e1 86 be e4 95 4e be 39 10 35 bc
       0.13804492 -0.2634398 -0.20174366 -0.011051231
0001c0 c1 0f f5 3b a1 93 28 bd 6a 88 26 bd ac ab 8f 3d
       0.0074786847 -0.041156415 -0.04065744 0.07015166
0001d0 27 92 48 bc c4 5e 94 3b df bb a6 bc 33 8d 04 bd
       -0.012241877 0.0045278985 -0.020353256 -0.03236122
0001e0 88 29 87 3b 39 c6 cb bd 02 9a 10 be ec 0f 2f bd
       0.004124824 -0.09949917 -0.1412125 -0.042739794
0001f0 94 66 c1 bd 3d 5f 0c bd ee b9 18 be 0f 06 e6 be
       -0.09443393 -0.034270514 -0.14914677 -0.44926497
000200 4d 17 96 3c 53 ca 62 bd 1a dc c1 be 27 17 54 be
       0.018321658 -0.055368733 -0.37863237 -0.20711957
000210 b3 d1 48 bd fa 1b 3d 3d 7c c0 4d 3d 19 e0 5b 3d
       -0.04902811 0.04616926 0.050232396 0.053680513
000220 1a b2 26 be 53 f5 94 be 58 3f 15 3e 95 43 47 be
       -0.16278878 -0.29093418 0.14574945 -0.19459374
000230 0f 95 0f bd ce c6 8d 3d 40 9a ac 3d e5 ca 64 3d
       -0.035054263 0.069226846 0.08427858 0.055857558
000240 e1 1f a9 3e a1 15 54 be 9c c1 a4 bf 6b 4f 04 bf
       0.33032134 -0.20711376 -1.2871585 -0.5168368
000250 51 c2 f1 be a1 4d 0f 3e 26 16 00 bd a1 46 68 3d
       -0.47218564 0.13994457 -0.031271122 0.056707982
000260 84 d7 e1 3c 0c 18 56 be 85 bf 72 3e 11 29 fd bd
       0.027568586 -0.2090761 0.23705871 -0.123613484
000270 77 1b b3 3d dd cc 39 bd a4 c6 c9 3d 6b 0b 97 bd
       0.08745473 -0.04536139 0.09852341 -0.07375225
000280 f9 b2 f9 3e 3a 81 c7 3d ea e0 bc 3d 09 6c 76 bd
       0.48769358 0.09741445 0.092225865 -0.060161624
000290 44 4e f9 3d 42 88 89 be 6d ae 80 3e 91 2a ba 3e
       0.12173131 -0.2686177 0.25133076 0.363606
0002a0 45 0d 59 3b 61 36 18 3e 3e f4 7e bf 1c ed 50 be
       0.0033119482 0.14864494 -0.99591434 -0.2040295
0002b0 7e 5e fe be 46 70 e1 3e ed 30 50 be e3 0a 90 bc
       -0.49681467 0.4403097 -0.20331164 -0.017583316
0002c0 83 98 7c 3d f4 10 73 3d 66 3c 9c 3e 6a 86 80 bc
       0.061668884 0.05934234 0.3051483 -0.015689094
0002d0 5c 77 1b be fb 0a 5d be 7a 73 4e 3e 08 43 00 be
       -0.1518225 -0.2158622 0.20161238 -0.1252557
0002e0 bd 8c 56 be 4b 7b 42 3c 3a 53 d9 bc 6d a9 d9 3d
       -0.20952125 0.011870216 -0.026528943 0.106280185
0002f0 2c e4 88 3e 4e 07 9c 3d 4c 6c b2 bd 1e be cc 3e
       0.2673658 0.07618581 -0.08712062 0.39988798
000300 c5 ad 61 be a6 07 a1 be 7d 5e 46 3e 2a 79 7d be
       -0.22038944 -0.31451148 0.19371982 -0.24753252
000310 06 24 2b be 86 8c 37 bd 33 af 3f be 8b d2 30 3e
       -0.1671296 -0.044811748 -0.18719177 0.17267816
000320 72 eb e4 3e e1 66 5f be 0f 55 21 3c 65 21 fb 3e
       0.4471088 -0.21816589 0.00984694 0.49048916
000330 80 eb a6 3e 0d eb 93 be 62 30 03 be bf 64 c5 bd
       0.32601547 -0.28890267 -0.12811425 -0.096383564
000340 f3 1d 09 3c 1e c9 fb 3d 5e 2e ac 3d c7 f6 56 bf
       0.008368957 0.122942194 0.08407281 -0.839703
000350 1e 36 1c be ef f6 27 3e 7d b7 b4 3e 05 54 9e 3e
       -0.15255019 0.16402791 0.3529624 0.30923477
000360 77 fb a1 be a4 af 21 bc ee b6 ba 3c c0 d0 0e 3e
       -0.31637165 -0.009868536 0.022792306 0.1394682
000370 40 6b 7e 3d 23 24 6a bc 2a 32 4b 3e 7e 78 70 bc
       0.062114 -0.014290842 0.19843355 -0.014677165
000380 cc 56 06 3e 03 61 12 bf 3b 56 92 3d 74 b4 17 3e
       0.13119048 -0.5717928 0.071453534 0.14814931
000390 d8 fc e4 3b 68 da 18 bc 3b 04 09 3e 2a e6 57 bf
       0.006988149 -0.009329416 0.1338052 -0.8433558
0003a0 8e d3 95 be 0c bc 69 be a4 f8 74 bd d9 b2 6d 3d
       -0.29262966 -0.2282564 -0.059807435 0.05803189
0003b0 b2 2e d5 3e df 8f f4 3d 9c a4 57 be 4d 00 b3 3d
       0.41637188 0.11941504 -0.21058887 0.08740292
0003c0 b3 ae c2 3c 3d e3 ae 3d 06 10 08 be da 2f 77 bd
       0.023764944 0.08539436 -0.13287362 -0.06034837
0003d0 57 aa 36 bf 0b 14 bc 3d 37 13 fb 3d d9 e6 50 be
       -0.7135367 0.091835104 0.12259524 -0.20400561
0003e0 df 78 93 3d 12 94 00 3e df 69 d4 3e a1 4a e5 bd
       0.07200789 0.12556484 0.41487023 -0.11195875
0003f0 d8 69 98 3e b5 b3 3b 3e 7d 37 16 be 8d 3f 2f 3e
       0.29768252 0.18330272 -0.14669605 0.17114086

bias f4 [16]
000000 1a b1 4c be ca 3d ab bd e2 36 ac 3d 55 49 87 3d
       -0.19989434 -0.08361395 0.084089056 0.06605784
000010 00 22 38 3e 11 2a 9e bc 84 12 a0 3c f8 90 42 bd
       0.1798172 -0.019307168 0.019540079 -0.047501534
000020 7e c3 d2 bd 68 b4 dd 3d c7 bc 40 3d 2a b3 aa 3d
       -0.102911934 0.108254254 0.047055032 0.08334954
000030 82 f6 23 be 26 b9 0b 3e ee 5f 11 be 45 3c f4 bd
       -0.16012004 0.13644847 -0.1419675 -0.11925558

weight f4 [16]
000000 c5 4b 82 3e 06 4c ad bd fa fa 70 3d 31 d4 7d 3b
       0.25448433 -0.08461766 0.0588331 0.0038731212
000010 1d 79 71 3f c8 98 33 be c5 94 8a 3e 01 98 82 bd
       0.9432543 -0.1753875 0.27066627 -0.06376649
000020 24 23 93 3e 78 57 eb 3c 77 14 34 3f 1d 6f 0f 3f
       0.28737748 0.028728232 0.70343727 0.5602892
000030 6c 72 cf 3e 1b c8 1c 3f 6c 1b 15 3e d2 38 4f 3e
       0.40516984 0.61242837 0.14561242 0.20236519

weight f4 [48, 16, 1, 1]
000000 f6 ba 03 3f b1 41 6c 3e 9e ef d9 bd 54 60 20 be
       0.51457155 0.23071934 -0.106414065 -0.15661746
000010 7a bd ae bd cf 9c 80 be d2 41 3a be f9 2f ae 3e
       -0.085322335 -0.25119635 -0.18189171 0.34020975
000020 7e e8 16 bd 55 ab 00 be d4 c2 27 bd fd 8f 53 3e
       -0.036842816 -0.12565358 -0.040957287 0.20660396
000030 9a 5a 22 bf 44 6b 9f 3d ef cc 8b 3e 86 99 ed 3e
       -0.63419497 0.07784131 0.2730479 0.46406192
000040 39 f5 5d 3e cc af 2a 3d 65 b1 02 bd 59 a1 1d bd
       0.21675576 0.04167156 -0.031907458 -0.03848395
000050 44 a9 ad be 82 fc f2 3c 48 8f 7e bd d7 0d 9d bd
       -0.33918202 0.02966142 -0.062148362 -0.07668655
000060 76 3d 53 be fa 91 8d be 36 d6 f5 3d 96 4d 3c be
       -0.20628914 -0.27650434 0.12003748 -0.18388972
000070 24 6b c5 3d a0 8f c3 bc ce bc 89 be 50 15 99 3d
       0.09639576 -0.023872197 -0.2690186 0.07474768
000080 a8 52 97 3e ab 9e 81 bd 12 66 a8 3d 6c c2 69 3e
       0.2955525 -0.06329092 0.08222593 0.22828072
000090 06 3b fc 3d 71 ed d0 3c a5 63 06 3e 7e d4 5c bd
       0.12315945 0.025503846 0.13123949 -0.053913586
0000a0 e5 c9 92 be 90 09 44 be 2b 27 27 be 2b 29 01 be
       -0.28669658 -0.19144273 -0.16323535 -0.1261336
0000b0 db 54 85 3e 93 cd 5c 3e 54 de d9 3d 6c 93 05 3e
       0.26041302 0.21562795 0.10638109 0.13044518
0000c0 02 ad 26 be 88 37 0d 3c 8b ac d2 bd 01 c1 cd 3c
       -0.16276935 0.008619197 -0.10286816 0.025116445
0000d0 92 04 2e bd 55 9e 3a 3d 1e 4f f6 3b d3 b8 0e 3d
       -0.042484827 0.045561153 0.0075167557 0.03484423
0000e0 42 4e db bd 45 65 b8 3d a5 04 60 3e e6 1a d6 3c
       -0.10708286 0.09003691 0.21876772 0.026135873
0000f0 2f 2f 9b bd 5d ed 0e 3e b1 a2 75 3d b2 55 3a bc
       -0.07577359 0.13957734 0.059969608 -0.01137297
000100 62 eb 2f be 9d 5d 8f 3d dd 9b af 3d 8d 2a 82 bd
       -0.17179635 0.07000277 0.085746504 -0.06355772
000110 bc fe 3f 3e d6 e2 fc 3c 09 84 57 bd 44 f9 88 3c
       0.18749517 0.030869883 -0.052616153 0.016720422
000120 4e b9 df 3c 3a 5c f3 bd 84 b0 5f bd 08 3b 2b 3e
       0.02731004 -0.11882825 -0.054611698 0.16721737
000130 23 fa d4 3d 68 fc 22 be 71 dc 1f be 6a 35 3b 3e
       0.10399272 -0.15916598 -0.15611435 0.18282095
000140 b7 92 12 3d eb 72 9b be 79 8d 15 bd 0b b3 ff 3b
       0.03578445 -0.30361113 -0.036511872 0.007803326
000150 80 ba 3c be fa 08 e9 3c a4 7a 10 3e d6 c7 d2 be
       -0.18430519 0.028446663 0.14109284 -0.41168088
000160 92 4c 0a bd 9e 22 7e bd 5e e7 10 bd e2 84 90 be
       -0.03376443 -0.062044732 -0.0353769 -0.28226382
000170 cb 2f 6b 3d 77 fa 71 be d7 e1 56 3d 2b a9 20 3e
       0.057418626 -0.23630701 0.05246147 0.15689532
000180 31 32 44 3d 05 47 64 be be 99 1f 3e 4a 78 04 3e
       0.04789943 -0.22292717 0.15585992 0.12936512
000190 8a b3 54 3c 6b 3e f1 be cf 91 07 3e 86 4b fd bd
       0.012982259 -0.47117934 0.13239215 -0.123679206
0001a0 6a 6a 88 3d ef 9c 2c be 24 17 39 be c9 d8 70 bd
       0.06660922 -0.1685674 -0.18075234 -0.058800492
0001b0 8a 5e 90 be 28 9b d4 3b e8 fa ce 3c 37 de 3e be
       -0.28197128 0.0064882226 0.025266126 -0.18639456
0001c0 3d 71 11 3e 39 63 d6 bd 8b 2d 29 3e d9 df fc be
       0.14203353 -0.10468144 0.1652128 -0.49389532
0001d0 ed b1 6e be c6 0a 15 3c d4 4b b5 3d 01 02 06 be
       -0.23310061 0.009096807 0.08852354 -0.13086702
0001e0 79 44 9a 3e b0 78 14 bf a5 c4 05 bd 3c fe f7 3b
       0.30130365 -0.57996655 -0.032658238 0.007568149
0001f0 3d ab b6 bd 87 01 37 be dc 25 42 be 05 fe eb be
       -0.0891938 -0.17871676 -0.18959755 -0.4609224
000200 a8 61 19 3c 49 f4 63 bd f4 18 a4 3c 5d c2 ff bb
       0.009361662 -0.05565289 0.02003143 -0.0078051523
000210 6e 91 bb 38 f2 0f 1d bd ff 30 32 3d eb 5d 9e 3b
       8.943943e-05 -0.038345285 0.043503758 0.0048329732
000220 64 82 dd bd 03 6f 22 3d 39 63 14 3e 85 94 df bb
       -0.10815886 0.03965665 0.14490975 -0.006823125
000230 55 dd f1 3b 88 11 bc 3d cf 79 d7 3d 6e e5 36 bd
       0.007381121 0.09183031 0.1052128 -0.044652395
000240 50 fd 53 be 76 35 eb bd 59 53 31 bd cf 85 e2 3c
       -0.207021 -0.11484806 -0.043292377 0.027651696
000250 7b 3e 1a 3d 87 a7 92 bc 89 40 77 3d 97 c7 91 bd
       0.037657242 -0.017902149 0.06036428 -0.07118147
000260 ba 3c 1d be 29 fb f1 3c 32 e0 2b 3e 59 91 54 3d
       -0.15355197 0.029538708 0.16784742 0.051896427
000270 73 4c 22 bd 19 ad 44 3e ff 04 60 3d cd 8c 83 bd
       -0.03962369 0.19206657 0.054692265 -0.0642334
000280 7f e6 1c bd fb 9f 25 bd ea 41 32 bc 92 3c 0c be
       -0.038305756 -0.040435772 -0.010879973 -0.1369498
000290 ac 82 05 be f0 3d 9a bc 14 88 16 3d 97 c5 17 3d
       -0.13038129 -0.018828362 0.036750868 0.03705367
0002a0 1e 8d ee bd d2 92 80 3d 3d 48 48 3e d5 53 54 3e
       -0.1164801 0.06278004 0.19558807 0.20735104
0002b0 4d 3b 08 be 74 22 44 3d a7 d6 27 3d e4 1c 66 be
       -0.13303871 0.04788442 0.040976193 -0.22471958
0002c0 cc e0 c1 bd 25 b5 04 3d 08 b8 4d be 91 6c 3c be
       -0.09466705 0.032399315 -0.20089734 -0.1840079
0002d0 b3 91 13 3c b4 9c d5 3d 7d 6f 2e bd 71 8f 1e 3d
       0.009006905 0.104302794 -0.042586792 0.038711015
0002e0 85 7e ec bd b9 f6 48 bc 4f 8d 5d be 16 8e 1a 3c
       -0.11547569 -0.0122658545 -0.21635936 0.00943329
0002f0 79 2b ae bd c3 fd 24 bd ef 7d 2f 3e 29 28 7a be
       -0.085043855 -0.04028107 0.17137884 -0.24429382
000300 47 db 6c bd 7f 23 5e 3d 51 8b db 3d 62 db 09 3d
       -0.057826307 0.05423307 0.10719932 0.033656485
000310 3e 30 8d 3b fe 57 65 3b 7f 44 1a bb 05 40 db 3d
       0.0043087294 0.0034995074 -0.0023539362 0.1070557
000320 a2 9d 6e be 8a 6d 6f 3d 3c 41 b3 bc 88 49 84 bd
       -0.2330232 0.058454074 -0.021881692 -0.064593375
000330 97 30 e6 3d 0f 85 50 3c 82 01 07 3c a2 c9 c0 3e
       0.112397365 0.012727036 0.008240106 0.37653834
000340 dd 79 12 3d 25 c1 f9 bd 6a ac c0 3d 3a 56 8e b9
       0.03576075 -0.121950425 0.094078854 -0.00027148594
000350 fa 74 b6 38 0b 51 85 bd 2f 8b db 3d 5f fc 83 bd
       8.700225e-05 -0.06509598 0.107199065 -0.0644462
000360 0f e3 ef 3b 14 01 4d bd cf 66 ed bc 14 fa 8c 3c
       0.0073207687 -0.050049856 -0.028979687 0.01720909
000370 0c 77 e3 bd c8 7f 53 be 3c c2 96 bd 77 d2 0c 3b
       -0.11106691 -0.20654213 -0.07361266 0.0021487752
000380 74 e3 5f be 4f 11 34 3e 2c 85 73 bc 41 44 3d 3d
       -0.2186411 0.17584728 -0.014863294 0.04620767
000390 8b a1 28 3d 3e 74 d8 bc 18 b7 25 be 6c aa f3 3d
       0.041169684 -0.026422616 -0.16183126 0.1189774
0003a0 19 42 a0 3e 34 cc 5d bd 92 63 6e 3e e2 ea c9 3d
       0.31300429 -0.05414982 0.2328017 0.098592535
0003b0 ba e8 aa bd cd f3 33 be ec a3 e5 bd c7 38 fd bd
       -0.0834517 -0.17573471 -0.11212906 -0.12364345
0003c0 1d 5b 2c be eb 9a ad bd a0 6e 6c 3e 04 56 8c bd
       -0.16831632 -0.08476814 0.23089075 -0.06852344
0003d0 0e d8 21 be 6f 44 83 bd 09 e0 07 3e 83 53 2a be
       -0.15805075 -0.06409537 0.13269056 -0.1663342
0003e0 74 02 71 bd 30 32 3d be ab fd 9d 3d d5 5f b5 3c
       -0.05884023 -0.18476176 0.07714399 0.022140423
0003f0 36 8c c9 3c 8d c8 4b be b0 52 14 be 46 fc a3 3d
       0.02460299 -0.19900723 -0.14484668 0.08007102

bias f4 [48]
000000 18 9c 2b bd 66 76 07 be de c7 ba bd c1 9a 05 3e
       -0.04189691 -0.13228759 -0.09120153 0.13047315
000010 88 d0 98 3d 24 60 e2 bd be 93 08 be 6f 02 97 bd
       0.07461649 -0.110534936 -0.13337609 -0.07373511
000020 a0 f9 52 3d 66 b4 c0 3d f1 82 17 3e ee 74 58 bd
       0.051507592 0.09409408 0.14796044 -0.052845888
000030 8d 84 70 bd cd 4f e4 bc 1f b3 0b 3d bf 71 12 3d
       -0.05872016 -0.027870083 0.03410637 0.035753008
000040 a3 46 5e 3d aa 50 ba bd c3 c3 03 be 54 b8 d0 bd
       0.054266583 -0.09097417 -0.12867646 -0.10191408
000050 07 63 da bb 61 21 b7 3d 5f f3 4f be 01 e8 93 be
       -0.006664637 0.089419134 -0.20307682 -0.28887942
000060 90 e9 9e 3b 73 a8 71 bd 23 3b 47 bd 9e 50 f5 bd
       0.00484962 -0.058998536 -0.04864038 -0.11978267
000070 1e 4e 07 bd 55 03 ad bd 07 f1 3b 3d 04 ac 40 be
       -0.033033483 -0.08447901 0.04588416 -0.18815619
000080 35 b6 52 be f4 30 3b 3d 0e 11 82 be 2f 61 cc bc
       -0.20577319 0.045700982 -0.25403637 -0.024948684
000090 32 9e ae 3d 45 db 05 3d 22 34 96 be d4 f4 59 be
       0.08526267 0.032679815 -0.2933665 -0.21284801
0000a0 38 d1 ec bd ef 0e bf 3d b2 03 40 be 4a e3 af bc
       -0.11563343 0.0932902 -0.1875141 -0.021470685
0000b0 5c 10 6c be 88 64 53 3d 85 1a 9f bd d3 e2 de 3d
       -0.23053116 0.051609546 -0.0776873 0.10883107
