FSRCNN/FSRCNN_torch/FSRCNN_56_12_3_X3_150.pth (torch, 57130 bytes, 19 tensors)

weight f4 [56, 1, 5, 5]
00000000: 54ac 83bc af2b 6ebc 0d77 0ebe 9e5d 9f3d
00000010: 48b5 93bd 792b 073e b17b 05be aaa2 d0bd
00000020: df82 903d 609e 40be 9d1d 08be 1d67 e33d
00000030: 113d e83e 2f0c cebd e132 ee3d cc83 95bd
00000040: ad86 f63d da40 2f3d 1629 b6bd 77dc d23d
00000050: 625f 09be fd6a b83c a56b 0d3e dc19 31bc
00000060: 9dfb b23d 6f4c 0f3e 9485 a3bc 900e 1a3c
00000070: d401 b8bd af3a 9c3d 0ea7 023e 86ea 47be
00000080: 0370 09bf 4518 d43c 0391 e33c 3d2c fdbd
00000090: d6c7 debe c382 4b3f 60d5 c4be 11fc 703c
000000a0: de7d b73d 88c2 903c 9a9a bfbe 6ddd dc3c
000000b0: 8de5 af3d 42d0 d83c d204 123e 3f22 f9bd
000000c0: b209 17bd 9a53 cd3b 3b18 5a3e 9551 7bbe
000000d0: 5719 32be 0249 5bb9 c24d 613e 5ece 99bd
000000e0: c611 d7be d477 8dbd df90 8fbe 8daf 99bd
000000f0: 38ee ac3d 9040 633d a514 983e 69a4 913e
00000100: ea03 1cbd f1d3 ccbd b8a0 bd3d 4468 9c3e
00000110: e6dd 8e3c af54 84bd b325 6b3c cf14 db3c
00000120: 4617 1dbd 01a5 e5bd 68e0 e53d be00 04be
00000130: 8288 4b3e 8cec d3bd 78d5 babc d4e3 5dbd
00000140: 1176 b63e 4969 48be 0391 b13c 4f0d 7cbe
00000150: 624b cc3d 300d b3bd 0530 0c3d 149e 943e
00000160: 1d1a 96be 2069 2fbe 7391 783d e9ea c0be
00000170: eac7 6bbd 96a5 003e ae7c 4f3e 6a3f 63be
00000180: c091 26bd fb67 743d 0aa9 68be 572c 913e
00000190: 8cb4 e9bd 7348 693d 305c 903d fa4b 87bc
000001a0: 87ac ce3a 6e62 a3bd d3b5 2c3d b4c3 bdbc
000001b0: 2578 9dbe db3a 653e 9466 fe3c 7e48 803d
000001c0: 8f01 c23e 374b 52be b28f b8be c138 cd3c
000001d0: 333c a2be ed1a eabd 0839 273e e22f 7e3e
000001e0: 8def 1a3d ceaf 473d 9449 e9ba 6c92 9e3d
000001f0: 5090 c8bd d442 d6bd 20cd b4bd 6ff8 1a3e
00000200: c90b babd 0e1f c6be f7bb 86bd 2370 73bd
00000210: 2afb 28bd 4646 5abc 9719 983d 0309 3bbe
00000220: cf8e 7cbe 7444 ccbe 0994 293e 33d7 14be
00000230: 17b0 f3bd 0ea5 fe3d 481a 863e 82ba 8e3d
00000240: c6eb 8fbc 2c0a e33c 474b 9b3d 9ede 4abe
00000250: 88dd fe3c 822f 74bd 453f 74be 6e6a b43d
00000260: d785 f93c feaa a23d 591c db3b 7fe6 263e
00000270: 2ce7 70be f4b4 f3be dce8 b73e b8d4 993d
00000280: 1098 633e 56ab c1bc 1385 f5bd 07d5 cbba
00000290: f474 373d ac1f 173f 7893 623e 8290 45be
000002a0: 3af5 24bf 5503 6dbd 7cf4 5b3d 054c 023e
000002b0: 81aa c13b 6948 183d 5271 efbd 78b0 11be
000002c0: ce25 dc3e 7e2c b53e e6a3 d23d f4b7 263e
000002d0: dca4 27be a24f 08bf 1694 06bf 6738 243e
000002e0: ccf8 0e3e 8a90 d53d 3b2b 3f3e 4a81 083f
000002f0: 275e babe 53eb 0fbf b6e0 e83d db5d 93bd
00000300: 7de7 ad3d 5954 a53d c289 493c e208 fd3c
00000310: 5951 263d ac1b 1cbe 9914 f0be 3190 26bd
00000320: bddd 1b3d 89af 82bd fca6 9d3c 0106 c1bd
00000330: 01a0 2a3e 0de2 95bb ba54 ccbb 5bcb 463e
00000340: 4d61 78bd 8ff0 34bc 6308 9dbd 19d1 343e
00000350: c021 e33e 648b b33d d62c 8cbd d057 463d
00000360: 0f8a 03be 50d5 e2bc fda4 cebe ca99 2dbe
00000370: 4839 0c3b bdeb b4bc 56a4 203d ae45 6bbe
00000380: c82f 8e3d 4a6f 8d3d 63d0 2d3e 510e 823d
00000390: 734d d0bd 4ac1 b63d e274 8dbd 20bc 01be
000003a0: 0df0 cfbe de3c 1e3c 35b8 81bc 3096 81bd
000003b0: cffc 753c 12f9 cabe 0406 62be 14fd 0abd
000003c0: ae64 d63d 2dc0 95bd 71fd d8be 03fa cb3e
000003d0: 1a05 69bd 63e8 6fbe 70bc 123e 00c7 0f3e
000003e0: c44f d33d d3b0 19be 2a76 06be c638 1c3e
000003f0: daca d9ba fce0 0bbe 8821 9e3c 3fe7 afbc
-0.016073383 -0.014536782 -0.13912602 0.07781528 -0.07212311 0.13200177 -0.13035466 -0.10187276
0.07056212 -0.18810415 -0.13292547 0.11103652 0.4535909 -0.100609176 0.11630798 -0.07300529
0.12037406 0.042786457 -0.08894555 0.102959566 -0.13415292 0.022511953 0.13810594 -0.010809388
0.08739398 0.13994001 -0.019961156 0.009402886 -0.08984724 0.076283805 0.12759039 -0.19523057
-0.5368654 0.025890479 0.027779108 -0.123619534 -0.43511838 0.794964 -0.38444042 0.014708535
0.08959554 0.017670885 -0.3742264 0.026961053 0.08588705 0.026466493 0.14259651 -0.12164735
-0.03687448 0.0062660696 0.21298306 -0.2454284 -0.17392479 -0.00020912665 0.22002319 -0.075100645
-0.42005748 -0.06907621 -0.28040215 -0.07504187 0.08443874 0.055481493 0.2970325 0.28445747
-0.03808967 -0.10001362 0.0925917 0.30548298 0.017439794 -0.064614646 0.01435225 0.02674332
-0.038352273 -0.112131126 0.11224443 -0.12890908 0.19876292 -0.10347852 -0.022806868 -0.054172352
0.35636953 -0.19571413 0.021675592 -0.24614452 0.09975316 -0.0874275 0.034225482 0.29026854
-0.29316798 -0.17129946 0.060685586 -0.37679222 -0.0575637 0.12563166 0.20262405 -0.2219216
-0.04066634 0.059669476 -0.22720733 0.2835414 -0.1141139 0.05695386 0.07048833 -0.01651572
0.001576797 -0.07977758 0.04216559 -0.023164608 -0.30755726 0.22385733 0.031054772 0.06263827
0.37891814 -0.20536505 -0.3604713 0.025051476 -0.31686553 -0.11430917 0.1633035 0.24822953
0.03782611 0.048751645 -0.0017798417 0.077427715 -0.097931504 -0.10461965 -0.08828187 0.15133832
-0.09084279 -0.38695568 -0.0657882 -0.059433114 -0.041255154 -0.013322419 0.07426756 -0.18265156
-0.24663852 -0.39895976 0.16560377 -0.14535217 -0.11898821 0.124338254 0.26191926 0.06969167
-0.01756848 0.027714811 0.075827174 -0.19811484 0.031111494 -0.05961562 -0.2385226 0.08809362
0.030459328 0.079427704 0.006686729 0.16298865 -0.23525685 -0.47598994 0.35919845 0.07511276
0.22225976 -0.02364127 -0.119882725 -0.0015551158 0.04478927 0.590327 0.22126567 -0.19293407
-0.64436686 -0.057864506 0.053699955 0.12724312 0.005910218 0.03717843 -0.11691536 -0.14227474
0.42997593 0.35385507 0.102851674 0.1628111 -0.16371483 -0.5324651 -0.5256971 0.16037141
0.13962096 0.10427959 0.18668835 0.5332228 -0.36399958 -0.5621845 0.11370985 -0.07195636
0.084914185 0.08072729 0.01230091 0.030888025 0.040604923 -0.15244931 -0.46890715 -0.040664855
0.038053263 -0.06381137 0.019244663 -0.09424973 0.16662599 -0.0045740665 -0.006235686 0.19413511
-0.06063967 -0.011043682 -0.07667615 0.1765789 0.44361687 0.08766821 -0.06844489 0.04842359
-0.12845634 -0.027689606 -0.4036025 -0.16953197 0.0021396447 -0.022085065 0.039219223 -0.229758
0.06942707 0.06905992 0.16974024 0.06350387 -0.10171022 0.08923586 -0.06907059 -0.1266942
-0.40612832 0.009658067 -0.015834907 -0.06327474 0.015013888 -0.3964315 -0.22072607 -0.03393276
0.10468422 -0.07312045 -0.4238086 0.3983918 -0.05688963 -0.23428492 0.14329696 0.14040756
0.103179485 -0.1500886 -0.13131014 0.15256032 -0.0016616241 -0.13660043 0.019303098 -0.021472571

bias f4 [56]
00000000: 5c41 2ebe 8904 9f3e db98 22be 5620 b9bc
00000010: 67a0 c73c 0414 cb3d f29e 93be 9dc0 a1be
00000020: 581f 18be 0aa5 bf3d 0727 fa3b 02b8 60be
00000030: 4482 623e 95c0 abbe 29b5 a4be 7409 4e3d
00000040: c277 98bd 09a2 333d 2d4a 823d 8fcd c2bd
00000050: 1607 6bbe 6a78 dabd 59eb c83c b22c 7b3e
00000060: 856e 84be 296b 843e 8bd5 abbd 02b8 57be
00000070: 375f 67bd cb35 143b 9c5b 44bd 75c1 c2bd
00000080: b691 1fbe 64c1 07be 63d7 80be 836b c4bd
00000090: e607 843e ac0b 843e 337f a4be a061 5e3c
000000a0: 5e14 61be 8249 143e cd7c adbd 5f14 9abd
000000b0: 2c13 1f3d 8bfe 023e 2023 28bf b653 78be
000000c0: b145 a0bc 4218 aabc 04cd aa3d 4856 50be
000000d0: 0afb a9bc 5d3e a7be fc6e 02be a916 30be
-0.1701712 0.31058148 -0.15878622 -0.022598427 0.024368478 0.09915927 -0.28832203 -0.31592265
-0.14855707 0.093576506 0.007634047 -0.21945193 0.22120005 -0.33545366 -0.32169464 0.050301984
-0.07444717 0.0438557 0.06361804 -0.095118634 -0.22951922 -0.106674984 0.024526285 0.24528769
-0.2586557 0.25863007 -0.083903395 -0.21066287 -0.05648729 0.002261507 -0.047938928 -0.09509555
-0.15582928 -0.13257366 -0.25164327 -0.09590819 0.25787276 0.25790155 -0.32128295 0.01357308
-0.21980426 0.14481166 -0.084710695 -0.07523417 0.038836643 0.12792413 -0.65678596 -0.24250683
-0.019564481 -0.02076352 0.08339885 -0.20345414 -0.020749588 -0.32664767 -0.1273765 -0.17196144

weight f4 [56]
00000000: 4aa0 6c3f e9f7 703f 078a 0b3d 49ca 563d
00000010: 6f9a 033f c3ea 03bb 3ddb 9bbc faee 3f3b
00000020: afef 663e 5058 883d 5b4b 983d b87c 453f
00000030: 5a51 b23f a432 5f3d 31be 1a3f 0c25 2a3e
00000040: 5578 a0bb dda9 c1be 211e 863f dd0a 763f
00000050: b4ae c5bd 8e26 953d f6b3 883f 24c1 7ebc
00000060: 79ba 49bb 539c ab3e ee5f c33f 0626 813f
00000070: e130 6d3f 1b01 c53e a0b5 873f 7856 633f
00000080: e479 83bd 893b bc3f 01ef 41be b23f 743f
00000090: 9411 763f 65db 803f 546a 5d3f 4dab 87bd
000000a0: f151 e8bd 8387 4cbc a7c4 453f 619b 4cbc
000000b0: 378c 093f 8609 0d3e fdfb d7bc 52b3 a83f
000000c0: bede 203d bedc 36bb e8b8 80bf 506e 8a3f
000000d0: 434d a43c 71ec 323d 89b3 fdbc 552b 833f
0.9243208 0.9412828 0.03406718 0.052439008 0.5140752 -0.0020128943 -0.01902544 0.0029286728
0.2255237 0.06657469 0.07436248 0.7714343 1.3931077 0.054491654 0.6044646 0.16615695
-0.004897157 -0.37824908 1.0477945 0.96110326 -0.096524626 0.07282744 1.067992 -0.015548978
-0.0030781312 0.33517703 1.526365 1.0089729 0.9265271 0.38477406 1.0602303 0.88803816
-0.06419733 1.4705669 -0.18938829 0.9540969 0.9612057 1.0066954 0.8649037 -0.0662447
-0.11343754 -0.01248348 0.7725319 -0.012488217 0.53729576 0.13773164 -0.026365275 1.3179724
0.039274924 -0.0027902569 -1.0056429 1.0814915 0.020056373 0.04368252 -0.030969398 1.0247599

weight f4 [12, 56, 1, 1]
00000000: 6b05 42be 7349 91bd 4e2b 003e 5ae1 363e
00000010: aad7 f7bd 0ffd 073e 1151 4ebe 713c 0ebf
00000020: 6a03 30be 632d 6dbb 4b6b 7ebd 0d96 96bd
00000030: 8116 83be 955a 9cbe 01c9 69be 5e0b 073e
00000040: 4fa7 be3d f32a d5be 46e6 30bb 83af de3d
00000050: a4de 8a3e 4442 883d 6560 473d 39d5 f3bd
00000060: e3de a53e ba19 80bd 4139 2dbe b1b1 79be
00000070: 3bf1 38bd 8f18 db3d 1c80 f4bd 6a0b 2b3e
00000080: df36 cd3e a07f b8bd 5c3d 903d acc2 02be
00000090: 4d2d a4bd c596 683e 9d7b 2dbe 6d85 7dbd
000000a0: 5583 a73d 1fb4 82be ef78 30bd 94b8 5e3e
000000b0: cbe4 7ebd e738 343e 70c1 62be 3c1e 2b3e
000000c0: 4c49 09be 2dfb 293e 0ba4 853c 3b20 9cbd
000000d0: 927a f2bd d16e adbd a6a4 4ebd 583a 86bd
000000e0: 9424 97be a77b 17bf 5d93 233e 1206 99bc
000000f0: 75a0 5c3c 92e8 bbbc 2a77 31be c284 eb3e
00000100: 756b 7a3e 2876 59be 3d11 f4bc 125c 8abd
00000110: 0355 e83d 1353 19be dde5 953d 1852 3fbe
00000120: 46e8 08bd cac6 5bbe 117e c6bd 8278 4e3e
00000130: f4e6 a1bc b41f 7fbe 2e8b 6a3b e00d fd3d
00000140: 6f80 e9bd c7f4 b0bd 98ba 2b3e 1dec 9ebd
00000150: e622 80bd 78e2 893d 22d1 3ebb baf2 383d
00000160: 67f7 3fbe 2a4c 5dbd 4ae1 0e3d 8b22 1dbf
00000170: ecca f53d d814 613e 17ba b9bb 4198 02be
00000180: 2fac 06be ce74 9e3e 6e78 ac3c 6ced 143e
00000190: edc7 ab3e 1a58 17be 3ee6 9f3e 5b8e 98bd
000001a0: 6b8d ee3d bc10 33be 304a 96be 9193 c6bd
000001b0: 1009 c13c d43c 503d 75cd 96bd f779 06bc
000001c0: 5b6f 64bd 968b 49be 655a 553e bbd0 c1bd
000001d0: b9c0 d4bd 40bb 093b ecd7 ba3a 1d7c cabd
000001e0: 325e e3bd 8abb ffbd 3839 22be 9f9d 0c3e
000001f0: ad11 85bd 8a10 dbbd 2c00 4abd 92fb 153d
00000200: 2bcb 48bd ce2c 6ebe ce8e 31bd 6eb6 263d
00000210: 0eeb cf3a 8e0d cd3d 7ff9 04bc 7952 e7bd
00000220: ba64 b5be 7a93 573e 7d13 5dbd ece9 1cbe
00000230: b6e9 babc 9827 e9bd 793a 4ebd 46e0 073e
00000240: 9cee 493b 1a36 1abd d5b4 be3c 092b 12be
00000250: 219e 523e 813f a63e 6b58 fa3b 60c4 b83d
00000260: ea46 383c b308 983d 4d2c abbc 6fba 86be
00000270: a3c7 f03d f93c cc3d 1798 873d 4a88 fabd
00000280: 88f2 90bd 8d50 8fbe fb16 8f3d 4ad7 f7bd
00000290: 807b 2f3e e119 54bb faaa a43c 4ffa 89bd
000002a0: 097d 47be 3672 57be 01d5 3b3f fffa 0bbe
000002b0: 0646 59be b97a 0ebe 3857 d3be ffdd 093e
000002c0: ed36 c33e 4d57 39bf 38f3 043f adca a1bd
000002d0: 7297 ac3d ab3e ec3e c246 39bc efd8 d2bd
000002e0: 9d91 5fbe 2978 7e3d 7e02 69be 9f2b 923e
000002f0: df85 f1bc 7c33 1dbd 5325 d2ba 8b90 003d
00000300: aa7c 4a3e 68e1 d9ba 97c2 92be 0237 c0bd
00000310: bdb8 13bd 4ec0 4bbe 5646 a1bd 8b62 a83d
00000320: 2cef dcbd 4abd 62bd 7cd0 8dbe 2b52 76be
00000330: 1aa3 adbd 1eca cc3d 6a4c 0bbe 3d3b 873e
00000340: da3b 5f3e 3883 363e fa51 2cbc b5d7 e53e
00000350: 4e85 2abe 98fa 603e e99b a83e bbe4 213e
00000360: abc0 91bf 65dc 483d 6ee3 eebd b364 b9be
00000370: 7b13 7fbe 594b c63e 1383 00bf fe00 47bd
00000380: a5a8 063e 6c52 093f b0bc dfbd 714b c63c
00000390: 411f 64bd d123 aa3d 2143 a8bd f756 a9be
000003a0: ff57 4fbe 3a48 773e 12e2 9c3d ae0a b5bd
000003b0: 7218 c3bd a0fa 013e f43d a3bd 3fc8 5d3d
000003c0: f284 843d 9f95 7a3d 76f2 023d 8be7 bdbd
000003d0: db0f 80bd 725b ec3d 83a6 8d3b 11cd a23b
000003e0: 9325 873e b095 503d 647b 06be cd46 6e3d
000003f0: e9ba 483c af22 8dbd 6829 553d 5095 ff3b
-0.1894738 -0.070940875 0.1251652 0.17859402 -0.121016815 0.13280128 -0.20148112 -0.55560976
-0.17188802 -0.0036190383 -0.06211404 -0.07352839 -0.25603107 -0.3053786 -0.22830583 0.1318793
0.09309255 -0.4163433 -0.0026992722 0.1087332 0.27122986 0.06653264 0.048675913 -0.11905903
0.32396612 -0.06254907 -0.16916372 -0.2438419 -0.04515193 0.106980436 -0.119384974 0.16703573
0.40080926 -0.090087175 0.07042953 -0.12769574 -0.08016453 0.22713764 -0.16941686 -0.061894823
0.081793465 -0.25528046 -0.04308408 0.21750098 -0.062229913 0.17599832 -0.22144103 0.16710752
-0.13406867 0.16599722 0.016313573 -0.07623335 -0.11839785 -0.08468402 -0.05044999 -0.06554097
-0.29520094 -0.59173054 0.15974183 -0.018679652 0.01346599 -0.022938047 -0.17330614 0.45999724
0.24455054 -0.2123648 -0.029793376 -0.06755842 0.1134434 -0.14973097 0.073192336 -0.1868366
-0.03342464 -0.21462551 -0.09692014 0.20163158 -0.019763447 -0.24914438 0.0035788524 0.12356162
-0.1140145 -0.086404376 0.16770399 -0.07759879 -0.06256656 0.067326486 -0.0029116352 0.045153357
-0.1874672 -0.054027714 0.03488282 -0.61380833 0.12001595 0.21980608 -0.0056679356 -0.12753393
-0.1315162 0.3094849 0.02105352 0.14543694 0.3355097 -0.14779702 0.31230348 -0.07449027
0.11648067 -0.17486852 -0.29353476 -0.09696115 0.023563892 0.05083926 -0.073634066 -0.00820779
-0.05577026 -0.19682154 0.20835264 -0.0946364 -0.103883214 0.002101615 0.0014255024 -0.09886954
-0.11101951 -0.12486942 -0.1584214 0.13732003 -0.06497512 -0.10696514 -0.04931657 0.03661687
-0.04902188 -0.23259279 -0.04334908 0.040701322 0.0015862898 0.10012351 -0.008116125 -0.11295027
-0.3542841 0.21052352 -0.053973664 -0.15323609 -0.02281652 -0.11384505 -0.050348733 0.13269147
0.0030812388 -0.03764925 0.023279587 -0.14274229 0.20568134 0.32470325 0.007639935 0.090218306
0.011247376 0.07423534 -0.020895148 -0.26314113 0.11756828 0.09972567 0.06620806 -0.12233026
-0.07077509 -0.27991143 0.06986805 -0.1210161 0.17136955 -0.0032364058 0.02010106 -0.06737196
-0.19481291 -0.21039662 0.73371893 -0.13669966 -0.21218118 -0.13914002 -0.4127748 0.13463591
0.38127843 -0.72398835 0.5193362 -0.078999855 0.084273234 0.46141562 -0.011308374 -0.10295283
-0.21832891 0.062126312 -0.22754857 0.28548905 -0.02948278 -0.038379177 -0.0016032852 0.031387847
0.19774118 -0.0016622962 -0.28664085 -0.09385492 -0.036064852 -0.19897577 -0.07874744 0.082219206
-0.10787806 -0.0553563 -0.27698123 -0.24054782 -0.08478375 0.09999488 -0.13603368 0.26412383
0.21800175 0.17823493 -0.010517592 0.44891134 -0.16652414 0.21970594 0.3293145 0.1580991
-1.1386923 0.04903831 -0.116644725 -0.3620964 -0.24909775 0.3872936 -0.50200003 -0.04858493
0.1315027 0.5364139 -0.10924661 0.024205895 -0.05569387 0.08307613 -0.08215929 -0.3307416
-0.20248412 0.24148646 0.07660307 -0.088399276 -0.09526147 0.12693262 -0.07970801 0.054146048
0.0647067 0.061177846 0.03196951 -0.09272679 -0.06253024 0.11540879 0.0043228283 0.0049682935
0.26395854 0.050924003 -0.13133007 0.05817299 0.012251594 -0.06891381 0.05204144 0.007799782

bias f4 [12]
00000000: 8bac e53b 1ab5 7d3d 4051 283e df22 5abd
00000010: 0a5f a8bc 4949 853d aab3 06be aef2 d53d
00000020: 84ec fabd 9c5c 723d f296 c0bc ead6 8dbd
0.007009094 0.06194029 0.16437244 -0.053255912 -0.02055313 0.06508119 -0.13154474 0.10446678
-0.12252143 0.05917035 -0.023509476 -0.06925757

weight f4 [12]
00000000: 6725 843d c64b 013c 3872 6c3f c414 7a3c
00000010: 0ed5 dd3e df40 3c3e 9f67 563f 061c 3e3e
00000020: aa27 853f 2ffe b23e a506 643f 868d 093d
0.064524464 0.007891601 0.92361784 0.01526374 0.4332661 0.18384121 0.83751863 0.18565378
1.040273 0.34959552 0.8907264 0.033582233

weight f4 [12, 12, 3, 3]
00000000: 45b8 85be 001f 3cbe 33f5 453e 5a9f b83d
00000010: 16ef 78be 3f72 993e f37a f13d 86f3 e83d
00000020: b1f7 da3d 571c 1a3e 301d 1eba 736c 70bd
00000030: 5686 87bd 6d3a b43e 2ed2 85bc 83fa 773d
00000040: 811c 453e 916d dc3d 9eaa ea3c 14d7 21be
00000050: c5e7 36bc a840 5fbd cb19 bfbe b8bc 403e
00000060: 76c3 54bc 6251 0cbe 2365 c8bc 36b7 55be
00000070: 858b 52be 116f e4be 1d1f 80be 9f49 353e
00000080: b8e4 bcbd 90c2 d4bd 1ce5 d9bd 3939 9bbd
00000090: 4cc8 303d 9837 1cbe 46ce 183e 725c a3bd
000000a0: d86c 473e 490a 443d 8d73 10bd 8387 963e
000000b0: e6b7 c53e e05d 6d3e 3398 273e 28bf 023e
000000c0: 464b 4b3d 9f12 1ebe a7a2 1b3e 1ed9 4ebd
000000d0: a7a5 5c3e 2ff8 02bd b633 acbc eee3 58be
000000e0: 22a2 d33d 8d25 70bd a13e 183e 078b bf3d
000000f0: 6fe4 fa3d 3422 0bbe eb57 ffbd e049 1bbe
00000100: 885e 6fbe 2d46 f83c 29ad 213d 9219 ebbe
00000110: 86e4 eb3d 6ad9 a9bc f10d 89be 5806 073e
00000120: 1184 e4bc 902b 50be 7736 273e b9f0 833d
00000130: 43ba b1bd f0f3 c5bd 76ed b33d d57b 38be
00000140: 597a 513d 0b0d 423e 2695 b4be 00ff 753d
00000150: a61b ad3e 41fc 963d efd0 e43e b6b6 91bd
00000160: 778d b1be ec3d 613c 5541 25be 5271 1ebd
00000170: 0d6d 003e 0806 583e cfce 34be 8ef5 d8bc
00000180: 6da5 853d 78c5 11bd a3fd 1c3e 47fa 51be
00000190: 683a 21be bed7 59be 8713 7bbc c7c3 35be
000001a0: 682a 773e 7477 82bd 20dd ca3e 4d66 29be
000001b0: 4abf 0fbe b2f2 313d 9af7 7d3d 9225 0dbd
000001c0: f49f b13d e296 443e 9d4c e33c 8e7b 4e3d
000001d0: 0a1d de3d 2da1 593d 0109 243c bed2 3fbc
000001e0: f8ff 95bc a586 c83c c1a7 09be 789e 5c3d
000001f0: 2dd2 47be 4ce5 fabd f25e 5bbd c65d 1ebe
00000200: 36a4 913d a413 29bd ccd2 cb3e 0025 e13d
00000210: a79c 79bd 84ed 77be d10f ca3c 1aca f8bd
00000220: 79c5 75bd 54d0 293e 08c1 aebd 3959 13bd
00000230: df0e ebbc b4fe 043e 6c96 01bd 564e 823c
00000240: 959a 58bc 2296 fabc 4f1a 3d3d a73c 333e
00000250: 1729 b5be 9c54 bb3d bd5a ecbc aa0f ae3d
00000260: 340d 0cba 793e afbd 1fb8 06be 6d33 bebc
00000270: 2ce4 41bd 80c9 a33e 8c28 0bbe f595 bdbd
00000280: 6c32 5dbd c172 d1bd f56e 99bd ceb3 95bd
00000290: da71 873d 45c4 e63d 6b0b c7be a03f 9a3d
000002a0: a6ef a03c 68c2 d83c d472 963d 8837 653c
000002b0: 6f7e 74bd 7fb6 44bd 6360 03bd a71b e03d
000002c0: 669a f7bd 7664 ba3c 29ea a6bd 48a5 d7bd
000002d0: 5fb9 f63a e946 f4bc a273 193c d5a2 de3d
000002e0: a68b 9fbe 43f5 bf3d 79e4 1bbc 9854 73bc
000002f0: f5b4 94bd 923d 413d 0642 28be 41b7 7d3d
00000300: af19 2d3d 449a 0fbd de7b 7f3d 31d1 403d
00000310: 792a 06be ee5c 873d 794c 343c 0dc5 0b3e
00000320: 878a e9bd 6966 8c3d 7b3a 5cbe 844e 6a3e
00000330: fe56 d6bd a25a 343e c5bc 92b9 8b04 a53c
00000340: 30cf 4a3d 7659 3a3d b6b9 bebc 7341 d33e
00000350: 29d6 adbd 804f 663d 54d5 9ebd f858 3abe
00000360: 8053 e4bc a2cf c5bc 4bfc 4d3d 5805 01bd
00000370: 28e9 50be b573 a83b 4ebe 68bc a1e7 c6bc
00000380: 487b 24bd 6d69 9b3d ac97 563e 7ac5 953d
00000390: 30ea 63ba 888c 54be 57d5 e53d 8fcf b13d
000003a0: 956c d7bb 8fe9 483d 046f 2b3e 6186 da3d
000003b0: a4d9 0f3e c041 973d 1c54 b6be 3c8c 253e
000003c0: de38 993c 0b8d 1ebd 87a5 a43d 71e2 ad3d
000003d0: 2b6d b1bc 490d f73d f415 b5bc fa9d 29be
000003e0: 39a9 43bd e8e6 fe3d 423a cc3d dc72 97bc
000003f0: c68c b5bd 6dc9 8fbc 4b76 a1bd 1609 a43d
-0.2611715 -0.183712 0.19331817 0.09014769 -0.24309954 0.29969975 0.11791029 0.113745734
0.10691775 0.15049873 -0.0006031571 -0.058697175 -0.066174194 0.35200825 -0.016335573 0.06054164
0.19249155 0.10763086 0.02864581 -0.15804702 -0.011163657 -0.05450502 -0.37324366 0.1882199
-0.012986055 -0.1370292 -0.024462288 -0.2087067 -0.20561035 -0.44615987 -0.25023738 0.17703865
-0.09223312 -0.10388672 -0.10639402 -0.07579274 0.043159768 -0.15255582 0.14922437 -0.07976617
0.19475114 0.04786137 -0.035266448 0.29400262 0.38616866 0.23180342 0.16366653 0.12768233
0.049632333 -0.15436791 0.15198766 -0.050500028 0.21547566 -0.031974968 -0.021020751 -0.21180698
0.10333659 -0.05862956 0.14867641 0.09352689 0.122506015 -0.13587266 -0.12467941 -0.151649
-0.23375905 0.0303069 0.03947178 -0.45917946 0.11518197 -0.020733554 -0.2676845 0.13186014
-0.027895005 -0.20329118 0.1632937 0.064423986 -0.08678105 -0.09665668 0.087855265 -0.18015988
0.05114207 0.18950288 -0.3527004 0.06005764 0.33810157 0.07372332 0.44690654 -0.071149275
-0.34678242 0.0137476735 -0.16138203 -0.03868229 0.125416 0.2109605 -0.17657016 -0.026484277
0.06525693 -0.03558871 0.1533113 -0.2050563 -0.15744936 -0.21273705 -0.01532448 -0.17750464
0.2413727 -0.0637044 0.3962183 -0.16542931 -0.14037815 0.043444343 0.06200371 -0.034459658
0.08673087 0.19198182 0.027746493 0.0504108 0.108453825 0.053132225 0.010011912 -0.01170796
-0.018310532 0.024478266 -0.134429 0.053862065 -0.1951377 -0.12250766 -0.053557344 -0.15465459
0.07111399 -0.041278496 0.39809263 0.10993385 -0.06094041 -0.24211699 0.024665745 -0.12147923
-0.060002778 0.16583377 -0.085329115 -0.03597376 -0.028693615 0.12987787 -0.031637594 0.015906494
-0.013220449 -0.030589167 0.046167668 0.17503606 -0.35382912 0.09146997 -0.028851861 0.084990814
-0.00053425436 -0.085568376 -0.13156174 -0.023217881 -0.047336742 0.3198967 -0.13589686 -0.09257118
-0.054003164 -0.10226966 -0.074918665 -0.07309686 0.06613512 0.11267904 -0.388759 0.07531667
0.019645523 0.026459888 0.073461205 0.01399029 -0.05969089 -0.048025604 -0.032074343 0.10942774
-0.12089996 0.022752982 -0.08150131 -0.10529572 0.0018823555 -0.029818969 0.009365948 0.108709015
-0.3116123 0.09372952 -0.009514921 -0.014851712 -0.07261077 0.04717786 -0.16431436 0.061942343
0.042260822 -0.03505923 0.06237399 0.0470745 -0.1310214 0.06609522 0.011004561 0.13649388
-0.11403375 0.06855471 -0.21506684 0.22881514 -0.10465811 0.17612699 -0.00027987934 0.020143768
0.049513996 0.045495473 -0.023281913 0.4126087 -0.084881134 0.05622816 -0.07755533 -0.18198001
-0.027871847 -0.024146859 0.050289433 -0.031499237 -0.20401442 0.0051407465 -0.014205528 -0.024280371
-0.040156633 0.07588468 0.20956296 0.07313056 -0.00086942594 -0.20756733 0.11222332 0.08682167
-0.0065742233 0.049050864 0.16741568 0.10670162 0.14047867 0.07385588 -0.35611045 0.16166776
0.018703874 -0.038708728 0.08039384 0.08490456 -0.0216585 0.12063081 -0.022105195 -0.1656417
-0.047768805 0.124463856 0.09972049 -0.018487386 -0.08864741 -0.017552102 -0.07883891 0.080095455

bias f4 [12]
00000000: 295d a73c aa44 943d 9f1c 5cbd 8b67 e1bc
00000010: ace8 9cbe 4c95 333d 68a5 6bbd 0df3 ecbc
00000020: 3e07 95bb 6902 03be c5cf e43a 48b3 7d3c
0.020430164 0.07239659 -0.053738233 -0.027515193 -0.30646265 0.043843552 -0.05753079 -0.02892449
-0.0045479825 -0.12793888 0.001745694 0.0154846385

weight f4 [12]
00000000: a76a 7c3f a734 683f 0a74 873f a871 ba3e
00000010: bf36 8d3d d2db 1dbe 94c1 1ebd ba64 64be
00000020: 6722 3fbd c51a 13be 28ef d2be 2312 683f
0.9860024 0.9070534 1.0582287 0.36414838 0.068952076 -0.15415886 -0.03875883 -0.22304049
-0.046663668 -0.1436568 -0.41198087 0.90652674

weight f4 [12, 12, 3, 3]
00000000: 0061 223d dbf3 94be 8c43 a0be 7f69 b9bd
00000010: 3ee1 fdbc ce11 ddbd 0bc9 053c 56f8 863e
00000020: e2bc 153f 5d12 113e 9031 92be f5ca d93d
00000030: df72 173d ee64 203e 6e0f fbbd bea6 6dbd
00000040: 2fee b0be f124 8c3e 4611 003e 308c a6bd
00000050: bc75 9e3d 850d 89be d12a 47be 9982 d0bc
00000060: cebb 143d f5a1 193d e79f 3dbd 863b 51be
00000070: dbc3 59bd 96dc 923e 9f01 223e eb4f d3be
00000080: cea1 7dbe 5699 b7bd c984 933e ece6 2d3d
00000090: 423c d1be 41bc 5bbe 1016 e9be 2c21 f0bc
000000a0: 01ac 9f3c dc58 87bd ccde 913e 478b 08be
000000b0: 43e4 64be 36a7 5bbd 4093 db3c 92a6 6b3e
000000c0: 7723 143e ad93 cb3d 7079 033e 9228 0f3e
000000d0: 534c 2abd 4ca2 c0be f813 dd3d 0811 f5bc
000000e0: 2a8c 6ebe 5e81 97be 403d c43e e94c 173e
000000f0: fa8d f93d 019f e93d 0da7 8a3d 0907 1abe
00000100: b0ee 18be 32d6 c2be a07a adbe 5013 15bf
00000110: 4562 a83c 40fc 2b3e 7ddf a53d 4b2e 53be
00000120: 720f 9a3e 76f1 c53e 8fad 0dbf ac41 003e
00000130: 5885 24bd fb56 1bbe 5277 2c3d 31d1 47be
00000140: 8b32 75be 31b0 4bbd 1a18 923c 382f 13bc
00000150: 6ecc 96be 1e69 073f bd8d c1bd c411 97be
00000160: 4c25 a0be ac4e 29bf f095 6abd 87a1 653e
00000170: a189 4fbe 541f 923d ec6b 30bf 6eff ccbe
00000180: 45de 613e 6699 803e 6f1a df3e 35ec 933d
00000190: 2ab8 49bd f906 84bd b098 7e3d bde9 543d
000001a0: c9c5 943e 2a7c 043e 42bb aebd d0ae 9fbd
000001b0: 5c71 4fbe 1fb3 413d 389d 58bd 6348 5d3d
000001c0: 5f9f 463e dbc0 84bc 5be6 6dbd a583 c3bb
000001d0: c338 dbbd c53b ddbd 3a8e 413e fd4a 8fbd
000001e0: a78e 0fbd f67c 03bf 0a43 71bd c549 bc3b
000001f0: 91ab c53c 021b bbbd 3a5b d9bd aba6 253e
00000200: b41d 0fbb 14f3 593d 93eb c13e 3307 d63d
00000210: e915 37bd 9547 913c 509e ec3a f1c1 9fbd
00000220: ba34 ed3d 5806 e2bc e5a3 f33b d933 923e
00000230: b436 bbbd daba 06bd e8c5 a43c f70c b3bc
00000240: 8e3d 0dbd 4ca8 fd3c d37e 963d 13ed 89bc
00000250: f3fa 3bbe 57b0 0c3e d4d2 6e3c b982 80bd
00000260: 9314 01be 2f06 023e 32a9 833c 4f16 eb3d
00000270: 7aa9 7c3d d7eb a73c ef97 b53c 784f c33c
00000280: 1ec0 8e3d 205c e0bc f868 e0bd 373c 333c
00000290: a55b 1dbd 3192 3c3e 5f09 3cbe fa4f aebd
000002a0: 8962 353e af59 243d e914 b33d 5e59 cc3d
000002b0: 59d9 4bbd c463 dc3b 9a49 b13b 5165 04be
000002c0: 371b b23c 6cde 9bbd 750c 73be 6b4a 13bd
000002d0: 0c43 a3bd 4646 87be 6b62 cd3c 888d 013e
000002e0: 387b 973e 07bb 2cbe 260c 47bd a601 03be
000002f0: 51ed 3d3d 03a2 bb3c bc92 803d 8b9d 0c3d
00000300: 3698 093e 59bf 72bd dc55 80bd b3f7 f33c
00000310: 9f48 013e 62ea c7bc 6623 bc3d 3820 1bbd
00000320: 06d8 b8bc 28c8 5b3d acb4 b63a 26c4 16bc
00000330: a902 003d 9d9e 8bbb 9dd3 55bd b04b 973d
00000340: 61ea 253e 5386 2dbc d2ec 2c3e 0569 c13e
00000350: 360b 5bbd 1da4 543d 593b e03c bdc7 333d
00000360: 9f9d c6bd e604 ae3d 0a94 59bd 6066 6fbe
00000370: 780a 0c3f 9aee 913b e7f0 88be cb83 113d
00000380: 5c23 643e c4c7 ccbe bdcf 383d 9157 463d
00000390: e081 7abe 9b88 21bf 5a14 9c3e b60e 6cbd
000003a0: 6856 8cbe 02de d13d 3b2d 65bc 2d69 58be
000003b0: 6acc a6bd 327e b8bd b206 033e f459 773d
000003c0: 3e12 24be aa3e bfbd f6aa 55bd eca8 303f
000003d0: 78da f0be 70df 1e3e 9db8 283f 75ee 6abe
000003e0: b20f 473d 9f33 153d e53b e23e 8aab fcbd
000003f0: 1622 773e c0a0 c8bc d177 d6bd 1090 b2be
0.039643288 -0.29092297 -0.31301534 -0.09053325 -0.030991193 -0.107944116 0.008165608 0.2636134
0.5849134 0.14167161 -0.28553438 0.10634414 0.036974784 0.15663502 -0.12258802 -0.058020346
-0.3455672 0.27371934 0.1250659 -0.081322074 0.077373 -0.26768127 -0.19449927 -0.025452899
0.036311917 0.03750797 -0.046295073 -0.20432863 -0.053165298 0.2868392 0.15820931 -0.4127191
-0.24768755 -0.089647934 0.28812245 0.042456552 -0.40866286 -0.21458532 -0.45524645 -0.029312693
0.019491198 -0.066087455 0.28490293 -0.1333438 -0.223527 -0.05362626 0.026803613 0.2301276
0.14466654 0.09940276 0.12839293 0.1398032 -0.041576695 -0.37623823 0.10794824 -0.029915348
-0.23295656 -0.29590887 0.3832798 0.14775433 0.12185283 0.11407281 0.06770144 -0.15041746
-0.14934802 -0.38054043 -0.33882618 -0.58232594 0.020554671 0.16795444 0.08099268 -0.20623128
0.3008991 0.38660783 -0.55342954 0.12525052 -0.04016623 -0.15169899 0.04210598 -0.19513394
-0.23945062 -0.049728576 0.017833758 -0.008983426 -0.29452842 0.5289477 -0.094508626 -0.29505742
-0.31278455 -0.6613567 -0.057271898 0.22424899 -0.20267345 0.071348816 -0.68914676 -0.40038627
0.22057445 0.25117034 0.43574855 0.07222787 -0.0492479 -0.064466424 0.062157333 0.051980723
0.29057148 0.1293799 -0.0853181 -0.07797015 -0.20258087 0.047289964 -0.05288431 0.05402411
0.19396733 -0.016205242 -0.058081012 -0.005966621 -0.10704186 -0.10802416 0.18901911 -0.06996725
-0.035048153 -0.5136255 -0.058901824 0.0057460987 0.02412966 -0.09136011 -0.10613103 0.1617686
-0.0021837773 0.053210333 0.3787504 0.10450592 -0.04469863 0.017734328 0.0018052552 -0.07800663
0.115823224 -0.027590916 0.0074353092 0.28555182 -0.09141293 -0.03289304 0.0201139 -0.021856768
-0.03448253 0.03096404 0.073484086 -0.016836679 -0.18357448 0.13739143 0.0145766325 -0.06274933
-0.12605505 0.12697671 0.01607189 0.114788644 0.061685063 0.0204982 0.022167174 0.023841605
0.06970237 -0.027387679 -0.10957521 0.010939649 -0.038417477 0.18415143 -0.1836295 -0.08511348
0.1771337 0.04012459 0.08744223 0.09977983 -0.049767826 0.00672576 0.0054103853 -0.12929274
0.021741493 -0.07610783 -0.2373522 -0.035959642 -0.079717726 -0.26420802 0.025071343 0.12651646
0.29586196 -0.1686822 -0.04859557 -0.12793598 0.0463689 0.022904402 0.06277987 0.034329932
0.1343697 -0.059264515 -0.062663764 0.029781198 0.12625359 -0.024403755 0.09186439 -0.037872523
-0.022563946 0.05365768 0.0013939342 -0.009202039 0.031252537 -0.0042608515 -0.052203763 0.07387483
0.1620269 -0.010591107 0.16887215 0.37775436 -0.05347749 0.051914323 0.02737205 0.043891657
-0.096980326 0.08497028 -0.053119697 -0.23378897 0.54703474 0.0044534924 -0.26746294 0.03552608
0.22279114 -0.3999616 0.04511999 0.048423354 -0.24463606 -0.6309907 0.30484277 -0.057631217
-0.27409673 0.10247423 -0.013987835 -0.21133871 -0.08144458 -0.09008445 0.12795523 0.06038852
-0.16022584 -0.09338124 -0.052164994 0.69007754 -0.47041678 0.15514922 0.659067 -0.22942527
0.048598953 0.036426183 0.4418632 -0.12337406 0.24134097 -0.024490714 -0.10472072 -0.34875536

bias f4 [12]
00000000: 2deb aabd 7cc1 223e 96af debd 6aa6 5f3e
00000010: a360 70be a379 f53d 38b3 b8bd f827 043d
00000020: 640f 8c3d 873c 36be 638a 383c 2d72 063e
-0.083456375 0.15894121 -0.10873334 0.21840826 -0.23474364 0.11986091 -0.09018558 0.03226468
0.06838873 -0.17796527 0.011263463 0.13129492

weight f4 [12]
00000000: e667 923c f9f9 653f 46e3 653d 99ad 613e
00000010: 8fcd 7b3e f9b3 8a3f 9cb7 dc3c 6c52 c7be
00000020: af67 d7be 4e0c b13c 5aea 5f3f 578b ef3e
0.017871808 0.89834553 0.056124948 0.22038879 0.24590133 1.0836173 0.02694302 -0.3893007
-0.42071292 0.021612313 0.8746697 0.46785995

weight f4 [12, 12, 3, 3]
00000000: 0ccf fabd 6b67 9fbd 04b0 e43d 99f9 00be
00000010: 7376 703c 2988 053d 2328 013e 10ab 8bbc
00000020: c071 0dbd 97b7 f9bc 9c06 ca3c 5830 babc
00000030: 2165 82bd bba7 343e f3dc 573c a98b 75bd
00000040: 2f08 813c 3ef0 433b ea2f 283e a03a 8abd
00000050: b8c9 dbbd d5ab 8f3e e794 1b3e 3ff2 efbd
00000060: 12f1 c13e 0311 c73e fb69 d6bd d752 9bbe
00000070: 9d32 7e3d 8d1e af3c b9cb c8be 9c15 753e
00000080: 6b9a bd3d 468f 55bd 70f8 983c 6089 15bb
00000090: 780d 613d d513 febd 5a89 cc3d ae3b fb3e
000000a0: 28cc d73c e739 bdbd c1ff 243e 61b7 d9bd
000000b0: 0ccc 543e a3cb af3d 7ee2 f63d 94b5 0abe
000000c0: 9056 7ebd add3 0a3f 3d3d 11be 1d8d eabd
000000d0: e200 ad3d b532 2cbd 6261 d4bc 6df3 aa3b
000000e0: 46fa 553d 7cc1 01bd 0b94 293e 717f 093d
000000f0: b310 3e3c 529b f9bd f8b5 c1bb f757 11be
00000100: b2b3 b03c c3a7 7d3d e923 2fbe 6569 9d3d
00000110: 1fd7 8fbd 8331 1abe 4a6e 753e 60f3 0dbe
00000120: c326 b33d 352b db3d 593b 22bd 9fad 3bbe
00000130: 7734 71be 54f7 b1bd 428e 823c 8039 bd3c
00000140: 5b07 90bd b884 b43c c6a5 cbbd 5fd7 3a3b
00000150: e5e7 50bd 6733 3bbd ed37 e2b8 1e42 013e
00000160: 81b4 29be d4a5 b4bd dc85 e4bd 40ef 46bd
00000170: f662 5b3d 5fc5 bfbe d91d 263d daab 00be
00000180: 30fe bc3d a9cc 0cbe b50f d2bd 0d1c d0bd
00000190: 7924 0bbe e41a 833d e32b ebbe dbbb cd3d
000001a0: 71f7 a53d edc9 8abe ea57 5b3d 4567 963d
000001b0: 46f9 d1bd a24e be3c cc34 3b3d 2d14 69bd
000001c0: 3bb4 e93e 8dad b5bd 0460 653d cf03 a73d
000001d0: 1726 d83d b80a 30bb a677 c23d a026 a7bd
000001e0: 9469 a23d 146a a63d f586 663b 28eb 39bd
000001f0: 0fe8 5d3d 9bab 8e3d 11ab 9ebd 70f4 733e
00000200: 7533 f23d be35 0fbc 2407 62bd bf85 9f3d
00000210: 3b4c 26bd d1de ed3e 1cf8 913d a589 6cbd
00000220: ba72 363d 05b0 723d 1cab 133c 8259 55bd
00000230: da90 043e 4805 063e d0d2 d13d 2025 e13b
00000240: df43 8fbd f44b e53e 853c b5bd f714 413d
00000250: d0f6 f03d 6d2a 253e a6f9 aebd fc67 86be
00000260: 1e15 653e e24f e7bd 44c0 e23d 47e8 c93b
00000270: f17e 86bd b9f4 e83d e2ae 50bd c970 46bd
00000280: b84c e8bd 4bec d2bd 6aa0 09be 25d0 963d
00000290: b65c 59be ff44 63bd 81ee 65be 2c28 803e
000002a0: 1424 8f3c 1962 173d 6d49 1f3d 8a7a 7d3d
000002b0: e451 483d e938 503c 19ff 383d 4653 84be
000002c0: aaaa d63d 29fc 6abd fdba cc3e 9e5c b0bc
000002d0: 63e5 fc3b ba6e 4cbd 56e1 41bb bcdd f93d
000002e0: e029 c13d ec85 d13c 3d67 c1bd 6bca 99be
000002f0: e112 93bd a932 843d c13f 9f3e ece1 e93c
00000300: c5d3 443e 9d58 aebd 3937 b23d e3e3 fdbc
00000310: f54f 53be 8bc5 ffbd ad03 053e dfb2 32bd
00000320: a5dd dabc 9776 4c3e 6117 5f3e 1208 1ebd
00000330: 46da 32bd 52d9 773d c6ce 86bd 0930 9dbc
00000340: d318 ecbd fed6 7abc 15d9 e93a f24f ac3d
00000350: 70a0 e4bc fed6 37bd 7ec4 823d c806 973c
00000360: 39f0 23be 20e4 a4be 3593 0cbe a70c 883e
00000370: 0a04 9c3e 16aa 443e f970 20bd df87 92be
00000380: 7111 ddbd cafd aa3d 8df9 afbd 402f 9c3d
00000390: a701 323e be6c 1a3e 309e d83c 1a05 f5bd
000003a0: 137c b33d 20c3 b5bd db3d d03b d148 42bc
000003b0: 4c48 f53d dcfb e1bc 9869 78be 5fcb 2d3e
000003c0: ab86 893d 884a 88bd d84b 83bd 7217 8ebe
000003d0: 253e 1dbf 86cb d5be 08e3 bc3d 36a8 833d
000003e0: d858 b53c 050b 023d 2142 103d d11e 153e
000003f0: 2462 033f f703 373f dbd6 56be 9f3f 4ebe
-0.12246522 -0.07783397 0.11166385 -0.12595214 0.014676678 0.032600556 0.12612967 -0.017049342
-0.03453231 -0.03048305 0.024661355 -0.02272813 -0.06366945 0.17642109 0.013175237 -0.059947643
0.015750973 0.0029897834 0.16424528 -0.06749463 -0.10731834 0.28060785 0.1519352 -0.11716127
0.37879235 0.38880166 -0.10469433 -0.3033664 0.062059987 0.021376872 -0.39217928 0.23934025
0.092579685 -0.05213859 0.018673152 -0.0022817478 0.054944485 -0.124061264 0.09987135 0.4906897
0.026342466 -0.092395596 0.16113187 -0.1063068 0.20780963 0.085837625 0.12054919 -0.13545829
-0.06209427 0.5422924 -0.14183517 -0.114526965 0.08447434 -0.042040545 -0.025925342 0.005217007
0.052240632 -0.03167866 0.1656038 0.033568803 0.011600661 -0.12187828 -0.005911585 -0.14193712
0.02157006 0.06192757 -0.17103542 0.07686118 -0.07023453 -0.1505795 0.23967853 -0.13862371
0.087476276 0.107016005 -0.03960738 -0.1832795 -0.2355517 -0.08689752 0.015936974 0.023098707
-0.07032653 0.022035941 -0.09943728 0.0028509719 -0.0510024 -0.045703318 -0.00010786937 0.12622878
-0.16572763 -0.08820692 -0.11158344 -0.04856801 0.053561173 -0.3745527 0.04055581 -0.12565556
0.0922817 -0.13749947 -0.10256902 -0.101616 -0.13588132 0.06401613 -0.4593192 0.10045596
0.08103836 -0.27107182 0.05355064 0.07343916 -0.10252623 0.023230854 0.045704648 -0.056904007
0.45645317 -0.08870993 0.05599977 0.08155023 0.1055414 -0.0026861858 0.094954774 -0.08161664
0.07930294 0.081257015 0.0035175656 -0.045390278 0.054176386 0.06966325 -0.07747472 0.23823714
0.11826221 -0.0087408405 -0.05518259 0.07789182 -0.040600043 0.46459058 0.07127401 -0.057748456
0.044543006 0.059249897 0.009012964 -0.052087314 0.12945881 0.13087952 0.102452874 0.0068708807
-0.06995367 0.4478451 -0.08849434 0.047139134 0.11765826 0.16129465 -0.085437104 -0.2625121
0.22371337 -0.11294533 0.11071828 0.006161723 -0.06567181 0.11374802 -0.05094803 -0.048447404
-0.11342758 -0.102989756 -0.134401 0.07363919 -0.21226773 -0.05548572 -0.22454263 0.2503065
0.017473258 0.036958788 0.038888384 0.06188444 0.048906222 0.012708881 0.045165155 -0.25844783
0.1048177 -0.057369385 0.3998641 -0.021528538 0.0077177747 -0.049910285 -0.0029583774 0.122004956
0.09431815 0.025576554 -0.09443519 -0.30037245 -0.07181335 0.06454975 0.31103328 0.02855011
0.19221409 -0.085129954 0.08701939 -0.030992454 -0.2063597 -0.1248885 0.12989683 -0.043627616
-0.026717016 0.19967113 0.21786262 -0.038581915 -0.043665193 0.060509987 -0.06582408 -0.019187944
-0.11528172 -0.015310047 0.0017841185 0.08413686 -0.027908534 -0.044882767 0.06385134 0.01843585
-0.16009606 -0.32205296 -0.1372803 0.26572153 0.30471832 0.19205508 -0.03917024 -0.28619286
-0.10794342 0.08349188 -0.0859252 0.076262 0.17383443 0.15080544 0.026442617 -0.11963864
0.087639 -0.08875108 0.00635503 -0.011858181 0.1197668 -0.027585916 -0.24259031 0.16972111
0.06715139 -0.06654841 -0.064109504 -0.27752262 -0.6142295 -0.4175684 0.0922299 0.06428568
0.02213709 0.03174879 0.035219315 0.14562537 0.51321626 0.71490425 -0.20980398 -0.20141457

bias f4 [12]
00000000: 8ec9 f43c e2fa 3f3d 2d7f df3d f43b 143c
00000010: 7975 5b3d 969f fe3d 1a2d 783e eb02 edbd
00000020: c927 643d 1421 e73c 99a2 b53d dee0 aebd
0.029881265 0.04687012 0.10912929 0.009047497 0.053578828 0.12432782 0.24235955 -0.11572822
0.055702005 0.028214015 0.08868904 -0.08538984

weight f4 [12]
00000000: c0b4 bb3e 841c a33e ba66 993d 9cdc 1c3e
00000010: 708d 2b3f 2571 dc3d 7ce4 473f 9446 0c3e
00000020: 6a60 a6be 2514 953d d77a 593f 1cbc 9a3d
0.3666134 0.31857693 0.07490297 0.15318531 0.6701269 0.10763768 0.78083014 0.13698798
-0.32495433 0.07279233 0.84953064 0.0755541

weight f4 [56, 12, 1, 1]
00000000: b8c8 c03d 9894 263c 68f0 1ebd d8bd f4bb
00000010: 602a 7abd 0a94 253e c2a7 933d 3ef5 b0bc
00000020: ce8b c73d 7634 0bbd 4f52 3dbe 43d5 893d
00000030: bd08 c6bd 72f2 323b 6ba5 c23d d540 923d
00000040: c816 013e 4991 8d3d 6748 293e 8214 233e
00000050: 6e6d f53d f50f 0f3d fd00 b6be 59b0 063e
00000060: 218e 053e 33e3 c63c 5ecd 3fbe c8c9 24bc
00000070: 5de4 4dbd a037 a4be 9b2c 1dbe 577f a53c
00000080: 152f 96be e53d 183e f3fd fd3d 59cb d5be
00000090: ce91 083d bff4 c6bd f42a e9bc 4a13 8c3d
000000a0: a369 903d 8928 10bc 1ae5 9e3e c755 cebd
000000b0: f4cd 6c3d 6913 a83d d39e 1f3e 780b 08be
000000c0: 1392 d23c 4e7a d9bd a4ab 203e 4085 d53d
000000d0: 4c7b 81bd 8feb cebe 8d2d fd3c ab99 2abe
000000e0: 8d39 8dbe 5b39 06bd 3a49 9dbd 2b57 61bf
000000f0: 64b2 ca3e f5c7 12be 9c5e c63d f607 7bbc
00000100: 26d2 51be 2df2 e6be 0790 17be 3e5f caba
00000110: 705c 3f3d 50ec eb3e 4c58 2f3e a6fb 76bd
00000120: 4088 8d3b 3fe2 f9be 5f39 77bc 9322 573e
00000130: 6fcb cdbd 7b94 cb3d 759d 9cbd 21ac 8bbe
00000140: 3e4a 8fbe 11b3 b53d 21de 783d c936 92be
00000150: 2e41 253e 55c5 36be ce29 3fbe da37 2dbf
00000160: fc2a eb3d b51d 0bbd 1c47 b53d ec2b 1cbd
00000170: b825 a9bd 4730 2cbc bbed abbe 6d53 7f3c
00000180: b86c 32bd b68d 333c eca2 4fbe b48a 223e
00000190: af2f 3f3e 1620 3a3e f336 4fbe c0c5 e8bd
000001a0: b87c 843c 0d45 d9bb 2c81 84bd 0e62 e9bd
000001b0: 9df8 1e3e 4cf8 873e a428 a93d 32d4 b1bd
000001c0: 409c d0bd 4200 803c 5fde 6bbe 568b 053d
000001d0: 2765 e0bc 49fd b13a 57fc 703d 545b 673e
000001e0: c986 5a3a 4fa6 743d 8cfd 583e 34d1 82be
000001f0: d072 d9bd 7131 25be ef12 513e e4f9 383e
00000200: 056a 82bc e1a9 4dbe e04e 19be 3eb4 633e
00000210: 0d03 c73c 8103 4cbd c922 ebbe 3628 4e3e
00000220: e0e8 983d 7a2a 2a3e cf7b 79be 9c9f 7fbe
00000230: 1139 36bc df26 dc3d 1776 433d 147d 58bd
00000240: 9f4a 1bbc 414c f7bd 3994 353d c086 7e3e
00000250: 991b 48be 8901 4c3d 4a3d d4bd 5285 8cbe
00000260: d446 99be dbca ea3d 8e99 e6bc ad97 c83d
00000270: 87c3 a63c 5409 5a3d b21e 03be 33f4 d63d
00000280: 232c 483c 27dd 403e 991c 813e 9fd5 03bc
00000290: 3ef2 49bd fee2 efbd 5244 a93d 4ded 16bd
000002a0: e75a 043e cafc 433d 4678 46bd 781b 8cbd
000002b0: 0e26 773d d58f 923d c7d2 c03e f137 83bc
000002c0: bbbf 353d 0f5a a0bd 635f ed3d 8f9d 16bb
000002d0: ba5c 563e 3ab3 f73c 3092 44bc a702 6f3d
000002e0: 4a0a 283d 3ae0 01bd be03 05be 9883 63bd
000002f0: 2dad c63d 0f64 0c3e 90f7 753e 49be 84bd
00000300: d56e 4cbd 84ea 07bd 981f 2d3d 18c0 65be
00000310: da66 9e3c aba4 6d3d 2bdc d23c d311 50be
00000320: df89 2bbd 4f63 2fbd 7150 38bc bd5c 8c3e
00000330: 9553 43be 60e2 5cbe c113 363e f7bb fe3d
00000340: 0530 71bc 0d48 9bbc 1d89 e7bd 2775 e03c
00000350: e929 aebc f82f 353c 554a 383c 8ddf d33d
00000360: 07ef c8ba 5c31 d53d 827c 063e 936d f7bd
00000370: a657 5c3e a02c 03bc ba39 3a3e e098 cb3c
00000380: 782f 18be 8c14 343d 163a 7abe b2f1 b73d
00000390: ce6f b4bd 3977 43be 5e44 2ebe 434b af3d
000003a0: fdf8 fabd 90ae 0d3e 21fa 1f3e 95b7 43bd
000003b0: c502 a73d e13a 19be 4bc2 7abe 5b75 01bc
000003c0: 2bdb 063e 1ed0 3ebd 4815 b5bb 4bd1 7b3e
000003d0: cbe0 24be 6a72 47bd 30ad 53be 8af2 0bbe
000003e0: 28fd e73d 1f72 27be e466 8fbc 354d b33d
000003f0: 428b 223e 2c17 493b cc9c 7d3e 3a58 20be
0.09413284 0.010167263 -0.038803488 -0.00746892 -0.06107557 0.16169754 0.07209732 -0.021601316
0.097434625 -0.033985578 -0.1848843 0.067301296 -0.096696354 0.0027305153 0.09504207 0.07141272
0.12606347 0.069124766 0.16531526 0.15925792 0.11983763 0.034927327 -0.3554763 0.13153209
0.13042499 0.024278259 -0.18730685 -0.010057874 -0.050266612 -0.32073689 -0.15349047 0.020202322
-0.29332796 0.14867361 0.124019526 -0.41756704 0.033342175 -0.0971465 -0.028462864 0.068396166
0.070513986 -0.008798727 0.31034166 -0.100749545 0.0578136 0.08206827 0.1558793 -0.13285625
0.02570442 -0.10619031 0.15690476 0.10425806 -0.06322345 -0.40414092 0.03090551 -0.16660182
-0.2758297 -0.032769542 -0.076799825 -0.8802363 0.39589226 -0.1433409 0.09686014 -0.015321722
-0.20490322 -0.4510664 -0.14801036 -0.0015439761 0.046719015 0.4607873 0.17123526 -0.060298584
0.004319221 -0.48805425 -0.015089362 0.21009283 -0.100485675 0.0994043 -0.0764722 -0.2727976
-0.2798633 0.08872045 0.060758714 -0.28557423 0.16138145 -0.17848714 -0.18668291 -0.6766335
0.11482808 -0.033963878 0.08851454 -0.038127825 -0.082591474 -0.010509557 -0.3357981 0.015583855
-0.043560714 0.0109590795 -0.20276994 0.15873224 0.18670534 0.18176302 -0.20235805 -0.11365843
0.016172752 -0.006630546 -0.0646995 -0.113956556 0.15524526 0.26556623 0.08259705 -0.08683051
-0.10186052 0.015625123 -0.23034047 0.032603584 -0.027391983 0.0013579513 0.0588344 0.22593433
0.00083361246 0.059728917 0.2119047 -0.25550234 -0.10617602 -0.16132142 0.20417379 0.18064076
-0.015919695 -0.20084335 -0.14971495 0.22236726 0.024293447 -0.04980803 -0.45924976 0.20132527
0.074662924 0.16617766 -0.24363635 -0.2496323 -0.011122004 0.107496016 0.04772004 -0.05285366
-0.00947824 -0.12075091 0.04433081 0.2485609 -0.19541778 0.04980615 -0.103632525 -0.27445465
-0.2993685 0.11464473 -0.028149392 0.09794555 0.020356907 0.053231552 -0.12804678 0.10495796
0.012217554 0.18834363 0.2521713 -0.008046537 -0.049303286 -0.11713217 0.08264984 -0.0368474
0.12925301 0.0478485 -0.048454545 -0.06841177 0.060339026 0.0715634 0.3766081 -0.016017886
0.0443723 -0.07829677 0.11590459 -0.0022982096 0.2093381 0.03023683 -0.011997744 0.05835214
0.041025437 -0.03170798 -0.12989709 -0.05554542 0.097009994 0.13710044 0.24020219 -0.064816065
-0.049910385 -0.033182636 0.04226646 -0.22436559 0.019336153 0.058018368 0.02573975 -0.203193
-0.04187953 -0.042819317 -0.0112496475 0.27414504 -0.19074853 -0.2157073 0.17780973 0.12438195
-0.014720921 -0.018955255 -0.11305449 0.027399613 -0.021260219 0.0110588 0.011248191 0.10345373
-0.0015330025 0.10409805 0.13133433 -0.120814465 0.2151781 -0.008006245 0.18186083 0.02485317
-0.14861858 0.043964908 -0.2443622 0.089816466 -0.088103876 -0.19088449 -0.17018268 0.08559277
-0.12254522 0.13836122 0.1562276 -0.0477825 0.08154825 -0.14963867 -0.2448818 -0.007901515
0.13169543 -0.046585195 -0.0055262186 0.24591558 -0.16101377 -0.048693098 -0.20671535 -0.1366674
0.113275826 -0.16352127 -0.017505117 0.087549604 0.15873435 0.0030683978 0.24766845 -0.15658656

bias f4 [56]
00000000: 7575 52be 348e b03d fa0f c7bc 4d73 b83d
00000010: c9d0 1fbe 8fa0 833d ef50 97bd b265 b1bd
00000020: 05af 343d 3a66 cd3d b5df 59bd d8ad f7bd
00000030: 7a3f 53be fbaf c43d 110f e93d 814c 143e
00000040: 112e 38bb c068 d5bc f039 26be 5e92 59bd
00000050: e39e 50be 37d5 cb3d 4a5d eebd fb63 c83c
00000060: 782a 38be f11a 8bbe 228d 0fbd c6d8 033e
00000070: a9b8 14be 69c0 5fbe 43fe 9dbe e299 debb
00000080: ff4b 78bd 2b85 a1be 3afb 553d a564 a73d
00000090: 86ef 033e 76c4 2a3d 6278 123e 670e b4bd
000000a0: 9c94 3cbe 5cc8 2dbe 685f 65be f997 493d
000000b0: 9578 71be e625 cdbb 95bf 58be af03 21be
000000c0: 03e9 cdbd 63f5 13be 83ed 06bd 6f8e 04be
000000d0: 5057 3ebe e22c 6e3d cb67 33be 49a9 79bd
-0.20552619 0.08620873 -0.02429961 0.09006367 -0.15606989 0.064271085 -0.07388484 -0.08661975
0.044112224 0.10029264 -0.05319186 -0.12093705 -0.20629683 0.09603878 0.11379827 0.14482309
-0.002810363 -0.026050925 -0.16233039 -0.053118102 -0.2037311 0.09952777 -0.11638887 0.024461737
-0.1798495 -0.27168992 -0.035046704 0.12875661 -0.14523567 -0.21850742 -0.3085805 -0.0067932466
-0.06061935 -0.31546912 0.05224154 0.08173493 0.1288434 0.041691266 0.14303735 -0.087918095
-0.18416065 -0.16970962 -0.22399676 0.049217198 -0.23581155 -0.0062606214 -0.21166833 -0.15724061
-0.10054209 -0.14449076 -0.032941353 -0.12944959 -0.18587995 0.058148272 -0.17520063 -0.06095246

weight f4 [56]
00000000: dbbe 173e 55af e43e dd73 4a3e 9351 573f
00000010: e993 163e cae5 563f 1e76 023e 8513 1b3e
00000020: 6472 6b3f 7ebb 6b3f e915 763f 8260 cc3e
00000030: a055 593e 82f0 203f 5864 0f3f 56bf d6bc
00000040: b162 adbc 2dc6 003e 601f 0f3e 0b01 ae3e
00000050: 988d 673e 7a33 723f 3969 803e a857 513e
00000060: f3e6 cb3e e9ea a43e 16d1 7f3e 0557 943f
00000070: 7ba8 083e e4ec 683e c93f 713e 3a33 5c3f
00000080: b0eb 4d3e 3801 4d3e 77f0 433f 3df0 003f
00000090: 7741 6c3f 5cb5 963f 03a1 5f3f de5e f3bd
000000a0: 9532 6c3e eaf1 0d3f 82d4 423e 0b64 783f
000000b0: 08fa a03e 68a1 423f 03b1 5f3e 7732 e63d
000000c0: 23ab 3f3e 2f5c 833e b804 313e 9e42 8d3e
000000d0: 013e 243f ea8c 813f 0c3e d73d 5b5c 583f
0.148189 0.44665018 0.19770761 0.8410885 0.14704861 0.8394438 0.1274037 0.15144165
0.9197142 0.92082965 0.9612718 0.3991738 0.2122407 0.62866986 0.5601249 -0.026214283
-0.021165224 0.12575598 0.13976812 0.3398517 0.22612607 0.94609797 0.2508028 0.20443594
0.39824638 0.32210472 0.24982104 1.1589056 0.1334552 0.22746617 0.23559488 0.86015666
0.20109439 0.20019996 0.76538795 0.50366575 0.9228739 1.1774096 0.8735506 -0.11883329
0.2306617 0.55447257 0.19026378 0.97027653 0.3144076 0.76027536 0.21844868 0.11240094
0.18717627 0.25656268 0.17286956 0.27589887 0.6415711 1.0121129 0.105098814 0.84515923
