FSRCNN/FSRCNN_torch/FSRCNN_48_12_3_X3_150.pth (torch, 53034 bytes, 19 tensors)

weight f4 [48, 1, 5, 5]
0.015573887 0.04376628 0.11377427 0.029077766 -0.05300049 0.0092017315 -0.07447436 -0.30064994
0.032245655 -0.16665517 0.1400892 -0.18362348 -0.24484146 -0.22593309 0.16753279 0.0051411106
0.105073474 0.052334268 -0.13248277 0.15252125 -0.09381662 0.09086746 0.024681723 0.084950075
-0.120915435 0.0844413 0.08442862 -0.08046551 0.21412334 -0.044534985 -0.07968196 0.15495601
-0.17644168 0.114091404 0.13874789 -0.01337254 -0.25241673 -0.52286166 -0.008202308 0.007932948
0.13677406 0.20611358 -0.13314617 0.030232392 -0.04326061 0.013280286 0.12684749 -0.008539444
0.04725588 -0.010175081 -0.13433918 0.14388911 0.018060839 0.12970166 -0.19626105 -0.08740234
-0.052433796 0.09517484 -0.08076779 -0.11140141 0.12457217 0.18649307 0.54780626 0.116265744
0.116209276 -0.12621494 -0.017665189 -0.05633708 -0.059021443 -0.02942551 0.03953911 -0.1123458
-0.03601975 -0.06284399 0.04165919 0.055322196 0.17393109 -0.1582561 -0.011601887 -0.015176386
-0.035522778 -0.46936166 0.17780393 0.3509646 -0.089287445 -0.07056033 0.13229267 0.4993502
-0.633737 0.039704654 -0.021856625 0.39623883 -0.707223 0.12641606 0.1908725 0.040034257
-0.09017485 0.03414763 0.17944638 -0.17992258 -0.052339323 0.110601194 -0.07741057 -0.066692695
0.0031567668 0.16148548 -0.17817299 0.13304356 0.18217267 -0.14345242 -0.14398965 0.33220246
-0.6774011 -0.028166657 -0.09388765 -0.007639219 0.07316414 -0.07701248 0.21362786 0.120584115
0.043410048 -0.15646355 0.017640542 -0.06105105 0.117490895 -0.27757236 0.2231784 0.023916574
-0.12544154 0.025485115 0.19214682 -0.05699892 -0.2626768 0.04652731 -0.01803384 0.09433965
0.34187523 -0.31318662 0.029149788 -0.07827256 -0.147488 -0.028846174 0.25710183 -0.071955174
0.04348113 -0.49414548 -0.47284582 0.3213477 0.043728188 -0.052193247 0.19992888 0.055032272
0.06835772 0.16592944 0.0649764 -0.35233346 -0.9608271 -0.33020788 -0.17227381 0.079248875
0.059257884 0.2103133 0.2207056 0.00743969 0.25239623 0.09353651 -0.0027416195 -0.005836508
-0.36718723 -0.03509646 -0.21727145 0.10440512 -0.016012294 0.09661131 -0.03795282 -0.08571903
0.0067480113 -0.051015623 0.16755968 -0.061628252 -0.08270464 0.15904349 0.09314315 -0.06464826
-0.08650555 0.03725068 0.048926372 -0.28227815 0.01385043 0.20200206 0.03088277 -0.020371785
0.14570667 -0.0066945106 -0.15774778 0.038653556 -0.20038137 0.18765439 -0.13542952 0.107670866
-0.07462288 0.30381587 -0.4774283 -0.2765506 0.115584314 -0.06452299 -0.014983313 0.53522295
-0.061197754 -0.10508775 0.09751853 -0.1662278 -0.09227296 0.19691823 0.048114333 -0.058001276
0.000787907 -0.04156799 0.0030916822 0.016860845 0.032450948 -0.0059797787 -0.1277574 -0.029443007
0.08243958 -0.030025642 0.1609732 -0.21280275 0.13065295 -0.020569345 -0.0063412753 -0.0005695065
0.1462374 0.09463829 -0.1286112 -0.1358887 0.038087826 -0.4087908 0.2629585 -0.00012957289
0.0402424 0.18354519 0.20797414 -0.25891864 -0.032016486 -0.09040043 -0.1028424 0.13994966
-0.073759936 0.03982354 -0.145957 -0.20110485 0.17879866 0.04668784 -0.08457839 -0.096664816
00000000: 9e29 7f3c 4544 333d 7c02 e93d 7f34 ee3c
00000010: 0b17 59bd dcc2 163c 0386 98bd caee 99be
00000020: 0514 043d a7a7 2abe 8b73 0f3e cb07 3cbe
00000030: b8b7 7abe 015b 67be b78d 2b3e c376 a83b
00000040: c330 d73d 755c 563d 90a9 07be 882e 1c3e
00000050: ee22 c0bd b818 ba3d 5331 ca3c 4efa ad3d
00000060: 83a2 f7bd 8fef ac3d eae8 ac3d 1acb a4bd
00000070: 2643 5b3e 516a 36bd 4c30 a3bd caac 1e3e
00000080: 21ad 34be c1a8 e93d ed13 0e3e 7f18 5bbc
00000090: c43c 81be 43da 05bf f962 06bc 32f9 013c
000000a0: 800e 0c3e 700f 533e 7857 08be eca9 f73c
000000b0: 0a32 31bd 8f95 593c 4fe4 013e 06e9 0bbc
000000c0: 628f 413d 62b5 26bc 3690 09be ab57 133e
000000d0: 53f4 933c 83d0 043e a8f8 48be ffff b2bd
000000e0: d2c4 56bd 07eb c23d 9569 a5bd 6c26 e4bd
000000f0: b21f ff3d 0af8 3e3e 083d 0c3f bc1c ee3d
00000100: 21ff ed3d 7d3e 01be 96b6 90bc b6c1 66bd
00000110: 78c0 71bd c40d f1bc c3f3 213d 8e15 e6bd
00000120: 7289 13bd 5ab4 80bd d4a2 2a3d 8799 623d
00000130: fe1a 323e e30d 22be d715 3ebc 60a6 78bc
00000140: 5580 11bd 2c50 f0be 3c12 363e a2b1 b33e
00000150: 56dc b6bd ef81 90bd bb77 073e d4aa ff3e
00000160: 973c 22bf 59a1 223d aa0c b3bc d1df ca3e
00000170: 910c 35bf 3673 013e 1574 433e f6fa 233d
00000180: 97ad b8bd 63de 0b3d cbc0 373e a03d 38be
00000190: c261 56bd e182 e23d 6f89 9ebd 2e96 88bd
000001a0: c2e1 4e3b 735c 253e fb72 36be 923c 083e
000001b0: 798b 3a3e 31e5 12be 0672 13be 7116 aa3e
000001c0: 296a 2dbf c3bd e6bc 2b48 c0bd 6a52 fabb
000001d0: 15d7 953d b8b8 9dbd 43c1 5a3e cef4 f63d
000001e0: bcce 313d fb37 20be e682 903c aa10 7abd
000001f0: 119f f03d f71d 8ebe e188 643e b1ec c33c
00000200: bf73 00be 29c6 d03c 23c2 443e b377 69bd
00000210: 937d 86be 6c93 3e3d b4bb 93bc 2535 c13d
00000220: 450a af3e ff59 a0be 89cb ee3c 5d4d a0bd
00000230: 1807 17be d04e ecbc daa2 833e 3c5d 93bd
00000240: 4519 323d a300 fdbe d918 f2be b087 a43e
00000250: 541c 333d 96c8 55bd 28ba 4c3e 8569 613d
00000260: 22ff 8b3d 68e9 293e 5912 853d 0d65 b4be
00000270: c4f8 75bf 0211 a9be 8c68 30be 3c4d a23d
00000280: 65b8 723d 5f5c 573e a600 623e a5c8 f33b
00000290: 143a 813e 1290 bf3d beac 33bb 2d40 bfbb
000002a0: f7ff bbbe 4ec1 0fbd 687c 5ebe 5ad2 d53d
000002b0: 372c 83bc 27dc c53d 6b74 1bbd 758d afbd
000002c0: 6c1e dd3b c2f5 50bd c494 2b3e e86d 7cbd
000002d0: 0d61 a9bd 4cdc 223e d6c1 be3d 4f66 84bd
000002e0: d229 b1bd 2b94 183d 0567 483d c386 90be
000002f0: eaec 623c a1d9 4e3e ddfd fc3c bbe2 a6bc
00000300: 2134 153e a05d dbbb a288 21be 3153 1e3d
00000310: c630 4dbe 7928 403e 09ae 0abe 8b82 dc3d
00000320: e1d3 98bd c18d 9b3e 7b71 f4be 0a98 8dbe
00000330: 78b7 ec3d a124 84bd 927c 75bc 5f04 093f
00000340: 7faa 7abd 3f38 d7bd ccb7 c73d 9f37 2abe
00000350: 9bf9 bcbd efa4 493e 8913 453d bf92 6dbd
00000360: 8b8b 4e3a 3243 2abd d29d 4a3b c11f 8a3c
00000370: 49eb 043d 05f2 c3bb d6d2 02be 7632 f1bc
00000380: 15d6 a83d 56f8 f5bc 29d6 243e f7e8 59be
00000390: e3c9 053e 0b81 a8bc 79ca cfbb ef4a 15ba
000003a0: 42bf 153e b8d1 c13d a8b2 03be 6826 0bbe
000003b0: fb01 1c3d 074d d1be 7fa2 863e f5dd 07b9
000003c0: 37d5 243d 45f3 3b3e 2cf7 543e fc90 84be
000003d0: b823 03bd dc23 b9bd 099f d2bd f74e 0f3e
000003e0: 730f 97bd 021e 233d c075 15be 6eee 4dbe
000003f0: ff16 373e c03b 3f3d 6f37 adbd 34f8 c5bd

bias f4 [48]
0.20419335 0.16865541 -0.17653811 0.03530806 0.1857143 0.09270687 -0.03049756 -0.006609462
-0.028859615 0.029352473 0.21757616 0.102189206 -0.015113747 -0.017711729 -0.061441123 0.2995741
-0.27212027 -0.10506794 0.074029155 0.0187262 0.11422762 0.009402795 -0.23613904 -0.049501576
-0.14907297 -0.0072145746 -0.082402386 -0.090692356 0.14645661 -0.25952035 -0.00013504659 -0.23874533
0.107770026 -0.21764617 0.036542963 -0.13037741 0.17598449 0.25836015 -0.14967541 -0.07640768
-0.10880178 0.015336902 0.21260174 -0.023172388 0.26614678 -0.13158871 -0.0089043565 -0.109465525
00000000: 1018 513e 01b4 2c3e 68c6 34be 2f9f 103d
00000010: e42b 3e3e 19dd bd3d 05d6 f9bc 3094 d8bb
00000020: 006b ecbc 9974 f03c 49cc 5e3e 9348 d13d
00000030: a69f 77bc 3018 91bc b0a9 7bbd c761 993e
00000040: 5953 8bbe dc2d d7bd 999c 973d b067 993c
00000050: 2cf0 e93d 2e0e 1a3c 6fce 71be 2ac2 4abd
00000060: 96a6 18be 3d68 ecbb 95c2 a8bd eabc b9bd
00000070: b9f8 153e dadf 84be 4b9b 0db9 a879 74be
00000080: 88b6 dc3d a3de 5ebe 13ae 153d a881 05be
00000090: 4735 343e c847 843e 8344 19be a17b 9cbd
000000a0: 78d3 debd a147 7b3c 45b4 593e 05d4 bdbc
000000b0: 6444 883e 31bf 06be 94e3 11bc 762f e0bd

weight f4 [48]
0.71952343 0.97084004 1.050379 -0.35992578 1.1085188 -0.117703214 -0.059271045 1.0742632
-0.13804626 1.1048175 0.91263443 0.21696742 0.6174621 0.23121835 -0.016237956 1.0467293
-0.06502855 0.0022855322 0.023301687 -0.25504643 0.08635893 0.99697834 1.0493306 0.87043524
-0.39481756 0.12137026 1.1613849 1.018486 0.25003943 0.94606096 2.7667332 1.1038468
0.74219143 0.30579254 -0.0061655184 1.0037491 0.88096637 0.013130777 -0.097290136 0.3410347
-0.056441795 0.9549313 -0.43294522 -0.1358039 0.12359046 -0.0569719 -0.29956856 -0.005234561
00000000: b032 383f f988 783f d272 863f 3148 b8be
00000010: f2e3 8d3f 620e f1bd 32c6 72bd 7581 893f
00000020: 005c 0dbe a96a 8d3f 69a2 693f b52c 5e3e
00000030: ff11 1e3f 81c4 6c3e 7605 85bc 3afb 853f
00000040: b02d 85bd dec8 153b 2ee3 be3c 7295 82be
00000050: f3dc b03d f939 7f3f 7750 863f d8d4 5e3f
00000060: 8725 cabe f990 f83d 43a8 943f c05d 823f
00000070: 2b05 803e 0d31 723f 2812 3140 da4a 8d3f
00000080: 4200 3e3f d790 9c3e 1e08 cabb da7a 803f
00000090: 0387 613f 7822 573c 0d40 c7bd 1a9c ae3e
000000a0: 832f 67bd 6176 743f ffaa ddbe 2d10 0bbe
000000b0: ff1c fd3d 5e5b 69bd 0d61 99be ae86 abbb

weight f4 [12, 48, 1, 1]
0.026085211 -0.092617735 -0.10780218 0.040132638 -0.03974168 0.22267288 0.21950394 -0.025963016
-0.034829095 -0.04288177 0.016060803 0.12527779 0.2504445 0.012822914 -0.013718381 0.16764352
0.30025446 0.03152765 0.04856433 0.08098837 0.13804291 0.10343022 0.16521943 0.056006905
-0.030551935 -0.079470426 0.032165747 0.18621308 0.04752019 0.012258789 0.17298308 -0.15370196
0.011559492 0.06995776 -0.14309868 -0.070065595 0.017725032 -0.4006854 0.045340337 -0.08290462
0.2902402 -0.1689865 0.011873591 -0.011695309 -0.10786809 0.5254611 0.0031991454 -0.1948426
-0.0030056227 -0.16659427 0.16749354 0.0032371965 -0.11919209 -0.119930476 0.14942685 0.013800522
0.1509632 -0.0029928174 -0.14474204 -0.23509854 0.20740129 -0.049963176 -0.025514647 0.010338864
-0.070199095 -0.078711756 0.12812437 -0.06355969 -0.35738313 0.34247428 0.3532179 0.07360872
-0.24703059 -0.31322137 0.052448638 -0.13522281 0.065205745 0.044343162 0.05039249 0.19957188
-0.07949168 0.008807521 0.15065114 0.030130519 -0.10613833 -0.29907835 -0.30025303 -0.04707072
0.20483513 0.114844434 -0.2967563 -0.051423673 -0.073059395 -0.0029917432 -0.046247642 -0.1799754
-0.06478079 -0.19711769 0.015523408 0.24880517 -0.17331046 0.06795548 0.3560483 0.08468601
-0.35895264 0.10234124 -0.0035830864 -0.23392294 0.07830913 0.0247151 -0.46493682 0.0080786925
0.058636185 0.116186924 -0.2613066 -0.15287983 0.01461331 -0.3209254 0.002421289 -0.016216971
-0.17895788 0.1358659 0.09768203 -0.03823041 -0.20320013 0.12499667 0.07699662 -0.19427954
-0.13720065 -0.10838529 0.16912499 -0.10792229 0.15560012 -0.27793553 -0.012049466 0.0045539415
0.097111754 -0.08145607 0.07681823 0.023986388 0.04727444 -0.586952 -0.6033031 0.14142373
0.17020027 0.16660158 -0.036015876 0.014708162 -0.082478136 -0.2842586 -0.43940604 -0.0021661262
-0.180559 0.058467306 -0.59209484 -0.18534645 -0.05952981 0.0040530995 -0.04666373 -0.12380854
0.0008481557 0.090293504 0.045025926 -0.1921531 -0.4709021 0.38546094 -0.32519087 -0.10612662
-0.5866141 -1.1868618 -0.04009915 -0.23281883 -0.47687 0.1575583 -0.005598435 0.2581241
0.011066745 0.07930399 -0.01194042 -0.0035745818 -0.06377059 -0.35257962 0.11129513 -0.05060482
-0.23717323 -0.04285405 0.033035714 -0.19759382 0.28832468 -0.52435595 -0.40648782 0.2644648
0.1862328 -0.17714791 0.17172857 0.11051433 0.095429994 0.09235754 0.018455263 0.008180738
-0.047556374 -0.019706674 -0.17844668 -0.1178967 0.13098809 0.100518785 0.1331254 -0.040845413
0.03103121 -0.01214284 0.08216084 -0.19476953 0.090252064 0.20644423 0.17042357 0.099612355
-0.06875312 0.123378985 -0.109253585 -0.12630357 -0.14100863 0.089866094 0.08985218 0.1411304
0.054738082 -0.040238973 0.032638423 0.048279103 0.06784235 0.09939993 0.17729442 -0.0038259602
0.06621265 0.20961969 0.12956935 -0.14489633 0.14836785 -0.182496 -0.12995811 0.13543005
-0.1181672 0.034979742 0.08097904 -0.036466625 -0.0154203065 0.013568555 -0.027153265 0.005647013
0.046906583 0.013154438 0.046251636 -0.092090786 -0.05225665 -0.008615772 -0.036693517 -0.21777204
00000000: a7b0 d53c 5eae bdbd 64c7 dcbd 1f62 243d
00000010: 2cc8 22bd 5c04 643e a4c5 603e 64b0 d4bc
00000020: f4a8 0ebd cba4 2fbd f291 833c d248 003e
00000030: 433a 803e 3317 523c 0fc3 60bc beaa 2b3e
00000040: f4ba 993e 2323 013d 64eb 463d 3bdd a53d
00000050: 1f5b 0d3e 39d3 d33d 482f 293e 7f67 653d
00000060: 0d48 fabc 64c1 a2bd 3bc0 033d a4ae 3e3e
00000070: 88a4 423d 16d9 483c 7a22 313e 0c64 1dbe
00000080: 0664 3d3c 0446 8f3d 7688 12be 8d7e 8fbd
00000090: 1634 913c a326 cdbe cab6 393d e6c9 a9bd
000000a0: 5d9a 943e cc0a 2dbe 7389 423c ae9d 3fbc
000000b0: f2e9 dcbd 9e84 063f c1a8 513b d284 47be
000000c0: fbf9 44bb b097 2abe 6d83 2b3e 2527 543b
000000d0: fc1a f4bd 1c9e f5bd 5a03 193e 961b 623c
000000e0: 1996 1a3e 2523 44bb 4237 14be acbd 70be
000000f0: 0161 543e 30a6 4cbd 1804 d1bc 5764 293c
00000100: 8bc4 8fbd a133 a1bd 0933 033e 952b 82bd
00000110: ecfa b6be ca58 af3e fad8 b43e 2bc0 963d
00000120: 96f5 7cbe 8d5e a0be 62d4 563d d977 0abe
00000130: 978a 853d 2da1 353d 5b68 4e3d 925c 4c3e
00000140: 89cc a2bd 6c4d 103c 4b44 1a3e 47d4 f63c
00000150: 0e5f d9bd cc20 99be c4ba 99be 3acd 40bd
00000160: 4dc0 513e 8f33 eb3d 71f0 97be a1a1 52bd
00000170: 2aa0 95bd 1f11 44bb 2b6e 3dbd 794b 38be
00000180: caab 84bd 38d9 49be e455 7e3c c8c6 7e3e
00000190: 4c78 31be 3e2c 8b3d f64b b63e dc6f ad3d
000001a0: a4c8 b7be 4998 d13d 37d2 6abb 7f89 6fbe
000001b0: 8a60 a03d 5277 ca3c 330c eebe 7e5c 043c
000001c0: 7f2c 703d 69f3 ed3d fbc9 85be 888c 1cbe
000001d0: aa6c 6f3c 5650 a4be 7dae 1e3b 74d9 84bc
000001e0: bc40 37be 6e20 0b3e 840d c83d 7e97 1cbd
000001f0: b213 50be 41fe ff3d 67b0 9d3d 37f1 46be
00000200: 547e 0cbe 1bf9 ddbd 1a2f 2d3e 5d06 ddbd
00000210: a355 1f3e 914d 8ebe 206b 45bc 3b39 953b
00000220: 87e2 c63d 71d2 a6bd e052 9d3d 1a7f c43c
00000230: d8a2 413d 7c42 16bf 1272 1abf 62d1 103e
00000240: fb48 2e3e 9b99 2a3e 6285 13bd 81fa 703c
00000250: 4cea a8bd 588a 91be d4f9 e0be 91f5 0dbb
00000260: 75e4 38be 6a7b 6f3d 8793 17bf 76cb 3dbe
00000270: 88d5 73bd ddcf 843b 7822 3fbd 558f fdbd
00000280: c456 5e3a cdeb b83d 1b6d 383d c8c3 44be
00000290: 141a f1be 235b c53e 6b7f a6be ea58 d9bd
000002a0: 572c 16bf 16eb 97bf 023f 24bd 0f68 6ebe
000002b0: 4e28 f4be f756 213e 1473 b7bb d828 843e
000002c0: 4b51 353c 216a a23d c0a1 43bc 8843 6abb
000002d0: 289a 82bd 5185 b4be b3ee e33d 0047 4fbd
000002e0: 8add 72be ba87 2fbd 7550 073d 0956 4abe
000002f0: 4b9f 933e 313c 06bf 2c1f d0be ee67 873e
00000300: d0b3 3e3e 4366 35be 9dd9 2f3e 5655 e23d
00000310: cd70 c33d f325 bd3d 7e2f 973c 8108 063c
00000320: 79ca 42bd e46f a1bc baba 36be d373 f1bd
00000330: be21 063e cbdc cd3d 0652 083e 854d 27bd
00000340: 2a35 fe3c c3f2 46bc f143 a83d aa71 47be
00000350: 13d6 b83d 1e66 533e 8483 2e3e 9001 cc3d
00000360: 70ce 8cbd 1fae fc3d 58c0 dfbd b955 01be
00000370: 9164 10be b70b b83d 6b04 b83d 7d84 103e
00000380: 0a35 603d 9fd1 24bd deaf 053d 4fc0 453d
00000390: eef0 8a3d 3192 cb3d ab8c 353e f6bc 7abb
000003a0: 7f9a 873d 8ba6 563e d4ad 043e b45f 14be
000003b0: beed 173e 3be0 3abe bd13 05be 2dae 0a3e
000003c0: a501 f2bd eb46 0f3d 57d8 a53d 075e 15bd
000003d0: 74a5 7cbc a54e 5e3c 8670 debc 940a b93b
000003e0: 1e21 403d b685 573c 5b72 3d3d 189a bcbd
000003f0: 120b 56bd 2b29 0dbc f14b 16bd a2ff 5ebe

bias f4 [12]
-0.049628314 -0.31435812 0.017136974 0.14972554 -0.08051442 -0.15003982 -0.06730051 0.102513
-0.009759694 -0.08737253 -0.024712337 -0.07298291
00000000: 0f47 4bbd 8cf3 a0be d762 8c3c a751 193e
00000010: bfe4 a4bd 0aa4 19be dad4 89bd 56f2 d13d
00000020: 20e7 1fbc 5ef0 b2bd 8771 cabc 1078 95bd

weight f4 [12]
0.17498295 0.01985992 0.3660898 -0.14070813 1.539212 0.9524623 0.22194709 0.8145962
0.9754021 0.7124771 -0.08914918 0.9825849
00000000: bb2e 333e 45b1 a23c 1f70 bb3e cb15 10be
00000010: e604 c53f 92d4 733f 1946 633e 6089 503f
00000020: f4b3 793f e664 363f d893 b6bd af8a 7b3f

weight f4 [12, 12, 3, 3]
-0.0078069014 -0.07842697 0.009027607 0.12303716 -0.02621207 0.21459372 -0.012053885 0.04510793
-0.07216643 -0.08253205 0.042218152 0.046985254 -0.032176025 -0.032866426 -0.020930272 0.047363393
0.07042438 0.06593468 0.053133454 0.053629592 0.16014601 -0.14166038 -0.14458185 0.09006287
-0.022525195 -0.08306939 -0.05883336 0.07888138 0.022711717 -0.03450177 0.07468714 0.14225784
0.115761645 0.10816588 -0.07318435 0.2662277 -0.022381404 -0.04963283 -0.0037813755 0.0660896
0.23552817 0.10114126 -0.03493169 -0.03783263 -0.03443652 -0.014729606 0.10921374 0.07367595
0.008460198 0.16161455 0.07611555 -0.03823889 0.08292328 0.046120923 0.04126742 0.036676057
-0.020707252 0.02311679 -0.014219714 0.114922866 0.11905814 0.011750578 -0.06596165 0.037130814
0.29378054 0.016544268 -0.20014329 0.010711928 -0.032265976 0.1339621 -0.03341437 -0.0046890466
0.07434059 -0.15270965 -0.0012363299 -0.00022068921 0.31454363 -0.16210534 0.017333277 -0.13160992
-0.00016233647 -0.27574143 0.30345446 -0.04630071 0.14907853 0.022006745 0.33107442 0.009395005
0.07996984 0.0142983515 0.20730288 0.21565743 0.16393003 -0.1785451 0.21358095 -0.0516494
-0.029971506 -0.08942858 0.10547611 -0.16912538 0.038087178 -0.14824651 -0.1773051 0.44059116
-0.031065378 -0.11985653 0.013078574 -0.14919993 0.0508884 -0.09702067 0.06275139 0.217222
0.15297528 0.0419967 -0.054622788 0.14763674 0.028876083 -0.13902114 -0.098274365 0.08712038
0.023995627 0.16925548 0.15467027 -0.12899342 -0.18283418 -0.089042686 -0.002703122 0.025982443
0.063753314 -0.041591562 -0.09880058 0.04234409 0.1093178 0.1024725 0.13172922 0.048049502
-0.07622645 0.038228005 -9.3177965e-05 -0.18334596 -0.15077478 -0.09007876 0.14537102 0.03845669
-0.07179712 -0.025177589 -0.07984176 -0.11576507 0.16489133 -0.09676758 0.029074583 -0.04739368
-0.0011634195 0.0466809 0.010182782 0.0075146114 -0.00074285286 0.146909 0.0074165086 0.062178846
-0.10604879 -0.0026197205 0.1038631 -0.015459035 0.1317269 -0.036715165 -0.015990453 0.25691566
0.007957585 -0.022429317 0.13959044 0.056343634 0.048041873 0.0027808377 0.131706 -0.04918084
-0.19524212 0.067450695 0.03069663 0.15110154 -0.07940079 0.054947235 -0.053336803 -0.024591323
0.029883262 0.23393613 0.106605954 -0.06993792 -0.07169861 0.09786042 0.010743534 0.01423715
-0.06982487 -0.01983304 0.07384326 0.06340568 0.027109407 0.12934579 0.12881653 -0.11563528
-0.09700168 0.18966407 -0.2847917 0.08963131 -0.026661562 0.07166285 0.104719214 0.031125115
-0.0412203 0.00673518 -0.11822663 0.48616156 -0.17408136 0.0135670295 -0.20283467 0.013455016
0.066758156 0.14987344 -0.045470476 0.030084675 0.21331511 -0.0046242294 -0.74557513 -0.061413493
-0.35795957 -0.1960924 0.06564798 0.16026245 0.22465101 -0.028639928 -0.038970802 0.5130615
-0.6045528 -0.04859338 -0.13835 0.0724692 0.115514435 0.2637102 -0.16398156 0.3599096
0.1585374 -0.26319838 0.21727103 0.0017874662 0.05736085 0.12932242 -0.08361999 0.21426646
0.30105993 -0.10669338 0.26994994 0.40761667 0.00076307624 0.13658 -0.045555674 0.008534104
00000000: 09d1 ffbb 529e a0bd 87e8 133c e8fa fb3d
00000010: b2ba d6bc 75be 5b3e a87d 45bc 18c3 383d
00000020: fecb 93bd 9006 a9bd f1ec 2c3d 9c73 403d
00000030: 02cb 03bd f29e 06bd f675 abbc 1e00 423d
00000040: a83a 903d c308 873d 77a2 593d b4aa 5b3d
00000050: 51fd 233e 6b0f 11be 440d 14be e272 b83d
00000060: c286 b8bc 4920 aabd 40fb 70bd 908c a13d
00000070: ec0d ba3c ba51 0dbd 92f5 983d 0aac 113e
00000080: 7114 ed3d 1386 dd3d ade1 95bd ff4e 883e
00000090: 3559 b7bc cb4b 4bbd f4d0 77bb fc59 873d
000000a0: 4c2e 713e 2623 cf3d 8814 0fbd 63f6 1abd
000000b0: 4f0d 0dbd 7254 71bc 74ab df3d 6be3 963d
000000c0: a49c 0a3c 497e 253e 78e2 9b3d 62a0 1cbd
000000d0: aed3 a93d 4be9 3c3d 0708 293d a239 163d
000000e0: 41a2 a9bc 6c5f bd3c cef9 68bc ae5c eb3d
000000f0: c1d4 f33d 7f85 403c e716 87bd 7b16 183d
00000100: 676a 963e d887 873c 5df2 4cbe 1581 2f3c
00000110: 5429 04bd 5c2d 093e 82dd 08bd 93a6 99bb
00000120: e13f 983d eb5f 1cbe 590c a2ba cf68 67b9
00000130: dd0b a13e f1fe 25be 84fe 8d3c c0c4 06be
00000140: dd38 2ab9 fb2d 8dbe 625e 9b3e d0a5 3dbd
00000150: 0ba8 183e 7d47 b43c 9682 a93e 82ed 193c
00000160: 3ac7 a33d a243 6a3c 3547 543e 4dd5 5c3e
00000170: 46dd 273e 87d4 36be f7b4 5a3e 528e 53bd
00000180: ce86 f5bc 5526 b7bd dc03 d83d 342f 2dbe
00000190: 4d01 1c3d efcd 17be 788f 35be 2a95 e13e
000001a0: d27c febc 5777 f5bd 8447 563c dec7 18be
000001b0: 5b70 503d c6b2 c6bd cd83 803d 726f 5e3e
000001c0: 8da5 1c3e bb04 2c3d 25bc 5fbd 162e 173e
000001d0: 898d ec3c 8f5b 0ebe 1244 c9bd 2b6c b23d
000001e0: 7a92 c43c 4f51 2d3e e261 1e3e da16 04be
000001f0: e238 3bbe 035c b6bd dd26 31bb 22d9 d43c
00000200: 1991 823d ea5b 2abd f557 cabd ff70 2d3d
00000210: 03e2 df3d 1add d13d 06e4 063e 8ecf 443d
00000220: 9d1c 9cbd f894 1c3d 8a68 c3b8 0bbf 3bbe
00000230: b464 1abe 377b b8bd 24dc 143e c384 1d3d
00000240: 5e0a 93bd 3b41 cebc 1484 a3bd 3d16 edbd
00000250: 46d9 283e 152e c6bd d22d ee3c e01f 42bd
00000260: e17d 98ba 7934 3f3d afd5 263c 213d f63b
00000270: 03bc 42ba 506f 163e 2f06 f33b 3faf 7e3d
00000280: 1c30 d9bd 9eaf 2bbb 2db6 d43d e447 7dbc
00000290: 6be3 063e a462 16bd 69fe 82bc 738a 833e
000002a0: 8860 023c b0bd b7bc ccf0 0e3e 95c8 663d
000002b0: 8ec7 443d b73e 363b f0dd 063e d971 49bd
000002c0: 8ded 47be 9723 8a3d 8077 fb3c 5dba 1a3e
000002d0: e29c a2bd 5a10 613d b177 5abd be73 c9bc
000002e0: becd f43c f48c 6f3e 3954 da3d 9d3b 8fbd
000002f0: b9d6 92bd 0b6b c83d a605 303c ef42 693c
00000300: 5700 8fbd e678 a2bc 233b 973d d6da 813d
00000310: 8c14 de3c 3973 043e 7be8 033e 31d2 ecbd
00000320: d1a8 c6bd 4c37 423e 38d0 91be 9f90 b73d
00000330: 5969 dabc f9c3 923d 0777 d63d 19fa fe3c
00000340: 9ed6 28bd c9b2 dc3b ce20 f2bd 2bea f83e
00000350: 6242 32be 3f48 5e3c e4b3 4fbe 6d72 5c3c
00000360: 80b8 883d 6c78 193e 403f 3abd 2374 f63c
00000370: 476f 5a3e d986 97bb 03de 3ebf b78c 7bbd
00000380: 7a46 b7be 72cc 48be 7372 863d d71b 243e
00000390: ea0a 663e 489e eabc d99f 1fbd 0058 033f
000003a0: f9c3 1abf da09 47bd 9fab 0dbe bb6a 943d
000003b0: d592 ec3d 0605 873e c8ea 27be 1246 b83e
000003c0: a157 223e f0c1 86be 4c7c 5e3e 6a49 ea3a
000003d0: 36f3 6a3d 196d 043e f540 abbd ab68 5b3e
000003e0: 8724 9a3e 0f82 dabd e136 8a3e 22b3 d03e
000003f0: 2e09 483a a1db 0b3e 9698 3abd a0d2 0b3c

bias f4 [12]
0.04107383 0.082269005 -0.011596515 0.056007307 -0.30846125 0.087878644 0.008871023 -0.009121991
0.007333145 -0.044653043 -0.023783902 -0.054225534
00000000: 083d 283d a77c a83d 4fff 3dbc eb67 653d
00000010: a2ee 9dbe b8f9 b33d c457 113c 6774 15bc
00000020: e14a f03b 1ce6 36bd 75d6 c2bc 981b 5ebd

weight f4 [12]
1.7102972 1.241468 -0.7322035 -0.02592781 0.008903108 0.26757994 0.33590594 0.82026815
0.75782704 1.0088866 0.5391678 1.0129865
00000000: 05eb da3f 6ce8 9e3f b071 3bbf 8f66 d4bc
00000010: 57de 113c 3d00 893e ddfb ab3e 18fd 513f
00000020: f400 423f 3223 813f e706 0a3f 8ba9 813f

weight f4 [12, 12, 3, 3]
0.08660801 -0.3101698 -0.12929362 -0.09713889 0.15410672 -0.027651232 -0.13654993 0.08160904
0.1277454 -0.45290324 -0.23761557 0.2174444 -0.18051313 -0.059380602 -0.106740355 0.26271808
0.06910709 -0.035867266 0.0470463 -0.3040635 -0.076359056 -0.009886782 -0.16150956 -0.30249113
0.09020443 -0.07310558 -0.23982152 0.5212567 0.22340846 -0.01663442 0.55741256 -0.5378293
0.1594211 0.02205573 0.6076531 0.61547846 0.26837957 -0.2088765 0.053668704 -0.38781345
-0.15485245 -0.2448345 0.19865692 -0.024783652 0.32843584 0.21796504 0.18507479 -0.066738114
-0.14931954 0.0032492008 -0.030679405 -0.025421148 0.0049336134 -0.019520069 0.09272122 -0.08680294
-0.29923165 0.23130141 -0.20338404 -0.2906217 -0.2300061 0.045642175 0.04460074 -0.155865
-0.04997798 0.04846848 0.234481 0.1805249 -0.018797584 0.43077105 -0.17065679 -0.08365809
-0.235196 0.07734421 -0.05712495 -0.1815736 0.22864053 -0.0655823 0.12113665 -0.08392829
-0.015320837 -0.0796831 -0.15078469 -0.12008319 -0.1966577 0.17134288 0.18608508 -0.044084
-0.2037602 -0.0881659 0.30370265 -0.12446123 -0.04084196 0.036916975 -0.2357567 0.14803751
0.0028114354 -0.10297093 -0.0022096767 0.119168304 -0.021372087 0.010455532 0.06710107 0.30626342
0.023120238 0.01081963 -0.03158352 -0.04131433 -0.047065742 0.0057130945 -0.08483998 0.05034232
0.24006376 0.08109564 0.044053342 0.027969379 0.012143004 0.14109978 0.02617525 -0.06287704
-0.10088789 0.0200505 -0.12456271 0.044693377 -0.055243902 0.08693689 0.040915154 -0.094212614
-0.06496763 -0.104941234 -0.18787652 0.1353763 -0.06584651 0.03469398 -0.05316313 0.12388462
-0.026529267 0.019946614 -0.15988071 -0.055519555 0.18202274 0.100791946 0.12894496 -0.1777176
0.002302096 0.2420505 0.25222933 0.16458093 -0.15221958 -0.25137526 0.04881407 -0.27929035
0.06687856 -0.02209137 0.071585424 0.060015574 0.0027525742 0.11654377 0.022296933 0.058518317
-0.023277307 -0.10096444 0.11230816 -0.06807956 -0.03564356 0.018811023 -0.08551744 -0.052568123
0.14635256 0.09810368 0.030402092 -0.17309813 -0.10468538 -0.060954493 -0.104855634 0.31489193
-0.08747202 -0.06785927 0.10665166 0.04856437 0.09580281 0.05197301 0.14484943 0.07511684
-0.20550601 0.008215277 -0.13893552 -0.025759712 -0.027064761 0.0056404546 -0.090099946 -0.0215823
-0.17444044 0.11771942 0.0445638 -0.027057026 -0.18159692 -0.029208623 -0.07301189 -0.0020131501
0.04777738 0.11433106 -0.14235143 -0.023849536 0.050880335 0.21610689 -0.01945571 0.028865034
-0.031538907 -0.023320435 -0.03535056 0.18627487 0.031913158 0.10684602 0.13783202 -0.041606635
0.17633799 0.114161335 0.13655442 -0.047270194 0.023918435 -0.33643004 -0.1099297 0.13612932
-0.056908313 -0.12997217 -0.09026173 0.21128762 -0.110168 0.22359256 0.08670422 0.022462292
-0.18897814 0.103250965 0.015009798 -0.1963772 -0.1765246 -0.075904846 -0.25428644 -0.1264747
0.024520036 -0.060283594 0.11832419 -0.2039037 -0.09966083 0.058910545 -0.3023899 0.8063304
-0.20865409 0.09744055 0.117055774 0.20481059 0.16077168 -0.4184865 -0.32589358 0.094888695
00000000: 8a5f b13d 93ce 9ebe 8c65 04be c1f0 c6bd
00000010: 27ce 1d3e d684 e2bc bfd3 0bbe a422 a73d
00000020: b1cf 023e efe2 e7be 7f51 73be bfa9 5e3e
00000030: 6fd8 38be 1339 73bd b09a dabd fc82 863e
00000040: 0588 8d3d 8ee9 12bd 9fb3 403d 36ae 9bbe
00000050: 2362 9cbd 2bfc 21bc c362 25be 1ee0 9abe
00000060: 1abd b83d 61b8 95bd c693 75be 1471 053f
00000070: 30c5 643e e844 88bc 97b2 0e3f 2eaf 09bf
00000080: 493f 233e 38ae b43c 278f 1b3f ff8f 1d3f
00000090: 0c69 893e b9e3 55be b7d3 5b3d 7c8f c6be
000000a0: a491 1ebe e5b5 7abe b86c 4b3e 1607 cbbc
000000b0: be28 a83e 3a32 5f3e 3f84 3d3e fead 88bd
000000c0: 39e7 18be 8bf0 543b 6053 fbbc 0340 d0bc
000000d0: 26aa a13b 8de8 9fbc 9fe4 bd3d bdc5 b1bd
000000e0: e434 99be 47da 6c3e e843 50be 5ecc 94be
000000f0: b886 6bbe 4af3 3a3d 44af 363d 139b 1fbe
00000100: b6b5 4cbd e386 463d ca1b 703e 85db 383e
00000110: 64fd 99bc 068e dc3e a7c0 2ebe ef54 abbd
00000120: 38d7 70be a466 9e3d dafb 69bd 6eee 39be
00000130: be20 6a3e 0350 86bd 7e16 f83d 98e2 abbd
00000140: 3f04 7bbc e530 a3bd 4d67 1abe 2dee f5bd
00000150: a360 49be 8274 2f3e 168d 3e3e 6d91 34bd
00000160: 84a6 50be 5390 b4bd ea7e 9b3e 88e5 febd
00000170: e649 27bd 4136 173d 346a 71be 2597 173e
00000180: 0f40 383b 6ce2 d2bd 39d0 10bb 830e f43d
00000190: 8414 afbc ae4d 2b3c 496c 893d 8fce 9c3e
000001a0: a766 bd3c d144 313c b95d 01bd 3739 29bd
000001b0: 02c8 40bd e934 bb3b 95c0 adbd c033 4e3d
000001c0: 46d3 753e 7915 a63d 4771 343d 0a20 e53c
000001d0: 73f3 463c 767c 103e 7a6d d63c adc5 80bd
000001e0: 4f9e cebd f240 a43c bc1a ffbd 6710 373d
000001f0: 6e47 62bd f80b b23d a696 273d 8bf2 c0bd
00000200: c00d 85bd 6eeb d6bd b462 40be 16a0 0a3e
00000210: 89da 86bd 461b 0e3d 95c1 59bd 38b7 fd3d
00000220: e853 d9bc 1567 a33c c5b7 23be 7968 63bd
00000230: 2b64 3a3e 026c ce3d 260a 043e 9afb 35be
00000240: c3de 163b 16dc 773e 3424 813e e787 283e
00000250: 73df 1bbe 42b4 80be 43f1 473d 25ff 8ebe
00000260: a0f7 883d f6f8 b4bc 619b 923d e4d2 753d
00000270: 8864 343b 80ae ee3d 0fa8 b63c e7b0 6f3d
00000280: 0db0 bebc 72c6 cebd d201 e63d 4c6d 8bbd
00000290: fbfe 11bd 9319 9a3c c523 afbd ac51 57bd
000002a0: 72dd 153e 95ea c83d cf0d f93c a340 31be
000002b0: 4a65 d6bd 6bab 79bd 8dbe d6bd 8439 a13e
000002c0: 8824 b3bd cdf9 8abd 2f6c da3d 6feb 463d
000002d0: 4334 c43d a7e1 543d 6953 143e dcd6 993d
000002e0: 2b70 52be 5f99 063c 1d45 0ebe 0806 d3bc
000002f0: ebb6 ddbc 90d3 b83b 5286 b8bd 5dcd b0bc
00000300: 84a0 32be e116 f13d 8888 363d b2a6 ddbc
00000310: 8bf4 39be ec46 efbc 4287 95bd 0eef 03bb
00000320: 37b2 433d 6726 ea3d 93c4 11be 1a60 c3bc
00000330: e667 503d 204b 5d3e 9561 9fbc 5d76 ec3c
00000340: f12e 01bd 7f0a bfbc c0cb 10bd d7be 3e3e
00000350: 5fb7 023d 16d2 da3d d623 0d3e b86b 2abd
00000360: f291 343e 6bcd e93d ecd4 0b3e 649e 41bd
00000370: 98f0 c33c 8f40 acbe d322 e1bd 7c65 0b3e
00000380: b118 69bd 6d17 05be 24db b8bd c85b 583e
00000390: c39f e1bd 73f5 643e fb91 b13d d702 b83c
000003a0: 7c83 41be 3e75 d33d a8eb 753c 1b17 49be
000003b0: ddc2 34be 0074 9bbd d531 82be 9582 01be
000003c0: 3ede c83c eeeb 76bd f453 f23d 22cc 50be
000003d0: fa1a ccbd 2f4c 713d d9d2 9abe ab6b 4e3f
000003e0: 6ba9 55be e98e c73d f0ba ef3d deb9 513e
000003f0: 55a1 243e dd43 d6be 86db a6be 0155 c23d

bias f4 [12]
-0.056721903 0.1585045 0.20795152 0.05619221 -0.17201136 0.0013592788 0.023756681 0.07008743
-0.011305228 0.07053979 0.16063522 -0.20467232
00000000: 3a55 68bd 014f 223e 3ef1 543e ce29 663d
00000010: bf23 30be d429 b23a 5f9d c23c 008a 8f3d
00000020: 9039 39bc 2a77 903d 8f7d 243e 9f95 51be

weight f4 [12]
-0.03652626 -0.21089089 1.0291278 0.9052485 0.032098956 -0.15682504 -0.73424536 0.7912365
2.0956 0.7009652 1.0051489 0.32578832
00000000: 8f9c 15bd c8f3 57be 76ba 833f 5ebe 673f
00000010: 327a 033d be96 20be 81f7 3bbf 7a8e 4a3f
00000020: 4f1e 0640 7572 333f b8a8 803f bacd a63e

weight f4 [12, 12, 3, 3]
-0.3593687 -0.21481353 -0.016636878 0.36496022 -0.175849 -0.34200832 0.1861902 0.39329478
0.15974662 0.15210569 0.069937326 0.20341462 0.15000777 -0.32063627 -0.058981314 -0.094212234
-0.19455686 0.011037678 0.15221281 0.1297092 0.06758868 -0.06562238 -0.018432777 0.030660411
0.081651844 0.06656177 -0.13809395 -0.18253489 -0.11727774 0.004532415 -0.15893988 0.08251685
-0.18668956 -0.076066114 -0.102750115 0.09747035 -0.29520157 -0.036553755 -0.10357288 -0.19256231
0.23867367 0.18626289 0.04713499 0.032077264 -0.042059552 -0.1382588 -0.30186164 -0.19324787
0.028785883 0.1959996 -0.16793816 -0.22542417 -0.12975015 0.0033121994 -0.097512804 0.13154474
0.110464744 -0.08659815 0.009614491 -0.123149544 0.08536017 0.026487017 -0.012283242 0.119178385
-0.085272565 -0.024779076 -0.2525521 -0.07817767 0.021742452 -0.21896137 0.048905868 0.05574172
0.094021894 0.02154401 -0.099664 0.019961366 0.32543856 -0.026626777 -0.02685946 -0.053472243
-0.1375537 0.042917497 0.09461723 0.17236733 -0.19093832 -0.27532542 0.13177925 0.23151663
0.33973575 0.05972913 -0.21022107 -0.1592117 0.047108766 -0.06805707 -0.1447641 0.11237327
0.1269813 -0.029546782 0.04792321 -0.04106955 0.37480745 0.08818371 -0.34416318 0.17351437
0.01864381 -0.13649426 -0.29439566 -0.11242282 -0.08217557 -0.16625324 0.24918465 -0.20132613
0.09954677 -0.2130572 -0.41744563 0.44782993 -0.20656918 -0.27251264 0.31299257 -0.048689496
-0.6015291 0.11383524 -0.016979925 -0.23779014 0.10413543 0.026898941 -0.33783802 0.030246463
0.058714192 -0.59655714 0.14163825 0.119041905 -0.113899864 -0.047323775 0.1289419 -0.046738643
0.17785117 0.036874298 -0.035329647 -0.037164416 0.058180317 -0.33746535 0.22733851 -0.13722694
0.118058816 -0.07639933 0.07851202 0.2280548 -0.50152665 -0.33267924 0.099254206 -0.27825367
-0.0063461936 0.21008527 -0.1294254 0.10091842 -0.24994546 -0.15331438 0.027319422 0.065603636
-0.03483877 -0.09681357 -0.13387091 -0.1268297 0.037907086 -0.12595372 -0.30774003 0.13203776
0.21356438 -0.122297466 0.04547834 0.3202398 -0.03705001 0.056834027 -0.15197484 0.07331992
0.08012057 -0.22062257 0.091136865 0.06469548 0.22104757 -0.035673697 0.0050518224 -0.15671064
-0.49371502 0.47315764 -0.15192924 -0.110640556 0.1499244 0.41861707 0.14326964 0.042488467
0.19126718 -0.037218742 0.23642378 0.09376508 0.018433847 0.064564236 -0.25965074 0.09303036
-0.08993626 -0.2585546 0.2874815 -0.026709842 0.16002049 -0.028361078 -0.18234588 0.017591082
0.050020356 0.0025292344 -0.028278904 -0.10993408 0.025306374 0.01000478 -0.14229362 -0.15767993
-0.008244461 0.050343722 -0.23634078 0.056154512 -0.062505685 -0.08517071 0.04501017 -0.3206029
-0.361617 -0.052352857 0.060004428 -0.068874024 -0.15913127 0.17556387 -0.28329536 -0.06736029
0.058502935 -0.22826296 0.08334945 -0.03013475 -0.19008277 0.12447212 0.04828815 -0.20939545
-0.08844366 0.17312315 -0.024738086 0.17162183 -0.14375485 -0.23065759 0.43938383 -0.42427158
-0.13150452 0.14581412 -0.18606474 -0.106821224 -0.0028036134 0.18425983 -0.12804148 0.0359119
00000000: 2dff b7be 14f8 5bbe 104a 88bc 11dc ba3e
00000010: c311 34be b71b afbe a5a8 3e3e ef5d c93e
00000020: 9e94 233e 98c1 1b3e 4d3b 8f3d ec4b 503e
00000030: a39b 193e 702a a4be 6496 71bd 58f2 c0bd
00000040: ea39 47be 61d7 343c addd 1b3e 7dd2 043e
00000050: ef6b 8a3d 0765 86bd 5600 97bc 8b2b fb3c
00000060: 1539 a73d 8a51 883d 8068 0dbe 6dea 3abe
00000070: 502f f0bd a784 943b 23c1 22be 98fe a83d
00000080: 8c2b 3fbe 8dc8 9bbd a76e d2bd 899e c73d
00000090: a924 97be 64b9 15bd 051e d4bd 0e2f 45be
000000a0: df66 743e b3bb 3e3e 9f10 413d 7363 033d
000000b0: a346 2cbd b793 0dbe 9c8d 9abe c5e2 45be
000000c0: 5fd0 eb3c 1fb4 483e fbf7 2bbe 98d5 66be
000000d0: 39dd 04be 7c11 593b cbb4 c7bd aab3 063e
000000e0: 573b e23d 5f5a b1bd 1986 1d3c d435 fcbd
000000f0: 50d1 ae3d 4dfb d83c a73f 49bc cc13 f43d
00000100: 62a3 aebd 7dfd cabc 824e 81be 9d1b a0bd
00000110: 3a1d b23c 6937 60be 8551 483d 6e51 643d
00000120: 8d8e c03d 107d b03c a41c ccbd 0586 a33c
00000130: e29f a63e 6620 dabc 5f08 dcbc b605 5bbd
00000140: e1da 0cbe 42ca 2f3d aec6 c13d 1081 303e
00000150: 5685 43be 74f7 8cbe 24f1 063e b212 6d3e
00000160: d8f1 ad3e 88a6 743d 3144 57be 6408 23be
00000170: 1ff5 403d 8161 8bbd 0a3d 14be f523 e63d
00000180: 6307 023e 180c f2bc 214b 443d 8b38 28bd
00000190: c3e6 bf3e a999 b43d 2836 b0be c0ad 313e
000001a0: e7ba 983c 27c5 0bbe 07bb 96be ef3d e6bd
000001b0: aa4b a8bd 4a3e 2abe 432a 7f3e 7028 4ebe
000001c0: 2ddf cb3d ab2b 5abe 6fbb d5be f749 e53e
000001d0: df86 53be c786 8bbe 9040 a03e a36e 47bd
000001e0: d0fd 19bf 7322 e93d 7c19 8bbc 427f 73be
000001f0: f544 d53d 2b5b dc3c 1bf9 acbe 6ec7 f73c
00000200: 4b7e 703d f8b7 18bf 9e09 113e 3ecc f33d
00000210: 5544 e9bd 93d6 41bd 5809 043e 0571 3fbd
00000220: 9e1e 363e 8109 173d d2b5 10bd b739 18bd
00000230: 7c4e 6e3d 42c8 acbe 6dcb 683e 3885 0cbe
00000240: d2c8 f13d 4077 9cbd e9ca a03d 3387 693e
00000250: 0d64 00bf ef54 aabe ca45 cb3d 4477 8ebe
00000260: bbf3 cfbb 9820 573e 1888 04be 51ae ce3d
00000270: b4f1 7fbe 72fe 1cbe fbcc df3c 335b 863d
00000280: 19b3 0ebd 3146 c6bd 7515 09be a5df 01be
00000290: 7644 1b3d 03fa 00be 1a90 9dbe e834 073e
000002a0: 9fb0 5a3e 1877 fabd 7f47 3a3d 79f6 a33e
000002b0: c0c1 17bd ccca 683d 4b9f 1bbe c128 963d
000002c0: 4116 a43d e2ea 61be f7a5 ba3d 107f 843d
000002d0: 4b5a 623e 951e 12bd c289 a53b c178 20be
000002e0: 37c8 fcbe b841 f23e 5793 1bbe 8497 e2bd
000002f0: c885 193e fa54 d63e 47b5 123e 6308 2e3d
00000300: 8bdb 433e ae72 18bd 1319 723e e807 c03d
00000310: 9402 973c 413a 843d f1f0 84be b486 be3d
00000320: 8030 b8bd 4561 84be c630 933e 99ce dabc
00000330: 69dc 233e 7e55 e8bc e1b8 3abe 2c1b 903c
00000340: 25e2 4c3d 83c1 253b 29a9 e7bc 1e25 e1bd
00000350: 504f cf3c 17eb 233c 6bb5 11be d976 21be
00000360: c713 07bc 3835 4e3d 5103 72be 4602 663d
00000370: fb02 80bd fb6d aebd 965c 383d 1026 a4be
00000380: dd25 b9be f36f 56bd 34c7 753d d30d 8dbd
00000390: 4ff3 22be 04c7 333e 170c 91be 31f4 89bd
000003a0: c6a0 6f3d c4bd 69be 1eb3 aa3d 27dd f6bc
000003b0: 0fa5 42be 3deb fe3d ccc9 453d c36b 56be
000003c0: f321 b5bd 3247 313e 87a7 cabc a2bd 2f3e
000003d0: 7934 13be 8131 6cbe ebf6 e03e 203a d9be
000003e0: 1fa9 06be 4c50 153e c187 3ebe 16c5 dabd
000003f0: d4bc 37bb 9cae 3c3e 4e1d 03be 5b18 133d

bias f4 [12]
0.025566563 0.048863847 0.08987851 0.13950633 -0.03262903 0.16781153 -0.09159251 -0.21029155
0.21636018 0.21638948 -0.27532214 -0.12659653
00000000: f870 d13c 7525 483d 3912 b83d bfda 0e3e
00000010: 05a6 05bd c9d6 2b3e db94 bbbd ab56 57be
00000020: 868d 5d3e 3495 5d3e 06f7 8cbe 85a2 01be

weight f4 [12]
0.053375993 -0.10281412 0.15299408 0.7517551 -0.16668677 0.13793959 0.13831589 0.32857883
0.96555865 0.7934337 0.21340352 0.6154672
00000000: c9a0 5a3d 3690 d2bd 7baa 1c3e 0673 403f
00000010: f0af 2abe 0940 0d3e aea2 0d3e 7c3b a83e
00000020: da2e 773f 791e 4b3f 7486 5a3e 428f 1d3f

weight f4 [48, 12, 1, 1]
0.011602245 -0.19609705 0.12390197 0.1727339 -0.10966236 0.23181903 -0.18800811 -0.06236947
-0.15440741 -0.28558117 0.06042724 0.3419671 0.18983129 -0.11654417 0.27959585 0.035562318
0.12543257 0.16735403 0.2551644 -0.044070862 -0.10055324 0.1247616 0.275622 -0.117746584
-0.044152997 -0.026770184 0.25707772 0.035095643 0.10658739 0.08109165 -0.21447733 0.15503061
-0.1285676 -0.0955635 -0.063146606 0.16372743 -0.053394493 0.15712145 -0.012697143 -0.13145345
0.08674636 -0.09833632 0.030754982 0.14392759 0.13584712 -0.084542796 0.3628387 -0.1436338
-0.019407898 0.19960533 -0.081016645 -0.10470155 -0.045738343 -0.049600363 -0.0056297653 -0.04528739
0.01392842 0.07639236 -0.061269302 -0.17794952 0.034837525 -0.2622776 0.19235495 0.051712707
-0.20295216 0.2293848 0.14613213 -0.08568018 -0.059176262 -0.108222075 -0.004399138 -0.27259564
-0.28324425 0.064364776 0.23336256 -0.13245988 -0.06839745 0.19728895 -0.05620485 -0.16605037
0.12778981 -0.24086398 -0.025893228 -0.033884175 -0.07773687 -0.17106296 0.17994319 0.082334414
-0.022402162 0.13719825 -0.00038156458 0.057318773 -0.26807967 -0.22293061 0.049101222 0.20949747
-0.056526106 -0.17067815 0.24969062 0.06137375 -0.039706364 -0.012164338 0.02859993 -0.22279643
0.0062088175 0.2927409 0.19906342 0.094801895 -0.32869402 -0.07198561 -0.19919997 -0.10148277
-0.22350152 0.5986122 0.2353432 -0.2992918 -0.033115312 0.01901839 0.24157022 -0.0040399143
0.24590462 -0.0071483576 -0.3640802 0.023753459 0.061543316 -0.012407437 0.24522822 0.19956131
0.048229218 0.057535566 -0.24735199 -0.13152947 -0.192835 0.05453895 0.2219189 -0.10207916
-0.07385649 0.19216646 -0.13874726 -0.20428121 0.26408204 0.03543029 -0.19976917 -0.045238577
-0.07645989 0.048807863 -0.0138918245 -0.05173156 -0.1028504 0.06395001 -0.24341562 -0.03242522
-0.12454065 0.20325962 0.16837391 -0.1262859 0.1825814 0.15486525 -0.28010273 0.0011135584
0.059906516 -0.14323583 0.08838198 0.0810723 -0.19277225 0.24559836 0.02350455 -0.27421826
0.031584304 -0.016037947 -0.03256303 -0.04074374 -0.04122085 0.04384223 0.053847495 0.05141036
0.21646334 -0.022457384 0.07494109 -0.0595328 0.08412925 0.09903057 0.14141065 -0.091391034
-0.026831338 -0.15957008 0.06229485 -0.14585142 0.07383347 -0.19939055 0.33328792 -0.09308655
0.043030735 -0.3421605 0.564923 0.07562743 0.034215927 0.028433643 0.09680163 0.18027942
-0.0926038 -0.13057263 0.2284168 -0.038023762 -0.06347225 -0.10803754 0.13405454 0.027731977
-0.0054079005 -0.0002942602 0.059396323 -0.11183491 0.21782163 0.15728338 -0.17123324 0.06724419
-0.1688741 -0.061641198 0.28417692 0.028607257 0.010668734 -0.028309127 -0.06428932 -0.105288215
0.10608381 0.04538293 -0.029377716 0.16843052 -0.06944396 0.014563107 0.21562532 -0.023761818
-0.19886744 0.16664164 0.037467025 0.05464629 -0.34019566 -0.30977175 0.23565724 -0.1109549
-0.03810099 -0.07265284 -0.0051514446 -0.018967375 0.013711489 -0.075435 -0.25743997 -0.04380502
-0.28651333 -0.09233342 0.21113732 0.081437364 0.16392659 0.14411789 -0.2301883 0.104477234
00000000: 5817 3e3c aacd 48be 51c0 fd3d 28e1 303e
00000010: a996 e0bd f861 6d3e 3385 40be 2177 7fbd
00000020: fa1c 1ebe b237 92be 8e82 773d 5016 af3e
00000030: 2263 423e b6ae eebd 3027 8f3e cba9 113d
00000040: 6571 003e db5e 2b3e e9a4 823e a683 34bd
00000050: dbee cdbd 0283 ff3d 541e 8d3e 1f25 f1bd
00000060: c6d9 34bd 254d dbbc b19f 833e 73c0 0f3d
00000070: 7d4a da3d 6113 a63d f29f 5bbe 58c0 1e3e
00000080: 3aa7 03be ccb6 c3bd 0253 81bd 2aa8 273e
00000090: 2fb4 5abd 72e4 203e ad07 50bc bc9b 06be
000000a0: 13a8 b13d 8d64 c9bd dff1 fb3c c161 133e
000000b0: 821b 0b3e c624 adbd fec5 b93e bd14 13be
000000c0: 50fd 9ebc 5765 4c3e 0eec a5bd c46d d6bd
000000d0: 2158 3bbd c029 4bbd e579 b8bb 457f 39bd
000000e0: 0734 643c 9973 9c3d 85f5 7abd 6638 36be
000000f0: cbb1 0e3d 4049 86be b2f8 443e b4d0 533d
00000100: b1d2 4fbe d9e3 6a3e a9a3 153e 1779 afbd
00000110: cf62 72bd 89a3 ddbd a526 90bb a891 8bbe
00000120: 6405 91be aed1 833d 98f6 6e3e 90a3 07be
00000130: f613 8cbd 1d06 4a3e 0f37 66bd 1c09 2abe
00000140: 55db 023e 0ca5 76be 091e d4bc 22ca 0abd
00000150: 8234 9fbd 212b 2fbe 0743 383e f29e a83d
00000160: bd84 b7bc b37d 0c3e bb0c c8b9 17c7 6a3d
00000170: bd41 89be ec47 64be 5d1e 493d 8186 563e
00000180: eb87 67bd 41c6 2ebe e6ae 7f3e 0b63 7b3d
00000190: 24a3 22bd ee4c 47bc 674a ea3c bf24 64be
000001a0: 5673 cb3b 23e2 953e 48d7 4b3e 7f27 c23d
000001b0: 954a a8be 316d 93bd 14fb 4bbe 33d6 cfbd
000001c0: 95dd 64be a63e 193f cffd 703e c63c 99be
000001d0: eca3 07bd 74cc 9b3c 2f5e 773e 4261 84bb
000001e0: 6cce 7b3e c53c eabb b868 babe 9d96 c23c
000001f0: d814 7c3d 9048 4bbc 1b1d 7b3e cd59 4c3e
00000200: 008c 453d 6aaa 6b3d d749 7dbe a9af 06be
00000210: 8a76 45be 3c64 5f3d b53e 633e e10e d1bd
00000220: 1242 97bd 49c7 443e c313 0ebe 182f 51be
00000230: c335 873e 5a1f 113d 4a90 4cbe 164c 39bd
00000240: 0197 9cbd c1ea 473d 899a 63bc 79e4 53bd
00000250: 3ba3 d2bd 39f8 823d f241 79be 4fd0 04bd
00000260: 2b0f ffbd 4a23 503e 366a 2c3e 1751 01be
00000270: 9ef6 3a3e ff94 1e3e a069 8fbe d2f4 913a
00000280: 8960 753d 6aac 12be 9d01 b53d 3c09 a63d
00000290: 1766 45be 237e 7b3e 9d8c c03c 5666 8cbe
000002a0: 8b5e 013d 0362 83bc d060 05bd e8e2 26bd
000002b0: 32d7 28bd e993 333d 318f 5c3d ab93 523d
000002c0: 91a8 5d3e 8cf8 b7bc b77a 993d aad8 73bd
000002d0: f54b ac3d 8ad0 ca3d f4cd 103e 392b bbbd
000002e0: 65cd dbbc 5766 23be e228 7f3d 135a 15be
000002f0: 0136 973d 092d 4cbe b7a4 aa3e 29a4 bebd
00000300: ff40 303d a92f afbe cb9e 103f 8ee2 9a3d
00000310: 0026 0c3d aced e83c ef3f c63d 2b9b 383e
00000320: 10a7 bdbd d5b4 05be 18e6 693e cebe 1bbd
00000330: bdfd 81bd c942 ddbd 9845 093e 2c2e e33c
00000340: c234 b1bb ef46 9ab9 8f49 733d b409 e5bd
00000350: a20c 5f3e e50e 213e c457 2fbe 52b7 893d
00000360: 55ed 2cbe 7b7b 7cbd a37f 913e c459 ea3c
00000370: eacb 2e3c 8be8 e7bc 1eaa 83bd 59a1 d7bd
00000380: 7842 d93d 74e3 393d 89a9 f0bc 0d79 2c3e
00000390: a338 8ebd 199a 6e3c e2cc 5c3e 25a8 c2bc
000003a0: e8a3 4bbe 1ba4 2a3e 0677 193d cad4 5f3d
000003b0: 202e aebe 679a 9ebe 2250 713e 533c e3bd
000003c0: c90f 1cbd 03cb 94bd 73cd a8bb 7861 9bbc
000003d0: 27a6 603c aa7d 9abd 2ccf 83be e56c 33bd
000003e0: e0b1 92be 4e19 bdbd 6234 583e a2c8 a63d
000003f0: 5fdc 273e a493 133e 7bb6 6bbe 29f8 d53d

bias f4 [48]
-0.31754223 -0.021921027 -0.31566188 -0.0071092914 0.18415855 -0.18752894 -0.02347597 -0.1944822
0.14803256 -0.032805223 -0.04376666 0.22597814 0.18150744 -0.048973788 -0.012704786 -0.1325751
-0.1577372 0.04784822 -0.02056813 -0.20600188 -0.25058916 -0.1064278 -0.07363011 0.1530062
-0.3029671 -0.0908382 -0.04144744 -0.13634168 -0.020398127 0.10295553 0.016898593 0.08975478
-0.1146372 -0.15451995 -0.21408886 -0.07837939 0.0528017 -0.24708383 0.14997832 -0.108416334
0.08845325 -0.39911538 0.0905075 0.15117115 -0.19890389 -0.33862957 0.067070864 0.11446427
00000000: e594 a2be ba93 b3bc 6f9e a1be 0ff5 e8bb
00000010: 0f94 3c3e 9607 40be ad50 c0bc 5826 47be
00000020: d995 173e c55e 06bd ab44 33bd d066 673e
00000030: 16dd 393e bd98 48bd bc27 50bc c4c1 07be
00000040: dc85 21be 7ffc 433d 7f7e a8bc 28f2 52be
00000050: 394d 80be d2f6 d9bd 62cb 96bd a8ad 1c3e
00000060: 811e 9bbe 6109 babd cac4 29bd 279d 0bbe
00000070: f919 a7bc 59da d23d eb6e 8a3c 5bd1 b73d
00000080: e9c6 eabd 7a3a 1ebe 1c3a 5bbe 6085 a0bd
00000090: 9846 583d 8b03 7dbe eb93 193e 6209 debd
000000a0: fa26 b53d da58 ccbe ff5b b93d 9ccc 1a3e
000000b0: 76ad 4bbe db60 adbe 735c 893d 3e6c ea3d

weight f4 [48]
0.34600198 0.20061237 0.23992766 0.81536347 1.6750743 0.18641391 0.8769996 0.3842848
0.95621634 0.1675388 0.8408894 0.9692643 1.1279058 0.83049697 0.89798725 0.07510162
0.20060624 1.007666 0.9028914 0.35191765 0.34192944 0.26133582 0.28488123 0.846201
0.45216942 0.5573588 0.1651835 0.76784295 0.08166182 0.90197617 0.31576714 0.8860492
0.2890624 0.006827814 0.25596172 0.19365738 1.0078679 0.341537 0.8136974 0.15321092
0.9259442 0.14345992 0.5609139 1.1647052 0.3816539 0.09929213 0.9595338 0.9229317
00000000: 2c27 b13e 546d 4d3e 99af 753e a9bb 503f
00000010: d668 d63f 4ae3 3e3e 0c83 603f fac0 c43e
00000020: 98ca 743f 4b8f 2b3e 8744 573f b521 783f
00000030: 385f 903f 739b 543f 7ee2 653f e1ce 993d
00000040: b96b 4d3e 33fb 803f e423 673f 8d2e b43e
00000050: 6011 af3e cfcd 853e f4db 913e a1a0 583f
00000060: c082 e73e 11af 0e3f dd25 293e 5b91 443f
00000070: 503e a73d e9e7 663f 3bac a13e 1fd4 623f
00000080: fdff 933e dbbb df3b 6a0d 833e 1f4e 463e
00000090: d101 813f f0dd ae3e 794e 503f 53e3 1c3e
000000a0: ae0a 6d3f 28e7 123e 0e98 0f3f 0f15 953f
000000b0: 2468 c33e ac59 cb3d 02a4 753f 4045 6c3f
