FSRCNN/FSRCNN_torch/FSRCNN_48_16_2_X3_150.pth (torch, 56329 bytes, 16 tensors)

weight f4 [48, 1, 5, 5]
00000000: 43fb 1fbc 7d7b d73d 8942 66be d49d 00be
00000010: 43f3 4c3c fdc5 233e 4adc f9be df37 733e
00000020: 34c3 483e 83f1 093e 6458 acbd 0d1c 2a3e
00000030: 40a7 c3be 2252 7e3e e548 ac3c 8879 de3b
00000040: 7771 813e 58ca 8e3e d950 c8bc 92d4 e0bd
00000050: 1821 c7bc 5113 cb3d 3851 95be 0b2f bc3d
00000060: 2eed 1cbd 730a 09be bfa4 72bd a2dc f1bd
00000070: 0134 a93c 6926 12bc 9e28 1cbe 8504 c0bd
00000080: 09b5 42be b1a8 5d3e e7ae 91bd 07f6 8ebf
00000090: 6abc 893e 44db 9abc a2cb 553e 3acd 55bd
000000a0: 437d 793e ea3e 16bd c368 eabe 6f58 523e
000000b0: c51c b0bb db5d 65be ac85 dc3d eaa6 dbbd
000000c0: 77bf 09bd e8cf 98bc fdb3 29be db67 1cbc
000000d0: 7caa 95bd 9948 72bd 5c41 f53c dd9c 9bbd
000000e0: e2a6 a13d 70d1 6bbd 9fa0 093e a04e bd3d
000000f0: e550 a4be c5bd 0d3e fa4a d03e 752a 59bd
00000100: 40e9 0e3e 9036 0b3e 2988 f7bd db54 c73d
00000110: 3a97 833b 34a9 57be fc25 2e3e 7c47 e93d
00000120: 6e48 84bd e65d c5bd 763c e3bb f861 3d3c
00000130: 8382 08bb 97e7 88bd 6fb2 1f3a 1998 0d3b
00000140: c05d 34bc 98d8 4bbe 23d9 2ebd bdc9 47be
00000150: 13a9 cb3c c854 883d 0544 aebd 8e55 1b3f
00000160: 1c9a d03d 78e8 dcbd 5e41 a23d ad5b c7bd
00000170: 55bb e6bd 9032 2a3e 3758 2dbb b3aa 833d
00000180: de1c 4b3d 46c8 d83d 4c16 24bd b266 a73d
00000190: 01ce d6bd c32f 2b3e b7c4 86be 45a8 18bd
000001a0: 506e 373e ef3e 89bc a80d c6bc 294a 9b3e
000001b0: b69b 1cbe 991a cebd aa15 4b3e 09fc 83be
000001c0: b80b 85be 8ff4 873e d1f3 64bd e4ae afbd
000001d0: d9d5 f33c 0d08 453e 9642 073d 7235 0cbe
000001e0: 38de cfbc c72c ac3c 4c8a 2bbd 457e 0dbe
000001f0: cf6b 503e 05eb 5f3c 3fc7 763d d100 373c
00000200: 0333 bbbd 3189 f53d 3790 debd 1194 eebc
00000210: 6d67 07bd df25 ee3c 6f60 983d dac4 9a3b
00000220: 3203 5e3d a7d0 04bf 7f39 67be 0869 87bd
00000230: d273 2a3e b6f0 c7bc 8e5f 76be f4d6 f93d
00000240: 60fa 81bb 347b e13b f70b 293c a8f9 5bbd
00000250: 260b 6e3e 1649 c7bd 1f45 573e f507 1ebd
00000260: e180 adbc 5e78 56bd d295 10bc b140 eb3d
00000270: de4a 9bbd f9b6 99be 4f1a 313e c761 77bc
00000280: 6370 ea3e 52de 51bf b9bd da3e 12b7 bcbd
00000290: 3d86 533d a762 383e 6fa4 98bd 0bb4 cabd
000002a0: 0147 1fbd faf9 093d 4649 b53d 0b3b 233c
000002b0: 2ca5 95bc bf84 34bc 47e2 80bd 6e31 a93c
000002c0: ac9e 1ebe 0ceb c33a 9d38 283e 08b6 41bd
000002d0: 819b 35bd 1bbe 163e eb9f c13d ef25 89be
000002e0: e157 903d 4c4a 6a3d ea80 78be 54cc 2e3f
000002f0: 685d cebd 2b0f d9bc 2e68 043d 938e 08bd
00000300: 556c 31be 6761 8a3d b389 023c f87a 41bd
00000310: 7467 8a3c d900 babe 2236 393d cde2 56bd
00000320: 1ce9 243e d405 98bd a667 293e e782 b5bd
00000330: 18b6 7ebb f9e1 ddbd 43d4 0bbe d6d6 823b
00000340: 1297 aabd 9c29 aa3d c678 1b3d 1d64 733e
00000350: 9876 003f 60a8 42bd 3641 00be 1b6c 04be
00000360: 39b7 82bd db9c 5b3e 4909 a43d 4441 13be
00000370: 5eea bebd 1148 1ebe df5a d03d 0377 b3bc
00000380: a8f7 e93d 7b4e a9bc e231 a13e d85a 73be
00000390: 88bc c23d 856c a7bd 948d 573d b1e5 44be
000003a0: 2759 94bd fe66 483e 1012 8fbc 321e 46bd
000003b0: b130 c9be c49f c83e 599b 0abe a3e3 f53d
000003c0: d083 ed3d 8771 653e 2ad1 bbbc 8146 18be
000003d0: 1449 fcbd f0e5 49bc 7826 81bd a78f b43d
000003e0: 0f0f 8ebd 6b88 b9b9 7dc0 50bd 168e d13e
000003f0: 6485 d4be 8ef3 53be 23b6 f13d f10e aebe
-0.009764495 0.105216004 -0.22486319 -0.12560207 0.01250917 0.15993495 -0.4880088 0.23751782
0.19605714 0.13471036 -0.08415297 0.16612263 -0.3821354 0.24836019 0.021030853 0.00678939
0.2528188 0.2788875 -0.024452614 -0.109780446 -0.024307773 0.09915794 -0.29163527 0.0918866
-0.03831213 -0.13382892 -0.059239145 -0.118096605 0.02065468 -0.0089202905 -0.15249869 -0.09375862
-0.19014372 0.21646382 -0.07113438 -1.1168832 0.2690156 -0.018903382 0.20878461 -0.052197672
0.2436419 -0.036681093 -0.45783052 0.20541547 -0.0053745233 -0.22399084 0.107676834 -0.10725196
-0.03362986 -0.018653825 -0.16572566 -0.009546245 -0.07307908 -0.059151266 0.029938392 -0.07598279
0.078931585 -0.057572782 0.13440178 0.09243512 -0.32092968 0.13841923 0.40682203 -0.053019006
0.13956165 0.13595033 -0.12086517 0.09732982 0.0040158303 -0.2106064 0.17006677 0.11390588
-0.06459127 -0.0963705 -0.0069346977 0.011559002 -0.0020829744 -0.06684797 0.00060919573 0.002160555
-0.01100868 -0.19906843 -0.042687546 -0.19510551 0.024860894 0.06656796 -0.085090674 0.6067742
0.10185644 -0.107865274 0.07922624 -0.09734283 -0.112661995 0.1662085 -0.0026450285 0.06429043
0.049588077 0.10585074 -0.040060326 0.081738845 -0.10488511 0.16717438 -0.26321957 -0.03726985
0.17913175 -0.016753642 -0.024176434 0.30330017 -0.15293774 -0.10063667 0.19832483 -0.25778225
-0.25985503 0.2655377 -0.055896584 -0.085782796 0.029765056 0.19241352 0.033022486 -0.13692263
-0.025374517 0.021017445 -0.041879937 -0.13817699 0.20353626 0.013666873 0.06024861 0.011169628
-0.09140589 0.11989058 -0.108673505 -0.029123338 -0.03305762 0.029070793 0.07440268 0.0047231736
0.054202266 -0.5188088 -0.22580527 -0.0661183 0.16645744 -0.024406772 -0.24059889 0.12199202
-0.0039666146 0.006881142 0.010317794 -0.053704888 0.2324644 -0.09730737 0.21022461 -0.038581807
-0.021179618 -0.052360885 -0.008824782 0.11486948 -0.07582639 -0.3002241 0.17295192 -0.0150989955
0.4578887 -0.8197986 0.42722872 -0.092146054 0.05164169 0.18006383 -0.07453238 -0.09897622
-0.038886074 0.03368566 0.088518664 0.009962807 -0.018267237 -0.011017977 -0.06293159 0.020653453
-0.15490216 0.0014947369 0.16427846 -0.04729274 -0.044337753 0.14720957 0.0945433 -0.26786754
0.070480116 0.05719976 -0.24267927 0.6828053 -0.100764096 -0.02649649 0.032325916 -0.033339094
-0.17326482 0.06756859 0.0079674 -0.047236413 0.016895033 -0.36328772 0.04521764 -0.052462388
0.16104549 -0.074229866 0.16543445 -0.08862858 -0.003886586 -0.108341165 -0.1365519 0.0039928956
-0.083295956 0.083087176 0.037956975 0.23768659 0.5018096 -0.047523856 -0.12524876 -0.12931864
-0.06382603 0.21446554 0.080095835 -0.14380366 -0.09322046 -0.15457179 0.10173582 -0.021907335
0.1142419 -0.020667305 0.3148337 -0.23765123 0.09508616 -0.08174995 0.052625254 -0.19228245
-0.07243567 0.19570538 -0.017464668 -0.04836864 -0.3929496 0.39184391 -0.13535823 0.12006309
0.11597407 0.22406588 -0.022926886 -0.14870645 -0.12318626 -0.012322888 -0.063061655 0.08816462
-0.06936466 -0.0003538759 -0.05096482 0.40928715 -0.4150802 -0.20698377 0.11802318 -0.33995774

bias f4 [48]
00000000: ef84 fdbd b6a4 293e 3fbc 0ebe 6ab4 b6bc
00000010: d276 b63d b5b1 a53e d128 bf3d f4d4 383e
00000020: 4c2d 1dbe 1b01 d53c c039 73bd 69a7 8f3d
00000030: 6bd6 c13d cc34 afbd 8a12 83be 050f aabc
00000040: b260 2fbe 9dfe 713c 2ff5 2b3e c597 15bc
00000050: 9fe6 b6bc 5f02 0a3e f43e 73be 7b88 fabc
00000060: 17fa f7ba 1d22 93bd 78dd 41be e688 33be
00000070: cedb 4e3d c928 1ebd ba32 1abe 2701 883e
00000080: 2492 aabe 3009 213d c47b 053e bc14 94be
00000090: c1f3 5e3e 0d5f 2a3c b6bc b6be 941d c4bd
000000a0: 4f50 15bf 3980 1dbd c308 823d 3e5c 6abd
000000b0: 8a0a b2bc 81bf aebc 644f ac3d 9ba1 b6bb
-0.12378871 0.16566738 -0.13938998 -0.022302825 0.08909382 0.32362142 0.09333957 0.18049985
-0.1534931 0.026001504 -0.059381247 0.07014353 0.09464725 -0.08554992 -0.25600082 -0.020759115
-0.1712673 0.014770177 0.16792749 -0.009130423 -0.022326766 0.13477467 -0.23754483 -0.030582657
-0.0018919137 -0.07184241 -0.1893214 -0.17532691 0.05050259 -0.038613115 -0.15058413 0.2656338
-0.3331462 0.039315403 0.13035494 -0.2892207 0.21772672 0.010398638 -0.3569085 -0.09575954
-0.58325666 -0.03845236 0.063493274 -0.057216875 -0.021733541 -0.02133155 0.0841358 -0.005573464

weight f4 [48]
00000000: be4e 463f 005e 91bb fb57 353f 3288 593f
00000010: 80f1 db3f 696c 8a3f c597 fa3c 5e4f d0be
00000020: 9820 873f a387 073f a2e6 583d 6d60 c13e
00000030: ddff 093f 10e6 003e 4efb 3abb d561 19bc
00000040: e31f 903d e1e4 16bf 5325 803d 1f15 493c
00000050: ae1e c83d 4ac7 833e 3b7c 973f 6cb9 763f
00000060: 7a66 0a3f eed2 d23e 7d34 8f3f 5137 873d
00000070: 63a6 423f 297e 883d 7614 223e 6ffe 833f
00000080: ccb9 f93e 8ffb 463f 1f1b d73d 48e6 9cbe
00000090: 0dc3 6a3f 7c91 963f 4cd8 90bd 58b8 8a3f
000000a0: fc8b d2b9 4164 9f3d c427 5bbc b524 bd3f
000000b0: a839 1a3f 8979 b5be b5cb b3bc f6c6 12bf
0.774639 -0.0044362545 0.7083737 0.8497344 1.7183075 1.0814334 0.030589947 -0.40685552
1.0556822 0.5294134 0.052954324 0.3776888 0.5390604 0.12587762 -0.0028531137 -0.009361704
0.07037332 -0.5894299 0.06257119 0.012273102 0.09771477 0.25737983 1.1834787 0.9637668
0.54062617 0.41176552 1.1187893 0.06602348 0.76035136 0.06664688 0.15828118 1.0312022
0.48774564 0.777276 0.1050322 -0.3064444 0.91703874 1.1763148 -0.07072505 1.0837507
-0.00040158618 0.07782794 -0.01337618 1.4776827 0.60244226 -0.35444286 -0.021947721 -0.5733484

weight f4 [16, 48, 1, 1]
00000000: 25bf b23d 44cb e6bd 1ec8 f6bd 57bb 0fbf
00000010: 74a3 7fbe e5d8 f63d d297 2bbe c0c0 f2be
00000020: 437d 4fbe 3015 30bd ca0c 6cbe 5a5f 153e
00000030: 154f 47bd 9a95 53bd 910d 59bf a0bc 7c3d
00000040: 1f77 6dbe e8a9 7bbd 15ae 8d3e 167f 893e
00000050: e9e7 74bd 3168 57be 2daa c1bd 5b9e 2b3e
00000060: 1f69 89bd a688 2bbd 388d 46bd cd6e a8bd
00000070: 6cbf 42bd 97d4 e6bd 242c 733d 0013 26be
00000080: 02b7 ffbd 8ac5 233e 25a1 883e 89b0 383e
00000090: 5443 5c3e 7036 0c3d bdde d4bd eeba 8c3b
000000a0: 3c70 173d 0281 84ba 3d48 963e 27b0 60be
000000b0: 15b1 3dbe 4b65 36be dfb5 96bd a40e 8b3d
000000c0: c409 efbd e89b 55be c3f0 8f3d f010 95be
000000d0: 632b dfbc 3505 d73e 919a d3be 4d70 913d
000000e0: c443 ecbc 09be 5dbe abe7 8fbe 84ec 45be
000000f0: 0100 bf3e 1e8b 3e3e 5206 bcbd 3b75 5fbf
00000100: 94e7 bdbd 61fb 01bf 345f 0a3d b8ac 1d3d
00000110: 245b 00be 2fcd 83bd 3b38 a3bd cc94 043f
00000120: 38b3 673b c8a0 853d a6dc 383c b270 dbbe
00000130: d62a 9cbe a934 0cbe e58b d73d 8fc7 953e
00000140: 956c 153f b4d9 693e 9932 d03d fd1a b5be
00000150: 9229 e23c 319d a7be b2a1 7fbe 8183 7e3e
00000160: c013 883d 7068 f83d 8a96 00be da5b 683d
00000170: e540 93be dafd ecbe 5dcb a83d 1817 a7be
00000180: 326b 833d b8fb 8bbd a6ba fb3c ecdc c8bc
00000190: eb32 f1bb 8d8c 033e e934 10be eb52 acbd
000001a0: 6623 81bd e1a3 1d3b 43d8 bfbd 6fec d6bc
000001b0: a4ce 043e 5e15 c73d f98e b93c 70e0 e93d
000001c0: 1d47 81be baf4 a43c bdfe 523d 7d9e 9abc
000001d0: 5ba0 4abd f426 73bd e7e1 02be 2cbe aebc
000001e0: 31df 993a 98d8 50bd ec37 c3bd e9a1 4abe
000001f0: da3f f9bd a269 5c3e 5f0e ed3d 6516 f73d
00000200: e57f 22bd d3d3 7d3c 9dc8 07bd 2404 a43e
00000210: 96be bebd b303 b1bd 68d8 3d3e 5c04 00be
00000220: 42ee 69be bde2 e5bd a6ee dd3d 3783 ec3d
00000230: f0e6 f53c 9254 60bd df06 973d 6d0b ccbd
00000240: b6e0 713d 5937 18ba f2c5 883d 3828 3ebe
00000250: 3fa5 b43c d6a7 9abd 787d a7bd 7876 e1bd
00000260: 21d0 d9bd 7c48 673d 5fad e1bd abdb bfbb
00000270: 1ecf a53e 5150 4d3e 189d cfbe 132b aabd
00000280: 866e 8dbe af9e 3c3c 90fd 343d e0fd c43d
00000290: 5ea6 3c3d 938e 0ebd cae0 4dbe 0a2b 9d3e
000002a0: 0ac6 e83d 2ed4 a8bd 4112 863d e8d5 51bd
000002b0: b022 19bc cb2c 09be 3230 343a 7b51 96bb
000002c0: 0269 b9bc f965 553d 86f2 1c3d 53f0 e63e
000002d0: 9099 5dbe 14e5 a03d a51a e0be f0ee 0a3e
000002e0: 3a73 0ebd 0c5c 1dbe 88bc 193e 96a6 1cbd
000002f0: bb81 48be 5476 9a3c 8565 4bbd c3ae b73d
00000300: e4e5 d63d c47a 3bbd 472a 22bd 9492 0b3d
00000310: e37a c5bc 3fd9 cfbd d91a dabd 8013 91bc
00000320: 43f1 d03d 242e e1bc 3277 24bd 858e 93bd
00000330: 4438 aa3d 0fc1 b43c 3707 e1bd 9667 d0bc
00000340: 6e8c 3ebd ce5f b4bc 6b7c d7bc d6d0 6ebd
00000350: cea1 76bd b598 85bd c692 453e ee41 513e
00000360: 794a 1a3d 8c1d cabd f594 ce3d 219c ecbd
00000370: 7f28 7dbe bc5c edbd b6ac c1bc 0b09 38be
00000380: fa0b b03d f182 f13d 7aea f63d 0980 a0bd
00000390: 0814 e5bd fa76 2e3d a8fe 96bd 8939 d13d
000003a0: 1663 653e a78d a73c 7c78 663e 7484 053d
000003b0: cd65 193d 08d8 393c cba1 173c 17f3 613d
000003c0: 9cb0 36be c8d2 8c3d f227 5b3c bae3 9d3e
000003d0: acde 5d3c 1231 a6be 147f d73d 5f63 f43d
000003e0: c83e 8e3d 5139 933d 0cf4 a93d c5eb 003e
000003f0: 1dde 32be 2736 d3bc 484d 4bbe 302e f13b
0.08727864 -0.112692386 -0.12049888 -0.5614523 -0.24964696 0.12053088 -0.16757134 -0.47412682
-0.20262627 -0.042988956 -0.23051754 0.14587155 -0.048659403 -0.051656343 -0.84786326 0.061703324
-0.23189972 -0.061441332 0.27671877 0.2685477 -0.05979148 -0.2103584 -0.094562866 0.16759627
-0.067095034 -0.041878365 -0.04847452 -0.082242586 -0.047545835 -0.11271017 0.059368268 -0.16218185
-0.12486078 0.15993324 0.26685444 0.18036093 0.21510059 0.034231603 -0.103940465 0.0042947447
0.03697227 -0.0010109248 0.29351988 -0.21942197 -0.18524583 -0.17812078 -0.07358908 0.06789902
-0.116717845 -0.20860255 0.070283435 -0.29114485 -0.027242368 0.4199616 -0.41328862 0.07101498
-0.028840907 -0.21654524 -0.28106436 -0.19328505 0.3730469 0.18607756 -0.09180893 -0.87288254
-0.09272686 -0.507742 0.0337822 0.038494796 -0.12534767 -0.0643562 -0.079697095 0.51789546
0.0035354625 0.06524807 0.011283075 -0.42859417 -0.3050143 -0.13691963 0.1052473 0.29253814
0.5836881 0.22836953 0.10165901 -0.35372153 0.027607713 -0.32737115 -0.24964026 0.24854852
0.06644392 0.12129295 -0.12557426 0.05672822 -0.28760448 -0.46287423 0.082419135 -0.32634807
0.0641693 -0.06835121 0.03072865 -0.024519406 -0.007360806 0.12846585 -0.14082684 -0.08414253
-0.0630558 0.0024053978 -0.093674205 -0.026235787 0.12969452 0.09720872 0.022651182 0.11419761
-0.25249568 0.020136226 0.05151247 -0.018874401 -0.049469333 -0.05936332 -0.12781487 -0.021330915
0.001173949 -0.05098781 -0.095321506 -0.19788326 -0.12170382 0.2152467 0.11575007 0.12064818
-0.03967275 0.015492397 -0.033150304 0.3203441 -0.09313695 -0.08643284 0.18539584 -0.12501663
-0.22844794 -0.112248875 0.10836534 0.11548465 0.030017346 -0.054768153 0.073743574 -0.09963117
0.05905219 -0.0005806587 0.0667838 -0.1857003 0.022051452 -0.075515434 -0.08178228 -0.11008924
-0.106354006 0.05646561 -0.11019396 -0.005855044 0.3238458 0.2005017 -0.4054954 -0.08308997
-0.27623385 0.0115124425 0.04418713 0.09618735 0.046057098 -0.034803938 -0.20105281 0.306969
0.11365898 -0.08243595 0.065464504 -0.051229388 -0.009346649 -0.13395993 0.0006873637 -0.00458735
-0.02263308 0.0520992 0.038317226 0.45105228 -0.2164061 0.07856193 -0.43770328 0.1356771
-0.034777857 -0.15367144 0.15013325 -0.038244806 -0.19580738 0.018855251 -0.049657363 0.0896888
0.10493067 -0.045771375 -0.0395911 0.034075335 -0.024106449 -0.10148858 -0.10649652 -0.017709494
0.10202267 -0.027487822 -0.040152736 -0.07204918 0.08311513 0.022064714 -0.10987704 -0.025440019
-0.046520643 -0.02201834 -0.026304444 -0.05830463 -0.060212903 -0.06523267 0.19294271 0.20435306
0.03766868 -0.09868917 0.10087005 -0.11553217 -0.2472248 -0.11589953 -0.023641925 -0.179722
0.08596034 0.11792553 0.120564416 -0.07836921 -0.11185461 0.042593934 -0.073727906 0.10216052
0.2240108 0.020453287 0.22506899 0.03259702 0.0374506 0.01134301 0.009254883 0.05516347
-0.17840809 0.06876141 0.013376223 0.30837804 0.013541859 -0.32459313 0.10522285 0.11933016
0.06945568 0.071886666 0.08298501 0.12589939 -0.17467542 -0.025782658 -0.19853699 0.0073602423

bias f4 [16]
00000000: 3674 1abd 8ec6 b7bd 9d4a aa3d 9f90 e23c
00000010: 685d 20bc ae00 91bc e80f 713d 515f f3bd
00000020: 1d34 edbd 7d32 6e3d 9e60 f5bd 6dbf 86bd
00000030: d72b 453e 40ea 3a3c 642e 9abd 695a 6d3d
-0.037708484 -0.08973418 0.083150126 0.027656851 -0.009787895 -0.01770052 0.05885306 -0.118834145
-0.115822054 0.058153618 -0.11981319 -0.0657948 0.19255005 0.011408389 -0.075283796 0.05794755

weight f4 [16]
00000000: 20a1 c93a bb60 52bd 47db 5ebe 3c1d 413d
00000010: 6147 863f 8529 963f ab1d 693f 9dfa 9fbb
00000020: d386 b13e 7eb1 20be ec75 283f 0f91 d53a
00000030: d129 753f 63e5 843f f54a 8dbb 9596 f4bd
0.0015383102 -0.05136178 -0.21763335 0.04714702 1.0490533 1.1731421 0.91060895 -0.0048821704
0.34673175 -0.15692708 0.65804935 0.0016293841 0.9576693 1.0382503 -0.004311914 -0.11942784

weight f4 [16, 16, 3, 3]
00000000: b45d 893d 3d8f 9a3c 5c1c aabe 09fe 413d
00000010: c663 0c3e ade0 323d dcc5 043f 2473 793d
00000020: 79b4 d23d fb75 9f3e 3339 3d3e 06c7 f13e
00000030: 41a5 713e ceef 933e 2e1d 613e 473d 233d
00000040: 4118 203e 2737 8b3e 8a04 153d 6084 d2bd
00000050: 4f47 b1be 47be 0fbe b9bd 083f 3d04 09be
00000060: 9a18 ea3d b4e5 28be 44dc 813d dc72 b4bc
00000070: 3011 013e 1fca 2b3e 2993 32be 332e a2bd
00000080: 2657 99bc 304b 8f3c 284a 99be d01c 43be
00000090: 9ab4 04be adb8 a9bd 888c bdbd 2809 e13d
000000a0: e78b b4bc 0812 073e 1a05 513d 3fdb 5d3e
000000b0: 8677 acbd 58cc 163e 2c4f a8be c72e 53bd
000000c0: 26eb 013e 5787 d63d 6851 6fbe 6a66 d2bd
000000d0: d770 003e 2f6b 723d fc78 0abe 6e1e 60be
000000e0: 8277 953e 8167 ad3d 516e eb3d c4f5 d0be
000000f0: 2004 71bd 109b fa3d 2919 b1bd 6003 383d
00000100: 76c7 e3be 6e0c 3e3e 2011 13be 36b4 31bd
00000110: a8b0 a13c 5500 64bd 21c6 3f3d 9d76 293e
00000120: d444 97be c819 d2bd 2c22 7b3e 2ec2 983e
00000130: 6aeb f33d ce2c 40be c26f b2bd 1ae3 d1bc
00000140: 8d83 033e deb0 88be 07f9 03bf 1ad9 9e3d
00000150: 2224 81bd 5240 83be f542 cebe 35f4 2abe
00000160: 92d9 86bd 63b3 aabe faa0 2dbd e001 a53e
00000170: ddd9 01be 931a acbb 5a68 253e b41c 75bc
00000180: 8e1e 81bb d0d6 a23e baa2 5bbe eb07 e33d
00000190: c20a 873d 1541 efbc d4c7 6cbe 1bea 8c3e
000001a0: 9325 af3d 9592 bfbd da8c 44be 9740 eebc
000001b0: d2fa bc3d 0af1 a7bd bebc 8f3c 4a4f f1bc
000001c0: fe94 46be 1448 cf3b 86d7 8f3d e2ca ae3d
000001d0: 43e6 503d f2d3 f23e bdff 31bf b9a9 ed3d
000001e0: 8431 fdbd 8889 bb3e 8a29 9b3d 0994 3ebe
000001f0: e4b1 1c3e f238 65bb d92e d23b 4efa ea3d
00000200: af0b dfbe 7c89 9fbd 8276 e33e f4eb 9a3e
00000210: f3a4 fe3d db5a c53b 231d 9a3c 1771 a13d
00000220: 7124 823e 15be 44bd d427 3dbd 369c a13e
00000230: fad8 af3e 6e6d 1c3e b80d d93d 7c6e 1e3e
00000240: 34d3 7e3e c99f 313d 75c8 1bbe e03f c7be
00000250: 883a e0be 4585 193e 95e0 943d 2737 3bbe
00000260: f2cc 04be 6dbd 84bd 4a9a 4f3e 3922 a73e
00000270: e5c7 183e 49a3 81be ff8a 623e 2f1c 9cbe
00000280: 0f7a b83e 8dac 073f e811 733e ede5 cf3d
00000290: 9c86 a73d 8c47 193e f424 76be fced 003e
000002a0: 60f2 abba 64c4 e93c 99e2 9a3d 35c0 053e
000002b0: 1c6e 8f3d 91b6 1cbc 7609 99bc 46af 1d3e
000002c0: 97fc f93d be38 683d 5168 efbd 320c cbbd
000002d0: 68aa 6c3d 5643 d93d eb5b 663d 2249 a23d
000002e0: bfea a63d e05d 793c c667 f8bc 9f8b c63b
000002f0: 3d11 f9bd b287 aebd 4f7e d2bd 5f57 f4bd
00000300: 4c4f f23d 6023 193e 37f4 f4bc 8a7a 64bd
00000310: 1204 f6bc 9b54 e4bc fe79 233c b54f 4c3d
00000320: 21f8 493d 96b9 b1bd 60ad 0cbe 233e 843d
00000330: 6610 72bd 4871 82bd 0b49 143e 1cfe 343d
00000340: 87f9 87be 1735 9e3e e5be 2abd 777d 37bf
00000350: faea 733d 9b33 66bd 92f6 11bf c397 27bc
00000360: 5401 f63d 6181 4d3b 8004 a1bc d3bb babd
00000370: 72b9 41be 58fd 72be 0498 d13c cfcf 673e
00000380: 04c5 dfbd a373 cdbd a897 dfbd 671f 8f3c
00000390: baae aebe 6a4e 21be f494 823e c1ea dbbd
000003a0: 2d33 8dbd 90cd cc3d afcf 583d f369 533a
000003b0: 309e 013e 0cd8 34bd c4c9 cebd 0515 a53d
000003c0: 8e21 aa3d 7039 fb3d f2db 35bd a36b e6bd
000003d0: 3bf5 68bc 3770 3dbe 04e8 f5be 4432 59be
000003e0: 7a9f 8ebd 4df3 8d3d 4ee8 d23e 69c7 c9bd
000003f0: 39ae 683d 31b9 84bc 28d4 f6bd fff8 05be
0.067073256 0.01886713 -0.3322476 0.047361407 0.13709936 0.0436713 0.5186441 0.060900822
0.10288329 0.311447 0.18478851 0.47222155 0.23598196 0.28893894 0.21983787 0.03985336
0.15634252 0.27190515 0.036381282 -0.10279155 -0.34624717 -0.14037429 0.53414494 -0.13380523
0.114304736 -0.16493875 0.063408405 -0.022027425 0.12604213 0.16776322 -0.1743895 -0.07918968
-0.018718313 0.017491907 -0.2993939 -0.1905396 -0.12959519 -0.08287177 -0.0925532 0.109880745
-0.022039367 0.13190472 0.051030256 0.21665667 -0.08421235 0.14726388 -0.32872903 -0.051558282
0.12687358 0.10475033 -0.23370898 -0.1027344 0.12543045 0.05918425 -0.13522714 -0.21886608
0.2919274 0.084670074 0.114956506 -0.40812504 -0.058841825 0.12236607 -0.08647377 0.044925094
-0.44488114 0.18559429 -0.14362001 -0.043384753 0.019737557 -0.05566438 0.04681981 0.16549154
-0.295447 -0.10258824 0.24524754 0.29835647 0.11910136 -0.18767092 -0.08712722 -0.025620986
0.12843151 -0.2669744 -0.5155186 0.077562526 -0.0630572 -0.2563501 -0.4028546 -0.1669472
-0.06584467 -0.33339986 -0.042389847 0.32227993 -0.12680764 -0.0052521913 0.16153088 -0.014960457
-0.00394041 0.31804514 -0.21448794 0.110854946 0.06593849 -0.029205838 -0.23123103 0.27522358
0.085520886 -0.0935413 -0.19194356 -0.029083533 0.09227528 -0.082002714 0.017546054 -0.029456753
-0.19392774 0.006325731 0.0702353 0.085347906 0.051000845 0.47427326 -0.6953085 0.11604638
-0.1236296 0.36628366 0.07576282 -0.18611158 0.15302235 -0.003497657 0.006414276 0.11473523
-0.435636 -0.07789895 0.44426352 0.30258143 0.12433805 0.0060227937 0.018812722 0.07882898
0.25418428 -0.04803284 -0.04618056 0.31564492 0.34345227 0.15276119 0.1059832 0.15471834
0.24885255 0.043365274 -0.15213187 -0.3891592 -0.43794656 0.14992245 0.07269398 -0.18282758
-0.12968805 -0.064814426 0.202737 0.32643297 0.14920004 -0.2531989 0.22123335 -0.30490252
0.36030623 0.52997667 0.237373 0.10151277 0.081799716 0.14968699 -0.24037534 0.12590784
-0.0013118498 0.02853603 0.07562751 0.13061602 0.070034236 -0.009565012 -0.01868127 0.15398893
0.12206381 0.05669474 -0.11689819 -0.099144354 0.0577797 0.106085464 0.056240004 0.07924105
0.08150243 0.015220135 -0.03032292 0.0060591246 -0.12161491 -0.085219756 -0.10277998 -0.11930727
0.11831531 0.149549 -0.029901607 -0.055780925 -0.030031238 -0.027872374 0.009977816 0.049880702
0.0493089 -0.08677976 -0.13738012 0.06457164 -0.05909767 -0.06369263 0.14480989 0.04418765
-0.26557562 0.3089988 -0.041685957 -0.7167582 0.059550263 -0.05620156 -0.5701686 -0.010229054
0.12011972 0.0031357633 -0.019655466 -0.09117856 -0.18918398 -0.23729455 0.025585182 0.22637866
-0.109262496 -0.100318216 -0.10917598 0.017471028 -0.3411768 -0.15752569 0.25504267 -0.10738135
-0.06894527 0.100001454 0.052932438 0.0008064799 0.12658 -0.04415135 -0.100970775 0.0806065
0.08307181 0.12266815 -0.04439921 -0.11250999 -0.014218624 -0.18499838 -0.48028576 -0.21210581
-0.069640115 0.069311716 0.4119286 -0.098524876 0.056806777 -0.016201587 -0.12052184 -0.13083266

bias f4 [16]
00000000: 2027 b53d 228e 863d 68fe 5abd bea5 f63c
00000010: cae2 113d 0637 a63d 182a 263e 4591 8fbb
00000020: 7f2d 9d3d ae84 d23c 596e eebc 4497 9b3d
00000030: ea5e 673e e9bf f53d 04aa 18be b031 9e3c
0.08845353 0.065700784 -0.053465277 0.030108329 0.035616674 0.08115964 0.16226995 -0.004381331
0.07674693 0.025698032 -0.029105352 0.07597211 0.225948 0.119994946 -0.14908606 0.019310802

weight f4 [16]
00000000: 90d9 c3bf 2624 1cbe 9096 f9be 3829 08bf
00000010: a1eb 69bf eed5 893f 2ca5 5a3f 99b5 293f
00000020: 929c 98bd 5749 03bd ced7 753f a2c2 6e3f
00000030: 1c6f d6bc b221 153e 95ae 0e3e 3a7e 5abd
-1.530077 -0.15248165 -0.48747683 -0.53187895 -0.91375166 1.0768411 0.8540828 0.6629272
-0.074517384 -0.032052364 0.96032417 0.93265736 -0.026176028 0.14563635 0.13933785 -0.053343035

weight f4 [16, 16, 3, 3]
00000000: 1462 98bd a7f4 fbbc aec7 1abe c931 1ebe
00000010: 34ad 103e ced0 8b3d 7fec a6bd 7f93 cc3d
00000020: b753 d7bd 2622 33bd 58dc 8dbd 715d d13a
00000030: 7fdb 323e cffd d53d 3944 4abd 26cc 32bd
00000040: f76d 293c 1abd 4f3d 516b 90bc e5ef 303e
00000050: cb98 6bbd 28fe e13c 20f3 babe 2cb7 cbbc
00000060: 53a8 803d d3e7 563e c002 043e 81e4 d4bd
00000070: 2ea5 8bbe 34c0 80bd 7782 f23d 69c0 b63e
00000080: a202 79bd 33bc e6bc cd8e 38bc f4c3 c6bb
00000090: ef38 1fbe 1c80 f83c 1cbf 253c 8aab 95be
000000a0: 2750 c23e 80f4 bfbd 3f68 0fbd b228 a8bd
000000b0: 2860 e93c 1186 573e 49ed 213e 3b7a cd3d
000000c0: aece 723e e997 8ebe 6b35 f73d b418 05bd
000000d0: e34f 64bd b5df ad3c 8fa1 ad3b aa15 453e
000000e0: a162 bfbd dafa 003d 6ecc 1fbd f420 33be
000000f0: 8b14 003d a740 8dbd 9313 1abe 6187 fe3c
00000100: e489 b3bd cd42 873d 2fec 033e acf5 38bd
00000110: 75df 4a3e 3256 243c 5855 8ebb f63f 52bd
00000120: 114a 1b3e 2da4 803e 83f7 233e 6327 79be
00000130: 85c0 ffbd 5622 acbd 2b33 213d df3e fdbd
00000140: 1194 0abe 75d4 6c3d 9dec a93e 8adc 123e
00000150: d014 1e3e eaf2 3fbf d71e 8fbd e70f 1b3d
00000160: faf2 35be 34e4 ec3c a992 5b3c 9395 3f3e
00000170: 6903 823d b791 433e 69c0 17be 6815 8abd
00000180: 6391 a83d e3c7 2bbd d86b 74bd 5690 123c
00000190: bc4b 403d d049 893d 7d49 43bb f684 253e
000001a0: 8334 84bd 9150 a83c dec5 bb3d 82f3 053d
000001b0: 963a 8dbd 5637 643e 51e4 923d b601 f13c
000001c0: 20a5 483e 3e48 833d 9457 40be 2e69 233e
000001d0: 1dd1 cf3c 6bc7 f33d 11f6 b2be c358 9e3e
000001e0: 3ee1 98bc b02a 60bd cf6b babd ab0b 0cbc
000001f0: f216 183c 1345 eebd 7efe c63d fb8a 87bb
00000200: 2560 87bc a288 94bd 2b7b 533e 2b4c 36be
00000210: 026a 14bd 4225 58be 42a0 9c3d 5ff0 a93d
00000220: 7d6e 1abe b3ea 6dbd 7661 7ebc c073 13be
00000230: 494d dabd 4dce 51bd 04f8 513e 35af 81bc
00000240: 908b 80bd bb21 c0bd 467b cf3d 3c63 27bd
00000250: 382a 9dbd 651f db3d 9341 9b3c 445b b4bd
00000260: 9aeb 27bc e310 133d 1fa2 8dbe 8c41 c73d
00000270: 15d6 01be 495d 8abe c168 0cbd 24a8 97be
00000280: 72c4 fe3c d797 8a3d 5eda b4bc 1f3f 763d
00000290: d2b2 b23c fc1e 52be 83de 893e f361 373d
000002a0: 541d 06be b85d bc3d a360 4e3d 7898 ed3e
000002b0: fb92 23bd 7ab3 cb3d 8a64 09be a367 bd3d
000002c0: 001c a63c be51 80bd 8c44 cc3c d822 d43d
000002d0: 8330 59be 6ed8 2c3d a08f 9d3d 99b3 3dbe
000002e0: 9c3c 41be 9d3d 9d3d 6743 353e 4e67 50bd
000002f0: bee9 d23a c53b 90be de05 e8bd e341 06bd
00000300: 1478 c0be ad4b 573d f8e9 38bd 1602 22be
00000310: 6673 0a3e bf7c d73b b078 d1be 40af a9be
00000320: 9a97 2fbc 28aa 9bbe f1de 44be df26 433e
00000330: 3f3f 86be 2ce3 4fbd 7a8b 0d3e 15eb a93e
00000340: d09e 04bd 011d 2d3e 3d49 893e 1cd5 98bd
00000350: a4cf 8a3e 1a3f e13e d24a b1be f45e ab3d
00000360: 3318 e3be 0f40 c3bd 258e 6ebd 8b28 62bf
00000370: 729d 8a3d 10da 03be abff 02be 37a2 38be
00000380: 85e7 fe3d 8860 6e3e bd27 38bd 077f bdbd
00000390: e213 04bf a8d0 a5bd 2dcf 31bd f538 9abe
000003a0: e479 dfbd adde 4bbd 5b10 8a3d 10be 173d
000003b0: d90a 183d 9fd5 003e 9738 7dbe 73c4 4c3e
000003c0: 4fe9 903d ce76 89be 5a58 0b3e 915d 4d3e
000003d0: 5159 f4bc ba79 d4bd 8a97 b2bd 76a9 93bc
000003e0: 153b c53d 872a 593e 017a f4b9 5c76 febd
000003f0: 7ca6 d8bc 4817 04be db46 ab3d b80a 40be
-0.07440582 -0.030756308 -0.15115234 -0.15448679 0.14128572 0.06826936 -0.08150577 0.0998907
-0.10514014 -0.04373374 -0.06926793 0.0015973282 0.17466544 0.10448801 -0.04938147 -0.043651722
0.010341159 0.05071745 -0.017629297 0.17279013 -0.05751876 0.027587011 -0.36513615 -0.024867617
0.06282105 0.20986871 0.12891674 -0.10395146 -0.2727446 -0.0628666 0.118412904 0.35693672
-0.060793526 -0.028165912 -0.011264515 -0.00606584 -0.15549062 0.030334525 0.010116365 -0.29232436
0.37951776 -0.093728065 -0.035011526 -0.08210887 0.028488234 0.21047236 0.15813173 0.10033079
0.23711655 -0.27850273 0.120707355 -0.03249426 -0.05574025 0.021224836 0.0052988003 0.19246545
-0.09344984 0.03148923 -0.03901332 -0.1749304 0.03126959 -0.06897097 -0.1504653 0.031070413
-0.08766535 0.06604538 0.12883066 -0.045156166 0.19811805 0.010030316 -0.00434367 -0.05133053
0.15164973 0.25125256 0.16012387 -0.24331431 -0.12487892 -0.084049866 0.03935544 -0.12365507
-0.13533045 0.057819802 0.33188334 0.14341941 0.15437627 -0.7498003 -0.06988304 0.037856963
-0.1776847 0.02891741 0.013401666 0.18709402 0.06348307 0.19098555 -0.14819492 -0.06742364
0.08230855 -0.041938674 -0.05967316 0.008945545 0.046947226 0.06703532 -0.002979844 0.16164002
-0.06455328 0.02054623 0.091685995 0.03270293 -0.0689594 0.22286734 0.07172454 0.029419761
0.1959424 0.064102635 -0.18783408 0.15958092 0.025368268 0.1190327 -0.3495336 0.30927095
-0.018662091 -0.05472821 -0.09102594 -0.008547704 0.009282814 -0.116342686 0.09716509 -0.004136441
-0.016525337 -0.07252623 0.20652454 -0.17802493 -0.03623391 -0.21107963 0.07647754 0.082978
-0.1508121 -0.058085155 -0.015526166 -0.14399624 -0.10659272 -0.051222134 0.20504767 -0.015830616
-0.062766194 -0.093814336 0.101309344 -0.04086612 -0.07674068 0.106993474 0.018952167 -0.0880647
-0.010249043 0.035904776 -0.2766275 0.09729299 -0.12679322 -0.27024296 -0.03427959 -0.2962047
0.031099532 0.067672424 -0.022076782 0.06011879 0.021813784 -0.20519632 0.26927575 0.044771146
-0.13097125 0.09197563 0.05038513 0.46405387 -0.039935093 0.09946342 -0.13417259 0.09248283
0.020277023 -0.06265591 0.02493503 0.103582084 -0.21209912 0.04219859 0.0769341 -0.18525542
-0.18870777 0.076777674 0.17701493 -0.05087977 0.0016091389 -0.281706 -0.11329244 -0.03277768
-0.37591612 0.052562404 -0.045145005 -0.15821108 0.13520584 0.00657615 -0.4091239 -0.33141518
-0.010717297 -0.30403256 -0.1922567 0.19057797 -0.26220128 -0.050753757 0.13822737 0.33187166
-0.032378018 0.16905595 0.2681369 -0.074625224 0.27111542 0.43993455 -0.34627396 0.0836772
-0.443544 -0.095337026 -0.05824103 -0.88343114 0.067683116 -0.12876153 -0.12792842 -0.1803063
0.124465026 0.23279011 -0.044959772 -0.09252744 -0.5159284 -0.08096439 -0.04341047 -0.3012158
-0.10911921 -0.049772907 0.06741401 0.037046492 0.03711972 0.1258149 -0.24728619 0.19996814
0.0707575 -0.26848453 0.13607922 0.20055224 -0.029827746 -0.1037478 -0.0872031 -0.018025141
0.0963041 0.21207629 -0.00046630207 -0.12424919 -0.026446573 -0.12899506 0.08363124 -0.18754089

bias f4 [16]
00000000: 2a48 3dbd 323e 08be 149e d3bd 2bea c33d
00000010: 57b3 9cbd b43c 82be 8d81 033e 6eb0 06bd
00000020: 23a7 443e e4d5 8a3e d608 08be 3e8b 08be
00000030: 5e70 5ebe b085 1cbe 2054 3dbe 1b81 2c3d
-0.0462114 -0.13304976 -0.103328854 0.09566148 -0.07651394 -0.25436938 0.12842388 -0.0328831
0.19204383 0.2711631 -0.1328462 -0.13334367 -0.21722552 -0.15285373 -0.18489122 0.042115312

weight f4 [16]
00000000: e30a b53e 6444 a93e 6160 9abd d145 643f
00000010: 72da ec3d 3275 863e d42b 4a3f bb1c 693d
00000020: 4be9 503f 76cb 403f 0eee 3a3e 436c 763e
00000030: 1e8a 623e 59b0 ac3d 9074 173f e635 f13f
0.35359868 0.3305999 -0.07537914 0.8916903 0.11565103 0.26261288 0.78973126 0.056912165
0.81605977 0.75310457 0.18254873 0.24064736 0.22123 0.08432073 0.59162235 1.8844573

weight f4 [48, 16, 1, 1]
00000000: b4b3 873c 29d6 553f 2712 233d 289c d6bd
00000010: 8d67 783d 84f3 2c3f 2084 513e 62ca df3d
00000020: fa03 153e 6cdb 623e 5f92 7bbe 1480 363d
00000030: b44d ec3e d789 8b3d b27e 88bd 7f4b f73d
00000040: 2a1e cabc 6ff5 ce3b 6fe8 e73b 56b3 293c
00000050: 020d 093d 7a73 b73d 4682 813c 26d3 a2bd
00000060: b120 50be 99f3 a9be 10e3 a93d 7e98 093d
00000070: 0dad 8cbb 1d1a 5d3e 8528 7ebd 8beb d1bd
00000080: a7e4 8f3c 1f8f 013e b816 15bd f3c5 92bc
00000090: 41eb b93d 115c 323d 619b ea3d e34e 80bd
000000a0: 4072 57be f697 5abe ee4c 62bd beb6 9c3d
000000b0: fbea 8bbd 13fa c53d 4702 6e3d fbac afbd
000000c0: cba4 d53c d88a 0eb6 8518 453d aa55 043e
000000d0: 715d b3bd 8015 b73c f160 0dbc 59a5 70bc
000000e0: 4133 853d ad97 833d 0577 23be 3742 813d
000000f0: 3f3b 22be 8c2c 5bbc 61c8 853d 9f23 20bc
00000100: bbc4 2bbe b4a7 98bd eb9b babd 50ae 033e
00000110: 9d5f d23e 62f0 8a3b 1ab3 913d 9681 e23d
00000120: bc7c 683d ed76 2dbe 631e 783e 0693 14bd
00000130: fbea 4b3d 4983 3dbc 5e60 c1bd 90c7 733b
00000140: d989 4abd 5d43 ad3d 6c6b 14bc 3658 52be
00000150: de1c 643d 2160 40be 4335 b23d 498e 7abd
00000160: 097b c5bd 8c5b c4be 527e 823e 4f58 7bbd
00000170: 7ff6 f33d cd05 a63d 8d5d fc3d f01d 02bd
00000180: 779e 623c 5346 2c3d 46e4 d2bd dbff f3bd
00000190: b791 a23d 1efd 1bbe b42e 4bbd 4920 ed3d
000001a0: eebc 42bd 9657 b73d c32b 7f3d 7ff2 83be
000001b0: c927 b23e 8032 0abd 9195 53be a05c 1f3d
000001c0: fba2 80be 924c f83d 6763 41be 36f3 29be
000001d0: 4701 b13e 9365 5d3e 8670 17bd 2ff7 943e
000001e0: 8707 14be 811c 743e df34 803d 6aa9 4dbe
000001f0: ea51 30be b06b 7c3d 0f6c 22bd 2d66 663d
00000200: 41bd a03c ee30 e2bd 1fa8 afbb 42dc 56bd
00000210: 210b 353d aa04 c2bd f309 b9bd a756 5e3d
00000220: b15b f1bc 4bde 82be 6c05 65bc 0e8d 4a3e
00000230: 7886 813e 15d1 a93d c714 03be 1cf3 0038
00000240: 51f5 423c 5a39 81bd 8b17 6abd 799d 3cbd
00000250: d009 45bd 05be 593e 1365 753d 4e1e e93d
00000260: 3c40 813d 6bf2 813e 2dd5 dc3c 4028 9bba
00000270: 89c0 42be 50d8 8bbd c68d ae3d 9161 373c
00000280: 4505 913e f141 a23d acc3 25bd c754 cb3d
00000290: 6f15 8abe 3d33 9fbd d97b 23bc 6d1f 70be
000002a0: 0b36 cbbe 92c5 efbd 46cb f13d 838a ce3e
000002b0: 568d ae3e c92f 5c3d 7cd8 64be b329 15bd
000002c0: a475 e93d 20dc f63d 6796 5abc e1f1 a0bd
000002d0: 7064 e3bc 9e1b a4bb 138b 0cbb 0796 81bd
000002e0: d46b 52be f305 27be 6917 363d f2d5 5d3e
000002f0: 9b3d 5ebe a960 243e f944 a1bd 991c 3fbd
00000300: 86f3 9e3d e0ae f43d e917 f5bc 31bf af3d
00000310: 162d 1cbe d927 63bd ec72 92bd d8eb c8bb
00000320: 3808 fc3c 2e44 433e a365 8b3d f3a2 023e
00000330: 5717 163d 0703 4cbd 9e10 63be 8549 0dbd
00000340: 7e3b f03b 20c7 e4bd 400e 603d e724 893d
00000350: ede4 5b3e 782b 4e3b da08 3b3e b28b 2abe
00000360: af68 d23d 3e2a 84be 9130 a83e f401 f7bc
00000370: a5d5 34be 021c 413e bce2 05be 0b11 a2bd
00000380: 0b68 64be 427b 0bbe 6dea f5bd 9374 3abd
00000390: 6421 fb3d 31d0 c43e 1c95 75bd 9e24 0a3e
000003a0: 716d 8d3d 9044 233d 8b92 593e ccc9 3abd
000003b0: bcfe 5dbe e7ac 77bd 46b8 e9bd 9057 42bd
000003c0: 68b2 3a3e 3a8d 80bd 4314 53bd a5b5 56be
000003d0: 148e 2fbd 9c46 2b3e 5d91 ad3d e1d6 f13d
000003e0: 035a 4d3d 44ce 43be b80e b73d 9412 0bbd
000003f0: b325 0b3c 8b63 8d3b ca46 003e e38a b6bd
0.016565181 0.8352991 0.039812233 -0.10479003 0.06064563 0.67559075 0.20460558 0.10927273
0.14552298 0.22154015 -0.24567555 0.04455574 0.46153033 0.068134 -0.0666479 0.120749466
-0.024672586 0.006315879 0.007077269 0.010357698 0.03345967 0.08957572 0.01580919 -0.079504296
-0.20324971 -0.33193663 0.08295262 0.033592694 -0.00429309 0.21591993 -0.06205036 -0.102500044
0.017565085 0.12652253 -0.03639862 -0.017916655 0.09078074 0.043544833 0.114554174 -0.062650464
-0.21039677 -0.21347031 -0.055249147 0.07652043 -0.06831928 0.096668385 0.05810764 -0.08577915
0.026079556 -2.1240467e-06 0.048119087 0.12923303 -0.08758057 0.02234912 -0.00862907 -0.014687859
0.065039165 0.06425414 -0.15963371 0.063114576 -0.15842913 -0.01337732 0.0653236 -0.009774118
-0.16774265 -0.07453862 -0.0911177 0.12859464 0.41088572 0.0042400816 0.07114239 0.11059873
0.05675958 -0.16939898 0.24230342 -0.036273025 0.04978464 -0.011566945 -0.09442209 0.0037197806
-0.049447868 0.08460114 -0.0090588145 -0.20541462 0.055691592 -0.1878667 0.08701565 -0.06117085
-0.09642608 -0.38351095 0.25487 -0.061363515 0.1191225 0.08106575 0.12322531 -0.031766832
0.013831726 0.042059254 -0.10297446 -0.11914035 0.07937949 -0.15233275 -0.049605086 0.115784235
-0.04754346 0.089522526 0.062297594 -0.25770947 0.3479598 -0.033739567 -0.20662524 0.038906693
-0.25124344 0.1212398 -0.18885575 -0.16596684 0.34571287 0.21620779 -0.036972545 0.29094836
-0.14455996 0.23838998 0.06260084 -0.20084158 -0.17218748 0.061626136 -0.039653834 0.056249786
0.019621493 -0.11044489 -0.005360618 -0.052456148 0.044200066 -0.09473546 -0.09035101 0.054281857
-0.029462667 -0.2556022 -0.013978343 0.1978037 0.25297904 0.08291832 -0.12800895 3.074399e-05
0.011899308 -0.06309767 -0.05715136 -0.046048615 -0.04810506 0.21263893 0.059910845 0.11382733
0.0631108 0.25380263 0.026957119 -0.0011837557 -0.19018759 -0.06828368 0.08523135 0.011192695
0.28324333 0.079227336 -0.04046981 0.09928279 -0.26969478 -0.07773445 -0.009978258 -0.23449488
-0.3968967 -0.117076054 0.118063495 0.4034005 0.34092206 0.05375651 -0.22348207 -0.03641672
0.11399391 0.12053704 -0.013341523 -0.07858635 -0.027757853 -0.005008175 -0.00214452 -0.063274436
-0.20548946 -0.16310863 0.04445592 0.21663645 -0.21703188 0.16052498 -0.078744836 -0.046658132
0.07761292 0.11947417 -0.029918628 0.08581389 -0.15251574 -0.055457924 -0.07150826 -0.0061316304
0.030765638 0.19068977 0.06806495 0.12757473 0.036643352 -0.049807575 -0.22174308 -0.03449394
0.007331311 -0.111707926 0.05470109 0.06696492 0.21474047 0.0031459015 0.18265095 -0.16654852
0.10273873 -0.25813478 0.32849553 -0.030152299 -0.17659624 0.1885834 -0.13074774 -0.07913407
-0.22305314 -0.13621238 -0.12007604 -0.04552133 0.12262228 0.38440087 -0.059956655 0.13490531
0.0690564 0.03986031 0.21247308 -0.045602605 -0.21679205 -0.060467627 -0.114121005 -0.047446787
0.18232119 -0.06276937 -0.051532995 -0.2096773 -0.042860106 0.16726154 0.084749915 0.11808563
0.05013467 -0.19121653 0.08938354 -0.033953264 0.008492875 0.004314845 0.12527004 -0.08913209

bias f4 [48]
00000000: 93f6 b73d de5e 9cbe 2946 e0bd 9e1f 3e3e
00000010: 5fd0 d13d 635c e9be b14e 3dbe fbf4 22bb
00000020: 0bb6 41be 6886 343e 6249 17be 5d51 26be
00000030: 6617 6d3d f275 e23d ae84 8ab8 0d87 15be
00000040: 8727 84be e074 83bd 98ac 9abe 6dd8 c03d
00000050: acb1 85be 51b9 8d3e 6e44 89be 388f 1bbe
00000060: bc40 c8bd 61eb 6cbe c872 6ebe 5e42 1bbe
00000070: 2466 b1bd c890 07bd c686 db3d 8120 4c3e
00000080: 6071 babe abc3 2a3d 4e7d 093e 00dd 23be
00000090: 83ac 1bbe dbd6 94bd c51f dabc 11fc b83d
000000a0: dea8 ca3c 9de6 95be a689 fabd a1f3 bb3d
000000b0: 5e07 573d 997f 39be 719c 48be 5e8a 9c3e
0.08982577 -0.30541128 -0.10950882 0.18566748 0.10244822 -0.45578298 -0.1848705 -0.0024865258
-0.189171 0.17629397 -0.14774087 -0.16241975 0.057883643 0.110576525 -6.605066e-05 -0.14602299
-0.25811407 -0.064187765 -0.30209804 0.0941628 -0.26112115 0.27680448 -0.2681002 -0.15191352
-0.09777972 -0.23136665 -0.23285973 -0.15162036 -0.0866206 -0.03309706 0.10719065 0.19934274
-0.36414623 0.04169051 0.13426706 -0.16002274 -0.15202527 -0.07267543 -0.026626477 0.09032453
0.024738725 -0.29277506 -0.122332856 0.09177328 0.05249726 -0.18115081 -0.19590928 0.30574316

weight f4 [48]
00000000: 06a7 b83d c8ec 9b3e 88be 993e 626b c1bd
00000010: 2489 a53e 97ad 013f 3d73 f83e 8fc8 983f
00000020: 65b3 a73e dc53 e83e 54af 4c3e 8441 9a3e
00000030: 8b57 2e3f a06f 813f a98f 6c3f 43ea 683e
00000040: edde 873e 48f6 d83d b51b cd3e 1dbc d43d
00000050: dc22 af3e fec5 083f e802 863e bcbf 463e
00000060: 9cc0 9e3e 29ba c03e 30ae e73e b2a4 513f
00000070: 1368 843f 0478 2f3e 863d 663f 1556 543f
00000080: 57a4 973e 5c12 6b3e 41c6 883f 490b 843e
00000090: d89b 4c3e 3603 0b3e 09bd 703f 5f74 723d
000000a0: 2804 673f 0cc5 8a3e 67fc 593d e603 4d3f
000000b0: cd64 353d 4960 44be 8fa9 8c3d 9397 763f
0.09016232 0.30454087 0.30028176 -0.0944431 0.32331192 0.506555 0.4852542 1.1936206
0.32754055 0.4537648 0.19988757 0.3012811 0.6810233 1.011219 0.9240671 0.22745614
0.26537266 0.105938494 0.400602 0.10387442 0.34206283 0.5342711 0.26174092 0.19409078
0.31006324 0.3764203 0.45250082 0.8189193 1.0344261 0.17135626 0.8993763 0.8294385
0.2961757 0.22956222 1.0685502 0.2578986 0.19981325 0.13575444 0.94038445 0.05919301
0.90240717 0.2710346 0.053219225 0.80084074 0.044285584 -0.19177355 0.06868278 0.96325034

weight f4 [48, 1, 9, 9]
00000000: caee b6bc 3057 d1bb a339 543c 58ba c93c
00000010: 7055 66bc f20d 6abc c78b 143b c82c e5b6
00000020: a85f 08bb f666 1d3c 8fd5 99bb 767d 8c3c
00000030: f527 0fbc 5b05 17bd 1d63 acbb c3c3 173b
00000040: 97ea 15bc 4edb 36bc 76f8 fe3b a889 5cbc
00000050: de5f 8c3b fd75 893c 36e0 ecbb fab8 afb7
00000060: f72b fcba 822f d1bc 9630 25bc 61ae b63c
00000070: 0db9 6abd ff50 10bd 5526 753d 41a1 c93d
00000080: 339c 5ebc 945b 7cbd 5c84 27bd b5c4 50bc
00000090: c0c7 41bc 1839 20be 037d e7bd 75e2 173e
000000a0: 687d 3c3e 44f9 54bd 3ccb 00be 9617 71bd
000000b0: f936 0f3c 966f a2bc 71c1 17be 4a2a a7bd
000000c0: f479 443e 8036 553e 3159 85bd a129 14be
000000d0: d46e 4abd 6cd0 843c 98b9 d3bc 8804 e4bd
000000e0: b73b 09bd dee4 253e 5087 223e 2d25 38bd
000000f0: 05c1 f4bd 03af 40bd 3648 7b3c 8259 34bc
00000100: 883c e3bc 069c 033d 6ed7 b93d 8ee8 993d
00000110: 17e8 09bc bb87 2bbd fd88 c1bc cdda 353b
00000120: db8a 5abb 262a fabb 0611 843b a32b 7a3c
00000130: b45c 953c 8628 173c c1f1 a43b dfc4 0ebc
00000140: ea1d 64bb 9167 98bd 8d3e 95bc fbba 7e3c
00000150: 961e 4a3d 648a 303b 9285 85bd ecbd 833c
00000160: a00c 4e3d 6812 d53c e5a0 833d 28c8 20bd
00000170: 9be2 83bd b190 d8bd 9d6f 863c 1bdb a5ba
00000180: e9ca bd3d 67bb a3bd 06ea a73d 1426 82bd
00000190: b722 bcbd b91b c73d 70de ae3d 0427 833d
000001a0: bf75 a53d 139f b8bd 097f d4bd 5c7b a8bd
000001b0: df00 e33d f29c 563d 9aca 92bc 0371 c63b
000001c0: 65dc 4cbd 7f83 763c 010e b4bd ef73 693d
000001d0: 5d4b 53bd cb73 aa3d 470e 88bd 51c7 083b
000001e0: fb5c 4e3d 62f0 9ebd c395 bd39 b859 1abd
000001f0: 21ef c8bd 6012 c8bc 02b0 1bbd 7b6e e9bd
00000200: 9dc2 d23d 0424 963d 2608 9f3d 0703 08be
00000210: 56f0 52bd 9bfc 6fba 5eb1 aabd 4b00 8a3d
00000220: 741f 7bbd 1103 9b3d 37ae 37bd 547d 4cbd
00000230: 01c8 c8bd 2fb9 b0bd e04f 1cbd 407a 8ebd
00000240: 0dd0 13bc 9c1d a43d 321d dcba 68c1 1e3d
00000250: 9dfd c1bb d2a8 dcbd 06bc 7a3d 830a 323d
00000260: b286 563d d756 c13c 6a1f 983d fe45 ea3d
00000270: c967 b8bb 75d5 2abc c97a 07bd c17a 273d
00000280: a6e5 d53c 0c92 52bd 0afd af3c 168e 513b
00000290: a872 5dbd 7a39 453d 6861 803d 63cf 44bd
000002a0: f4ef 18bd c7b3 713d fc74 2a3d 1b9e 75bd
000002b0: 28ca bfbb f9f3 b83d f6b1 9bbd bdcd 1a3c
000002c0: b93b a1bd aef9 de3d d36a 97bd 4df7 a8bb
000002d0: 561f 9fbd 7c7f 89bd c293 8e3d e4c0 4a3d
000002e0: d1f2 7bbd 49a6 b83c 646e 3abd d469 8f3d
000002f0: beae a9bd ec50 bbbd bdcc 9abd e38e 09bd
00000300: 7d65 b6bd 0c5b e4bc 2c64 dfbd f8a7 edbc
00000310: 7462 bc3d 440f 30bd 95a7 a5bd 371e 81bd
00000320: 302b 32bc 1e12 fbbc f287 c43d 48aa 9a3d
00000330: ca46 afbd 2e89 4cbd ca66 793d e678 703d
00000340: 3664 3c3d 7980 a63d 1ee3 84bd 998a 983b
00000350: ffb3 183d 590e 543c 3571 c9bd 64bb d43d
00000360: 47d7 05bd 4b0e dabb 1ae6 7f3d 0b92 e43d
00000370: 1337 bbbd 344c e7bd c5fa 603d 16a4 b9bd
00000380: 42c4 903c 1789 273d 20d6 633d dd7e cebd
00000390: 40e1 763d 1e2b 633d 6cae fcbd 68a8 343d
000003a0: d834 a23d ccf0 6a3d b14e 2ebd d0b0 913d
000003b0: 9234 df3d 39a0 a5bd 2b0e 643d 241e 19bd
000003c0: d800 3abd b1f1 9ebd a3b2 b9bd 5619 ccbd
000003d0: 4907 ba3c a794 cf3d c55b 0bbd 0195 2e3d
000003e0: 3d7e 8e3c 8519 2a3d 9b7a aa3d 8dca 26bd
000003f0: d1de 6b3d 282d 9a3d 860f 963d 37fb 8b3c
-0.02233066 -0.0063885674 0.012953195 0.024624988 -0.014058456 -0.014285551 0.0022666322 -6.829945e-06
-0.0020808969 0.009607067 -0.0046946476 0.017149668 -0.008737554 -0.03687034 -0.0052608387 0.0023157455
-0.009150169 -0.011160685 0.0077810837 -0.013460554 0.004283889 0.016779894 -0.0072288765 -2.0947762e-05
-0.0019239177 -0.025535349 -0.010082385 0.022299947 -0.057305384 -0.035233494 0.05985101 0.0984521
-0.0135870455 -0.061610773 -0.040897712 -0.012742211 -0.011827409 -0.1564678 -0.11303141 0.1483248
0.18407214 -0.05199553 -0.12577528 -0.058860384 0.008741134 -0.019828599 -0.14819886 -0.08162363
0.19187146 0.20821571 -0.065111525 -0.14469005 -0.0494221 0.016212665 -0.025845334 -0.11133677
-0.033504214 0.16200587 0.1587193 -0.04495733 -0.11950878 -0.047041904 0.015337041 -0.011007668
-0.027738824 0.032131217 0.09074293 0.075150594 -0.008417151 -0.04187749 -0.023624891 0.0027748824
-0.0033346924 -0.007634419 0.0040303497 0.015269193 0.01823268 0.00922597 0.005033702 -0.00871393
-0.003480787 -0.07441629 -0.018218303 0.015547509 0.049345575 0.0026937956 -0.06519617 0.016081773
0.05030501 0.026009753 0.064271726 -0.039253384 -0.06439706 -0.10574473 0.016410643 -0.00126538
0.09267218 -0.079947285 0.08198933 -0.06354919 -0.09186309 0.097220846 0.0853852 0.06403926
0.08079099 -0.09014716 -0.103757925 -0.08226654 0.110841505 0.05239577 -0.017918874 0.0060559525
-0.050014872 0.015046 -0.087917335 0.05699533 -0.051585544 0.08322867 -0.06643348 0.0020870755
0.05038164 -0.07760693 0.0003616047 -0.03768322 -0.09811235 -0.024422824 -0.03800965 -0.113980256
0.10291026 0.07331088 0.07765226 -0.13282405 -0.051498733 -0.00091547676 -0.08334611 0.06738337
-0.061309293 0.07568944 -0.04484388 -0.04992421 -0.09803773 -0.08629071 -0.038162112 -0.06956911
-0.009021771 0.0801346 -0.0016793369 0.038758665 -0.0059201256 -0.107743874 0.06121447 0.043467056
0.05237455 0.023600979 0.07427867 0.11439131 -0.0056276065 -0.010426869 -0.03307608 0.04088855
0.026110481 -0.051408812 0.021482963 0.003197556 -0.054064423 0.048150517 0.06268579 -0.048049342
-0.037338212 0.05900934 0.04161547 -0.059965234 -0.0058529563 0.09030909 -0.07602303 0.009448466
-0.07872719 0.10887466 -0.07393422 -0.0051564337 -0.07769649 -0.06713769 0.06961776 0.04950036
-0.061510865 0.022540228 -0.045515433 0.07002607 -0.082852826 -0.09146294 -0.07558582 -0.033583533
-0.08906076 -0.027875446 -0.10907778 -0.029010758 0.09198466 -0.04298331 -0.08088604 -0.06304591
-0.0108745545 -0.030648287 0.09596242 0.0755201 -0.08558424 -0.049935512 0.060889043 0.058709048
0.045994006 0.08129973 -0.06488632 0.004655194 0.037281033 0.012942874 -0.09836046 0.103873044
-0.032676008 -0.006654536 0.0624753 0.11160668 -0.09141364 -0.112938315 0.054926652 -0.090645
0.017671708 0.040902223 0.055624127 -0.10082791 0.06027341 0.05546104 -0.12337956 0.044105917
0.079202354 0.057358548 -0.042555515 0.071138024 0.10898699 -0.08087201 0.055677574 -0.03738226
-0.04541096 -0.07760943 -0.090672754 -0.0996577 0.022708552 0.10135775 -0.034023065 0.04262257
0.01739418 0.041528244 0.083241664 -0.04072051 0.05758554 0.07528144 0.073271796 0.017087562
