FSRCNN/FSRCNN_torch/FSRCNN_56_16_2_X3_150.pth (torch, 60681 bytes, 16 tensors)

weight f4 [56, 1, 5, 5]
-0.1701176 0.023775557 0.04043136 0.08766494 -0.0013796168 -0.053277854 0.18847717 0.20179068
-0.047272585 -0.039682716 0.09624082 0.0050692777 0.08069657 -0.21318248 -0.024619643 0.003273706
-0.08087652 0.19109355 0.057459004 0.03559105 0.05072553 0.03828406 -0.22862883 0.023660505
0.0057634693 0.076254 0.023783784 -0.2576919 0.10024528 0.08449694 0.0065532946 -0.019780142
-0.022035737 -0.008526141 0.010629848 0.036694426 0.44508037 -0.3990346 0.36647522 -0.06199721
-0.011870176 -0.007083636 -0.26522836 0.066794254 -0.011463223 -0.04596027 0.13931514 -0.3205414
0.090416074 0.046554204 -0.03781197 -0.031614456 -0.07553282 -0.13085549 0.21469757 -0.028657898
0.040740218 -7.0630755e-05 -0.18938656 0.118966565 0.00721142 0.12666596 0.2852462 -0.10118766
-0.14791116 0.13964333 -0.24147609 0.013956789 -0.047517728 0.08618578 -0.05659546 0.052769005
-0.0057753497 0.007879191 0.05020968 -0.032452453 -0.16267015 0.26436183 -0.12289768 -0.048445724
-0.058768157 0.1733302 -0.1098545 -0.21871668 0.2405961 0.10407319 -0.041333344 -0.4614462
0.52319944 -0.18992212 -0.1068837 0.2822723 0.041229658 -0.16521935 0.037770506 0.053050254
-0.14526922 0.012742459 0.0084219845 0.04756857 -0.1120234 -0.023141509 0.09808861 0.05035486
0.06295503 0.03776623 -0.1033996 0.06561846 -0.123305306 0.16618377 -0.23056522 -0.602929
-0.10121076 0.0902727 0.15262067 0.14068638 0.03093331 0.28344986 -0.1349133 -0.05550193
-0.04467081 -0.10557957 0.12931834 -0.049463715 0.09011135 0.08444308 0.16108142 0.020970108
0.026412874 0.12201042 -0.06109305 -0.008237818 -0.2759973 0.18053079 -0.076292485 -0.0879206
-0.23363318 -0.5062404 -0.061649658 -0.14445817 0.045240175 0.15576194 0.030305957 -0.17658292
-0.11709692 0.019353574 0.113027774 0.06510599 -0.011485796 0.1031844 -0.09075105 0.23341623
-0.23585038 0.19424643 -0.050077442 0.1269921 -0.2702279 0.2089754 -0.18189116 0.018302213
-0.22025362 0.14990826 0.2396914 -0.19165564 0.042486783 -0.044051435 -0.016180383 -0.24923043
0.18949671 0.060169738 -0.102169804 0.036875743 0.054995697 0.025402281 -0.035641216 -0.03213554
-0.14917673 -0.0022058345 0.03106105 0.014536877 0.14422564 0.11376644 0.0021550953 0.09338009
-0.07901681 0.094920926 -0.10260921 -0.55686784 -0.07373038 0.03222193 0.033871476 0.0108317295
-0.0765211 0.109850615 0.02936641 -0.074489094 -0.11621033 0.058296956 0.081609644 0.008429472
0.117190674 0.005991714 -0.12191275 0.12471863 -0.19006981 -0.13461134 -0.15323286 -0.061532807
0.0031986975 -0.15924074 -0.079577915 -0.15346645 -0.3341531 0.0747531 0.093240015 0.1468185
0.05304691 -0.1380206 -0.026403941 -0.03996954 0.02022801 -0.18086277 0.14937867 0.055247013
-0.026281862 0.0793492 0.036224935 0.24360394 0.12518758 0.23503403 -0.13919586 -0.23021978
-0.33707523 -0.48856434 -0.41249174 0.16946216 0.22771119 0.32453588 -0.2279907 -0.046783634
-0.019733157 -0.15132467 -0.13573124 0.26289493 0.21551229 -0.32698518 -0.12172016 -0.43914688
-0.15201834 -0.016506508 -0.050672553 -0.13068357 0.1599835 -0.016338613 -0.09273889 0.12847845
00000000: 4f33 2ebe f5c4 c23c 5b9b 253d ad89 b33d
00000010: 42d4 b4ba e139 5abd 2900 413e 37a2 4e3e
00000020: e6a0 41bd 588a 22bd e819 c53d 2f1c a63b
00000030: 3e44 a53d 824c 5abe 22af c9bc ac8b 563b
00000040: 97a2 a5bd 07ae 433e 225a 6b3d ecc7 113d
00000050: 93c5 4f3d bfcf 1c3d ad1d 6abe add3 c13c
00000060: 7cdb bc3b 0f2b 9c3d 36d6 c23c 31f0 83be
00000070: 664d cd3d bb0c ad3d 05bd d63b f709 a2bc
00000080: 4a84 b4bc 3ab1 0bbc d028 2e3c e54c 163d
00000090: 93e1 e33e 434e ccbe a4a2 bb3e c9f0 7dbd
000000a0: 207b 42bc d81d e8bb 03cc 87be 6dcb 883d
000000b0: 3ed0 3bbc d640 3cbd a1a8 0e3e 011e a4be
000000c0: 102c b93d 9faf 3e3d b9e0 1abd 297e 01bd
000000d0: f3b0 9abd fbfe 05be aed9 5b3e f8c3 eabc
000000e0: 37df 263d 991f 94b8 8dee 41be bea4 f33d
000000f0: c74d ec3b b9b4 013e ca0b 923e 7a3b cfbd
00000100: 0676 17be a9fe 0e3e 8245 77be 04ab 643c
00000110: f3a1 42bd 2c82 b03d a4d0 67bd 5024 583d
00000120: 253f bdbb b917 013c aaa8 4d3d ddec 04bd
00000130: 0193 26be 6f5a 873e c7b1 fbbd 066f 46bd
00000140: e1b6 70bd 797d 313e 65fb e0bd 44f7 5fbe
00000150: d35e 763e 5324 d53d 274d 29bd ad42 ecbe
00000160: 66f0 053f f27a 42be d7e5 dabd ff85 903e
00000170: 6ee0 283d 432f 29be 3fb5 1a3d 394b 593d
00000180: 74c1 14be bfc5 503c 5dfc 093c 43d7 423d
00000190: 866c e5bd 4393 bdbc aee2 c83d e640 4e3d
000001a0: 91ee 803d c3b0 1a3d 2bc3 d3bd f962 863d
000001b0: 7e87 fcbd 142c 2a3e 4a19 6cbe 8e59 1abf
000001c0: 9647 cfbd e5e0 b83d 9848 1c3e 1710 103e
000001d0: da67 fd3c 5720 913e b626 0abe fe55 63bd
000001e0: bdf8 36bd 1a3a d8bd 076c 043e 779a 4abd
000001f0: 4d8c b83d 7ef0 ac3d 87f2 243e 81c9 ab3c
00000200: d05f d83c 99e0 f93d b53c 7abd eaf7 06bc
00000210: 854f 8dbe 10dd 383e 3c3f 9cbd b70f b4bd
00000220: 893d 6fbe f998 01bf 5a84 7cbd d8ec 13be
00000230: c34d 393d 0f80 1f3e 3344 f83c 27d2 34be
00000240: 83d0 efbd 638b 9e3c 1b7b e73d 4a56 853d
00000250: ec2e 3cbc 5852 d33d b0db b9bd aa04 6f3e
00000260: c382 71be 89e8 463e 011e 4dbd 380a 023e
00000270: 505b 8abe a6fd 553e ad41 3abe 86ee 953c
00000280: 2a8a 61be 8d81 193e aa71 753e 6041 44be
00000290: 9f06 2e3d 476f 34bd b98c 84bc 4336 7fbe
000002a0: 6d0b 423e 8b74 763d 673e d1bd 050b 173d
000002b0: 2b43 613d 7218 d03c 86fc 11bd 8ea0 03bd
000002c0: c9c1 18be c38f 10bb be73 fe3c 152c 6e3c
000002d0: e3af 133e 61fe e83d 803c 0d3b 103e bf3d
000002e0: 91d3 a1bd e765 c23d c724 d2bd e48e 0ebf
000002f0: f4ff 96bd 24fb 033d d1bc 0a3d 9177 313c
00000300: 18b7 9cbd 5cf9 e03d d391 f03c bd8d 98bd
00000310: aeff edbd cac8 6e3d f522 a73d c51b 0a3c
00000320: aa01 f03d 2456 c43b 64ad f9bd 7b6c ff3d
00000330: a9a1 42be 8ed7 09be 13e9 1cbe d309 7cbd
00000340: 3da1 513b 0110 23be bff9 a2bd 4f26 1dbe
00000350: 1d16 abbe 2718 993d 9ff4 be3d 9757 163e
00000360: b747 593d 4655 0dbe 144d d8bc 1ab7 23bd
00000370: 36b5 a53c 1734 39be b9f6 183e b14a 623d
00000380: 0f4d d7bc d581 a23d 9960 143d 5073 793e
00000390: 2c31 003e c3ac 703e 5c89 0ebe bcbe 6bbe
000003a0: 2095 acbe 1b25 fabe 1e32 d3be 7d87 2d3e
000003b0: 1f2d 693e 9129 a63e 6576 69be 32a0 3fbd
000003c0: 6ea7 a1bc dbf4 1abe 21fd 0abe 2a9a 863e
000003d0: 41af 5c3e 9a6a a7be 6b48 f9bd dcd7 e0be
000003e0: b2aa 1bbe a838 87bc 068e 4fbd ead1 05be
000003f0: b7d2 233e 8ed8 85bc e3ed bdbd db8f 033e

bias f4 [56]
-0.05968469 -0.09828319 -0.027878767 0.01578911 -0.030470561 0.30288458 -0.020525172 0.23525792
0.01588648 -0.009178145 0.026924873 0.020485519 -0.089948416 0.008201646 -0.07852247 0.004594881
-0.10242703 0.0020140933 0.10582902 0.018543843 -0.0045396234 -0.096369274 0.17499298 0.048353743
-0.09104431 0.19523805 -0.22970292 -0.018591238 -0.07836811 -0.07501935 -0.0056825844 -0.16576798
-0.18947273 -0.24245353 -0.0015917186 0.1460279 -0.24432792 0.018624559 -0.21961188 0.00871184
0.24453217 -0.015972195 0.098410964 0.04413801 -0.34139675 0.04610448 -0.004697045 0.02853377
-0.13098969 -0.0016548971 -0.09015052 0.11085692 0.049951237 -0.23038216 -0.24002801 -0.28787872
00000000: ef77 74bd b248 c9bd 0362 e4bc 2a58 813c
00000010: 669d f9bc b013 9b3e 6824 a8bc 74e7 703e
00000020: 5d24 823c ee5f 16bc 8d91 dc3c 3fd1 a73c
00000030: e036 b8bd 3260 063c 64d0 a0bd a890 963b
00000040: 43c5 d1bd e1fe 033b e3bc d83d 42e9 973c
00000050: 1fc1 94bb 415d c5bd 5c31 333e 930e 463d
00000060: 7075 babd 7cec 473e 3e37 6bbe a74c 98bc
00000070: 767f a0bd bfa3 99bd f934 babb 15bf 29be
00000080: 2405 42be bd45 78be 37a1 d0ba 5688 153e
00000090: 1931 7abe 8892 983c f0e1 60be 1bbc 0e3c
000000a0: a466 7a3e 1fd8 82bc b08b c93d 0fca 343d
000000b0: 8ecb aebe 0dd8 3c3d abe9 99bb a7bf e93c
000000c0: 2922 06be 22e9 d8ba d6a0 b8bd f408 e33d
000000d0: ab99 4c3d 4de9 6bbe e7c9 75be d764 93be

weight f4 [56]
0.43617144 -0.027267793 0.8869502 0.67877996 -0.006955579 0.9997617 0.18903609 1.0525857
0.19515797 -0.0062805437 1.0361726 -0.024394168 0.9635228 -0.43716964 0.6180479 -0.22664206
1.643575 0.88894635 1.0672152 0.16637331 -0.13451351 0.40578166 0.7355937 0.00016721252
1.1212814 0.975723 0.8475114 0.43423328 -0.34226668 -0.057596058 -0.15460248 0.011387383
0.0026948238 -0.035918206 0.6994414 0.14289889 0.98998415 -0.744903 1.0145469 -0.04303757
1.0749719 0.04761242 0.343448 -0.0125587825 0.054879 0.27111417 0.052882638 0.0068377177
-0.010302794 -0.03540904 0.11842562 -0.0038829842 -0.0036855333 0.91630155 0.024322098 -0.15662812
00000000: dd51 df3e b560 dfbc 2b0f 633f 86c4 2d3f
00000010: a0eb e3bb 62f0 7f3f ad92 413e 21bb 863f
00000020: 7ed7 473e 05cd cdbb 4ea1 843f 47d6 c7bc
00000030: 6ea9 763f b3d4 dfbe 6338 1e3f db14 68be
00000040: aa60 d23f fd91 633f 829a 883f c45d 2a3e
00000050: e9bd 09be 9dc2 cf3e de4f 3c3f c555 2f39
00000060: 2686 8f3f fcc8 793f 82f6 583f d353 de3e
00000070: 943d afbe d8e9 6bbd 1d50 1ebe 2592 3a3c
00000080: a49b 303b f81e 13bd 970e 333f 1654 123e
00000090: 9a6f 7d3f f7b1 3ebf acdc 813f 2a48 30bd
000000a0: ae98 893f 3e05 433d 6bd8 af3e 5ac3 4dbc
000000b0: cdc8 603d 7acf 8a3e 779b 583d ef0e e03b
000000c0: 0dcd 28bc 1209 11bd 2289 f23d aa79 7ebb
000000d0: fd88 71bb bd92 6a3f 233f c73c 1f63 20be

weight f4 [16, 56, 1, 1]
0.17333354 -0.16578196 -0.0052777426 -0.10959986 -0.002127975 0.0065176617 0.01373339 -0.09953361
-0.057865012 0.012851768 0.021044113 -0.009262456 0.11352947 0.06520116 0.2060797 -0.10819785
-0.013454357 0.13601409 0.14496751 -0.0029653378 0.19192787 -0.0260939 0.018278169 0.29024485
-0.12757047 0.29423967 0.07887115 0.0154801095 0.07276029 0.18970592 -0.0044368934 0.1533313
-0.06816014 -0.041148845 -0.036897376 -0.008321392 -0.17064822 -0.1144134 0.14208217 -0.030664451
0.0393749 0.24465284 -0.013007256 0.13729136 -0.1084829 -0.24662283 -0.1432288 0.18118171
-0.004004119 0.08964222 0.0010172486 0.22945952 -0.12823512 0.22877727 0.12334195 -0.10739588
-0.102311105 0.2924582 0.024557427 0.034328066 -0.0873398 0.3119852 -0.35521156 0.30165613
0.1429434 0.17948022 0.14217469 0.1702208 -0.15166147 0.24740362 -0.14943813 -0.056182012
-0.0062515014 -0.14856634 -0.17366752 0.11757192 0.34249714 0.22352524 0.18548134 0.32334659
-0.43235266 -0.607819 -0.19836368 0.072153136 0.03617951 0.18612483 -0.019814838 0.23340787
0.497978 0.2523538 0.024336044 0.3382047 -0.031143012 -0.33608013 -0.25308827 0.14536503
0.12335663 0.30655104 0.033319995 -0.28332746 -0.2317218 0.12080822 0.35585383 0.11397705
-0.2743232 -0.07945318 0.009001124 -0.050002266 -0.47751006 -0.2896278 -0.1431383 -0.1427045
0.09474959 -0.0516088 0.024091072 -0.04197149 0.032176334 0.21050046 -0.00478313 0.24518578
0.13867544 0.067425184 0.012847249 0.07745863 -0.048677664 -0.024246518 0.079214975 -0.023404406
-0.11514188 0.13949153 -0.048847284 -0.09569005 0.006143486 -0.0003843712 0.086526774 0.1403375
-0.18629125 -0.14730252 0.088862 0.004092527 0.021260012 0.06612168 0.07111356 0.07238016
0.13227502 0.010521018 -0.08548471 0.23144813 -0.15449499 -0.03197732 -0.15381713 -0.035389356
0.037874848 0.039249033 -0.02138124 -0.027393112 -0.002128432 0.042194627 0.03328183 -0.017815245
0.040925987 -0.06861739 0.022547195 -0.034220923 -0.16799603 -0.12504055 0.04080783 -0.02922518
0.05100979 0.04916485 0.088230364 -0.06480888 0.013136584 -0.03966999 0.014244621 0.25494495
-0.060068972 0.051660113 -0.04297899 0.08609941 -0.014205591 0.0616855 -0.19521755 -0.07935238
0.08193735 0.30132428 0.023670897 0.04443073 0.13964473 -0.006997084 -0.14545542 -0.4107105
-0.056109145 -0.1649071 0.018655222 -0.008523593 0.03025349 0.24092011 -0.18445553 -0.07436383
0.24667646 0.0036777603 -0.036560096 -0.11673105 0.047860894 0.46591848 0.07337844 0.10724975
0.026907654 0.064252906 -3.618675e-05 -0.33458278 -0.0811674 -0.067352064 0.025868883 0.22529212
-0.15270291 -0.18414423 -0.1813316 0.08367002 0.21553367 -0.04866308 -0.3188466 0.09955262
0.16242068 -0.04460919 0.06521987 -0.089612275 -0.0618336 -0.22329956 -0.036572754 -0.13310312
-0.11210404 0.11224479 -0.16844052 0.09177519 0.14334685 -0.004940628 0.16366105 -0.43384138
-0.09922826 0.2045187 -0.11203007 0.035819497 0.19099356 -0.09141757 -0.052563854 -0.2511521
-0.0677442 0.306544 0.06355146 -0.03225659 -0.27978313 -0.36073646 0.11989707 0.1942256
00000000: 597e 313e bfc2 29be eaf0 acbb e475 e0bd
00000010: 7f75 0bbb 1c92 d53b 0302 613c 47d8 cbbd
00000020: dd03 6dbd 3990 523c b464 ac3c 8ec1 17bc
00000030: 2482 e83d 3088 853d 8f06 533e d696 ddbd
00000040: aa6f 5cbc 4747 0b3e 5d72 143e 1d56 42bb
00000050: bd88 443e e0c2 d5bc 19bc 953c f99a 943e
00000060: d5a1 02be 95a6 963e 3387 a13d 49a0 7d3c
00000070: 5903 953d 4542 423e 5c63 91bb e102 1d3e
00000080: 8b97 8bbd b18b 28bd b421 17bd 7356 08bc
00000090: 68be 2ebe 9351 eabd fd7d 113e 0434 fbbc
000000a0: 9347 213d 4686 7a3e 631c 55bc 1b96 0c3e
000000b0: 482c debd b28a 7cbe 92aa 12be b387 393e
000000c0: fc34 83bb 5796 b73d 3355 853a 70f7 6a3e
000000d0: 1150 03be 9744 6a3e b49a fc3d 5ff2 dbbd
000000e0: 7c88 d1bd 15bd 953e a82c c93c 969b 0c3d
000000f0: 36df b2bd 86bc 9f3e 4ade b5be ac72 9a3e
00000100: c15f 123e aac9 373e 3e96 113e 5d4e 2e3e
00000110: 254d 1bbe 6057 7d3e 4f06 19be 1c1f 66bd
00000120: 65d9 ccbb c621 18be e6d5 31be 8cc9 f03d
00000130: c95b af3e cde3 643e d2ee 3d3e af8d a53e
00000140: 545d ddbe 079a 1bbf d91f 4bbe 06c5 933d
00000150: f730 143d 8297 3e3e ba52 a2bc 7902 6f3e
00000160: f9f6 fe3e 8434 813e 625c c73c 2b29 ad3e
00000170: a11f ffbc b212 acbe c994 81be 92da 143e
00000180: 67a2 fc3d 42f4 9c3e 8c7a 083d 4c10 91be
00000190: 7b48 6dbe 4d6a f73d 7932 b63e cd6c e93d
000001a0: 1774 8cbe 59b8 a2bd 7379 133c 2dcf 4cbd
000001b0: 337c f4be 184a 94be d992 12be 2121 12be
000001c0: 130c c23d c063 53bd a45a c53c 4cea 2bbd
000001d0: 55cb 033d 6f8d 573e cdbb 9cbb fb11 7b3e
000001e0: ef00 0e3e 3716 8a3d 457d 523c a1a2 9e3d
000001f0: 3b62 47bd a2a0 c6bc 763b a23d 99ba bfbc
00000200: 82cf ebbd ded6 0e3e 1714 48bd 25f9 c3bd
00000210: 4c4f c93b 6e85 c9b9 f334 b13d a2b4 0f3e
00000220: 22c3 3ebe 79d6 16be 48fd b53d 9b1a 863b
00000230: 7a29 ae3c ce6a 873d fca3 913d 0d3c 943d
00000240: 1a73 073e 5960 2c3c 9c12 afbd bd00 6d3e
00000250: ef33 1ebe a6fa 02bd 3d82 1dbe 6ef4 10bd
00000260: a822 1b3d 98c3 203d b627 afbc 8567 e0bc
00000270: 2a7d 0bbb 46d4 2c3d 8752 083d 47f1 91bc
00000280: 02a2 273d 4687 8cbd e5b4 b83c 3d2b 0cbd
00000290: 2707 2cbe a10a 00be 1c26 273d a569 efbc
000002a0: a4ef 503d 1561 493d 1fb2 b43d 85ba 84bd
000002b0: d43a 573c 007d 22bd 4562 693c 2588 823e
000002c0: e20a 76bd 8e99 533d bd0a 30bd e354 b03d
000002d0: 91be 68bc efa9 7c3d 1ce7 47be 8083 a2bd
000002e0: c5ce a73d 2d47 9a3e 78e9 c13c fffc 353d
000002f0: 07ff 0e3e cb47 e5bb 44f2 14be a648 d2be
00000300: b4d2 65bd 68dd 28be d6d2 983c 8aa6 0bbc
00000310: 2bd6 f73c c3b3 763e e9e1 3cbe 104c 98bd
00000320: c198 7c3e 9406 713b 0ac0 15bd b010 efbd
00000330: c909 443d de8c ee3e 7047 963d c2a5 db3d
00000340: 716d dc3c 0797 833d 3ac7 17b8 6f4e abbe
00000350: 183b a6bd e1ef 89bd fbea d33c fab2 663e
00000360: 275e 1cbe 4e90 3cbe feae 39be 305b ab3d
00000370: dcb4 5c3e f052 47bd dd3f a3be 3ee2 cb3d
00000380: 9b51 263e 20b8 36bd ff91 853d a486 b7bd
00000390: 3b45 7dbd a4a8 64be 50cd 15bd 2f4c 08be
000003a0: ce96 e5bd 99e0 e53d ac7b 2cbe a1f4 bb3d
000003b0: 84c9 123e fee4 a1bb c396 273e 7520 debe
000003c0: 3038 cbbd 5a6d 513e 0570 e5bd 77b7 123d
000003d0: d193 433e 2339 bbbd 324d 57bd 0297 80be
000003e0: 79bd 8abd 56f3 9c3e 4527 823d 7c1f 04bd
000003f0: bc3f 8fbe 73b2 b8be 988c f53d 13e3 463e

bias f4 [16]
0.03324447 -0.17012973 0.085792474 -0.09316745 -0.10385265 0.06308268 -0.00088225235 -0.056646246
-0.01251966 -0.07742103 -0.018931478 -0.07759638 -0.013762792 0.11267489 -0.028739166 0.019389626
00000000: 5a2b 083d 7d36 2ebe f7b3 af3d 93ce bebd
00000010: b3b0 d4bd 7e31 813d f446 67ba e505 68bd
00000020: 431f 4dbc eb8e 9ebd 3016 9bbc daea 9ebd
00000030: 557d 61bc 18c2 e63d 666e ebbc fed6 9e3c

weight f4 [16]
-1.3841537 -0.012844968 0.88884366 0.48564205 -0.009603746 -0.7263558 0.7505519 0.37399483
1.0115215 -0.10480087 0.9510725 0.9957049 0.6701004 -0.9234751 0.48122573 -0.34411258
00000000: f32b b1bf b373 52bc 428b 633f 13a6 f83e
00000010: 0859 1dbc 74f2 39bf 2b24 403f 407c bf3e
00000020: 8979 813f d7a1 d6bd 7d79 733f 84e6 7e3f
00000030: b38b 2b3f dd68 6cbf 3863 f63e 862f b0be

weight f4 [16, 16, 3, 3]
0.10755544 -0.099232666 -0.029337851 -0.022518013 -0.1205193 0.13873313 0.034390904 -0.12573825
0.06964709 0.16762249 0.029410977 -0.01385815 -0.06742233 0.5419113 0.06825326 -0.13598356
-0.07457374 -0.06775948 -0.12160685 -0.0033676126 0.017766656 -0.097573504 0.07972308 -0.108790606
0.11289684 0.003119132 0.094428375 0.2045316 0.09452184 0.010700432 0.11716311 -0.25336537
-0.1479915 -0.0050708926 -0.11974236 0.07518742 0.01949033 0.020770404 -0.022515526 -0.17267533
0.19595748 -0.10991989 -0.12583125 -0.06841531 -0.05540475 0.04567909 -0.0129823005 0.13220663
-0.011594013 -0.19719785 -0.049116336 0.2415244 0.07778732 0.025490902 -0.10517939 0.0387496
0.0006349252 0.1932889 0.2844237 0.123792574 -0.09605234 -0.13360041 -0.0052304333 -0.17152184
-0.006772484 -0.1647477 0.19987474 -0.18539381 0.19909549 -0.11125622 -0.17560017 -0.020844547
0.06278414 -0.15973067 0.03913174 -0.09978624 0.36046585 -0.031147879 -0.05602638 -0.15503
-0.111901596 0.19817176 -0.05835761 -0.08730211 0.21808295 -0.12273732 -0.024695707 0.06311816
0.08310121 -0.022495344 -0.049463816 -0.12015584 -0.07902403 0.13447961 0.10667486 -0.036418125
-0.111780375 -0.061886083 0.12186698 -0.14780903 -0.11457532 0.08900888 0.017609702 0.16953297
-0.07219752 0.10435557 0.20822765 0.024086656 -0.024935814 -0.13526739 0.038478702 -0.13198532
0.12158377 -0.026083698 -0.074984446 -0.10440072 -0.025950445 -0.083021246 -0.029380847 -0.035011698
0.093365245 -0.23589219 0.027241513 -0.07740772 -0.021931114 0.06369889 -0.19710635 0.0409304
0.04399469 -0.2639858 0.034398153 -0.15781231 -0.18480255 -0.05866297 0.11841966 0.10723743
-0.332805 -0.11724399 -0.1433543 -0.057895202 -0.12660941 -0.080272846 0.03125642 -0.04273203
-0.481539 -0.07637537 0.027504113 -0.44332305 -0.03766034 -0.20280358 -0.99564236 -0.10009949
0.22516325 -0.34460825 0.1997275 -0.024859965 0.011606906 -0.9760725 -0.67828065 0.2115012
0.00437166 -0.18572609 -0.29294422 0.13919848 0.11039833 -0.24517296 0.052791256 -0.18507738
-0.4194081 -0.35444897 0.09569232 -0.33139104 -0.060785577 0.89275384 -0.066503756 0.01742732
-0.46415955 -0.3059751 0.27171308 0.1506573 0.5091053 -0.03589015 0.052902363 0.21142898
0.16169731 0.03760595 0.05214941 -0.04830016 -0.31317177 -0.033216927 0.08246402 0.33020222
-0.24990453 -0.22433364 -0.14614083 -0.22948618 -0.27827036 -0.124143064 -0.104835115 -0.1574715
-0.32159722 -0.3194016 0.30883798 0.22415656 0.21516183 -0.018086495 -0.2923075 0.045804698
0.5933537 -0.22461742 0.6032893 0.28397846 -0.07322206 -0.8720756 -0.38034478 -0.26690444
-0.2526176 -0.03205156 0.036469705 -0.28608277 0.23094875 -0.09402806 -0.120266855 -0.13432178
-0.03157776 -0.20471565 -0.17164972 -0.08028042 0.047892224 -0.14449409 0.49844128 -0.1878475
0.18637607 0.013786089 0.17362809 -0.069605865 -0.028280912 0.016233934 -0.1209683 -0.11972425
-0.20202565 -0.055079892 0.09550096 0.33769372 -0.26270363 -0.12996149 -0.47685832 0.40647486
0.26725206 0.5819879 0.0538833 0.001084077 0.49238104 0.17556845 0.16447084 0.11179084
00000000: 0746 dc3d 7f3a cbbd ef55 f0bc b277 b8bc
00000010: d3d2 f6bd 0f10 0e3e 7add 0c3d 87c1 00be
00000020: 22a3 8e3d 3ba5 2b3e 4aef f03c 4b0d 63bc
00000030: b814 8abd b3ba 0a3f 5dc8 8b3d 463f 0bbe
00000040: 1eba 98bd 7bc5 8abd 030d f9bd 2ab3 5cbb
00000050: 618b 913c 9ed4 c7bd db45 a33d 9ccd debd
00000060: 7536 e73d 5a6a 4c3b aa63 c13d bb70 513e
00000070: ab94 c13d dd50 2f3c 36f3 ef3d 1bb9 81be
00000080: 158b 17be bb29 a6bb 7c3b f5bd ddfb 993d
00000090: 2faa 9f3c b226 aa3c 7b72 b8bc cdd1 30be
000000a0: 14a9 483e ae1d e1bd e8d9 00be 531d 8cbd
000000b0: 17f0 62bd ff19 3b3d b7b3 54bc 2d61 073e
000000c0: d1f4 3dbc 3cee 49be 362e 49bd 2c52 773e
000000d0: f54e 9f3d 4cd2 d03c 4b68 d7bd e7b7 1e3d
000000e0: 1c71 263a 87ed 453e fc9f 913e f686 fd3d
000000f0: 17b7 c4bd 8cce 08be 0e64 abbb 6ca3 2fbe
00000100: b7eb ddbb 9fb3 28be f7ab 4c3e e0d7 3dbe
00000110: b0df 4b3e 4dda e3bd 88d0 33be 2fc2 aabc
00000120: f994 803d 7090 23be 9a48 203d ba5c ccbd
00000130: fb8e b83e d629 ffbc eb7b 65bd 2fc0 1ebe
00000140: aa2c e5bd 8aed 4a3e 6408 6fbd 73cb b2bd
00000150: 2351 5f3e b45d fbbd a74e cabc 1844 813d
00000160: f830 aa3d 2848 b8bc 929a 4abd 4414 f6bd
00000170: 5ad7 a1bd 06b5 093e 5978 da3d 2c2b 15bd
00000180: 1ced e4bd 437c 7dbd 6595 f93d 405b 17be
00000190: 77a6 eabd 4a4a b63d 3942 903c 0d9a 2d3e
000001a0: 4bdc 93bd 60b8 d53d a139 553e 6151 c53c
000001b0: 3146 ccbc 8983 0abe d89b 1d3d 2927 07be
000001c0: e900 f93d 7bad d5bc 7291 99bd 0bd0 d5bd
000001d0: 0796 d4bc 0b07 aabd 1ab0 f0bc 6d68 0fbd
000001e0: 4736 bf3d b98d 71be 9829 df3c f087 9ebd
000001f0: e1a8 b3bc 9074 823d 3fd6 49be a3a6 273d
00000200: c733 343d 2629 87be 14e5 0c3d 8d99 21be
00000210: e13c 3dbe 9548 70bd 0286 f23d 4c9f db3d
00000220: 6b65 aabe 9e1d f0bd 78cb 12be 8523 6dbd
00000230: e6a5 01be 1766 a4bd bb06 003d c807 2fbd
00000240: 488c f6be b16a 9cbd 4e50 e13c 3dfb e2be
00000250: bb41 1abd beab 4fbe 6be2 7ebf f600 cdbd
00000260: 3291 663e 7e70 b0be 5e85 4c3e 20a7 cbbc
00000270: e42a 3e3c e3df 79bf cda3 2dbf c593 583e
00000280: 2440 8f3b fb2e 3ebe c9fc 95be 0c8a 0e3e
00000290: 8518 e23d 9f0e 7bbe a53b 583d ed84 3dbe
000002a0: a9bc d6be 567a b5be 56fa c33d 16ac a9be
000002b0: 4cfa 78bd 848b 643f 1f33 88bd bdc3 8e3c
000002c0: 52a6 edbe c5a8 9cbe fa1d 8b3e e845 1a3e
000002d0: ba54 023f 8d01 13bd 26b0 583d d780 583e
000002e0: fb93 253e b208 1a3d 9f9a 553d 63d6 45bd
000002f0: 0d58 a0be 790e 08bd e5e2 a83d 4410 a93e
00000300: f9e6 7fbe b8b7 65be f1a5 15be 6dfe 6abe
00000310: 7479 8ebe b83e febd cbb3 d6bd 3540 21be
00000320: 64a8 a4be 9b88 a3be 0320 9e3e 4c89 653e
00000330: 6253 5c3e 212a 94bc 54a9 95be b59d 3b3d
00000340: 07e6 173f 1c02 66be 2b71 1a3f a065 913e
00000350: 73f5 95bd 5940 5fbf 8dbc c2be b3a7 88be
00000360: 1857 81be 7f48 03bd 4261 153d 7179 92be
00000370: d47d 6c3e c991 c0bd 784e f6bd a68b 09be
00000380: ae57 01bd fba0 51be f2c4 2fbe 106a a4bd
00000390: a32a 443d 42f6 13be b233 ff3e 185b 40be
000003a0: 5ed9 3e3e 0cdf 613c 90cb 313e 858d 8ebd
000003b0: 5fad e7bc 07fd 843c 3abe f7bd fd31 f5bd
000003c0: d0df 4ebe 749b 61bd 0296 c33d 31e6 ac3e
000003d0: 1781 86be a014 05be c626 f4be 791d d03e
000003e0: 43d5 883e 29fd 143f bcb4 5c3d 9717 8e3a
000003f0: 5e19 fc3e 37c8 333e 0b6b 283e 99f2 e43d

bias f4 [16]
0.16188684 0.0043426184 -0.13735 0.08577642 0.0887268 0.023412848 -0.0043007135 -0.015573018
-0.016336057 0.04811938 -0.021331651 -0.08482996 0.046612255 -0.06401704 0.021983948 0.105096705
00000000: aac5 253e 864c 8e3b 7aa5 0cbe 8cab af3d
00000010: 66b6 b53d 4dcc bf3c 00ed 8cbb f925 7fbc
00000020: 32d3 85bc d418 453d b7bf aebc 54bb adbd
00000030: 7eec 3e3d 5e1b 83bd ae17 b43c f13c d73d

weight f4 [16]
2.967001 0.002196784 0.6820922 0.15798113 0.13552089 -0.63468766 -0.9534594 0.971914
0.011115038 -0.09118374 0.082808346 -0.43914795 0.7272725 -0.038304787 0.94648427 -0.96181965
00000000: 58e3 3d40 ebf7 0f3b 989d 2e3f cec5 213e
00000010: fdc5 0a3e e47a 22bf ea15 74bf 5bcf 783f
00000020: d91b 363c 8abe babd 6c97 a93d 00d8 e0be
00000030: 882e 3a3f 7be5 1cbd cb4c 723f d039 76bf

weight f4 [16, 16, 3, 3]
0.024146305 -0.1116741 0.010435994 -0.084258184 0.066833526 0.00041933687 0.0017457244 0.07970981
-0.028062774 0.039772604 0.05824153 0.40809706 -0.020187948 -0.06237521 -0.30035642 -0.022385897
-0.01555269 -0.016582375 0.005085187 -0.015439297 -0.002493941 -0.19405772 -0.5338917 0.08030815
-0.032958787 0.035317834 -0.056914825 -0.019249387 -0.22322871 0.04242297 -0.33068183 0.053134795
0.012178932 -0.08905709 0.107663445 0.041657805 0.06391113 0.058254886 0.026692342 -0.09606811
-0.18097675 -0.043825496 0.09091197 -0.07483632 -0.0005925162 0.028593916 0.014430447 -0.009668332
-0.019791994 -0.073542014 0.028065795 -0.0050618965 -0.023632083 -0.031787496 -0.025649635 -0.006121356
0.0146350665 0.03418406 0.05306981 -0.06623667 -0.0050619245 -0.028735716 0.029066017 -0.033601005
0.02249716 -0.027288577 0.13679053 0.30575836 0.06402327 -0.04007726 0.057731885 -0.10851782
0.021368442 -0.0024703569 -0.013645631 -0.0116062835 -0.144903 -0.1764953 0.046327937 -0.0033647888
-0.024326544 -0.008579676 -0.07737757 0.0562 0.04788626 0.19528516 0.017220158 -0.009869467
-0.03350893 -0.02039067 -0.037852135 -0.055090386 0.009826504 -0.090070575 0.11770105 0.07145945
-0.004862963 0.097531356 -0.051719323 0.0013131988 -0.022890082 0.009933941 0.07531532 0.07289272
0.04956496 -0.042861145 0.0138491215 -0.019553117 0.012588565 -0.06949871 -0.06090014 -0.11689557
0.26868758 -0.0329464 0.017812924 0.025397496 0.0050854646 0.024622468 0.009605435 0.018557897
-0.0938966 0.18874753 -0.00065898715 0.05021193 0.040835224 -0.0444592 0.007012765 0.07676043
0.024470747 0.011565029 0.35579103 -0.18737982 -0.02638495 -0.093864515 -0.078060456 -0.0050545554
0.0048921113 -0.013931794 0.003775557 0.06057197 -0.012550715 0.037852146 0.009130803 -0.005026301
-0.026259186 -0.10592883 -0.10456049 -0.05966057 0.11116111 0.03604521 0.0029777894 0.015709268
-0.054246876 -0.115460254 -0.2502794 -0.08494892 -0.0030960934 -0.2318121 -0.46905667 0.11629036
0.16084702 -0.18996634 0.17303869 0.07272761 0.03833562 -0.19077659 -0.019859111 0.10713231
0.15846525 0.09022915 -0.09959946 0.6813158 -0.58630794 -0.049701 -0.20008484 -0.24490894
0.116415866 -0.04355759 0.2664031 -0.1397937 -0.13663328 0.0137944175 -0.030277127 0.08188923
0.21000819 -0.12093525 -0.08171577 -0.22120593 0.011940824 0.044108722 -0.101530164 0.03354721
-0.03458166 -0.4316092 0.07349791 0.059989538 0.15837471 -0.14211753 -0.035679653 0.021655746
-0.06489724 -0.07876026 0.1665737 -0.14244375 -0.015805922 -0.12553371 -0.0066783903 0.010372185
-0.15195811 0.12857988 -0.039026484 0.12481944 -0.06174065 0.10781723 0.20881596 -0.18948159
-0.07139601 -0.24181382 0.09648904 0.2381067 0.30628207 -0.099252634 -0.15998873 -0.07626263
0.17660557 0.039815694 0.0033297332 0.0035154747 -0.05289541 -0.014442974 -0.18633187 -0.0822973
-0.18257216 0.011061006 -0.1362421 0.04789761 0.10829158 -0.01991319 -0.2525673 0.3327229
-0.08794589 0.16375713 -0.03906332 -0.07866774 -0.18914938 -0.0018914663 -0.0060305693 -0.05158246
-0.010236354 0.057931624 -0.04363331 0.022752056 0.04954841 -0.06792575 0.16048281 -0.19311625
00000000: 79ce c53c 64b5 e4bd bbfb 2a3c 8e8f acbd
00000010: 04e0 883d 71da db39 cad0 e43a e63e a33d
00000020: e7e3 e5bc 99e8 223d ac8e 6e3d 19f2 d03e
00000030: 3261 a5bc 267d 7fbd 51c8 99be a162 b7bc
00000040: b6d0 7ebc c3d7 87bc a4a1 a63b 1bf5 7cbc
00000050: 6371 23bb 11b7 46be 20ad 08bf 9978 a43d
00000060: cbff 06bd 6fa9 103d 851f 69bd e4b0 9dbc
00000070: 1196 64be b5c3 2d3d 214f a9be dfa3 593d
00000080: 258a 473c 9063 b6bd a77e dc3d 60a1 2a3d
00000090: d7e3 823d ad9c 6e3d e6a9 da3c 5bbf c4bd
000000a0: f851 39be 5d82 33bd 0e30 ba3d c943 99bd
000000b0: 1753 1bba ca3d ea3c ae6d 6c3c ec67 1ebc
000000c0: d222 a2bc 329d 96bd 3dea e53c 44de a5bb
000000d0: 1298 c1bc 9b33 02bd 2f1f d2bc a895 c8bb
000000e0: ebc7 6f3c 9604 0c3d bb5f 593d 17a7 87bd
000000f0: 80de a5bb 2a67 ebbc db1b ee3c 35a1 09bd
00000100: f74b b83c 4b8c dfbc d112 0c3e 5c8c 9c3e
00000110: a21e 833d 0e28 24bd 4578 6c3d 973e debd
00000120: df0c af3c b6e5 21bb ed91 5fbc 4828 3ebc
00000130: 7461 14be 2fbb 34be 5dc2 3d3d ca83 5cbb
00000140: 7648 c7bc c591 0cbc 2278 9ebd f931 663d
00000150: 6224 443d d5f8 473e 4a11 8d3c 8bb3 21bc
00000160: a940 09bd 560a a7bc d70a 1bbd 75a6 61bd
00000170: 58ff 203c ec76 b8bd 400d f13d 5559 923d
00000180: 7e59 9fbb 85be c73d a4d7 53bd a41f ac3a
00000190: fb83 bbbc f8c1 223c eb3e 9a3d c748 953d
000001a0: a104 4b3d 2b8f 2fbd 6de7 623c dc2d a0bc
000001b0: 4540 4e3c 5755 8ebd 6d72 79bd f266 efbd
000001c0: 6b91 893e cef2 06bd 69ec 913c 690e d03c
000001d0: f8a3 a63b 0fb5 c93c 1d60 1d3c bb06 983c
000001e0: dc4c c0bd 0847 413e e1bf 2cba 06ab 4d3d
000001f0: d642 273d da1a 36bd 56cb e53b 9334 9d3d
00000200: e076 c83c 3f7b 3d3c 3e2a b63e 7fe0 3fbe
00000210: 4025 d8bc 0a3c c0bd 29de 9fbd afa0 a5bb
00000220: 014e a03b 2e42 64bc 566f 773b 501a 783d
00000230: 84a1 4dbc da0a 1b3d 5d99 153c abb3 a4bb
00000240: 811d d7bc 37f1 d8bd cf23 d6bd a45e 74bd
00000250: 70a8 e33d 24a4 133d 0427 433b b9b0 803c
00000260: f931 5ebd 6d76 ecbd 9f24 80be b3f9 adbd
00000270: d4e7 4abb 2760 6dbe 3228 f0be a429 ee3d
00000280: 15b5 243e 8986 42be 0e31 313e 37f2 943d
00000290: d005 1d3d f05a 43be 93af a2bc 2f68 db3d
000002a0: b744 223e 10ca b83d cdfa cbbd b66a 2e3f
000002b0: 4718 16bf 4793 4bbd 0ae3 4cbe 69c9 7abe
000002c0: 716b ee3d 7269 32bd fd65 883e 1426 0fbe
000002d0: 98e9 0bbe fb01 623c bd07 f8bc 8ab5 a73d
000002e0: 630c 573e e6ac f7bd 995a a7bd cf83 62be
000002f0: 72a3 433c 59ab 343d 0cef cfbd cd68 093d
00000300: 80a5 0dbd e2fb dcbe 1286 963d 97b7 753d
00000310: fb2c 223e 4287 11be d424 12bd 6467 b13c
00000320: d8e8 84bd 0f4d a1bd 4c92 2a3e c6dc 11be
00000330: 6c7b 81bc e98b 00be 66d6 dabb 19f0 293c
00000340: e89a 1bbe 72aa 033e 3cda 1fbd 56a1 ff3d
00000350: c4e3 7cbd 48cf dc3d dad3 553e 7607 42be
00000360: 1238 92bd 0b9e 77be 0c9c c53d 3ed2 733e
00000370: 01d1 9c3e f744 cbbd 16d4 23be 952f 9cbd
00000380: 17d8 343e c815 233d a737 5a3b e163 663b
00000390: dca8 58bd 39a2 6cbc c8cd 3ebe 7d8b a8bd
000003a0: 32f4 3abe 3939 353c 0d83 0bbe 4930 443d
000003b0: fac7 dd3d fc20 a3bc 8050 81be a85a aa3e
000003c0: fa1c b4bd f3af 273e dc00 20bd 8d1c a1bd
000003d0: 60b0 41be 14eb f7ba 159c c5bb 2148 53bd
000003e0: 61b6 27bc b649 6d3d d7b8 32bd 8562 ba3c
000003f0: 46f3 4a3d a81c 8bbd 9b55 243e 44c0 45be

bias f4 [16]
0.098083384 0.27474323 0.056556735 -0.06926915 -0.2056101 -0.19544323 0.065718494 0.021061514
0.116466865 -0.0674097 -0.041966893 -0.06104512 -0.07592639 0.05724509 0.036302574 0.039339565
00000000: f1df c83d 25ab 8c3e 09a8 673d fcdc 8dbd
00000010: 748b 52be 4522 48be 6b97 863d 3289 ac3c
00000020: 2e86 ee3d 190e 8abd 7ae5 2bbd 730a 7abd
00000030: 4c7f 9bbd d479 6a3d 02b2 143d 8622 213d

weight f4 [16]
0.66237336 0.94367 -0.10891857 -0.059888612 0.3003095 0.3306205 3.1431363 -0.20456004
0.7572819 1.4873496 0.8973041 0.0016116868 -0.23247044 1.2612637 0.943636 0.77600694
00000000: 4d91 293f 5b94 713f b310 dfbd c34d 75bd
00000010: 2bc2 993e 1747 a93e 2529 4940 3078 51be
00000020: 3add 413f 7961 be3f b9b5 653f 3c3f d33a
00000030: bb0c 6ebe 1771 a13f 2192 713f 64a8 463f

weight f4 [56, 16, 1, 1]
0.0036079187 -0.33260286 -0.53840905 0.27479124 -0.17146079 -0.87892336 -0.06145816 0.037602782
-0.31246975 -0.26559216 0.24346446 0.27509668 -0.1515852 -0.15443642 0.12540813 -0.108919725
-0.06504478 0.040187832 0.10017193 0.009988079 -0.15879565 -0.27637047 -0.031172736 0.07442898
0.02968533 -0.016508373 0.08108391 -0.13840866 -0.06252591 0.10275351 -0.005589319 -0.07848001
-0.26871043 -0.05893083 0.013522632 0.1335564 0.3053953 0.008942905 -0.038000222 0.1109879
-0.026715282 0.068847634 -0.07367043 0.17666997 -0.040230334 -0.07352285 -0.013543451 0.055276573
-0.24734698 0.09319748 0.031756166 0.0522751 0.11235745 -0.17272174 0.07164277 0.0406051
-0.2552043 0.23705675 0.0045014373 0.18242684 0.060837857 -0.11992029 0.19549204 0.12725163
-0.15422921 -0.17692742 -0.16256678 -0.07053363 0.21220054 0.056441434 -0.05588866 0.03090139
-0.27408022 -0.07669316 -0.11192974 -0.038701106 -0.011074828 0.01228883 0.012111388 -0.21544205
0.027905392 -0.17843851 0.1110701 0.020115769 -0.1173333 -0.026465753 0.05337993 -0.048275977
-0.017023595 0.0107353665 -0.047581147 -0.028561026 0.016262246 0.027921189 -0.14415847 -0.07698391
0.04648924 -0.17654565 -0.45393774 -0.33269906 0.42554963 -0.04301311 -0.10172426 0.10876448
-0.23473555 -0.47216746 0.2825315 0.14017797 -0.059012752 0.13322993 0.05037026 0.004965507
0.14609873 -0.076552026 0.13146265 -0.0023188535 0.0024609931 0.0014861459 -0.072594225 -0.08841709
-0.18245502 -0.16014066 -0.00617869 -0.23200577 -0.07479625 0.036467582 -0.017128192 0.054567933
-0.061255686 -0.12897213 -0.21151231 -0.16589025 0.07553852 0.0007895825 -0.0051043904 0.059125096
0.07968155 0.038391083 0.05962063 -0.040108133 0.07826266 0.023271212 0.03604163 0.039582737
0.26527664 -0.054658722 -0.03374329 -0.062275562 -0.06737312 -0.14378163 -0.054171026 -0.014538616
0.17510194 0.006133081 0.0066266917 -0.08034302 -0.061971817 0.15867373 0.26289865 -0.09994109
0.001301323 0.05873776 0.1574423 -0.09083737 0.24142027 0.09274079 0.025103401 0.14079331
-0.26456 0.010728613 -0.049482115 0.07662018 -0.19739243 0.022714715 0.20222409 -0.19110665
-0.33379176 -0.005508803 -0.22586145 -0.036362674 -0.0095920665 0.037982404 0.017246645 0.093482174
-0.38110405 0.10778353 0.027637312 -0.06469102 -0.0051452485 0.07297233 0.11959256 -0.03043982
-0.099364474 -0.21126342 0.15589438 -0.08357685 -0.39432105 -0.041331872 -0.207706 -0.03254634
-0.020771746 0.011553587 0.061181657 -0.027333293 -0.15423547 0.10538196 -0.13850468 0.33895722
-0.020662468 0.060265675 0.03207085 0.17342925 -0.04376459 -0.07085419 0.0026971363 -0.04310104
0.05471283 -0.047770057 -0.14587054 -0.028081862 -0.089590356 0.1563471 -0.14984913 -0.068979375
-0.12188501 -0.009887143 0.047500476 -0.14511015 -0.09743515 -0.12243274 -0.032874774 0.030182999
0.07173628 -0.06406177 -0.008703607 0.031164985 0.029280182 0.09236437 0.069075875 -0.036595646
-0.24895492 0.22532533 -0.83496237 -0.08770496 0.30834255 0.014728719 0.13835241 0.056955572
-0.04916356 -0.13933028 -0.0130633125 -0.15150855 0.11264612 -0.17799228 0.013080083 -0.22381994
00000000: d572 6c3b ec4a aabe 2dd5 09bf 70b1 8c3e
00000010: 6b93 2fbe 1f01 61bf 8dbb 7bbd 6005 1a3d
00000020: 09fc 9fbe b2fb 87be bf4e 793e 79d9 8c3e
00000030: 2739 1bbe 9524 1ebe fd6a 003e 4e11 dfbd
00000040: 3336 85bd ff9b 243d f126 cd3d 0aa5 233c
00000050: 549b 22be 6e80 8dbe f75d ffbc 396e 983d
00000060: a62e f33c 913c 87bc 520f a63d 00bb 0dbe
00000070: 960d 80bd 6f70 d23d 9b26 b7bb 21ba a0bd
00000080: 6a94 89be 7461 71bd 088e 5d3c 02c3 083e
00000090: c65c 9c3e 4385 123c 1fa6 1bbd a04d e33d
000000a0: 02da dabc fdff 8c3d 86e0 96bd f9e8 343e
000000b0: 90c8 24bd 2693 96bd 5ae5 5dbc b069 623d
000000c0: 8748 7dbe 52de be3d c112 023d 6a1e 563d
000000d0: aa1b e63d f8dd 30be 72b9 923d 8951 263d
000000e0: 23aa 82be 01bf 723e cb80 933b 1ace 3a3e
000000f0: 1e31 793d c598 f5bd 112f 483e 404e 023e
00000100: 43ee 1dbe 762c 35be e877 26be f073 90bd
00000110: 194b 593e 222f 673d 82eb 64bd e924 fd3c
00000120: 3e54 8cbe 4e11 9dbd 6b3b e5bd 0d85 1ebd
00000130: 3273 35bc 1757 493c d86e 463c d79c 5cbe
00000140: d999 e43c 96b8 36be b878 e33d d3c9 a43c
00000150: 714c f0bd b5ce d8bc eaa4 5a3d 08bd 45bd
00000160: 1175 8bbc 64e3 2f3c 73e4 42bd d0f8 e9bc
00000170: 6738 853c faba e43c 479e 13be bda9 9dbd
00000180: 806b 3e3d 62c8 34be 876a e8be 8857 aabe
00000190: a4e1 d93e 842e 30bd cf54 d0bd e9bf de3d
000001a0: 845e 70be efbf f1be f8a7 903e d08a 0f3e
000001b0: 5bb7 71bd 6d6d 083e 0c51 4e3d b1b5 a23b
000001c0: e89a 153e 4fc7 9cbd 259e 063e e8f7 17bb
000001d0: 9d48 213b c8ca c23a 48ac 94bd 0514 b5bd
000001e0: 7dd5 3abe eafb 23be 9c76 cabb ec92 6dbe
000001f0: c72e 99bd 085f 153d 6c50 8cbc a082 5f3d
00000200: 3ee7 7abd 4511 04be af96 58be 22df 29be
00000210: f1b3 9a3d fcfb 4e3a bb42 a7bb 282d 723d
00000220: 1530 a33d f83f 1d3d c334 743d 6d48 24bd
00000230: 2c48 a03d 45a3 be3c 63a0 133d 8221 223d
00000240: 57d2 873e d3e1 5fbd 6736 0abd a914 7fbd
00000250: ebfa 89bd 7e3b 13be 70e2 5dbd 6033 6ebc
00000260: ec4d 333e 03f8 c83b b824 d93b e28a a4bd
00000270: 29d6 7dbd 5e7b 223e a79a 863e eaad ccbd
00000280: 2791 aa3a 0197 703d 8e38 213e f108 babd
00000290: e036 773e e2ee bd3d a6a5 cd3c 1f2c 103e
000002a0: 6974 87be 10c7 2f3c c2ad 4abd 0aeb 9c3d
000002b0: 3e21 4abe 3614 ba3c d513 4f3e 76b1 43be
000002c0: c1e6 aabe 3083 b4bb 3948 67be 07f1 14bd
000002d0: 0b28 1dbc 7093 1b3d d648 8d3c 9573 bf3d
000002e0: 1220 c3be 9dbd dc3d a567 e23c ba7c 84bd
000002f0: 7999 a8bb 8472 953d f2ec f43d ee5c f9bc
00000300: 9a7f cbbd 7055 58be c7a2 1f3e 572a abbd
00000310: 73e4 c9be 9c4b 29bd e2b0 54be 504f 05bd
00000320: 8229 aabc 424b 3d3c 9e99 7a3d 12ea dfbc
00000330: e7ef 1dbe 7fd2 d73d 2cd4 0dbe cd8b ad3e
00000340: 5644 a9bc 24d9 763d b95c 033d 7097 313e
00000350: 8042 33bd 001c 91bd 70c2 303b b78a 30bd
00000360: 8f1a 603d 89aa 43bd 165f 15be ef0b e6bc
00000370: 267b b7bd 7419 203e 0d72 19be 0f45 8dbd
00000380: d99e f9bd affd 21bc dc8f 423d c197 14be
00000390: 148c c7bd 04be fabd b3a7 06bd 5642 f73c
000003a0: 79ea 923d d132 83bd 9399 0ebc b64d ff3c
000003b0: fedc ef3c 8829 bd3d a777 8d3d 51e5 15bd
000003c0: 0aee 7ebe afbb 663e 18c0 55bf a89e b3bd
000003d0: 13df 9d3e ba50 713c 41ac 0d3e 3f4a 693d
000003e0: bb5f 49bd 99ac 0ebe 8107 56bc 0f25 1bbe
000003f0: 02b3 e63d 9c43 36be d84d 563c 0e31 65be

bias f4 [56]
0.0028326486 -0.0475416 -0.21226753 -0.2669672 -0.10094749 -0.01872163 -0.13317682 0.08564332
0.024698744 0.113255136 -0.12495532 -0.35743022 0.019448318 0.033357877 -0.018784001 -0.24999523
-0.23822713 0.04091455 -0.031122522 -0.07431914 0.088723004 0.06233527 1.1152837e-05 0.008045558
0.07091711 0.083569616 -0.20862612 0.048563134 -0.013102841 -0.2015469 -0.15654194 0.09909412
-0.03205282 -0.22718883 0.0030515497 -0.060352676 -0.0848713 -0.03763723 0.11492774 -0.036440477
-0.105345085 -0.103882715 0.06062213 0.0020652493 0.013858121 0.12944022 0.027478725 0.083816
-0.038016446 -0.20334245 0.11546465 -0.38463494 0.10485658 -0.09351819 0.08895173 0.09729734
00000000: f5a3 393b fbba 42bd a95c 59be edaf 88be
00000010: 8fbd cebd 1b5e 99bc 815f 08be c465 af3d
00000020: 0555 ca3c 4ff2 e73d 93e8 ffbd 1801 b7be
00000030: 1452 9f3c 45a2 083d e8e0 99bc c0fe 7fbe
00000040: d0f1 73be 0496 273d a9f4 febc a234 98bd
00000050: 68b4 b53d 4553 7f3d 121d 3b37 84d1 033c
00000060: fd3c 913d 8c26 ab3d 16a2 55be 23ea 463d
00000070: 4cad 56bc 5062 4ebe 884c 20be dcf1 ca3d
00000080: d149 03bd 30a4 68be 82fc 473b 5e34 77bd
00000090: 01d1 adbd 7f29 1abd 3c5f eb3d 9c42 15bd
000000a0: 2abf d7bd 76c0 d4bd e94e 783d 2259 073b
000000b0: 2c0d 633c fa8b 043e 101b e13c b9a7 ab3d
000000c0: 22b7 1bbd 0139 50be bb78 ec3d dfee c4be
000000d0: 0cbf d63d 7786 bfbd 532c b63d d443 c73d

weight f4 [56]
0.037473716 0.75436693 0.23051038 0.2852719 0.3535699 0.85398036 0.10084412 0.9755593
0.88274854 0.9398634 0.24295054 0.43562979 1.7927237 0.83878934 0.030981902 0.28752124
0.3080716 0.91258234 -0.124747925 0.2331151 2.5944922 -0.023488875 0.96687174 0.9383127
0.97508574 0.9595802 0.17233689 -1.3105121 0.81535083 0.3689284 0.6263777 0.85694176
0.8143202 0.15931875 0.6682268 0.100559406 0.45965856 0.43237606 1.2239484 0.9858007
0.16736871 0.55084777 0.7785139 0.9654475 0.99933755 0.8819262 1.2139915 0.9453727
0.6858992 0.24539688 0.8574478 0.17551859 0.8687047 0.48312306 1.0004153 0.92479426
00000000: 0a7e 193d 311e 413f ea0a 6c3e 290f 923e
00000010: 1d07 b53e 759e 5a3f 5d87 ce3d 41be 793f
00000020: cffb 613f e39a 703f 07c8 783e de0a df3e
00000030: f877 e53f e6ba 563f c2cd fd3c fc35 933e
00000040: 90bb 9d3e ff9e 693f d77b ffbd bab5 6e3e
00000050: 290c 2640 be6b c0bc e884 773f 4335 703f
00000060: 389f 793f 0ca7 753f 1579 303e dcbe a7bf
00000070: d5ba 503f 2fe4 bc3e 4a5a 203f 8960 5b3f
00000080: 4a77 503f 7424 233e e910 2b3f 17f2 cd3d
00000090: 5e58 eb3e 6560 dd3e 57aa 9c3f 6f5d 7c3f
000000a0: b462 2b3e 5c04 0d3f b04c 473f 9127 773f
000000b0: 96d4 7f3f eac5 613f 1364 9b3f f203 723f
000000c0: 1797 2f3f 5249 7b3e b381 5b3f 25bb 333e
000000d0: 6e63 5e3f e85b f73e 9c0d 803f 51bf 6c3f

weight f4 [56, 1, 9, 9]
-0.0126007795 -0.016962403 -0.049425263 -0.055958588 -0.06962193 -0.039604295 -0.028495546 -0.020681791
-0.018325016 -0.021115866 -0.008213135 -0.041040033 -0.07932347 -0.12670429 -0.110261366 -0.0703669
-0.033831116 2.7976175e-05 0.008585767 0.01933718 0.04062131 0.030284846 -0.0091809165 -0.043351732
-0.050701912 -0.024228858 -0.0078095803 0.024032673 0.012636802 0.014274333 0.068344906 0.14299786
0.1441189 0.09239717 0.02738203 0.0037967258 0.025626022 0.035751723 -0.034067355 -0.054008715
0.04167708 0.14230707 0.14157784 0.047154002 0.0046416014 0.024860462 0.04505588 -0.0132421795
-0.13432568 -0.1746857 -0.08701446 -0.019519383 0.011469442 -0.009691767 0.019332154 0.03661678
0.024206577 -0.04994498 -0.101039514 -0.09044017 -0.05273602 -0.023456872 0.0054282434 0.01350681
0.014673582 0.012459898 0.044230103 0.034508567 0.033067655 0.02305748 0.013942569 0.0018021152
0.008471119 0.01369465 -0.00018569312 0.009111489 0.035518132 0.04749475 0.03811222 0.018877475
0.0123644 -0.07771208 -0.12432874 0.04378355 0.070094265 -0.041151814 -0.018751947 -0.064417586
-0.06507869 0.024520336 0.022584137 -0.043664362 0.019430134 -0.006823254 0.057623412 0.07867098
-0.061229393 -0.053442266 -0.04686561 0.041757595 -0.081185125 -0.052508146 0.01932853 0.077342324
0.06529396 -0.07165796 0.02327705 -0.04939967 -0.015647685 0.078289576 0.016885197 -0.039880402
0.03182283 0.059400856 0.040214043 -0.07670995 0.06865973 -0.005164038 0.006117961 0.030656073
-0.09974742 -0.049774613 -0.0640768 0.08121306 0.009724534 -0.025402708 0.0029336475 -0.051410034
0.00051851996 0.0007345089 -0.01831679 0.051781584 -0.030751338 0.03229451 -0.09606673 -0.073529005
0.086126484 -0.06787989 0.07800117 0.0284774 0.11118596 -0.010125921 -0.022120105 0.019446103
-0.024247382 -0.023600295 0.018617777 -0.03165421 0.03935445 -0.04431773 -0.007036528 0.051417563
-0.07321238 -0.053294186 0.041856542 -0.04265009 0.015332491 0.010805752 0.07249753 0.0017662902
0.062182862 0.026105326 0.02182452 -0.010789992 0.08129362 0.050506365 -0.10747963 -0.053532783
-0.10081387 -0.08816994 -0.118620045 0.070225246 0.065686285 -0.06285786 0.06589248 -0.10208052
-0.07691891 0.07435726 0.06587533 0.016017862 0.03337218 0.05126377 -0.013858089 -0.047534976
-0.067533396 -0.0021549077 0.09973022 -0.020909123 -0.046147887 0.07039856 -0.047926676 -0.028831081
-0.10409564 0.012872986 -0.008572215 0.04389792 0.07590622 -0.09385368 0.09671744 -0.050982773
0.047097553 -0.048930578 -0.10420623 -0.122132905 -0.013455525 -0.020883651 -0.056736458 -0.06505237
0.08448001 -0.053164754 0.04359355 -0.080702774 0.01128303 -0.090434596 0.0017162871 -0.07687117
0.06606512 -0.07628695 -0.014308915 0.015728319 -0.103099674 -0.02599758 -0.011051711 -0.09567658
-0.011961813 0.013304884 0.019524183 -0.005971954 -0.10246099 -0.0025789102 0.1227491 0.045749016
-0.01821647 -0.06865021 0.00067619147 0.11105912 0.04007086 0.057597183 -0.033779092 0.039333675
0.04208823 -0.068793565 -0.037434623 -0.05251675 -0.073487975 0.049107186 0.047056127 -0.10102981
-0.075466104 0.012918645 -0.01982712 0.04754351 0.0925241 -0.08968096 0.020573307 -0.023524797
00000000: 8073 4ebc bdf4 8abc 2572 4abd d534 65bd
00000010: f195 8ebd 1d38 22bd 7e6f e9bc dc6c a9bc
00000020: 581e 96bc 2efb acbc 6390 06bc 9819 28bd
00000030: 5874 a2bd c5be 01be b6d0 e1bd 851c 90bd
00000040: 7f92 0abd 61ae ea37 51ab 0c3c 0169 9e3c
00000050: 8862 263d ed17 f83c 8e6b 16bc 9691 31bd
00000060: cfac 4fbd 997b c6bc 82e7 ffbb 2be0 c43c
00000070: 970a 4f3c e4de 693c 6af8 8b3d 086e 123e
00000080: e893 133e ba3a bd3d 4750 e03c 7dd2 783b
00000090: aaed d13c 6670 123d 368a 0bbd 3e38 5dbd
000000a0: 96b5 2a3d f2b8 113e c8f9 103e 8e24 413d
000000b0: 9318 983b 2ba8 cb3c 848c 383d baf5 58bc
000000c0: ac8c 09be cfe0 32be a334 b2bd 1de7 9fbc
000000d0: 54ea 3b3c 38ca 1ebc 775e 9e3c 7afb 153d
000000e0: df4c c63c 1b93 4cbd ceed cebd b238 b9bd
000000f0: ba01 58bd a028 c0bc 68df b13b ab4b 5d3c
00000100: 7769 703c 9a24 4c3c a02a 353d db58 0d3d
00000110: f371 073d 0ae3 bc3c 5f6f 643c f434 ec3a
00000120: 73ca 0a3c 865f 603c 9eb6 42b9 5b48 153c
00000130: 767b 113d db89 423d 8f1b 1c3d efa4 9a3c
00000140: 0d94 4a3c 8327 9fbd 11a0 febd 6156 333d
00000150: 958d 8f3d ce8e 28bd af9d 99bc 5eed 83bd
00000160: fa47 85bd dfde c83c 5e02 b93c 67d9 32bd
00000170: f22b 9f3c 9a95 dfbb 8706 6c3d 401e a13d
00000180: accb 7abd 47e6 5abd 27f6 3fbd 030a 2b3d
00000190: 6344 a6bd c812 57bd de56 9e3c a765 9e3d
000001a0: d7b8 853d 69c1 92bd 83af be3c 4f57 4abd
000001b0: 932f 80bc 4956 a03d d352 8a3c a259 23bd
000001c0: a858 023d 504e 733d 7bb7 243d 1b1a 9dbd
000001d0: 799d 8c3d 1737 a9bb 2d79 c83b 7222 fb3c
000001e0: 6048 ccbd 77e0 4bbd b33a 83bd 0853 a63d
000001f0: a753 1f3c 5719 d0bc 7042 403b 5493 52bd
00000200: 49ed 073a 0f8c 403a 180d 96bc ed18 543d
00000210: 3bea fbbc 4047 043d a2be c4bd 6096 96bd
00000220: 1563 b03d 9d04 8bbd 14bf 9f3d 7049 e93c
00000230: 77b5 e33d 31e7 25bc 3935 b5bc 6f4d 9f3c
00000240: 72a2 c6bc 6855 c1bc 4f84 983c d8a7 01bd
00000250: 2232 213d 8286 35bd ad92 e6bb 399b 523d
00000260: 5ff0 95bd 014b 5abd c471 2b3d dcb1 2ebd
00000270: 2135 7b3c 9c0a 313c 9679 943d dd82 e73a
00000280: 75b3 7e3d d6da d53c 56c9 b23c 82c8 30bc
00000290: 457d a63d c3df 4e3d 481e dcbd 3145 5bbd
000002a0: 8177 cebd 7192 b4bd 11ef f2bd 41d2 8f3d
000002b0: 8886 863d 9fbb 80bd a3f2 863d 970f d1bd
000002c0: a987 9dbd 9e48 983d a5e9 863d e437 833c
000002d0: 44b1 083d f5f9 513d 0a0d 63bc 09b4 42bd
000002e0: f34e 8abd 5a39 0dbb 5c3f cc3d 9c49 abbc
000002f0: 9105 3dbd 1f2d 903d c34e 44bd 292f ecbc
00000300: 1830 d5bd 37e9 523c 7a72 0cbc 4ece 333d
00000310: b874 9b3d 5c36 c0bd cb13 c63d 50d3 50bd
00000320: 5de9 403d 6e6b 48bd 136a d5bd d120 fabd
00000330: 9074 5cbc 3114 abbc 7d64 68bd 2d3a 85bd
00000340: db03 ad3d 49c3 59bd 268f 323d 7f47 a5bd
00000350: 75dc 383c c635 b9bd 0af5 e03a a26e 9dbd
00000360: 264d 873d 553c 9cbd f06f 6abc add8 803c
00000370: ec25 d3bd e0f8 d4bc 3c12 35bc 15f2 c3bd
00000380: 7bfb 43bc bafc 593c 2ef1 9f3c 62b0 c3bb
00000390: 11d7 d1bd ef02 29bb e163 fb3d 5263 3b3d
000003a0: b53a 95bc 7b98 8cbd 7142 313a f772 e33d
000003b0: 5821 243d 06eb 6b3d f25b 0abd 591c 213d
000003c0: b564 2c3d a4e3 8cbd 0c55 19bd ce1b 57bd
000003d0: dd80 96bd 9e24 493d edbd 403d b8e8 cebd
000003e0: f98d 9abd b9a8 533c 7c6c a2bc fcbc 423d
000003f0: 467d bd3d a7aa b7bd 5a89 a83c 13b7 c0bc
