FSRCNN/FSRCNN_torch/FSRCNN_56_16_3_X3_150.pth (torch, 71530 bytes, 19 tensors)

weight f4 [56, 1, 5, 5]
0.059810285 -0.07191637 -0.21279939 -0.09177049 -0.02510833 -0.15394013 -0.019879574 0.26815566
0.2733256 -0.0015606214 -0.039508354 0.23348661 -0.41959092 0.012890228 -0.001014666 -0.25437132
0.09085921 0.28146753 0.1526245 -0.12255491 0.22035284 -0.04479184 -0.08464219 -0.14266594
-0.18353118 0.09897198 0.18589726 -0.053102855 0.009864132 0.06616431 -0.018433679 -0.15141773
-0.1540088 -0.07521922 0.029436054 0.14910346 -0.19745992 -0.59240395 -0.10124779 -0.013322073
-0.020608846 0.14964108 -0.26091084 0.25917396 -0.18482576 -0.040615436 -0.0798543 0.060377136
-0.05181134 0.14228411 0.10082676 0.02748093 -0.04324643 -0.00691576 -0.0017836641 0.036984824
-0.2566427 0.13693725 -0.0040096347 0.0052417093 -0.08441493 -0.34554893 0.6312332 -0.070622526
-0.087492414 -0.012006485 -0.115133055 -0.020407295 0.15014952 -0.028738786 0.033878323 0.006801413
-0.08292296 -0.013532726 0.07185439 0.044873744 -0.18462306 0.032066878 -0.031997163 0.0034282238
-0.083474204 -0.043301847 0.17555656 0.14278778 0.112050176 0.031156857 0.26625213 0.06992199
0.206333 0.124396086 -0.03493743 0.16944224 -0.06244866 -0.004414661 0.0019770241 -0.02830113
-0.04340054 0.15483795 -0.15490985 -0.0058948467 0.038901806 -0.13395837 -0.07013859 0.023465905
-0.045294557 -0.019759469 -0.01704081 -0.1888649 0.15680708 0.07963543 -0.15704073 -0.1522075
-0.22170292 -0.11605814 0.015324661 0.03628201 -0.14506277 0.021564348 -0.06796642 -0.012564893
-0.16815284 -0.086342156 0.22549333 0.11946229 -0.013244563 -0.26862 -0.67217237 -0.692065
-0.1845272 -0.6299236 -0.04847692 0.088600025 0.387738 -0.0008354362 0.12634175 0.054973356
-0.14405221 0.20759857 0.039073974 -0.053434804 -0.030452037 0.03195651 -0.16120236 -0.02319065
-0.11434679 -0.011560429 -0.021656953 0.091838636 0.08381997 -0.030098733 -0.36395955 -0.08054307
0.11136684 0.17187124 -0.061622865 -0.33740985 0.26030546 0.025034357 0.07922623 -0.0872085
-0.052369036 -0.007982105 0.14250161 0.15278617 -0.11726215 -0.09898544 0.06286072 -0.01440699
0.07454365 0.15532528 0.01670958 -0.12424348 -0.1818253 0.05244768 0.016699474 0.30895683
-0.2304343 -0.42719197 -0.3654216 0.31749538 0.041343037 -0.12627906 0.026725747 -0.091375984
0.26841614 -0.046217218 0.19326942 0.28319606 -0.1845487 0.041766163 -0.05070314 -0.15220211
0.11933594 -0.12322849 0.117490366 0.08398453 0.045886096 -0.06514833 0.07430825 -0.035950482
-0.10254157 0.00036117164 0.05898358 -0.0652514 0.07987994 0.060510125 0.10782432 -0.0020549973
-0.050830387 0.09212146 0.14839552 0.08693885 0.10666989 -0.09405917 0.019136766 -0.059758812
-0.06566974 -0.094825715 -0.0399166 -0.079955295 0.010165315 -0.2576015 -0.30188438 0.0025348435
-0.01722315 -0.14696921 -0.09637534 -0.1368534 -0.23058626 -0.15575674 0.39214554 0.2013935
0.36527404 0.10179385 -0.044422552 -0.15990439 0.0489114 -0.386054 0.027384356 -0.49829185
0.10963398 0.058211472 -0.17685583 0.045352913 0.22853151 -0.41401118 -0.14317806 -0.0811701
-0.028322203 0.23836823 -0.04835035 -0.116658516 -0.05222085 0.007941845 0.27781242 0.04281545
00000000: a1fb 743d e448 93bd 15e8 59be 2bf2 bbbd
00000010: fcaf cdbc 7ba2 1dbe 7dda a2bc b34b 893e
00000020: 55f1 8b3e c48d ccba 83d3 21bd 1d17 6f3e
00000030: 9fd4 d6be 8931 533c 8bfe 84ba f53c 82be
00000040: 6514 ba3d 831c 903e 9949 1c3e 12fe fabd
00000050: 2da4 613e a677 37bd e258 adbd 0517 12be
00000060: 99ef 3bbe d2b1 ca3d da5b 3e3e 6182 59bd
00000070: 2b9d 213c 2781 873d 3a02 97bc 400d 1bbe
00000080: 7cb4 1dbe 890c 9abd e123 f13c 94ae 183e
00000090: ef32 4abe c9a7 17bf 005b cfbd d344 5abc
000000a0: e2d3 a8bc 833b 193e 1b96 85be 73b2 843e
000000b0: f742 3dbe 5f5c 26bd a78a a3bd 044e 773d
000000c0: 2138 54bd edb2 113e 437e ce3d b01f e13c
000000d0: 2b23 31bd 9a9d e2bb d6c9 e9ba 667d 173d
000000e0: ac66 83be 4739 0c3e 4163 83bb a5c2 ab3b
000000f0: bce1 acbd caeb b0be 8098 213f 8ba2 90bd
00000100: 392f b3bd d9b6 44bc e1ca ebbd 332d a7bc
00000110: ccc0 193e 9a6d ebbc ffc3 0a3d 63de de3b
00000120: 83d3 a9bd 5eb8 5dbc 6528 933d 88cd 373d
00000130: d40d 3dbe 8f58 033d 750f 03bd 0dac 603b
00000140: 86f4 aabd 475d 31bd 19c5 333e f636 123e
00000150: 907a e53d aa3c ff3c 3352 883e 4333 8f3d
00000160: f548 533e 60c3 fe3d 8d1a 0fbd 4482 2d3e
00000170: 2bca 7fbd dca8 90bb f690 013b c5d7 e7bc
00000180: c4c4 31bd d78d 1e3e b0a0 1ebe 8f29 c1bb
00000190: 8057 1f3d 622c 09be d2a4 8fbd 923b c03c
000001a0: c986 39bd 9cde a1bc 2b99 8bbc cd65 41be
000001b0: 0992 203e e617 a33d 49cf 20be 48dc 1bbe
000001c0: 1706 63be e4af edbd 4914 7b3c 729c 143d
000001d0: 568b 14be b7a7 b03c fa31 8bbd fbdc 4dbc
000001e0: 4230 2cbe 28d4 b0bd b9e7 663e a5a8 f43d
000001f0: b9ff 58bc 9088 89be 7d13 2cbf 2c2b 31bf
00000200: b3f4 3cbe ac42 21bf bc8f 46bd ee73 b53d
00000210: 9885 c63e 2d01 5bba bb5f 013e be2b 613d
00000220: 6c82 13be b894 543e 080c 203d 74de 5abd
00000230: 8d76 f9bc d4e4 023d 3b12 25be 51fa bdbc
00000240: a62e eabd f467 3dbc ec69 b1bc e515 bc3d
00000250: cea9 ab3d 9e91 f6bc e858 babe c4f3 a4bd
00000260: 4c14 e43d 04ff 2f3e 4268 7cbd fcc0 acbe
00000270: c246 853e da14 cd3c 5d41 a23d 5f9a b2bd
00000280: ea80 56bd 60c7 02bc f1eb 113e fa73 1c3e
00000290: 2327 f0bd e1b8 cabd 1fbd 803d 4c0b 6cbc
000002a0: 57aa 983d 970d 1f3e 87e2 883c 5e73 febd
000002b0: 6930 3abe 61d3 563d 56cd 883c 972f 9e3e
000002c0: f8f6 6bbe e8b8 dabe 8a18 bbbe c18e a23e
000002d0: 5157 293d 4c4f 01be f4ef da3c 5523 bbbd
000002e0: d76d 893e 444e 3dbd 6be8 453e 13ff 903e
000002f0: 56fa 3cbe ff12 2b3d 19ae 4fbd dfda 1bbe
00000300: 6766 f43d 385f fcbd ca9e f03d 1500 ac3d
00000310: 0ff3 3b3d 7d6c 85bd ec2e 983d d040 13bd
00000320: 5101 d2bd a35b bd39 c498 713d 87a2 85bd
00000330: 1898 a33d 77d9 773d ffd2 dc3d 22ad 06bb
00000340: 8633 50bd 2daa bc3d fff4 173e ff0c b23d
00000350: be75 da3d 18a2 c0bd b5c4 9c3c a8c5 74bd
00000360: db7d 86bd fc33 c2bd 977f 23bd 9abf a3bd
00000370: 6c8c 263c 58e4 83be 9790 9abe 9e1f 263b
00000380: 9017 8dbc 197f 16be 6f60 c5bd 4c23 0cbe
00000390: ce1e 6cbe b27e 1fbe 4dc7 c83e 193a 4e3e
000003a0: 3305 bb3e 4b79 d03d 6cf4 35bd fabd 23be
000003b0: 5257 483d dfa8 c5be 2855 e03c 1c20 ffbe
000003c0: c887 e03d 276f 6e3d b219 35be fac3 393d
000003d0: 2a04 6a3e 46f9 d3be 459d 12be 823c a6bd
000003e0: f703 e8bc cd16 743e 040b 46bd a9ea eebd
000003f0: 88e5 55bd 831e 023c 6e3d 8e3e 415f 2f3d

bias f4 [56]
-0.042773172 0.0290051 0.07441914 -0.2693529 0.055709857 -0.012629831 -0.13985986 -0.15395212
0.0705945 -0.08836309 -0.12653044 -0.19791122 -0.2852718 0.1689215 0.24483366 -0.19954509
-0.023849906 -0.13822275 0.23816825 -0.07253038 0.017954092 0.14114755 0.17979464 -0.2766367
-0.246405 -5.2994317e-05 0.17644738 0.13280046 0.022725683 0.1349184 0.118090704 0.06895401
0.09453854 -0.2844525 -0.16361833 0.17385195 0.04792305 -0.1530472 -0.16385503 0.019171216
-0.4182736 -0.25160187 -0.034452405 -0.2771541 -0.0555394 0.03707412 0.09190205 0.20389284
-0.09717893 0.016111132 -0.17665802 -0.27688333 -0.44823137 0.20152855 0.051691443 -0.031031653
00000000: ec32 2fbd 1a9c ed3c 1069 983d a0e8 89be
00000010: 0530 643d 5aed 4ebc 6c37 0fbe a0a5 1dbe
00000020: d993 903d b5f7 b4bd 3291 01be 3da9 4abe
00000030: 250f 92be c2f9 2c3e adb5 7a3e 8c55 4cbe
00000040: e160 c3bc 448a 0dbe 61e2 733e cf8a 94bd
00000050: 7614 933c fc88 103e 161c 383e 53a3 8dbe
00000060: 9851 7cbe 3746 5eb8 9fae 343e d8fc 073e
00000070: 362b ba3c 0d28 0a3e 8ad9 f13d c337 8d3d
00000080: 6c9d c13d c2a3 91be 908b 27be 3f06 323e
00000090: f64a 443d 68b8 1cbe 9dc9 27be f40c 9d3c
000000a0: f527 d6be f6d1 80be f71d 0dbd 24e7 8dbe
000000b0: 487d 63bd 08db 173d 2437 bc3d 49c9 503e
000000c0: bf05 c7bd 7efb 833c d7e5 34be a7c3 8dbe
000000d0: 957e e5be 805d 4e3e 68ba 533d 1836 febc

weight f4 [56]
0.35256827 0.06043014 -0.31515208 0.9108325 0.10353276 -0.020895667 0.07480288 0.016191335
0.159586 -0.003309212 -0.037108183 0.01917658 -0.0035493104 1.0241312 0.93745565 -0.03363061
-0.012908152 0.90481937 0.9843615 0.1693979 0.044542544 1.0156902 0.81658685 -0.015771167
0.526655 0.05870255 0.12974207 0.30158225 0.18886478 0.049388684 -0.013427082 0.010567133
0.3113477 0.99373025 1.1461424 0.16144899 0.03757298 0.0010033797 -0.013069478 1.3844159
0.10495822 -0.006368971 -0.05206448 -0.009500411 1.0259985 -0.53082615 0.5737234 -0.068778284
-0.0016223091 0.18467352 0.65101475 -0.007646006 -0.034085847 0.956399 0.31491333 -0.0026955265
00000000: d483 b43e 9885 773d 9d5b a1be 522c 693f
00000010: fc08 d43d 642d abbc 4132 993d b1a3 843c
00000020: 836a 233e 5ddf 58bb c0fe 17bd 3418 9d3c
00000030: 8c9b 68bb bb16 833f 18fd 6f3f 40c0 09bd
00000040: b77c 53bc 3ea2 673f 1eff 7b3f a576 2d3e
00000050: 3e72 363d 2302 823f d60b 513f 8932 81bc
00000060: ddd2 063f 1672 703d 1bdb 043e fd68 9a3e
00000070: c565 413e ca4b 4a3d 44fd 5bbc c521 2d3c
00000080: f768 9f3e 1b65 7e3f cbb4 923f e252 253e
00000090: 20e6 193d d683 833a 5d21 56bc 8a34 b13f
000000a0: 56f4 d63d cdb2 d0bb 9041 55bd 9da7 1bbc
000000b0: eb53 833f 39e4 07bf 89df 123f a1db 8cbd
000000c0: a9a3 d4ba 0e1b 3d3e e7a8 263f 598b fabb
000000d0: 9a9d 0bbd 91d6 743f 523c a13e 6ea7 30bb

weight f4 [16, 56, 1, 1]
0.049957126 0.04743095 0.038749952 -0.046064686 -0.039860178 -0.13006698 0.0821206 -0.097368665
-0.065531366 0.03082005 -0.0051371604 -0.011142425 0.06149127 0.039806817 0.111415416 -0.094566956
-0.003631975 -0.0948813 0.046174057 0.0023221683 0.08645743 0.10717198 -0.13226551 -0.1624926
0.089200914 -0.014211193 0.072046496 -0.01971134 -0.02051075 0.050423108 0.022303654 -0.0028454156
0.09701728 -0.033492204 -0.10583162 0.15582794 -0.06848986 0.01372089 0.089415856 -0.053589802
0.02641877 0.113826975 0.014924983 -0.28528267 -0.046713132 -0.023239164 -0.14633024 -0.06951897
-0.08019725 0.049915593 -0.061641693 0.03913269 -0.1999358 0.030817192 -0.010988729 0.07053344
0.07121657 0.08042575 -0.050195143 0.028437363 -0.12231326 0.019615099 -0.22564009 0.03270538
-0.06041207 -0.3377682 -0.1943274 0.2635954 -0.23738521 -0.07970452 -0.087027706 -0.40046033
0.1521008 -0.06046673 -0.0105461255 -0.08015161 -0.27467132 0.034671094 -0.0876661 0.2919553
0.004414438 0.024635036 0.17353433 0.046487972 -0.03252673 -0.07198476 0.18150517 -0.23957336
-0.10209114 -0.013798188 -0.11550689 -0.1307911 -0.060639344 -0.11967274 0.052812956 0.06819312
0.27826133 0.20798543 0.11492657 0.47586197 0.0077026994 0.075558655 -0.06723961 -0.041082706
-0.03220352 0.033077553 -0.016314257 0.40567824 -0.1680368 0.0077581643 0.029706743 -0.18672825
0.40353552 0.44385302 -0.496037 -0.12243448 -0.0067441612 -0.14440952 0.0738676 -0.3574609
-0.38978103 0.001519479 -0.096105844 0.63011724 -0.23502952 0.14273556 0.08100069 -0.31396717
-0.522133 -0.13892746 0.112167664 0.1425537 0.09023402 -0.55330384 -0.08101242 -0.8250011
-0.24589051 0.23344083 -0.09333707 0.24557607 0.0054973518 0.08663043 0.28282267 0.083759606
0.026138129 -0.33734298 -0.35133198 0.2765087 0.006501779 -0.11066732 -0.14771305 -0.17045122
-0.119362235 0.044471566 -0.04355008 0.2410613 -0.3482677 -0.35464418 -0.18653738 0.045353126
0.11726537 0.0024783714 -0.2698329 -0.12425216 0.26058054 0.42321804 -0.17242509 0.5564094
0.18816939 0.13639142 -0.15593797 0.04161511 0.33161888 0.0928619 0.086658366 -0.12331717
0.15029468 -0.21652098 0.109329894 0.34869397 -0.1616398 0.22801456 -0.4956845 -0.22533184
-0.06260442 0.014698157 0.19452988 0.010872486 0.22352594 -0.28235823 -0.15481697 -0.75993377
-0.2845788 0.091534324 -0.31559807 -0.15996748 -0.12755182 0.16459265 -0.007962497 0.0898456
0.08372979 -0.15042979 -0.076629646 0.1557069 0.04210785 0.5270061 0.42524576 -0.33362284
0.22390005 0.050983824 -0.24051583 0.32928306 0.08305949 0.112045825 -0.044015538 -0.0927956
0.10929777 -0.030872801 0.26928318 0.37486586 0.17330946 0.13654754 -0.22315298 -0.030240942
-0.011980397 0.10194796 -0.0020074232 0.022246962 0.023130815 -0.017696045 0.02447451 -0.08739951
0.16537692 -0.07792034 0.09568148 -0.012080354 -0.08790271 0.1802801 0.09053839 0.020472493
0.03621468 -0.07709315 0.1109194 0.06393625 -0.19478475 -0.16367655 0.08687676 -0.2794914
-0.00016041716 -0.011289814 0.03782954 0.017942226 -0.0034869749 0.071387015 0.096898 0.033463173
00000000: d89f 4c3d f546 423d 45b8 1e3d 53ae 3cbd
00000010: 6d44 23bd 4730 05be d82e a83d 3969 c7bd
00000020: 4f35 86bd 547a fc3c a055 a8bb b88e 36bc
00000030: 45de 7b3d 790c 233d c42d e43d 52ac c1bd
00000040: 6e06 6ebb 2151 c2bd 0221 3d3d 852f 183b
00000050: 9810 b13d fc7c db3d 9c70 07be 7664 26be
00000060: f8ae b63d 10d6 68bc 1d8d 933d ad79 a1bc
00000070: 2906 a8bc 7688 4e3d 27b6 b63c 277a 3abb
00000080: ffb0 c63d 1f2f 09bd 40be d8bd 5c91 1f3e
00000090: 6944 8cbd 95cd 603c a91f b73d fb80 5bbd
000000a0: 2d6c d83c 1e1e e93d ea87 743c 9210 92be
000000b0: 4556 3fbd 0f60 bebc 98d7 15be f65f 8ebd
000000c0: 753e a4bd 4b74 4c3d 007c 7cbd 9949 203d
000000d0: f8bb 4cbe 5674 fc3c 120a 34bc d673 903d
000000e0: fed9 913d 41b6 a43d 6c99 4dbd 79f5 e83c
000000f0: 607f fabd d8af a03c 320e 67be 14f6 053d
00000100: a672 77bd f4ef acbe c3fd 46be faf5 863e
00000110: 1c15 73be 203c a3bd 953b b2bd 2309 cdbe
00000120: 50c0 1b3e f6ab 77bd a8c9 2cbc 8726 a4bd
00000130: b8a1 8cbe 4703 0e3d 498a b3bd 2a7b 953e
00000140: fda6 903b 6acf c93c fcb2 313e 2c6a 3e3d
00000150: c03a 05bd bf6c 93bd 7edc 393e b852 75be
00000160: 2915 d1bd cc11 62bc e08e ecbd 1aee 05be
00000170: f660 78bd fb16 f5bd 6652 583d d6a8 8b3d
00000180: 4578 8e3e 22fa 543e 9f5e eb3d 2ea4 f33e
00000190: ed66 fc3b 7fbe 9a3d ecb4 89bd 5746 28bd
000001a0: d7e7 03bd 547c 073d 7aa5 85bc 0fb5 cf3e
000001b0: d711 2cbe 3338 fe3b 8e5b f33c b135 3fbe
000001c0: 359c ce3e b440 e33e 90f8 fdbe eebe fabd
000001d0: 20fe dcbb 17e0 13be e547 973d 1d05 b7be
000001e0: 6191 c7be 4129 c73a 24d3 c4bd 5d4f 213f
000001f0: 94ab 70be 4529 123e b1e3 a53d 4ec0 a0be
00000200: 82aa 05bf 0043 0ebe 29b8 e53d 99f9 113e
00000210: 9dcc b83d 52a5 0dbf d7e9 a5bd 4633 53bf
00000220: b9ca 7bbe 1d0b 6f3e 8127 bfbd 4b78 7b3e
00000230: 2123 b43b 4b6b b13d 22ce 903e 288a ab3d
00000240: a11f d63c 38b8 acbe c9e1 b3be 8c92 8d3e
00000250: e00c d53b 8ca5 e2bd 1742 17be c48a 2ebe
00000260: 3074 f4bd d127 363d 9261 32bd c6d8 763e
00000270: 2550 b2be ec93 b5be a803 3fbe 33c4 393d
00000280: d428 f03d 2c6c 223b 8a27 8abe eb77 febd
00000290: d06a 853e 09b0 d83e 3490 30be d970 0e3f
000002a0: 7aaf 403e 31aa 0b3e 34ae 1fbe 9b74 2a3d
000002b0: f3c9 a93e 612e be3d f179 b13d b68d fcbd
000002c0: d9e6 193e adb7 5dbe 5ae8 df3d 0488 b23e
000002d0: e784 25be a67c 693e 5cca fdbe 64bd 66be
000002e0: bf36 80bd 8ad0 703c d732 473e 8322 323c
000002f0: fce3 643e 4291 90be 5788 1ebe 058b 42bf
00000300: 50b4 91be 5976 bb3d 1296 a1be 84ce 23be
00000310: f29c 02be fa8a 283e 2275 02bc f800 b83d
00000320: 867a ab3d 440a 1abe 01f0 9cbd a171 1f3e
00000330: 4879 2c3d dfe9 063f d0b9 d93e 9dd0 aabe
00000340: 0e46 653e 6ad4 503d c849 76be ca97 a83e
00000350: 181b aa3d 4878 e53d a349 34bd 9f0b bebd
00000360: 82d7 df3d f5e8 fcbc 7cdf 893e 6bee bf3e
00000370: 0978 313e 1ed3 0b3e 3782 64be dabb f7bc
00000380: 6d49 44bc 18ca d03d f98e 03bb 433f b63c
00000390: d67c bd3c 4cf7 90bc c57e c83c 84fe b2bd
000003a0: 9158 293e b394 9fbd a7f4 c33d adec 45bc
000003b0: 5606 b4bd 599b 383e 316c b93d eeb5 a73c
000003c0: d855 143d 03e3 9dbd b629 e33d 02f1 823d
000003d0: a775 47be d39a 27be 71ec b13d 7f19 8fbe
000003e0: a735 28b9 e9f8 38bc 26f3 1a3d 93fb 923c
000003f0: bb85 64bb 5b33 923d 7572 c63d ae10 093d

bias f4 [16]
0.15231971 0.048016425 -0.1998804 -0.069859564 0.097008474 -0.062603734 -0.19097641 0.018397817
-0.039225493 -0.030691143 -0.011565633 -0.06212251 -0.089001074 -0.06075814 0.03392464 -0.09295073
00000000: b3f9 1b3e dfac 443d 73ad 4cbe 8812 8fbd
00000010: 61ac c63d 6336 80bd 528f 43be 05b7 963c
00000020: e9aa 20bd fe6b fbbc c87d 3dbc 2c74 7ebd
00000030: 3246 b6bd 87dd 78bd 90f4 0a3d f45c bebd

weight f4 [16]
0.94906056 0.90274596 0.001418833 0.022412365 -0.74616235 0.9927209 -0.015065209 0.46616513
-0.0024764803 0.96348256 0.49350962 1.022739 0.04260183 1.0950047 0.9863875 0.1001086
00000000: a2f5 723f 5c1a 673f 23f8 b93a 239a b73c
00000010: 7f04 3fbf f522 7e3f 11d4 76bc 32ad ee3e
00000020: 724c 22bb cba6 763f 4bad fc3e 1de9 823f
00000030: 427f 2e3d 1d29 8c3f e483 7c3f bd05 cd3d

weight f4 [16, 16, 3, 3]
-0.019556204 -0.04010167 0.016944744 -0.19559723 -0.2821352 -0.15144481 -0.03862365 -0.16262762
-0.06866433 -0.063156225 0.0008797837 0.046855282 0.0008581984 0.13734734 -0.1326322 -0.056779105
0.078621015 -0.11672992 0.020816443 -0.01979185 -0.01109317 -0.25850582 -0.014486729 -0.021747235
0.090696745 0.1092713 0.16455644 -0.07035351 0.06630469 0.053130902 -0.0025386484 0.053258326
0.027747016 0.092666365 -0.04805015 0.058151122 0.12859285 -0.03928774 0.08790396 -0.05243278
-0.36858204 -0.053228594 0.071820684 0.022432236 0.16209604 -0.13873284 -0.044052407 -0.14373603
-0.012271367 0.37679708 -0.02325671 -0.0026488327 0.012120062 -0.11157939 0.024314394 0.13301997
-0.12366944 0.1392085 0.08566385 0.26098493 -0.02208834 0.045302358 0.19279584 0.27682617
-0.06717576 0.033998743 -0.07896191 -0.21055816 0.016481128 -0.032557808 0.06927351 0.032851696
0.21059263 -0.10451442 0.15866429 -0.08424045 -0.26061833 -0.09247704 0.056391165 -0.06418133
0.17035866 -0.057325613 -0.0038347123 0.030146435 0.07734599 0.15167068 -0.052041512 -0.024566935
0.08118964 -0.076895654 0.040851038 0.07622745 -0.100797996 0.23042873 -0.069623716 -0.06635962
-0.05677262 -0.05757721 -0.09066907 -0.019346442 -0.026758224 0.03345521 0.13865936 0.26273823
0.017906586 0.064310044 0.15847923 0.020795494 -0.0059687914 0.1523757 -0.08406343 -0.07842861
0.021019654 -0.049658943 0.07400519 0.124883436 -0.074258395 -0.03532629 -0.018513523 -0.01970779
-0.05241145 0.20015301 0.1076693 -0.06607618 0.06404026 0.010734844 -0.079670265 -0.050195064
-0.14038819 0.11760005 0.4203242 -0.065666355 -0.22104059 -0.11949036 -0.029367438 0.016516678
-0.08016512 0.060156 -0.022031685 -0.21376365 -0.08855042 0.024737883 -0.032040965 0.030438531
-0.16585988 -0.084879845 -0.119375855 0.13257128 -0.1675698 0.12185704 -0.20225213 -0.0857304
-0.0013711333 0.055458963 -0.016539829 -0.06227617 0.0468718 -0.060706608 0.01538688 0.040184367
0.08631586 0.032678638 0.11368169 0.07017736 -0.0067092557 0.025369752 -0.38314125 0.10055957
0.057095442 0.05663949 -0.06339303 -0.026966607 0.076689444 0.028440295 0.23974167 0.03922816
0.25238934 -0.2061979 0.08644232 -0.057327673 0.010478711 0.07863746 -0.10829673 0.15377331
0.27256703 0.09857098 -0.09283239 0.009251298 0.033257514 0.16640961 -0.010281595 0.07932263
-0.26670405 0.5556166 -0.2979739 0.10534737 -0.25020134 0.02487276 0.014641668 -0.037962094
-0.23240648 -0.10355135 0.26394108 -0.016293969 -0.20901082 -0.19988635 -0.18269783 0.16726054
0.19940445 0.12380359 0.08108505 -0.2698819 0.15077004 0.09309691 0.12295288 0.08423328
-0.0010797617 0.26402217 0.0958558 0.1606826 0.1130087 0.21176313 0.00096124446 -0.012362409
-0.17336689 -0.124706686 -0.24821001 0.031156963 -0.14998326 0.6720094 -0.20822084 0.0014458655
-0.30092517 -0.009492811 0.093797065 0.038634017 0.12002791 0.091254964 0.08046999 0.07923769
0.017238727 0.09323435 0.24954917 -0.059009504 -0.074959554 -0.07321126 0.15916216 0.5255331
-0.15769288 -0.094010785 -0.061209075 -0.075005665 0.06363147 0.22295742 0.09285651 -0.022994418
00000000: 5534 a0bc a641 24bd b4cf 8a3c a44a 48be
00000010: 0674 90be 5914 1bbe d533 1ebd db87 26be
00000020: e29f 8cbd 0d58 81bd 49a1 663a 53eb 3f3d
00000030: b8f8 603a c8a4 0c3e bcd0 07be 3591 68bd
00000040: 0e04 a13d 1910 efbd 3f87 aa3c 8522 a2bc
00000050: 21c0 35bc e05a 84be bf59 6dbc 4227 b2bc
00000060: 37bf b93d a2c9 df3d 7c81 283e 8015 90bd
00000070: c1ca 873d ca9f 593d 745f 26bb 6725 5a3d
00000080: b64d e33c ddc7 bd3d 3cd0 44bd df2f 6e3d
00000090: d8ad 033e 2eec 20bd fe06 b43d c1c3 56bd
000000a0: c9b6 bcbe 3a06 5abd b916 933d cfc3 b73c
000000b0: 81fc 253e fb0f 0ebe 4c70 34bd 8a2f 13be
000000c0: d80d 49bc 8ceb c03e db84 bebc 0a98 2dbb
000000d0: 3993 463c bc83 e4bd fb2e c73c 6336 083e
000000e0: 6746 fdbd ac8c 0e3e 8770 af3d d19f 853e
000000f0: 9bf2 b4bc f78e 393d 466c 453e 29bc 8d3e
00000100: 7293 89bd 4442 0b3d c8b6 a1bd 8f9c 57be
00000110: 6e03 873c 565b 05bd 45df 8d3d 808f 063d
00000120: 98a5 573e a80b d6bd e478 223e 4286 acbd
00000130: c46f 85be 9a64 bdbd 6cfa 663d 8071 83bd
00000140: 8072 2e3e 43ce 6abd cc4f 7bbb a8f5 f63c
00000150: 9367 9e3d 8f4f 1b3e 7b29 55bd 9940 c9bc
00000160: c146 a63d 787b 9dbd 6b53 273d 231d 9c3d
00000170: 2e6f cebd 82f5 6b3e e196 8ebd 8de7 87bd
00000180: 688a 68bd 15d6 6bbd b5b0 b9bd 6e7c 9ebc
00000190: 1034 dbbc 5508 093d b8fc 0d3e a085 863e
000001a0: d5b0 923c fcb4 833d 6148 223e 505b aa3c
000001b0: da95 c3bb 6008 1c3e 7329 acbd 2e9f a0bd
000001c0: 6931 ac3c 2d67 4bbd 0890 973d e3c2 ff3d
000001d0: c914 98bd 4db2 10bd aca9 97bc 3b72 a1bc
000001e0: 63ad 56bd e9f4 4c3e b981 dc3d f352 87bd
000001f0: 8a27 833d 33e1 2f3c 2a2a a3bd 5799 4dbd
00000200: ecc1 0fbe 4cd8 f03d bc34 d73e 157c 86bd
00000210: 7758 62be 5db7 f4bd fb93 f0bc fc4d 873c
00000220: 9c2d a4bd 2366 763d cb7b b4bc dce4 5abe
00000230: ec59 b5bd 1aa7 ca3c 633d 03bd 3a5a f93c
00000240: 2cd7 29be 7cd5 adbd 547b f4bd c4c0 073e
00000250: 6b97 2bbe 2f90 f93d 2f1b 4fbe 6c93 afbd
00000260: 99b7 b3ba f028 633d 897e 87bc 4c15 7fbd
00000270: a5fc 3f3d 7ea7 78bd 4119 7c3c 5d98 243d
00000280: 5fc6 b03d 09da 053d f2d1 e83d 26b9 8f3d
00000290: 51d9 dbbb 3ad4 cf3c 172b c4be 2df2 cd3d
000002a0: e9dc 693d cffe 673d 34d4 81bd 13e9 dcbc
000002b0: 5b0f 9d3d 9ffb e83c d77e 753e b5ad 203d
000002c0: 2d39 813e 8b25 53be ac08 b13d 6cd0 6abd
000002d0: e6ae 2b3c ad0c a13d adca ddbd c076 1d3e
000002e0: e88d 8b3e 95df c93d e81e bebd c292 173c
000002f0: 0839 083d 4867 2a3e 2374 28bc e773 a23d
00000300: 6f8d 88be e43c 0e3f 0990 98be 5dc0 d73d
00000310: 641a 80be f5c1 cb3c 9be3 6f3c 247e 1bbd
00000320: f7fb 6dbe bb12 d4bd 4923 873e ee7a 85bc
00000330: ef06 56be 02af 4cbe 2415 3bbe 5946 2b3e
00000340: ae30 4c3e bd8c fd3d eb0f a63d f62d 8abe
00000350: 7663 1a3e 98a9 be3d b8ce fb3d 7f82 ac3d
00000360: ca86 8dba ea2d 873e 0c50 c43d fb89 243e
00000370: 1b71 e73d 6fd8 583e 06fc 7b3a b48b 4abc
00000380: 1787 31be 3866 ffbd c42a 7ebe e33c ff3c
00000390: 3695 19be cf08 2c3f d837 55be 3283 bd3a
000003a0: dd12 9abe bc87 1bbc ad18 c03d b43e 1e3d
000003b0: 31d1 f53d e2e3 ba3d 73cd a43d 5f47 a23d
000003c0: 3b38 8d3c a7f1 be3d d189 7f3e f3b3 71bd
000003d0: 6584 99bd c9ef 95bd 68fb 223e 5689 063f
000003e0: 3e7a 21be ba88 c0bd 5eb6 7abd 929c 99bd
000003f0: 3751 823d f34e 643e 8e2b be3d ca5e bcbc

bias f4 [16]
0.04712272 0.031387277 0.063103445 0.062508896 0.012153767 -0.005772073 -0.0030202593 -0.09778723
0.046978302 -0.007824362 0.0090772305 0.065999985 -0.018497117 0.027120514 -0.023936054 -0.013607583
00000000: c103 413d f28f 003d 613c 813d aa04 803d
00000010: 9820 473c a823 bdbb 8bef 45bb ac44 c8bd
00000020: 526c 403d c131 00bc aab8 143c 002b 873d
00000030: 4487 97bc d72b de3c 8b15 c4bc 57f2 5ebc

weight f4 [16]
0.9894014 0.9282864 0.12324828 0.23097679 -0.2782269 -0.9166884 -0.376264 0.024985917
1.006317 -0.05688714 -0.15181991 1.0210347 -0.08059309 -0.08103282 -0.47963312 -0.17743133
00000000: 6949 7d3f 2da4 6d3f 9869 fc3d 2e85 6c3e
00000010: c273 8ebe 17ac 6abf ada5 c0be 44af cc3c
00000020: ffce 803f 7d02 69bd ae76 1bbe 44b1 823f
00000030: fd0d a5bd 89f4 a5bd 7992 f5be 8fb0 35be

weight f4 [16, 16, 3, 3]
0.0954944 -0.04860999 -0.026933623 0.018368945 0.25118423 0.019561788 -0.114915565 0.099877715
0.06125832 -0.02074634 -0.13247067 -0.24668191 -0.050258134 0.32339597 -0.11458182 0.015151996
-0.040053032 -0.008864541 0.77588266 -0.09263038 0.36136994 0.20088279 0.052679893 -0.09950325
0.027891899 -0.19972995 0.14708339 -0.31045857 -0.5190732 -0.27971467 -0.07447575 -0.090618595
-0.0021300353 0.018366095 0.04396385 -0.034589298 0.12881191 0.38679853 -0.048157386 -0.0010580855
-0.10408379 -0.112235576 0.046942044 0.02610443 -0.006766459 -0.10053061 -0.058699552 -0.06802836
-0.034220614 0.069801755 0.02754277 0.046703257 0.0015001785 0.0010838949 -0.22538172 -0.83365875
-0.21870117 0.16938181 0.029795075 -0.021516962 -0.05441161 -0.023702538 -0.015764674 -0.15152292
-0.14699599 -0.26209918 -0.015287077 0.09562839 -0.1334148 0.012373954 -0.068333514 -0.11782229
-0.22465497 -0.22577308 -0.20064802 0.039309043 0.16901669 -0.15957211 -0.0015164736 0.018628033
0.017965494 -0.02084095 0.25995627 0.3703642 0.03001093 -0.1617644 0.32955685 0.0988263
-0.11656382 -0.059193663 0.15761185 -0.08042075 0.32333797 0.096087344 0.02815482 0.003747562
0.03699004 0.034120142 -0.11572407 0.07035812 -0.3239649 0.35723606 0.0600039 0.22945674
-0.037108503 -0.11779125 -0.08472442 0.024910161 0.20371893 0.16428725 -0.22908089 0.027034461
0.12802269 -0.108987965 -0.09022134 -0.04806976 0.054270647 -0.44965827 -0.3356516 -0.41053346
-0.0049250545 -0.004903307 -0.13477916 -0.006297716 -0.13272497 0.06361815 -0.17885847 -0.121309586
-0.13109687 -0.106863074 0.008180514 0.04495796 -0.0838196 0.010928221 0.035833664 0.06010735
-0.03275994 -0.012265838 0.09051927 -0.03135932 0.097470336 0.091493756 -0.031170458 0.035749327
-0.015492752 -0.03236031 0.17525636 0.19773695 0.15127517 0.06869959 -0.1911721 0.004141872
-0.058392532 -0.1258271 0.19125497 0.083857216 -0.29556203 0.22326332 -0.17198983 0.0016097965
0.06148691 -0.18225661 -0.44896877 0.033010054 0.31749505 0.17311142 -0.034343056 -0.09141949
-0.16356926 -0.027247941 0.014716285 0.16645847 0.07230833 -0.39954528 0.09555331 0.14040534
-0.21048474 0.0005218809 -0.080357574 -0.3562921 0.1982969 -0.7520764 0.4196864 0.14525534
-0.109329246 -0.28120524 0.029993955 0.03270426 -0.034203444 -0.08126692 0.1021839 0.19445309
-0.0061392006 0.09866894 0.35615587 0.03255282 0.11646913 0.009370964 -0.17836754 0.44816962
-0.4779551 -0.083011016 0.3554597 -0.2462235 0.025582828 0.05250319 -0.06940724 -0.013885141
0.19554746 0.01560661 0.33276656 -0.32149345 -0.58328 0.15033005 0.014804442 -0.23892468
0.1741171 -0.04834785 -0.21472487 -0.0007114263 0.06421078 -0.26487178 0.033068724 0.03303512
-0.22421186 -0.15296578 -0.13161018 -0.07555698 0.14932978 -0.33733654 0.2530085 0.014556589
-0.31688085 -0.46520704 -0.08977749 -0.25486526 0.16577569 0.059942327 -0.533413 0.59806156
0.3085161 -0.43486312 0.22803739 -0.06286774 0.02891269 -0.1094351 0.0041964934 0.42927426
-0.8676727 0.03230616 -0.044189524 -0.5834263 0.13323449 0.112186216 -0.29733035 0.002960543
00000000: 9192 c33d 451b 47bd e7a3 dcbc 787a 963c
00000010: 389b 803e 0b40 a03c da58 ebbd b08c cc3d
00000020: 01ea 7a3d 3af4 a9bc 64a6 07be 2f9a 7cbe
00000030: 79db 4dbd 2894 a53e e0a9 eabd 1440 783c
00000040: a60e 24bd 943c 11bc 3fa0 463f ffb4 bdbd
00000050: 7b05 b93e 38b4 4d3e dfc6 573d 5cc8 cbbd
00000060: 8d7d e43c 0286 4cbe 079d 163e 6df4 9ebe
00000070: fbe1 04bf c336 8fbe be86 98bd 3e96 b9bd
00000080: 1098 0bbb 7e74 963c 7013 343d 82ad 0dbd
00000090: 45e7 033e 750a c63e ae40 45bd 75af 8aba
000000a0: e229 d5bd c4db e5bd 4d46 403d f5d8 d53c
000000b0: 2cb9 ddbb fee2 cdbd f16e 70bd 7452 8bbd
000000c0: ea2a 0cbd 39f4 8e3d 60a1 e13c ea4b 3f3d
000000d0: a3a1 c43a 7a11 8e3a 77ca 66be a96a 55bf
000000e0: 33f3 5fbe 6d72 2d3e cd14 f43c 5744 b0bc
000000f0: b5de 5ebd d32b c2bc eb24 81bc d328 1bbe
00000100: 1e86 16be dd31 86be a676 7abc d1d8 c33d
00000110: e49d 08be 20bc 4a3c 71f2 8bbd d04c f1bd
00000120: f40b 66be 0f31 67be ad76 4dbe 8502 213d
00000130: b612 2d3e df66 23be 69c4 c6ba d199 983c
00000140: 5f2c 933c a4ba aabc fd18 853e 60a0 bd3e
00000150: 7bd9 f53c 91a5 25be adbb a83e 7165 ca3d
00000160: 03b9 eebd 0e75 72bd 0065 213e a2b3 a4bd
00000170: 8e8c a53e 71c9 c43d f0a4 e63c a899 753b
00000180: de82 173d 90c1 0b3d be00 edbd eb17 903d
00000190: bade a5be a5e7 b63e a6c6 753d b5f6 6a3e
000001a0: 16ff 17bd 8a3c f1bd ff83 adbd 6510 cc3c
000001b0: b29b 503e eb3a 283e 2e94 6abe 6077 dd3c
000001c0: 6118 033e 1535 dfbd f7c5 b8bd cce4 44bd
000001d0: e64a 5e3d 9c39 e6be 87da abbe 7131 d2be
000001e0: 5a62 a1bb ecab a0bb 8c03 0abe 125d cebb
000001f0: 0ee9 07be 3c4a 823d ad26 37be 2971 f8bd
00000200: 423e 06be 07db dabd 9007 063c d625 383d
00000210: 9ca9 abbd 480c 333c 52c6 123d 2033 763d
00000220: 492f 06bd a7f6 48bc 2b62 b93d a172 00bd
00000230: 879e c73d 1461 bb3d 3059 ffbc e36d 123d
00000240: 50d5 7dbc 3f8c 04bd 6776 333e 8e7b 4a3e
00000250: e1e7 1a3e 5fb2 8c3d 9ec2 43be 8ab8 873b
00000260: 022d 6fbd d2d8 00be 58d8 433e 55bd ab3d
00000270: e853 97be 249f 643e 1a1e 30be cfff d23a
00000280: b3d9 7b3d 7aa1 3abe 3cdf e5be 8d35 073d
00000290: b68e a23e 1f44 313e 4eab 0cbd 243a bbbd
000002a0: b37e 27be 1337 dfbc 931c 713c 1774 2a3e
000002b0: 6416 943d 3391 ccbe 74b1 c33d 6bc6 0f3e
000002c0: 5089 57be d6ce 083a 8392 a4bd eb6b b6be
000002d0: 580e 4b3e 1488 40bf 23e1 d63e d1bd 143e
000002e0: 03e8 dfbd 22fa 8fbe e2b5 f53c e7f4 053d
000002f0: e918 0cbd 456f a6bd cb45 d13d b61e 473e
00000300: 592b c9bb f112 ca3d 105a b63e 1b56 053d
00000310: 5e87 ee3d ac88 193c fba5 36be 7d76 e53e
00000320: 88b6 f4be ae01 aabd d0fe b53e 0322 7cbe
00000330: 1493 d13c 960d 573d 6225 8ebd 817e 63bc
00000340: 983d 483e deb2 7f3c 6160 aa3e ca9a a4be
00000350: d751 15bf 1ff0 193e 558e 723c aca8 74be
00000360: c14b 323e 6508 46bd d6e0 5bbe 037f 3aba
00000370: f180 833d 469d 87be 1273 073d d64f 073d
00000380: cb97 65be 10a3 1cbe d2c4 06be 9ebd 9abd
00000390: e8e9 183e 60b7 acbe 558a 813e c27e 6e3c
000003a0: 353e a2be 9e2f eebe 43dd b7bd b37d 82be
000003b0: 1ac1 293e 1686 753d c18d 08bf 901a 193f
000003c0: d2f5 9d3e 61a6 debe a282 693e cdc0 80bd
000003d0: 4eda ec3c 821f e0bd bd82 893b d6c9 db3e
000003e0: cc1f 5ebf 7753 043d 1300 35bd 6d5b 15bf
000003f0: 9f6e 083e e3c1 e53d af3b 98be ab05 423b

bias f4 [16]
0.14382418 0.017661765 -0.10084318 0.0061439723 -0.22392559 -0.02983429 -0.23376693 0.029158777
0.089232415 -0.035198227 0.20432346 0.08775168 0.04776338 0.032562155 -0.07290623 0.16992497
00000000: a546 133e 68af 903c df86 cebd 6053 c93b
00000010: c04c 65be 0a67 f4bc 9960 6fbe 63de ee3c
00000020: 7cbf b63d 042c 10bd 2b3a 513e 27b7 b33d
00000030: 89a3 433d e55f 053d dd4f 95bd d000 2e3e

weight f4 [16]
0.14636649 -0.108963534 0.09444459 -0.32706898 0.03691361 -0.024041707 0.3036604 0.93523234
0.0028308327 0.15247259 -0.466629 0.7484172 -0.5560711 -0.8094261 0.46527869 0.747341
00000000: 19e1 153e 4628 dfbd 2a6c c13d 9675 a7be
00000010: ba32 173d 1df3 c4bc 6079 9b3e 636b 6f3f
00000020: 7e85 393b c621 1c3e ffe9 eebe 4598 3f3f
00000030: ad5a 0ebf 8d36 4fbf 0239 ee3e bd51 3f3f

weight f4 [16, 16, 3, 3]
0.026945952 0.01379066 0.0027986753 -0.069840096 0.30825755 -0.14501235 0.030457865 0.4523811
-0.38247764 -0.27035284 0.021886295 -0.09538988 0.287598 0.19303074 -0.014521135 -0.05485196
-0.04568219 -0.038081754 -0.2568036 -0.26928818 -0.197075 0.1002358 0.009003378 0.23976128
-0.19349548 0.2574571 0.0036532911 0.17538047 -0.170933 -0.061554585 -0.35199296 0.41700643
-0.1554398 0.06610216 -0.31375626 0.014554792 -0.16541447 0.21883573 0.01887498 -0.11428508
0.1771746 0.28012547 0.12481296 0.21983074 0.30144894 0.033398375 -0.023397025 0.015561427
-0.14701225 0.21249634 -0.010949696 0.10781029 -0.04285328 0.07235056 0.07444286 0.04070267
-0.03141092 0.2822442 -0.2217496 0.15494208 0.01834414 0.19302197 0.09970869 -0.013577443
0.21727404 -0.057559613 0.14594744 -0.24665233 0.011881987 0.033108734 -0.03097292 0.08333481
0.38656476 0.25813445 0.34018102 0.07322401 0.14952838 0.17748936 -0.040721003 -0.017146848
-0.008435531 0.030697303 0.1231714 -0.07134686 -0.14104249 0.43763173 -0.3846285 -0.14324643
0.24292257 -0.1211541 0.050922208 0.030539842 -0.09524487 -0.10099711 -0.3090118 0.1860673
0.041091885 0.0020133893 -0.17699432 -0.10324447 -0.17087348 -0.039852887 0.27897742 -0.1524975
-0.1360116 0.16606122 -0.0038108658 -0.12420686 -0.008029042 0.09533941 0.005104635 0.113527
-0.20342527 0.13811581 -0.028569018 -0.19458777 0.072020315 0.09744305 0.1372136 0.023181407
0.3239321 -0.22267683 -0.09773133 0.25720856 -0.03051539 0.066004775 -0.051700585 -0.24711388
0.111603506 -0.04877719 0.17869191 0.2479418 -0.026908308 0.24762067 0.17964217 0.014456994
0.010017531 0.039791666 -0.12950392 0.034084767 -0.070116125 -0.0024330285 0.10066745 0.02742394
-0.18938987 0.14160499 0.084266916 -0.68998384 -0.52562845 0.1938574 -0.3045418 -0.54181033
0.14614151 -0.20698634 0.19497904 -0.04585698 -0.17979747 -0.24196579 0.103254564 -0.40496618
-0.13091192 -0.13819735 0.015708799 0.20654985 -0.32840466 -0.13278474 -0.3439066 -0.09481173
-0.30348498 0.14384142 -0.1754256 -0.062370818 0.006385675 0.0806326 0.0012229114 -0.1672893
0.063219026 0.33063236 -0.41430125 -0.04095144 0.011085506 -0.090866506 -0.33628553 0.35343722
0.044582404 -0.454746 -0.112589546 -0.18057905 -0.057800073 -0.07304136 0.00483754 -0.54851925
-0.05849529 -0.16238359 -0.045034837 0.043591004 0.1461019 0.13888817 0.026674336 -0.18380435
0.049459282 -0.050132204 0.03783082 -0.066412464 -0.05351487 0.12166383 -0.099470355 0.094702825
-0.044612046 0.01936538 -0.08357406 0.012816485 -0.11212482 -0.08121595 0.08287279 0.06328797
0.51272815 -0.1684275 0.5550467 -0.4876655 0.14245692 -0.16353251 -0.03890784 -0.19898729
0.09248009 -0.07500177 -0.07213468 -0.1813105 -0.15168272 -0.84046876 -0.11852965 -0.027796475
0.043101504 -0.00228916 -0.06632359 0.07083001 -0.09823409 -0.39430612 -0.03644661 -0.029917153
0.13895664 -0.10184304 0.09975178 -0.08327345 -0.059241433 -0.07806047 0.34024855 -0.0092773205
-0.0979348 -0.06714488 -0.2437406 0.023438947 0.14112824 -0.14081143 -0.08423132 0.2064746
00000000: c2bd dc3c 38f2 613c fb69 373b 5308 8fbd
00000010: efd3 9d3e 1e7e 14be c682 f93c 7f9e e73e
00000020: 1cd4 c3be b06b 8abe e34a b33c c55b c3bd
00000030: 0c40 933e daa9 453e 0eea 6dbc 73ac 60bd
00000040: 401d 3bbd 9dfb 1bbd c37b 83be 24e0 89be
00000050: 07ce 49be 6d48 cd3d e882 133c fb83 753e
00000060: ae23 46be 6bd1 833e 0e6c 6f3b f096 333e
00000070: 0f09 2fbe a920 7cbd 6c38 b4be de81 d53e
00000080: 9c2b 1fbe 9260 873d a9a4 a0be 3977 6e3c
00000090: 6962 29be 7916 603e b49f 9a3c 4c0e eabd
000000a0: 426d 353e 9b6c 8f3e f09d ff3d 4f1b 613e
000000b0: 8457 9a3e bccc 083d 1eab bfbc 5bf5 7e3c
000000c0: 618a 16be a498 593e 5b66 33bc a4cb dc3d
000000d0: ec86 2fbd 882c 943d 8075 983d d8b7 263d
000000e0: bda8 00bd 5082 903e 5412 63be 23a9 1e3e
000000f0: 7346 963c 8da7 453e 1234 cc3d ec73 5ebc
00000100: 167d 5e3e a1c3 6bbd 3f73 153e 6e92 7cbe
00000110: aaac 423c 069d 073d ecba fdbc 71ab aa3d
00000120: d1eb c53e 332a 843e 352c ae3e 78f6 953d
00000130: f81d 193e c5bf 353e 11cb 26bd 8c77 8cbc
00000140: 2e35 0abc e978 fb3c 4941 fc3d 4d1e 92bd
00000150: 716d 10be 4411 e03e 07ee c4be 31af 12be
00000160: b2c0 783e a41f f8bd ce93 503d b12e fa3c
00000170: be0f c3bd 93d7 cebd cb36 9ebe 6d88 3e3e
00000180: f74f 283d 11f3 033b 003e 35be d671 d3bd
00000190: 75f9 2ebe c83c 23bd 21d6 8e3e 4e28 1cbe
000001a0: a046 0bbe f40b 2a3e b8bf 79bb 2b60 febd
000001b0: 3e8c 03bc 4f41 c33d c844 a73b d880 e83d
000001c0: b74e 50be 3b6e 0d3e 9309 eabc 0442 47be
000001d0: 637f 933d 3990 c73d b981 0c3e efe6 bd3c
000001e0: 6eda a53e 6505 64be 5d27 c8bd d7b0 833e
000001f0: 69fb f9bc 832d 873d fec3 53bd 6c0b 7dbe
00000200: 6190 e43d 97ca 47bd 03fb 363e 75e4 7d3e
00000210: d06e dcbc 4690 7d3e 1ef4 373e 07dd 6c3c
00000220: 9220 243c 96fc 223d ad9c 04be 789c 0b3d
00000230: 0b99 8fbd 7273 1fbb bc2a ce3d 2ca8 e03c
00000240: 6bef 41be e600 113e 2294 ac3d c8a2 30bf
00000250: 968f 06bf 8e82 463e e7ec 9bbe 15b4 0abf
00000260: 1fa6 153e 3af4 53be 96a8 473e 87d4 3bbd
00000270: d41c 38be e1c5 77be 2177 d33d ba57 cfbe
00000280: c60d 06be 9b83 0dbe bdaf 803c ce81 533e
00000290: a824 a8be b9f8 07be 8714 b0be a72c c2bd
000002a0: 6262 9bbe 2a4b 133e c5a2 33be 8b78 7fbd
000002b0: ed3e d13b b422 a53d 194a a03a e34d 2bbe
000002c0: fa78 813d a548 a93e 4b1f d4be b2bc 27bd
000002d0: fb9f 353c 3818 babd 9e2d acbe b9f5 b43e
000002e0: 0a9c 363d 78d4 e8be 5995 e6bd b7e9 38be
000002f0: c5bf 6cbd b596 95bd 3a84 9e3b c26b 0cbf
00000300: c298 6fbd e247 26be 7376 38bd 7b8c 323d
00000310: bd9b 153e b338 0e3e 2384 da3c 3537 3cbe
00000320: d195 4a3d 6d57 4dbd 7df4 1a3d 4203 88bd
00000330: 6932 5bbd e32a f93d 1db7 cbbd 8ef3 c13d
00000340: 1fbb 36bd 25a4 9e3c e028 abbd 3cfc 513c
00000350: b3a1 e5bd 8c54 a6bd 36b9 a93d 209d 813d
00000360: 2742 033f 4278 2cbe 8a17 0e3f 4baf f9be
00000370: 3ae0 113e 1175 27be d45d 1fbd 53c3 4bbe
00000380: 3466 bd3d 879a 99bd 59bb 93bd 76a9 39be
00000390: b752 1bbe f628 57bf acbf f2bd 6fb5 e3bc
000003a0: 348b 303d bb05 16bb aad4 87bd 530f 913d
000003b0: f42e c9bd 7ee2 c9be 0a49 15bd d114 f5bc
000003c0: a64a 0e3e 1593 d0bd a94a cc3d 458b aabd
000003d0: 25a7 72bd 2bde 9fbd 0f35 ae3e e7ff 17bc
000003e0: 0a92 c8bd 4183 89bd 2397 79be 0903 c03c
000003f0: ec83 103e df30 10be 7881 acbd 146e 533e

bias f4 [16]
-0.020417267 -0.1074948 -0.09702658 0.02475189 0.14744185 0.096380025 0.24734002 -0.23832026
-0.08545393 -0.17081738 -0.11728914 0.20522197 0.072298996 -0.29654336 0.03992978 0.046523158
00000000: 1d42 a7bc 3c26 dcbd dfb5 c6bd 7ac4 ca3c
00000010: fffa 163e e462 c53d b446 7d3e 3a0a 74be
00000020: 7802 afbd c0ea 2ebe 4a35 f0bd b525 523e
00000030: 7f11 943d 88d4 97be 698d 233d 118f 3e3d

weight f4 [16]
0.47218284 0.13521627 -0.025822945 -0.09196975 0.72326213 0.8159425 0.0768138 0.03098699
0.69449234 0.19550249 0.15381339 0.8001899 0.21733294 0.22076997 0.08933968 0.8433326
00000000: f3c1 f13e 2276 0a3e a48a d3bc a35a bcbd
00000010: b527 393f 9ce1 503f 8e50 9d3d 6ed8 fd3c
00000020: 40ca 313f ce31 483e 4281 1d3e 3fd9 4c3f
00000030: 878c 5e3e 8611 623e b9f7 b63d a5e4 573f

weight f4 [56, 16, 1, 1]
0.009840087 -0.13200109 0.15846959 0.059824754 0.02970794 -0.09250463 -0.018850146 0.31926233
0.04521569 -0.3233097 0.06690245 -0.14791481 0.014389294 -0.094391935 0.055852566 0.18508954
0.045278754 0.064129144 0.07453761 -0.006516659 -0.037947986 0.13213179 -0.03612461 0.15756088
-0.008810889 -0.085159644 0.09378561 -0.15802002 -0.06701009 -0.13720708 -0.10112957 0.0130776195
-0.2437166 -0.43916318 0.012476221 0.06935708 0.0127043715 -0.0462604 -0.21685795 0.2086893
-0.07046319 0.14364915 0.16010293 0.08641404 0.079909384 0.06592208 0.009427404 -0.058021165
0.054307174 0.18930836 -0.44011086 0.11822411 -0.26502222 0.25648725 -0.054931585 -0.15538968
-0.004897921 0.33500373 0.037211526 -0.14162904 -0.20646873 0.10756381 0.08590191 -0.0841922
0.08299398 -0.14486067 -0.0850794 -0.08570619 -0.100545935 0.3219744 0.23075575 0.15543161
-0.13465524 -0.13885413 -0.28619725 -0.30163655 0.004630754 -0.25189975 0.077783585 0.18727331
-0.37474275 0.3218177 0.10705148 0.059013043 0.20796518 -0.13850039 0.37123904 0.13541067
0.3147395 -0.28264007 0.15924333 -0.28686368 0.050300576 0.11466319 0.075235054 -0.056380376
-0.032063033 0.04381325 0.12422565 -0.020646792 0.1957262 0.26493183 0.12662703 0.07899753
0.017234454 -0.08867577 -0.05354145 0.14609286 -0.028359206 0.1816825 -0.14562957 -0.049389414
0.06561629 -0.049582973 0.13004074 0.059155937 0.23281465 -0.06262713 -0.009654831 0.039548695
-0.2966412 0.007422093 -0.060400907 -0.1886773 0.19535384 0.3377807 0.12103793 0.07862013
-0.14586698 0.039157167 -0.050448358 -0.04992596 -0.19365558 -0.20966269 -0.07633666 0.09001291
-0.052723322 0.11165366 0.11407401 -0.19808014 -0.094873205 -0.13057393 -0.10337514 0.1118424
0.11816405 -0.08521798 -0.2660277 0.037273295 -0.14947651 -0.22576165 -0.059469882 -0.38231072
0.027374662 0.1375507 0.11412837 0.36206985 0.029629158 -0.09380681 0.16291985 0.25537035
0.13140307 0.3428206 -0.121579684 0.052594185 -0.10711794 -0.14329639 0.2172862 0.22792418
-0.014934306 0.18124633 -0.13387986 0.075471364 -0.18774125 -0.21480377 0.16186512 0.07559302
-0.052062124 0.07858587 0.07241423 0.04877221 -0.16111495 -0.23464806 0.08518782 0.1494037
0.03203051 -0.07183086 -0.0015608983 -0.29301035 -0.046991043 0.15633911 -0.001446658 0.13798968
-0.071138576 -0.11338653 0.037843667 -0.041469824 0.15035045 0.18506593 0.030579934 -0.031040458
0.052638125 -0.028555645 -0.1217556 0.043615807 0.026991222 -0.0045217527 0.06931219 -0.073863074
0.17944379 -0.2816293 0.025721109 -0.06513678 -0.08587113 0.08689337 0.4413742 -0.123507954
-0.23845305 -0.09193655 -0.04247509 0.021173423 -0.5137239 0.33496854 -0.057568956 0.031193418
-0.24932115 0.15662172 -0.16320209 0.06179083 -0.028086258 -0.110482946 0.08487366 0.2345154
-0.023042532 0.056488726 0.11615562 0.06999956 0.039186213 0.16971059 0.087422974 0.027794478
0.038612463 0.06839347 -0.040100817 -0.16023558 -0.18324354 0.2189194 0.15626378 0.0957189
-0.16994506 0.2695683 0.14352003 -0.2603358 -0.12349397 -0.065255366 0.1417605 0.1507862
00000000: 5138 213c 4b2b 07be da45 223e cd0a 753d
00000010: 115e f33c 1173 bdbd 9f6b 9abc 5a76 a33e
00000020: 1634 393d d988 a5be 2704 893d fb76 17be
00000030: 13c1 6b3c 8f50 c1bd a9c5 643d 1d88 3d3e
00000040: 3776 393d 2456 833d 2da7 983d b389 d5bb
00000050: 596f 1bbd 8e4d 073e 66f7 13bd a457 213e
00000060: 8c5b 10bc 2e68 aebd ab12 c03d 00d0 21be
00000070: 963c 89bd 0380 0cbe 051d cfbd 8343 563c
00000080: d890 79be ffd9 e0be 1069 4c3c 160b 8e3d
00000090: ff25 503c 8c7b 3dbd 0310 5ebe a6b2 553e
000000a0: 014f 90bd c318 133e 06f2 233e d8f9 b03d
000000b0: 88a7 a33d 2802 873d 6675 1a3c 9aa7 6dbd
000000c0: 3371 5e3d 0dda 413e 3656 e1be 7b1f f23d
000000d0: feb0 87be 4c52 833e f1ff 60bd 791e 1fbe
000000e0: bd7e a0bb 9c85 ab3e 1d6b 183d 3407 11be
000000f0: 8a6c 53be 6a4a dc3d 57ed af3d f66c acbd
00000100: bff8 a93d 5b56 14be 1c3e aebd ba86 afbd
00000110: 07eb cdbd d4d9 a43e 3c4b 6c3e 7729 1f3e
00000120: 10e3 09be c72f 0ebe 7288 92be 1b70 9abe
00000130: 94bd 973b 01f9 80be 004d 9f3d 93c4 3f3e
00000140: 48de bfbe 4ac5 a43e ce3d db3d a9b7 713d
00000150: d3f4 543e 0cd3 0dbe 0b13 be3e 18a9 0a3e
00000160: 8925 a13e 33b6 90be af10 233e ccdf 92be
00000170: fa07 4e3d 89d4 ea3d d614 9a3d 1cef 66bd
00000180: 8754 03bd 8675 333d 056a fe3d 7623 a9bc
00000190: 736c 483e 25a5 873e 84aa 013e 75c9 a13d
000001a0: 452f 8d3c a49b b5bd 484e 5bbd 5e99 153e
000001b0: 9151 e8bc fa0a 3a3e eb1f 15be 8e4c 4abd
000001c0: d561 863d 8417 4bbd 6629 053e 7f4d 723d
000001d0: f766 6e3e a742 80bd 4c2f 1ebc d0fd 213d
000001e0: 5be1 97be 0735 f33b f166 77bd 9f34 41be
000001f0: d60a 483e 98f1 ac3e bce2 f73d 9703 a13d
00000200: 275e 15be 4463 203d f0a2 4ebd 2a7f 4cbd
00000210: a64d 46be d1b1 56be 6556 9cbd b058 b83d
00000220: 69f4 57bd adaa e43d a29f e93d 85d5 4abe
00000230: e24c c2bd 2cb5 05be 58b6 d3bd a10d e53d
00000240: feff f13d c486 aebd c834 88be e2ab 183d
00000250: 5f10 19be 102e 67be b196 73bd 3bbe c3be
00000260: d440 e03c 17da 0c3e 23bc e93d 3861 b93e
00000270: d9b8 f23c c91d c0bd 76d4 263e e7bf 823e
00000280: 878e 063e 2f86 af3e c5fe f8bd 006d 573d
00000290: a760 dbbd 4abc 12be 4680 5e3e f564 693e
000002a0: 05af 74bc a398 393e cd17 09be bb90 9a3d
000002b0: 3e3f 40be 85f5 5bbe f8bf 253e 83d0 9a3d
000002c0: 183f 55bd a1f1 a03d e94d 943d 5ec5 473d
000002d0: 51fb 24be 9547 70be f476 ae3d 49fd 183e
000002e0: 6d32 033d 0f1c 93bd 0e97 ccba 7405 96be
000002f0: ae79 40bd 5c17 203e ca9d bdba 2b4d 0d3e
00000300: 1ab1 91bd 3237 e8bd f601 1b3d 43dc 29bd
00000310: 78f5 193e ec81 3d3e c582 fa3c 8f48 febc
00000320: 139b 573d 87ed e9bc 005b f9bd 7da6 323d
00000330: b21c dd3c 362b 94bb 8df3 8d3d 8645 97bd
00000340: 1dc0 373e b731 90be 13b5 d23c 6f66 85bd
00000350: 34dd afbd 27f5 b13d cdfb e13e bdf1 fcbd
00000360: 092d 74be 3b49 bcbd 5cfa 2dbd e373 ad3c
00000370: 6983 03bf ff80 ab3e 6dcd 6bbd 5789 ff3c
00000380: 0b4e 7fbe 7261 203e 731e 27be 6218 7d3d
00000390: 2715 e6bc e244 e2bd 3ed2 ad3d ce24 703e
000003a0: b1c3 bcbc b960 673d ffe2 ed3d ee5b 8f3d
000003b0: b981 203d 9dc8 2d3e d10a b33d 3fb1 e33c
000003c0: 1a28 1e3d e011 8c3d c140 24bd cc14 24be
000003d0: 32a4 3bbe 682c 603e 9d03 203e 4508 c43d
000003e0: 1406 2ebe db04 8a3e eaf6 123e bc4a 85be
000003f0: 68ea fcbd 9ba4 85bd aa29 113e b367 1a3e

bias f4 [56]
0.06600312 0.068354264 -0.25780442 -0.21101823 0.0048168623 -0.07844983 0.14767994 -0.02270447
-0.2843989 -0.020094989 -0.20405014 -0.16653907 0.08417999 -0.026805501 -0.07343414 -0.16516799
-0.24949835 -0.041209843 -0.3008016 -0.154256 -0.13621539 0.053181905 0.090982415 -0.077697255
-0.04902986 -0.22248428 -0.19911274 0.073574424 0.065940805 0.06072085 0.01318197 -0.19637983
-0.11518506 0.06951262 -0.28333956 -0.064994715 -0.06230871 -0.24485624 0.05465787 -0.063722625
-0.10534917 -0.2288037 0.054792773 0.039212573 -0.17208813 0.026928188 -0.01346773 -0.1744753
-0.13592827 -0.12971799 0.12002713 -0.0096403 -0.21750931 0.025831385 0.1983158 0.19492002
00000000: a52c 873d 52fd 8b3d f1fe 83be 2a15 58be
00000010: c5d6 9d3b 4eaa a0bd 6939 173e bafe b9bc
00000020: bc9c 91be 3f9e a4bc 85f2 50be 3889 2abe
00000030: 8f66 ac3d 3697 dbbc a364 96bd cc21 29be
00000040: 7f7c 7fbe a7cb 28bd ab02 9abe 49f5 1dbe
00000050: 0c7c 0bbe 45d5 593d fd54 ba3d bd1f 9fbd
00000060: 89d3 48bd ebd2 63be 36e4 4bbe 30ae 963d
00000070: f90b 873d 6db6 783d 31f9 573c cb17 49be
00000080: 25e6 ebbd a25c 8e3d e211 91be f31b 85bd
00000090: 6b37 7fbd 98bb 7abe eee0 5f3d 0281 82bd
000000a0: 4ec1 d7bd 844b 6abe 636e 603d 5d9d 203d
000000b0: df37 30be 8198 dc3c c1a7 5cbc a7a9 32be
000000c0: c830 0bbe cbd4 04be c9d0 f53d 59f2 1dbc
000000d0: c3ba 5ebe 579c d33c 4c13 4b3e 1d99 473e

weight f4 [56]
0.9592326 1.0096438 0.09548691 0.11656609 0.052234244 0.040791065 0.83257204 0.14856231
0.31898695 0.74282223 0.22381617 0.40204236 0.6920032 0.16703708 0.25933444 0.09368412
0.45170316 0.21543308 0.20161848 0.38706163 0.105661325 0.16790962 0.882532 0.26667914
0.7462274 0.27538693 0.29884675 0.9731054 0.9007738 1.0383599 0.7682983 -0.016935065
0.20626232 0.9756397 0.33518198 0.37004983 0.08479151 -0.0015059576 1.10329 0.48679566
0.16082692 0.029553697 1.4514221 0.94271505 0.031889413 0.91482353 0.9182403 0.13550548
0.17721081 0.18885101 0.98899853 0.20500773 0.35536906 0.474237 0.56014216 0.009093686
00000000: 4590 753f 023c 813f a48e c33d 34ba ee3d
00000010: 93f3 553d 8814 273d 7123 553f b820 183e
00000020: 4252 a33e 9929 3e3f 1130 653e 7fd8 cd3e
00000030: 1f27 313f c50b 2b3e 7cc7 843e 76dd bf3d
00000040: a345 e73e 7d9a 5c3e 1375 4e3e f12c c63e
00000050: f764 d83d 80f0 2b3e 9eed 613f 2b8a 883e
00000060: c208 3f3f 84ff 8c3e 7102 993e 6f1d 793f
00000070: 1d99 663f fae8 843f 33af 443f 68bb 8abc
00000080: 6e36 533e 86c3 793f f99c ab3e 2c77 bd3e
00000090: 2ca7 ad3d 8d63 c5ba 9b38 8d3f 483d f93e
000000a0: d0af 243e 981a f23c 33c8 b93f c655 713f
000000b0: 799e 023d e031 6a3f cc11 6b3f f3c1 0a3e
000000c0: c076 353e 2962 413e 022f 7d3f 8ced 513e
000000d0: eff2 b53e 31cf f23e 7a65 0f3f affd 143c
