FSRCNN/FSRCNN_torch/FSRCNN_56_16_4_X3_150.pth (torch, 82379 bytes, 22 tensors)

weight f4 [56, 1, 5, 5]
-0.08049623 0.07221658 -0.18769194 0.08608555 -0.033955354 -0.08224622 0.11816173 -0.26521543
-0.035902675 -0.03006263 0.014782199 -0.034833416 -0.23009485 -0.14500657 -0.077587366 -0.026628694
0.0869618 0.25178418 0.15769102 0.15916169 0.0067649395 0.006526481 0.060359344 0.067862116
0.055104144 -0.06278523 0.12988609 -0.31871557 0.16274393 0.018183162 0.08426206 -0.025572967
-0.05620001 0.097060174 -0.1666097 0.06495893 -0.21634899 0.46990582 -0.053876214 0.13371783
-0.080102675 0.15890451 -0.10600505 0.08363302 -0.15511627 -0.07945506 -0.043106925 -0.04178824
-0.051117636 0.1295148 0.26127747 -0.027599027 -0.2505563 0.04889687 0.16841196 0.011208812
-0.18030116 -0.0048277657 0.047876906 -0.07094277 -0.12110191 0.14759552 0.27672693 -0.2785799
-0.24779464 -0.0790222 -0.30105683 0.2298039 -0.025455287 0.20335764 0.04070732 0.22525617
-0.014871052 -0.10224533 -0.029704422 0.13824482 -0.11607921 0.0066663045 -0.116559565 -0.056830138
-0.07968445 0.05886871 0.05410474 0.10611019 -0.14869058 -0.14138046 0.13763809 0.319704
-0.101119846 -0.09582184 -0.062352218 0.09668414 0.05886638 -0.08126773 -0.076173075 -0.009952232
-0.18398115 0.024788372 0.115123674 -0.08463968 -0.36464968 -0.026471883 0.08277658 0.0034068485
-0.011715135 0.2771557 0.037137475 -0.25164548 0.08365319 -0.10371555 -0.069228336 -0.3735874
0.27935 -0.1816003 0.30883044 0.02538723 0.15724523 -0.15579078 -0.14251539 0.04990766
-0.045556057 0.15068415 -0.13632028 -0.14870562 0.114481725 0.24651581 0.13101356 -0.18582256
-0.040170327 -0.18002838 0.00018924558 0.034558095 0.04451075 0.11708004 0.08226087 -0.095442995
0.13024497 0.37058184 -0.09803512 0.12770246 -0.10061088 -0.18482965 0.21660925 -0.17191796
0.10592058 -0.15692241 -0.06718238 0.10593216 0.034065645 0.11978189 0.1070442 -0.0066451393
0.01326896 -0.20700681 0.038120493 0.006193824 -0.18406345 -0.091145694 0.07379113 -0.21230894
0.0031839525 0.10765349 0.41287053 0.20353228 0.14057203 -0.0050621196 0.10435473 0.12087294
0.03562637 0.09656556 -0.11727872 -0.124790266 -0.13948742 -0.07286025 0.055717733 -0.046934042
-0.059832685 -0.089436434 0.027571253 0.19794014 0.06694821 0.049490288 0.033469077 -0.014820185
-0.17078708 -0.08794533 -0.1747096 0.5237239 -0.21991402 -0.08034642 -0.004061793 -0.10402462
-0.15615861 0.13518862 0.037042465 0.090283826 0.031301957 -0.10794883 -0.0899278 -0.049867295
-0.1378763 0.14318524 0.07133551 0.18392321 -0.038351912 -0.008579667 -0.0117076915 -0.30318895
-0.04207599 0.04907604 -0.13126938 0.13403174 -0.33541188 0.072361164 -0.12202576 0.0018221837
-0.008767513 0.052921187 0.027261207 -0.020837206 -0.029970597 0.16563319 0.09528717 -0.117867574
-0.028448155 0.13710228 -0.032010652 -0.20808278 0.14088932 0.03269395 0.072910994 -0.16844665
0.09069758 -0.08792596 -0.0688066 -0.37516913 0.09132292 0.50087553 0.006746198 -0.15348563
0.09705613 0.08962841 -0.23874065 -0.0016346475 0.009949485 0.079464585 -0.123601615 -0.066175945
0.0121003045 0.22058542 -0.3056339 0.1789221 0.10599014 0.03513611 -0.013247623 0.20938057
00000000: 35db a4bd 49e6 933d 5132 40be 9f4d b03d
00000010: c514 0bbd b570 a8bd c7fe f13d 51ca 87be
00000020: af0e 13bd e845 f6bc 0931 723c 7cad 0ebd
00000030: fc9d 6bbe 9a7c 14be 20e6 9ebd 6b24 dabc
00000040: 0719 b23d dbe9 803e c179 213e 48fb 223e
00000050: 6dac dd3b 17dc d53b 5c3b 773d 4bfb 8a3d
00000060: e2b4 613d 8b95 80bd dc00 053e b02e a3be
00000070: 58a6 263e dbf4 943c 9691 ac3d 667e d1bc
00000080: fb31 66bd 7cc7 c63d bc9b 2abe 3009 853d
00000090: 978a 5dbe 7f97 f03e 4ead 5cbd 54ed 083e
000000a0: df0c a4bd ddb7 223e 2d19 d9bd ca47 ab3d
000000b0: cdd6 1ebe 56b9 a2bd e390 30bd 252a 2bbd
000000c0: ba60 51bd 879f 043e 29c6 853e 5b17 e2bc
000000d0: ea48 80be 1648 483d 2f74 2c3e 2aa5 373c
000000e0: dea0 38be 3c32 9ebb 931a 443d 714a 91bd
000000f0: 4704 f8bd 4823 173e 27af 8d3e 06a2 8ebe
00000100: e1bd 7dbe 64d6 a1bd 1f24 9abe b751 6b3e
00000110: 9b87 d0bc fc3c 503e b8bc 263d 8ea9 663e
00000120: b6a5 73bc 0066 d1bd b056 f3bc 0d90 0d3e
00000130: f0ba edbd 0471 da3b c8b6 eebd b8c6 68bd
00000140: 9a31 a3bd 5120 713d ef9c 5d3d 4d50 d93d
00000150: 5842 18be 0ac6 10be 00f1 0c3e 3eb0 a33e
00000160: ec17 cfbd 3e3e c4bd 0a65 7fbd 5602 c63d
00000170: e01d 713d b26f a6bd a100 9cbd b00e 23bc
00000180: 8e65 3cbe fc10 cb3c f6c5 eb3d 9257 adbd
00000190: 5db3 babe 90db d8bc c486 a93d 6f45 5f3b
000001a0: d6f0 3fbc 5ae7 8d3e 771d 183d add7 80be
000001b0: 5d52 ab3d d168 d4bd 96c7 8dbd d946 bfbe
000001c0: f706 8f3e 6ef5 39be 061f 9e3e e1f8 cf3c
000001d0: e504 213e 9e87 1fbe 8eef 11be f96b 4c3d
000001e0: fd98 3abd f24c 1a3e 8b97 0bbe 4946 18be
000001f0: 6575 ea3d a46e 7c3e 6b28 063e 4548 3ebe
00000200: a489 24bd 5c59 38be 3970 4639 ca8c 0d3d
00000210: e750 363d a9c7 ef3d 6378 a83d 9e77 c3bd
00000220: f05e 053e e7bc bd3e a3c6 c8bd 6fc4 023e
00000230: 140d cebd fc43 3dbe d1ce 5d3e 430b 30be
00000240: e4ec d83d 45b0 20be ea96 89bd f6f2 d83d
00000250: 6b88 0b3d 3550 f53d fd39 db3d 78bf d9bb
00000260: 0d66 593c 98f9 53be 3c24 1c3d 90f5 ca3b
00000270: 217b 3cbe 98aa babd ce1f 973d 8467 59be
00000280: dca9 503b 6f79 dc3d c463 d33e c46a 503e
00000290: 1df2 0f3e 23e0 a5bb efb7 d53d 3b8c f73d
000002a0: f5ec 113d 2ac4 c53d d32f f0bd 0a92 ffbd
000002b0: cad5 0ebe c137 95bd 4738 643d e93d 40bd
000002c0: 1e13 75bd 732a b7bd 1cdd e13c d2b0 4a3e
000002d0: 251c 893d 54b6 4a3d df16 093d 5cd0 72bc
000002e0: cfe2 2ebe ae1c b4bd 13e7 32be c512 063f
000002f0: 2431 61be aa8c a4bd ca18 85bb dc0a d5bd
00000300: 0be8 1fbe e36e 0a3e d7b9 173d bae6 b83d
00000310: 7b36 003d 4714 ddbd 112c b8bd a641 4cbd
00000320: 722f 0dbe 279f 123e 5a18 923d 5e56 3c3e
00000330: e516 1dbd bb91 0cbc 9ed1 3fbc 953b 9bbe
00000340: e057 2cbd f503 493d 7b6b 06be 9e3f 093e
00000350: 1bbb abbe 1732 943d a4e8 f9bd 57d6 ee3a
00000360: 9da5 0fbc e3c3 583d e552 df3c cab2 aabc
00000370: e684 f5bc bf9b 293e eb25 c33d 8e64 f1bd
00000380: 1b0c e9bc 8a64 0c3e 9a1d 03bd a713 55be
00000390: 4a45 103e 17ea 053d 5c52 953d 477d 2cbe
000003a0: a7bf b93d 8712 b4bd 7aea 8cbd 2b16 c0be
000003b0: 8307 bb3d 6139 003f 360f dd3b 562b 1dbe
000003c0: 5dc5 c63d 1a8f b73d 6e78 74be ab41 d6ba
000003d0: 2a03 233c 54be a23d d822 fdbd 4187 87bd
000003e0: 5b40 463c 25e1 613e 0c7c 9cbe 5b37 373e
000003f0: 5c11 d93d e2ea 0f3d 8f0c 59bc dc67 563e

bias f4 [56]
0.06216218 -0.07069523 0.03404521 -0.25562903 0.049425982 -0.14217591 -0.12884223 0.073428065
0.17799224 -0.02255219 -0.10272764 -0.122338675 -0.27584952 -0.08299262 -0.26188847 -0.21363363
0.07245344 -0.03902736 -0.13836762 -0.2224667 -0.14796789 0.1078685 0.31399825 -0.06310411
-0.07058049 0.20772043 -0.001161962 -0.010854104 0.113033496 -0.012575446 -0.3088696 -0.56284386
0.26601484 -0.17788315 0.2044538 0.006992668 -0.2124754 0.16439147 0.104743995 -0.009293449
-0.033707052 -0.21408199 -0.08196018 -0.11898806 0.056396414 -0.03251299 -0.23569363 -0.119105175
0.12880479 -0.17944957 -0.22796799 0.009428727 -0.07934667 -0.18643029 0.012301489 0.24291028
00000000: c59d 7e3d a9c8 90bd fd72 0b3d cfe1 82be
00000010: e672 4a3d 9096 11be 38ef 03be 7461 963d
00000020: 9943 363e 5fbf b8bc de62 d2bd b38c fabd
00000030: 263c 8dbe 09f8 a9bd 3f16 86be c6c2 5abe
00000040: 7862 943d 27db 1fbd 3eb0 0dbe 50ce 63be
00000050: e584 17be 29ea dc3d 61c4 a03e ba3c 81bd
00000060: 818c 90bd aab4 543e fa4c 98ba 69d5 31bc
00000070: 1b7e e73d 3e09 4ebc 2824 9ebe 8916 10bf
00000080: 1933 883e 0027 36be 565c 513e c022 e53b
00000090: 2793 59be 3d56 283e 0584 d63d 8d43 18bc
000000a0: 6810 0abd 4f38 5bbe bdda a7bd 03b0 f3bd
000000b0: edff 663d 572c 05bd ac59 71be 6aed f3bd
000000c0: 67e5 033e a1c1 37be 7170 69be f37a 1a3c
000000d0: 8280 a2bd 95e7 3ebe 2f8c 493c 79bd 783e

weight f4 [56]
-0.06460262 0.9534966 0.5567663 0.19188905 -0.0682022 1.0114262 0.98768145 0.8039467
0.94790953 0.3553799 -0.08100738 0.397234 -0.034118216 0.16502507 -0.025566556 -0.046290778
1.1542463 -0.020578993 0.033116546 0.058471553 1.0664253 0.7906428 1.0333129 1.2332937
0.9890096 0.35472515 -0.06393846 0.4354894 -0.054804455 0.9017611 -0.008784094 -0.065551005
0.7369517 -0.07865597 -0.00397368 -0.021445114 -0.01442328 0.40737486 -0.009370685 0.24162105
0.93571216 1.0262201 0.0029952761 0.007267006 0.2637137 -0.042191576 -0.07767315 0.0032794068
0.21935254 1.0176034 -0.016021311 0.8404525 0.007308334 -0.063779116 0.00093034166 0.15258804
00000000: 614e 84bd 5a18 743f 3c88 0e3f 907e 443e
00000010: 98ad 8bbd 6a76 813f b1d8 7c3f 73cf 4d3f
00000020: 33aa 723f 5bf4 b53e 32e7 a5bd 4162 cb3e
00000030: 8bbf 0bbd 55fc 283e f470 d1bc 669b 3dbd
00000040: 58be 933f 4795 a8bc 37a5 073d de7f 6f3d
00000050: a080 883f 9167 4a3f 9943 843f 91dc 9d3f
00000060: bc2f 7d3f 899e b53e 2bf2 82bd 77f8 de3e
00000070: a37a 60bd d1d9 663f 29eb 0fbc 9b3f 86bd
00000080: dea8 3c3f 6216 a1bd a535 82bb aaad afbc
00000090: 9f4f 6cbc 7093 d03e 8087 19bc 826b 773e
000000a0: d58a 6f3f 2e5b 833f 654c 443b 1120 ee3b
000000b0: 7b05 873e 13d1 2cbd 1a13 9fbd 51eb 563b
000000c0: f49d 603e d440 823f 203f 83bc e527 573f
000000d0: c07a ef3b a09e 82bd 2ce2 733a 0a40 1c3e

weight f4 [16, 56, 1, 1]
0.04478545 0.15923144 -0.191913 -0.08892526 0.010120146 0.07895063 0.07993229 0.13907278
-0.1844621 0.026388954 0.19657007 -0.0066497847 0.027462462 0.03289523 -0.034205034 0.100369185
0.10573257 -0.08369277 -0.1209287 0.020428922 0.02150168 0.26276332 -0.15642852 -0.033463724
0.01199054 -0.021595703 -0.22029105 -0.0509355 0.037423003 -0.29268935 -0.13216317 -0.010881725
0.041035768 0.18096519 0.06974605 -0.12537988 0.008957837 0.28184637 0.07343341 -0.048748396
-0.06932503 0.19819511 -0.06622696 -0.124781206 0.068718515 0.008932288 -0.046875156 0.09350172
0.07051147 0.015980514 0.052844718 0.057116475 0.015320447 -0.06615445 -0.33293912 0.055431843
-0.12229499 0.10994621 0.08598191 -0.270242 -0.0837668 0.053821877 -0.121269844 0.015632788
0.099420145 0.1373827 -0.44575825 0.008800076 -0.04460273 0.05668149 -0.18070179 -0.13665338
-0.041540865 -0.10363702 0.015583776 0.11185856 -0.011002054 -0.12867455 -0.020562205 0.04547641
-0.0483555 0.11085865 0.17409049 -0.04653429 -0.06067476 0.06974535 0.37201303 -0.27500805
0.10195258 -0.28891253 0.13035206 -0.17487238 -0.18535577 0.15581581 0.10749623 -0.13404086
0.17043573 0.031127267 -0.11238337 0.1626393 0.02975289 -0.00097196497 -0.030698033 0.08646453
-0.059613097 0.036602296 -0.5070011 -0.05562383 0.15436517 -0.099118866 0.18977922 -0.10600738
0.108971775 -0.14627324 0.043594304 -0.16264081 -0.3412623 -0.1237707 -0.29139727 0.04414998
-0.28606907 -0.21465719 0.16599691 0.13463074 -0.27551168 0.2565669 0.18810202 0.07503242
0.08694186 -0.08210519 0.3088701 0.004452436 -0.11976467 -0.27353078 -0.045946512 0.048169687
0.17991775 -0.070807725 0.2778701 0.35023928 -0.20377615 -0.018584901 0.26068008 0.5080127
-0.4387674 0.36380795 0.5681883 -0.8426559 0.53454 -0.028263036 0.34737667 -0.10471815
-0.26755086 0.17866236 0.050465092 -0.24802591 -0.628442 0.39594698 -0.5495052 0.35505086
-0.12404064 -0.13262524 0.39258116 -0.0639538 0.45463938 -0.11029639 -0.26576135 0.08959145
0.25212544 -0.09011354 -0.100943536 -0.30701953 -0.23177198 -0.35740843 -0.07935556 -0.24542485
0.16316931 0.1790888 -0.03105414 -0.42067 0.14842531 -0.077568814 -0.43346423 -0.2870182
-0.14382672 0.10431105 -0.09820762 0.22958477 -0.43285963 0.065106444 0.31599146 -0.0064325873
-0.008752877 0.19364545 -0.28885072 0.1655541 0.3674112 0.09600529 1.0867696 -0.36194184
-0.20041145 -0.007091333 0.24168164 0.16043624 -0.27592105 -0.14530799 0.08009112 0.3357537
-0.37239575 -0.05753406 -0.56681806 0.04472717 -0.17098331 -0.021899765 -0.5129833 -0.39454368
0.061034974 -0.21125056 0.2286293 -0.13284282 -0.07220164 -0.1997068 0.02023318 -0.3198955
0.19263285 0.2823987 0.021293357 -0.14252207 -0.07099064 0.055147428 0.010571042 0.034904342
0.07583838 0.106033005 -0.10595887 0.11343952 0.05749205 0.065071836 -0.26242065 -0.32196486
0.17150934 -0.11481773 0.028998405 0.051777933 -0.04050677 -0.02316406 -0.1402949 0.059027623
0.00668637 0.12808746 -0.08410189 -0.09812672 0.25365728 -0.024258986 0.6364844 -0.34307855
00000000: f370 373d 910d 233e d784 44be 721e b6bd
00000010: f8ce 253c deb0 a13d 8ab3 a33d 1869 0e3e
00000020: a2e3 3cbe a62d d83c aa49 493e 70e6 d9bb
00000030: f5f8 e03c 26bd 063d 941a 0cbd 5c8e cd3d
00000040: 518a d83d 1d67 abbd 77a9 f7bd 8e5a a73c
00000050: 4b24 b03c ea88 863e cc2e 20be 4211 09bd
00000060: f873 443c 79e9 b0bc fa93 61be bea1 50bd
00000070: dd48 193d 61db 95be c855 07be 4349 32bc
00000080: 1f15 283d f04e 393e 04d7 8e3d 9563 00be
00000090: e4c3 123c 2b4e 903e 4164 963d 66ac 47bd
000000a0: 48fa 8dbd a9f3 4a3e 00a2 87bd 4a8d ffbd
000000b0: 4bbc 8c3d bb58 123c 2a00 40bd d47d bf3d
000000c0: 5168 903d 91e9 823c b473 583d f7f2 693d
000000d0: 9d02 7b3c fc7b 87bd ff76 aabe 800c 633d
000000e0: cc75 fabd 7b2b e13d 4917 b03d 295d 8abe
000000f0: ee8d abbd 5474 5c3d 535c f8bd 5510 803c
00000100: ca9c cb3d 0dae 0c3e 6d3a e4be 322e 103c
00000110: 5ab1 36bd da2a 683d e409 39be ddee 0bbe
00000120: c126 2abd a53f d4bd 1853 7f3c 1a16 e53d
00000130: f641 34bc 43c3 03be 1272 a8bc 7945 3a3d
00000140: 6b10 46bd dc09 e33d c744 323e bd9a 3ebd
00000150: 1986 78bd a6d6 8e3d 7e78 be3e dbcd 8cbe
00000160: 84cc d03d 58ec 93be 037b 053e bf11 33be
00000170: e7cd 3dbe 2e8e 1f3e fc26 dc3d 0242 09be
00000180: b486 2e3e 9cfe fe3c 4129 e6bd eb8a 263e
00000190: 55bc f33c 77cb 7eba 717a fbbc 5114 b13d
000001a0: dd2c 74bd 4aec 153d d3ca 01bf d0d5 63bd
000001b0: e711 1e3e d5fe cabd 7c55 423e 661a d9bd
000001c0: 982c df3d a7c8 15be f18f 323d 508b 26be
000001d0: efb9 aebe 7e7b fdbd 0632 95be 9cd6 343d
000001e0: a577 92be 18cf 5bbe 18fb 293e a4dc 093e
000001f0: de0f 8dbe bd5c 833e d19d 403e 99aa 993d
00000200: 930e b23d c426 a8bd 3924 9e3e bee5 913b
00000210: 2e47 f5bd 3a0c 8cbe 6932 3cbd 944d 453d
00000220: 5c3c 383e a403 91bd fd44 8e3e 9052 b33e
00000230: b2aa 50be 5d3f 98bc dc77 853e 1f0d 023f
00000240: 1fa6 e0be 0945 ba3e ca74 113f 4cb8 57bf
00000250: 9dd7 083f e287 e7bc 5bdb b13e 7876 d6bd
00000260: 6dfc 88be 44f3 363e 7cb4 4e3d 81fa 7dbe
00000270: 93e1 20bf 90b9 ca3e 5fac 0cbf 3ac9 b53e
00000280: 0509 febd e9ce 07be 6600 c93e 36fa 82bd
00000290: 7ec6 e83e 13e3 e1bd df11 88be b97b b73d
000002a0: 9616 813e 738d b8bd 7cbb cebd aa31 9dbe
000002b0: a255 6dbe 3dfe b6be 2b85 a2bd a750 7bbe
000002c0: db15 273e 0e63 373e 4065 febc 0f62 d7be
000002d0: cefc 173e 66dc 9ebd 06ef ddbe 0df4 92be
000002e0: 5047 13be 08a1 d53d 1421 c9bd 4518 6b3e
000002f0: c79f ddbe 8756 853d a2c9 a13e 74c8 d2bb
00000300: 3a68 0fbc fe4a 463e 3ee4 93be 0487 293e
00000310: 521d bc3e 6c9e c43d 441b 8b3f 7150 b9be
00000320: a938 4dbe 6a5e e8bb 647b 773e 6649 243e
00000330: 8645 8dbe 9ecb 14be d006 a43d e9e7 ab3e
00000340: a8aa bebe d6a8 6bbd fd1a 11bf d633 373d
00000350: 4016 2fbe 2367 b3bc e052 03bf a101 cabe
00000360: cfff 793d 1152 58be cd1d 6a3e f307 08be
00000370: 74de 93bd f07f 4cbe 0ec0 a53c 58c9 a3be
00000380: 8c41 453e 9096 903e 686f ae3c 4ef1 11be
00000390: 8a63 91bd 45e2 613d 2a32 2d3c dbf7 0e3d
000003a0: 2751 9b3d d527 d93d f700 d9bd fb52 e83d
000003b0: c97c 6b3d 6244 853d 005c 86be 94d8 a4be
000003c0: 25a0 2f3e 8f25 ebbd 108e ed3c 1915 543d
000003d0: 6dea 25bd 8ec2 bdbc 77a9 0fbe f3c6 713d
000003e0: 5619 db3b 5c29 033e 9d3d acbd a9f6 c8bd
000003f0: 5edf 813e c8ba c6bc a4f0 223f fea7 afbe

bias f4 [16]
0.009066013 0.022756372 -0.14619428 -0.19173993 -0.04554794 -0.1546097 0.037789177 0.062575914
-0.14739023 -0.14450976 0.05460687 0.011195737 0.050623294 0.0024891477 0.042170957 -0.098720305
00000000: 9d89 143c 926b ba3c f4b3 15be 7957 44be
00000010: 7a90 3abd 0152 1ebe d3c8 1a3d cd27 803d
00000020: 77ed 16be 5efa 13be 74ab 5f3d 536e 373c
00000030: 5f5a 4f3d f820 233b 74bb 2c3d df2d cabd

weight f4 [16]
1.0493584 0.8173354 -0.00041528564 -0.0018262662 0.21111675 0.9680181 0.7151281 0.4960215
1.1030873 0.7301841 0.07256066 0.31173763 1.1289239 0.045431297 0.41667935 1.0341185
00000000: 6051 863f e53c 513f b2ba d9b9 535f efba
00000010: fd2e 583e 09d0 773f a312 373f 88f6 fd3e
00000020: f731 8d3f 58ed 3a3f af9a 943d 139c 9f3e
00000030: 9480 903f 2b16 3a3d ff56 d53e ff5d 843f

weight f4 [16, 16, 3, 3]
-0.18259178 -0.047156215 0.2932925 -0.13860206 0.11979552 -0.47888938 -0.17069471 -0.14580578
0.62441254 0.29346848 0.043605343 0.036819752 -0.09057418 0.22681366 0.044006303 0.061034504
0.18793543 -0.004111969 0.25103307 -0.4711665 -0.32050765 -0.14527404 -0.12701061 0.12943164
0.13117291 0.06340083 -0.026777955 -0.17146502 -0.12347438 -0.07534359 -0.15092228 -0.5207182
-0.13812742 -0.3242186 0.15662621 -0.18364118 -0.07107863 -0.124979645 0.43428326 -0.12411855
0.46963838 -0.04243627 -0.18919238 -0.8647584 -0.183055 0.0923883 0.018979313 0.00795839
-0.21163286 -0.197329 -0.099275365 0.042573676 -0.1737 -0.04234511 -0.41022336 0.52187616
0.20695268 0.013899578 -0.39374197 0.36470506 -0.22719687 0.4274795 -0.7306139 -0.0006785478
0.30066097 -0.16399987 -0.18727002 0.3348812 -0.11736021 -0.26334375 0.052591715 -0.42137322
-0.26813722 0.09182195 -0.01882135 -0.14243256 -0.12130268 -0.39168835 0.11160095 0.04121602
-0.10431535 -0.20216575 -0.38080573 0.418054 -0.13796563 -0.011612935 0.13955587 -0.111909725
0.20453312 0.1276152 -0.063529275 0.32822126 0.6934345 -0.28439665 0.19770235 0.17494835
0.10648743 0.00012955425 -0.26648545 -0.49192882 0.15778023 -0.5295048 0.16334233 0.17970592
-0.19035451 -0.5173298 0.54284626 -0.31379303 -0.019194702 0.22290412 -0.05654933 0.049690157
-0.069666 -0.4445119 -0.012459438 0.06836698 -0.13970487 -0.13089234 -0.22166766 -0.18920058
-0.06076679 -0.3628627 -0.029023053 -0.25621778 -0.18958157 0.0689433 -0.011586852 0.057176016
-0.57034695 -0.0030014445 -0.12885769 0.29531097 0.22492282 0.41301793 -0.28554735 0.21507049
0.13554837 -0.13519162 -0.34258062 0.39979362 0.06903269 -0.09618183 -0.2831745 -0.14296876
-0.34039173 -0.27585536 0.15881509 0.011827788 0.28786823 0.011115088 0.32475325 -0.09835172
-0.20328058 -0.07950972 -0.04552498 -0.15831818 -0.50077593 0.12160888 0.46758386 0.30162498
-0.09459423 -0.11169674 -0.16305028 0.22756879 -0.04039922 -0.4954509 0.1569578 0.17890845
0.4579235 -0.13279808 -0.15745239 0.146188 -0.22262973 0.0067167017 -0.20605592 -0.056643896
0.36574018 -0.18685493 0.27604997 0.36117527 0.03720745 0.20808065 -0.013921957 -0.43262747
0.054468863 0.10796297 0.13215478 -0.12907398 -0.24239513 -0.031251274 -0.07565597 0.010243208
0.02539533 0.08969922 0.2345063 0.01594842 -0.0951711 -0.07211383 0.013484726 0.10001636
-0.0050250674 0.26043537 -0.25992522 -0.14818072 -0.27175865 0.20570008 0.050203584 0.122880004
-0.021633955 0.07315941 -0.23909722 -0.14094478 0.15353324 -0.33211145 0.24095383 0.028855322
-0.18072192 0.021191189 0.0063450066 -0.2665752 0.22514169 -0.037372075 0.2090449 -0.041808408
-0.17477901 -0.10484939 0.025954928 0.078649856 -0.14025477 -0.1446429 0.09358984 0.15356974
0.08657719 0.044471115 -0.14780742 -0.44223338 -0.161115 -0.018855749 -0.15478818 -0.0010365588
0.36234793 -0.13782175 -0.008316578 -0.07361511 -0.23373553 -0.25185463 0.20838311 -0.1504932
0.15631226 -0.07642096 -0.031068895 0.07983157 -0.108540535 -0.038190965 0.075956814 -0.15325466
00000000: 57f9 3abe e026 41bd 6f2a 963e b3ed 0dbe
00000010: 5b57 f53d fd30 f5be 98ca 2ebe 1c4e 15be
00000020: 80d9 1f3f 8041 963e 849b 323d 4fd0 163d
00000030: f57e b9bd d741 683e f43f 343d 51ff 793d
00000040: 2572 403e b2bd 86bb 6887 803e bc3c f1be
00000050: 9419 a4be b8c2 14be 120f 02be ba89 043e
00000060: 3152 063e 4bd8 813d 715d dbbc 8794 2fbe
00000070: 23e0 fcbd bd4d 9abd 5f8b 1abe ca4d 05bf
00000080: 4671 0dbe fbff a5be 9f62 203e 6f0c 3cbe
00000090: ac91 91bd 54f5 ffbd 605a de3e de31 febd
000000a0: 7174 f03e a7d1 2dbd a6bb 41be ce60 5dbf
000000b0: c572 3bbe 1436 bd3d 817a 9b3c e863 023c
000000c0: 49b6 58be 9d10 4abe e250 cbbd bc61 2e3d
000000d0: 6ade 31be 1172 2dbd cc08 d2be ad99 053f
000000e0: 67eb 533e 0ebb 633c 8c98 c9be 9fba ba3e
000000f0: 4ca6 68be 98de da3e 8309 3bbf 92e0 31ba
00000100: 3cf0 993e 95ef 27be b6c3 3fbe 8c75 ab3e
00000110: 8d5a f0bd fed4 86be 696a 573d 3bbe d7be
00000120: 4849 89be 260d bc3d 3b2f 9abc d7d9 11be
00000130: 8a6d f8bd 608b c8be 0a8f e43d 21d2 283d
00000140: 49a3 d5bd 8a04 4fbe f8f8 c2be 2d0b d63e
00000150: dd46 0dbe 2e44 3ebc bce7 0e3e ed30 e5bd
00000160: 2171 513e 8fad 023e a31b 82bd 9e0c a83e
00000170: ec84 313f 709c 91be 7c72 4a3e a925 333e
00000180: 1516 da3d f4d8 0739 c870 88be 18de fbbe
00000190: 2491 213e a08d 07bf 3643 273e d404 383e
000001a0: 4bec 42be ba6f 04bf f9f7 0a3f 7ba9 a0be
000001b0: 353e 9dbc fa40 643e 45a0 67bd e887 4b3d
000001c0: 0cad 8ebd 1097 e3be ac22 4cbc fd03 8c3d
000001d0: cb0e 0fbe a408 06be d9fc 62be ccbd 41be
000001e0: 99e6 78bd 24c9 b9be c1c1 edbc fa2e 83be
000001f0: ac21 42be 2532 8d3d c8d6 3dbc 6631 6a3d
00000200: 4202 12bf e2b3 44bb 45f3 03be 0033 973e
00000210: 2b52 663e 1677 d33e 4333 92be 703b 5c3e
00000220: 31cd 0a3e ac6f 0abe ba66 afbe c0b1 cc3e
00000230: 0361 8d3d fbfa c4bd 40fc 90be 6766 12be
00000240: d347 aebe ea3c 8dbe 6ca0 223e 57c9 413c
00000250: 7763 933e 0f1c 363c 0f46 a63e a06c c9bd
00000260: c928 50be fed5 a2bd 6778 3abd 291e 22be
00000270: da32 00bf 140e f93d 2767 ef3e 976e 9a3e
00000280: 9fba c1bd 43c1 e4bd a7f6 26be cb07 693e
00000290: a779 25bd beab fdbe 8cb9 203e c733 373e
000002a0: f374 ea3e 38fc 07be 333b 21be 4fb2 153e
000002b0: 0cf9 63be c717 dc3b 5300 53be 6e03 68bd
000002c0: 4c42 bb3e e656 3fbe 6c56 8d3e f7eb b83e
000002d0: d766 183d 1813 553e ec18 64bc 5981 ddbe
000002e0: be1a 5f3d b11b dd3d 9553 073e f82b 04be
000002f0: 6e36 78be 5601 00bd 84f1 9abd 21d3 273c
00000300: de09 d03c 3ab4 b73d 6b22 703e 43a6 823c
00000310: 11e9 c2bd 6ab0 93bd 0aef 5c3c 61d5 cc3d
00000320: 52a9 a4bb c957 853e eb14 85be b0bc 17be
00000330: f323 8bbe 0ba3 523e 46a2 4d3d 83a8 fb3d
00000340: b139 b1bc 9ad4 953d e7d5 74be d453 10be
00000350: d137 1d3e 830a aabe 9abc 763e ff61 ec3c
00000360: 2b0f 39be 2599 ad3c c6e9 cf3b 8b7c 88be
00000370: 8b8b 663e 7613 19bd de0f 563e 4b3f 2bbd
00000380: 45f9 32be 47bb d6bd 6e9f d43c 2d13 a13d
00000390: f29e 0fbe 451d 14be 08ac bf3d 6341 1d3e
000003a0: 624f b13d 5827 363d d45a 17be 6a6c e2be
000003b0: 55fb 24be 5f77 9abc cb80 1ebe 24dd 87ba
000003c0: ab85 b93e 2521 0dbe 4242 08bc 85c3 96bd
000003d0: 5e58 6fbe 17f3 80be 6262 553e e41a 1abe
000003e0: 5210 203e 9882 9cbd 3284 febc bc7e a33d
000003f0: 804a debd 216e 1cbd 3f8f 9b3d caee 1cbe

bias f4 [16]
-0.23004885 -0.018722633 0.04514176 -0.050058555 0.030940782 0.046610087 -0.36191627 -0.0060907453
-0.31749254 0.084532164 -0.012709673 -0.074450105 -0.08023732 -0.051211376 -0.04283452 -0.047131363
00000000: ed91 6bbe 3560 99bc 91e6 383d 330a 4dbd
00000010: 8677 fd3c 38ea 3e3d 174d b9be e094 c7bb
00000020: 628e a2be 331f ad3d 3b3c 50bc 4c79 98bd
00000030: 7753 a4bd 05c3 51bd 4073 2fbd d10c 41bd

weight f4 [16]
0.00060759776 -0.5821491 0.13424283 -0.17285231 0.20676555 0.9583898 -0.00437107 -0.72093314
-0.0015490374 1.0775441 0.28981963 -0.051674094 0.07266243 0.9613473 1.0444483 0.1242641
00000000: 3247 1f3a b907 15bf f476 093e 3200 31be
00000010: 59ba 533e 0959 753f 313b 8fbb 138f 38bf
00000020: 1209 cbba f7ec 893f 3d63 943e 37a8 53bd
00000030: 0ad0 943d db1a 763f 7bb0 853f 2d7e fe3d

weight f4 [16, 16, 3, 3]
-0.7982285 -0.43669966 -0.125866 0.1869764 0.0098693725 0.14068803 -0.029523809 -0.26336962
-0.24069284 -0.040503617 -0.11303484 0.06443403 -0.0011533921 -0.12310599 -0.10544527 -0.075105324
0.011145051 -0.12628976 -0.2941409 -0.11608901 0.06740614 0.13476466 -0.06740078 -0.16329178
-0.16763507 -0.1552952 -0.12592037 -0.05630656 -0.24770634 0.34524354 0.07780602 -0.0052358895
0.106978685 0.014764698 0.21894182 0.07380198 0.042875353 0.16520526 0.053388778 -0.2285607
-0.10416665 0.01755587 -0.05776073 0.2761367 0.3674234 -0.09192243 0.037645478 0.08144141
-0.55416965 -0.07193278 -0.19315661 0.030006383 0.08396614 -0.0074475845 -0.06546919 -0.7222761
-0.017556274 0.025111616 0.7947285 -0.0007531163 -0.065166 0.117046416 0.029755192 0.14409843
0.108333424 0.09970569 0.22335358 -0.15989253 -0.008228987 -0.060296092 -0.1327192 -0.21329945
-0.027363652 -0.2835439 0.16967797 0.09853034 0.07112007 0.13214645 -0.07020481 -0.29760024
0.20985478 0.003213406 -0.0005852218 -0.08913216 -0.041969612 0.16182502 -0.026763815 0.087372385
0.1276086 0.1917875 0.12139253 -0.20833333 0.18638419 0.0041591404 -0.20243295 -0.07746814
-0.040305987 0.22511147 0.05452485 -0.22023498 -0.10085534 -0.18850382 0.3297337 0.14650106
0.12296544 0.44736904 -0.25925916 0.09171337 0.39028093 -0.22540379 -0.011963645 0.083102494
0.15593898 -0.49115294 0.3731777 -0.10243389 -0.25396946 -0.13219056 0.08153226 -0.059959926
-0.15520163 0.16390151 -0.04295577 0.039007034 -0.035465695 -0.030490702 0.03234431 -0.03556913
0.25355694 -0.1833869 -0.050452862 -0.25106183 0.06532355 -0.263386 -0.08919301 -0.06814189
0.11579683 0.10569313 0.08507519 -0.065297246 0.11049685 -0.15271017 -0.24354386 -0.3115972
0.14370026 0.14674327 0.37847227 0.044440325 -0.26022974 0.17471366 0.24294506 -0.49881053
0.08016555 0.08765843 0.058256112 -0.103096776 0.12688366 0.40044913 0.085689664 0.3502699
0.10020619 0.084573 0.10199464 0.39937744 -0.0100006815 -0.17379428 0.21298297 -0.05076115
0.2332469 -0.12136205 -0.36293444 0.15446714 -0.19638348 0.4261774 0.21569344 -0.63925767
-0.29273468 -0.20121975 -0.07189805 -0.26469195 0.0862156 -0.16640982 0.25283316 -0.28891703
-0.10958102 0.008752591 -0.008939034 0.06464635 -0.027883673 -0.34375697 -0.14147314 -0.09164792
-0.6775162 0.21617667 -0.19596457 -0.13361238 0.14825349 -0.016009709 -0.53566283 -0.19874781
-0.23461711 -0.4778366 0.36859736 0.14370808 0.3493662 0.15401307 -0.06443754 -0.08333339
-0.14678268 -0.09172603 0.13914886 -0.3876307 0.033009183 -0.032429334 -0.26796323 -0.19130524
-0.12227594 0.2796584 0.24613772 -0.29257092 -0.80352217 0.36133522 -0.1737095 -0.13528655
0.2304234 -0.21414694 0.12734951 -0.03241031 -0.08121914 0.004426216 -0.041974906 0.094667114
0.032905925 0.0052406266 -0.45292497 -0.061637986 0.041619517 0.2914598 0.35892034 -0.10649753
0.14595392 -0.21073398 -0.11809422 -0.10515599 -0.2811234 -0.29032573 -0.47537068 0.11900737
0.09698113 0.09989952 -0.14315821 0.03661051 -0.4268835 0.31406626 0.015660824 0.34042314
00000000: b458 4cbf 1997 dfbe 04e3 00be be76 3f3e
00000010: 26b3 213c 8610 103e eadb f1bc 62d8 86be
00000020: 2f78 76be 1fe7 25bd cf7e e7bd fdf5 833d
00000030: 6b2d 97ba fe1e fcbd b1f3 d7bd d2d0 99bd
00000040: bb99 363c 1a52 01be a399 96be 13c0 edbd
00000050: 3b0c 8a3d bfff 093e 6c09 8abd f635 27be
00000060: 87a8 2bbe b405 1fbe 45f1 00be b5a1 66bd
00000070: bba6 7dbe c3c3 b03e c358 9f3d d391 abbb
00000080: a417 db3d a2e7 713c 4932 603e 7e25 973d
00000090: 119e 2f3d 912b 293e 31ae 5a3d d10b 6abe
000000a0: 5355 d5bd 54d1 8f3c 8496 6cbd ca61 8d3e
000000b0: eb1e bc3e d441 bcbd 2532 1a3d c1ca a63d
000000c0: 10de 0dbf 7e51 93bd d9ca 45be f2cf f53c
000000d0: 71f6 ab3d de0a f4bb b614 86bd 16e7 38bf
000000e0: 2dd2 8fbc e0b6 cd3c 5473 4b3f c86c 45ba
000000f0: c075 85bd 08b6 ef3d 29c1 f33c 8a8e 133e
00000100: eadd dd3d 7f32 cc3d cdb6 643e deba 23be
00000110: e0d2 06bc 09f9 76bd 8be7 07be 2c6b 5abe
00000120: bd29 e0bc ab2c 91be 10c0 2d3e 46ca c93d
00000130: 66a7 913d 6651 073e 8ac7 8fbd 0f5f 98be
00000140: 2ce4 563e 0298 523b 9269 19ba ec8a b6bd
00000150: 54e8 2bbd 75b5 253e ca3f dbbc 4bf0 b23d
00000160: d4ab 023e f163 443e a69c f83d 5555 55be
00000170: 7fdb 3e3e 6649 883b 954a 4fbe 9ea7 9ebd
00000180: e417 25bd 9f83 663e 7355 5f3d 4785 61be
00000190: 3f8d cebd 2507 41be dbd2 a83e 6004 163e
000001a0: 4ed5 fb3d 8e0d e53e 9ebd 84be 38d4 bb3d
000001b0: e7d2 c73e 40d0 66be 2a03 44bc a431 aa3d
000001c0: 78ae 1f3e 6678 fbbe 2611 bf3e dcc8 d1bd
000001d0: 4908 82be f65c 07be 63fa a63d 8a98 75bd
000001e0: 2ded 1ebe ccd5 273e 64f2 2fbd d7c5 1f3d
000001f0: 7a44 11bd a3c7 f9bc 787b 043d f0b0 11bd
00000200: 37d2 813e c7c9 3bbe a9a7 4ebd 2d8b 80be
00000210: 5ac8 853d 88da 86be d3aa b6bd fa8d 8bbd
00000220: e326 ed3d a475 d83d e73b ae3d 90ba 85bd
00000230: 2c4c e23d 0e60 1cbe 9063 79be ab89 9fbe
00000240: 2926 133e de43 163e 1ec7 c13e 0f07 363d
00000250: d53c 85be 23e8 323e 97c6 783e 1864 ffbe
00000260: d62d a43d 4386 b33d f69d 6e3d 6724 d3bd
00000270: caed 013e ab07 cd3e 107e af3d 9456 b33e
00000280: e738 cd3d 9c34 ad3d 91e2 d03d 337b cc3e
00000290: e6d9 23bc 21f7 31be 3518 5a3e ecea 4fbd
000002a0: 46d8 6e3e ab8c f8bd 8bd2 b9be a22c 1e3e
000002b0: c018 49be ed33 da3e bede 5c3e 64a6 23bf
000002c0: 52e1 95be 8d0c 4ebe 493f 93bd b485 87be
000002d0: ce91 b03d 5667 2abe 5973 813e efec 93be
000002e0: 046c e0bd 0767 0f3c 0775 12bc 4e65 843d
000002f0: 4d6c e4bc ea00 b0be 56de 10be e8b1 bbbd
00000300: b471 2dbf 6b5d 5d3e f0aa 48be afd1 08be
00000310: c3cf 173e cb26 83bc 3321 09bf 8c84 4bbe
00000320: 783f 70be 00a7 f4be cbb8 bc3e 3628 133e
00000330: 20e0 b23e 9ab5 1d3e d4f7 83bd b2aa aabd
00000340: 334e 16be dbda bbbd 0a7d 0e3e 8877 c6be
00000350: a334 073d 9fd4 04bd 7a32 89be 85e5 43be
00000360: cf6b fabd 632f 8f3e 870b 7c3e dbcb 95be
00000370: a1b3 4dbf ee00 b93e e7e0 31be 8f88 0abe
00000380: 1df4 6b3e 5649 5bbe e967 023e acc0 04bd
00000390: 3856 a6bd ca09 913b e1ed 2bbd d5e0 c13d
000003a0: 5dc8 063d 90b9 ab3b c8e5 e7be 1d78 7cbd
000003b0: 3a79 2a3d 383a 953e 68c4 b73e 611b dabd
000003c0: f274 153e a6ca 57be 62db f1bd 065c d7bd
000003d0: 68ef 8fbe 93a5 94be c963 f3be 23ba f33d
000003e0: 0b9e c63d 1f98 cc3d 1198 12be e7f4 153d
000003f0: 7990 dabe 4bcd a03e 214b 803c f14b ae3e

bias f4 [16]
-0.005522556 -0.028030463 -0.040837556 0.13857254 0.16550459 -0.016721541 0.03378623 0.042012796
0.0024626353 0.023521964 0.13319202 -0.31985822 -0.13294436 0.005944806 -0.19774888 -0.03147206
00000000: 8ff6 b4bb 24a0 e5bc 4845 27bd f6e5 0d3e
00000010: 097a 293e 9dfb 88bc 6e63 0a3d 9c15 2c3d
00000020: 2a64 213b 22b1 c03c 7d63 083e 75c4 a3be
00000030: 9122 08be a6cc c23b af7e 4abe d9e8 00bd

weight f4 [16]
0.80358547 -0.1227063 -0.04767298 0.5401567 0.16441613 0.9467588 1.5918868 0.9346317
0.005004175 1.0122061 -0.25897723 -0.0063054347 0.16484441 0.026265552 0.12759298 -0.20073254
00000000: c7b7 4d3f 714d fbbd be44 43bd b647 0a3f
00000010: b45c 283e c95e 723f f2c2 cb3f 0644 6f3f
00000020: 10fa a33b f88f 813f aa98 84be d29d cebb
00000030: f9cc 283e db2a d73c bca7 023e d58c 4dbe

weight f4 [16, 16, 3, 3]
-0.060851637 -0.052824818 -0.08147292 -0.000890216 -0.043314964 0.070709 -0.074734606 -0.034011222
0.07145374 0.0038094772 0.0050392915 0.22422485 0.22781102 -0.32278943 0.5480243 0.12517087
-0.31654787 -0.19930832 -0.054887176 0.12328262 -0.09894428 0.05425405 0.08447881 -0.08414272
0.0006563807 -0.042539597 -0.05064589 0.12098221 -0.016782867 -0.124554835 0.06724667 -0.00927975
0.053575013 0.14604908 0.06800977 -0.023796491 0.038145684 0.08660682 0.11544162 -0.3668459
0.011435323 -0.047275055 0.26615018 -0.3348446 -0.05727705 -0.124171205 0.035182815 0.029112209
-0.08349287 0.18234225 0.12709431 -0.012169747 0.03757055 -0.08880299 0.07754022 -0.032361824
0.21625078 0.07572956 -0.19342522 0.15765366 -0.086097926 0.0114068575 -0.03469013 0.042438436
0.009197561 -0.07490572 0.01273581 0.17833173 0.016660433 0.20906577 -0.015228363 6.878456e-05
-0.08004865 0.17465977 0.17128152 0.0067319195 -0.04375142 -0.26552737 0.06122592 -0.16061701
0.12871365 0.21522583 -0.13656154 0.07902392 -0.14456816 0.031053776 0.10443587 0.005088919
-0.17645153 0.08810519 0.048012022 0.030026123 0.08348522 -0.133102 0.1526503 0.11649538
0.00034895507 -0.19656383 -0.13279723 0.13316244 -0.21231627 0.01582732 0.29780433 0.2236893
0.14823012 -0.09297031 -0.046862878 -0.13660927 -0.14133123 0.15553378 -0.12645613 -0.04405787
0.2756285 0.2511738 0.21746032 -0.045000214 -0.16797172 0.007951669 0.26808345 0.10058925
-0.08297931 -0.104430385 0.062768295 0.1654249 -0.07083624 -0.07807069 0.10802204 0.12089539
0.081695996 0.19575979 0.2335515 0.0020745518 0.21358697 0.45398223 0.22741188 -0.37595338
-0.09660531 0.10046757 -0.08904467 -0.112631865 -0.3731986 -0.065739445 0.046865247 -0.10917045
-0.07148358 -0.26156956 -0.42127502 0.10202402 0.14249833 0.10427736 0.16299285 0.21043876
0.088314705 -0.34724653 0.15425105 0.0053553404 0.3437535 0.44143933 0.35807946 -0.014774321
-0.045076195 -0.2099815 0.32221213 -0.0019280473 -0.0043575806 0.0506893 -0.17096925 -0.6098839
0.12673339 0.16841252 0.045613017 -0.09720611 -0.33944067 -0.202231 0.035249475 -0.042824067
-0.14312567 -0.13645492 0.14234507 0.17341703 -0.03738228 -0.4586713 0.29319596 0.028808223
0.23701257 0.10336088 0.037965722 -0.0069148527 0.042256758 -0.19517097 0.024384055 -0.101506524
-0.053246807 0.026128765 0.13960171 0.17272992 -0.012751946 -0.13337821 -0.12655208 0.6231983
0.033728488 -0.17218767 0.06924303 -0.028617118 0.09496117 -0.0759354 0.004205303 -0.08613608
-0.121881254 0.307654 0.12509823 0.357366 0.11659181 -0.1819613 -0.15085658 -0.04469737
0.0031914946 0.14072272 -0.13161793 -0.12750979 -0.49266008 -0.26298583 -0.07352351 0.2690501
0.13180386 -0.017952915 0.046022166 -0.04109957 -0.03884895 -0.015307808 -0.037957467 0.065934256
0.19518973 0.12281157 0.13889739 0.14031968 -0.1916492 -0.18026425 -0.6433621 -0.2087586
-0.0005630398 0.11985695 0.16741656 -0.45531845 -0.14037271 0.2957583 -0.5110801 -0.32010216
-0.24495573 0.054843746 0.12288114 0.23086631 0.3483777 0.6612738 0.061771788 -0.048047837
00000000: 913f 79bd d65e 58bd 46db a6bd 625d 69ba
00000010: 086b 31bd e1cf 903d 750e 99bd 5a4f 0bbd
00000020: 5756 923d 6ca8 793b a420 a53b 339b 653e
00000030: 4b47 693e a844 a5be 524b 0c3f cb2c 003e
00000040: 9012 a2be 7b17 4cbe 60d1 60bd 997b fc3d
00000050: 4ca3 cabd 7f39 5e3d 3a03 ad3d 0553 acbd
00000060: f710 2c3a 003e 2ebd 1172 4fbd 85c5 f73d
00000070: 397c 89bc 9b16 ffbd 9fb8 893d 180a 18bc
00000080: 7971 5b3d e48d 153e b548 8b3d dcf0 c2bc
00000090: a63e 1c3d eb5e b13d a86c ec3d 3ad3 bbbe
000000a0: 395b 3b3c 7da3 41bd d644 883e c070 abbe
000000b0: 579b 6abd 794d febd db1b 103d ba7c ee3c
000000c0: 4ffe aabd edb7 3a3e 0325 023e 9e63 47bc
000000d0: 94e3 193d 58de b5bd 68cd 9e3d d58d 04bd
000000e0: d870 5d3e 1918 9b3d 4311 46be f66f 213e
000000f0: 1c54 b0bd d4e3 3a3c 3d17 0ebd edd3 2d3d
00000100: 5eb1 163c 2c68 99bd dca9 503c 989c 363e
00000110: 767b 883c 5615 563e 6280 79bc 6e40 9038
00000120: 8cf0 a3bd 03da 323e 6c64 2f3e 6f97 dc3b
00000130: b034 33bd 34f3 87be 08c8 7a3d c978 24be
00000140: 83cd 033e 2964 5c3e cad6 0bbe 4bd7 a13d
00000150: ad09 14be 7d64 fe3c 79e2 d53d f2c0 a63b
00000160: b6af 34be 7e70 b43d 41a8 443d 58f9 f53c
00000170: 4dfa aa3d e44b 08be 5c50 1c3e 2195 ee3d
00000180: f5f3 b639 0748 49be fffb 07be bc5b 083e
00000190: 7069 59be 4ca8 813c cf79 983e cf0e 653e
000001a0: a3c9 173e 3867 bebd 4af3 3fbd 4de3 0bbe
000001b0: 22b9 10be 3f44 1f3e b77d 01be 0676 34bd
000001c0: 2e1f 8d3e da99 803e ebad 5e3e 2552 38bd
000001d0: c700 2cbe b847 023c 3c42 893e bd01 ce3d
000001e0: 0ef1 a9bd 99df d5bd aa8c 803d 2565 293e
000001f0: 9712 91bd 87e3 9fbd a93a dd3d 0198 f73d
00000200: 3b50 a73d 4175 483e 2028 6f3e 34f5 073b
00000210: 8bb6 5a3e 5c70 e83e a9de 683e f67c c0be
00000220: 01d9 c5bd f1c1 cd3d 0d5d b6bd 89ab e6bd
00000230: e313 bfbe 67a2 86bd c6f5 3f3d c294 dfbd
00000240: fc65 92bd 72ec 85be 5cb1 d7be f8f1 d03d
00000250: 15eb 113e 5e8f d53d 99e7 263e 427d 573e
00000260: 57de b43d 4cca b1be fdf3 1d3e da7b af3b
00000270: 7500 b03e 5604 e23e 3156 b73e fe0f 72bc
00000280: d1a1 38bd 6405 57be fdf8 a43e 88b6 fcba
00000290: 09ca 8ebb 959f 4f3d 9012 2fbe 5a21 1cbf
000002a0: 66c6 013e 5574 2c3e b7d4 3a3d ff13 c7bd
000002b0: 2bcb adbe a515 4fbe c161 103d 4a68 2fbd
000002c0: 898f 12be d7ba 0bbe e8c2 113e 3c94 313e
000002d0: 291e 19bd f7d6 eabe c81d 963e 39ff eb3c
000002e0: 6cb3 723e deae d33d f281 1b3d fd95 e2bb
000002f0: 6c15 2d3d e6da 47be 12c1 c73c a7e2 cfbd
00000300: 5319 5abd fe0b d63c c0f3 0e3e 1de0 303e
00000310: 8aed 50bc 4c94 08be de96 01be ec89 1f3f
00000320: e226 0a3d f751 30be 4acf 8d3d 726e eabc
00000330: 007b c23d 0584 9bbd a3cc 893b 1d68 b0bd
00000340: e19c f9bd d384 9d3e c019 003e adf8 b63e
00000350: b0c7 ee3d 1054 3abe 267a 1abe 9714 37bd
00000360: 6528 513b 9e19 103e dac6 06be ed91 02be
00000370: f13d fcbe 14a6 86be 7e93 96bd efc0 893e
00000380: 97f7 063e fe11 93bc bd81 3c3d 0658 28bd
00000390: 1420 1fbd 9acd 7abc 4a79 1bbd 8a08 873d
000003a0: d1df 473e a284 fb3d 1e3b 0e3e f6af 0f3e
000003b0: b03f 44be 3197 38be 61b3 24bf d0c4 55be
000003c0: f698 13ba 9077 f53d 3f6f 2b3e 801f e9be
000003d0: ddbd 0fbe a26d 973e 25d6 02bf 6ee4 a3be
000003e0: add5 7abe d6a3 603d 1ba9 fb3d 3868 6c3e
000003f0: 905e b23e 3d49 293f 6a04 7d3d cfcd 44bd

bias f4 [16]
0.055263165 -0.0044693695 0.08850587 -0.53835964 0.055863865 -0.23126248 -0.059876584 0.02986435
-0.1356532 0.010740022 -0.10090572 0.17709935 -0.042297058 0.106999256 -0.039450947 0.06174579
00000000: a15b 623d ca73 92bb 9142 b53d f0d1 09bf
00000010: 82d1 643d 12d0 6cbe 2641 75bd 15a6 f43c
00000020: ace8 0abe ebf6 2f3c a8a7 cebd 8859 353e
00000030: ae3f 2dbd 6d22 db3d 5197 21bd 27e9 7c3d

weight f4 [16]
0.2585922 -0.035764847 -0.5736397 0.2851433 0.9433508 0.053321324 0.7550533 -0.03413907
-0.011004134 -0.3585242 -0.055148747 0.6595976 -0.053430364 0.28152168 -0.090408914 0.24958727
00000000: 3266 843e 297e 12bd 0dda 12bf 4dfe 913e
00000010: 707f 713f 7667 5a3d 2c4b 413f 69d5 0bbd
00000020: af4a 34bc 7c90 b7be a7e3 61bd 63db 283f
00000030: ccd9 5abd 9c23 903e 4f28 b9bd ce93 7f3e

weight f4 [16, 16, 3, 3]
0.0024929359 -0.10058474 0.11388405 -0.054204535 0.045596275 -0.14295727 -0.008087082 0.05240321
0.038743462 -0.0042119 0.014547864 -0.013656496 -0.0701966 0.011139489 -0.08318138 0.068666436
0.0483555 0.096257545 0.009243006 0.04085246 0.061940413 -0.0021920446 -0.015972195 0.043246802
0.03247553 0.047585938 0.020514647 -0.0067861155 0.37014464 -0.035352193 0.04427177 -0.01129375
-0.07831418 0.05184751 -0.074580826 -0.0017958989 0.02961804 -0.13064054 0.0040502916 -0.0009855271
0.36051548 0.032244004 -0.019382859 0.08215881 -0.052909542 -0.06879066 0.18844636 0.07766097
0.042959623 0.11568918 -0.031131493 -0.036153052 -0.033593066 -0.029719012 0.06901937 0.05079296
-0.04578638 0.046694748 -0.08042044 0.14958867 0.049483445 0.05995259 -0.0014513737 0.048821967
0.12550527 0.06913533 0.1274187 0.024309702 0.0044074226 0.011420796 0.045754153 -0.09503291
-0.102638364 -0.0159972 0.0054820175 0.13505459 -0.03154602 -0.13601218 0.09260801 0.08624157
0.17244263 0.0048658247 -0.11791933 0.08263922 0.033901647 -0.1753513 0.004892585 0.028856514
0.15111423 -0.04829005 -0.0092772655 -0.09201262 0.003008451 0.10914451 0.016541325 0.016527016
-0.11401702 -0.0066290163 0.018508166 -0.04281384 -0.16928214 0.049121052 0.008028276 0.25715104
-0.05032417 0.022044843 0.15935878 0.059695676 0.07431538 0.2692681 -0.022092815 0.1110847
-0.109780155 0.052235752 0.04048662 -0.014460813 -0.044276834 0.059880573 0.052480698 0.03425487
-0.04300762 -0.068410024 -0.083763964 -0.039057583 -0.027233347 -0.008699313 0.0101618795 -0.057761885
0.09598124 0.050201662 0.13727617 -0.038067658 -0.085197575 -0.03875641 -0.055051677 -0.008953569
-0.0035218375 -0.023524579 -0.09211376 0.085020706 0.04598596 -0.0066010277 0.01868939 0.011588126
-0.012696956 0.036335617 -0.10593302 0.22414868 -0.020730987 0.073056035 0.018271405 -0.07555758
-0.011862027 0.03143362 -0.0065778815 0.055425417 -0.05180168 -0.08450089 -0.0018485202 -0.1238224
0.19620036 -0.08253788 0.008162679 -0.06447627 0.06865843 -0.11728652 0.113776125 0.11819158
0.033327036 -0.008954097 0.09182931 0.008335219 -0.15768951 0.09501153 -0.06531839 0.018517485
0.2730288 -0.013421254 -0.033747762 0.077539705 -0.07300035 0.113688394 -0.06633605 -0.105162226
0.41989648 0.035555426 -0.036612295 0.085775994 0.012994214 0.02192299 0.06388437 0.04850844
0.034401413 -0.20928757 0.09245631 0.0073991036 -0.07081214 0.005737906 0.038611576 0.091374815
0.011264413 0.11468607 -0.091126196 -0.2023276 0.031748537 0.021064403 -0.025735095 0.008924165
-0.11795728 0.03745191 0.13653113 -0.4274443 0.0017374475 -0.025234781 -0.025146415 0.1908111
0.025972052 -0.067974746 0.029616823 -0.11908296 -0.020109406 0.04593514 0.05582178 -0.07421571
-0.035075616 -0.03191249 -0.029842976 -0.014228683 0.067389816 0.07738419 -0.16919203 0.033823635
0.03270936 0.020283714 0.1481302 -0.11360241 -0.06432153 -0.2102884 0.19008936 0.027521329
-0.075417064 -0.04296138 -0.03823949 -0.036393177 0.016855476 0.03934192 0.11901023 0.10906771
0.014992997 0.009086868 -0.034905877 0.0030409715 0.00010239417 -0.045061123 -0.004413518 0.005712936
00000000: 8660 233b 5fff cdbd 0a3c e93d 9305 5ebd
00000010: 29c3 3a3d 6463 12be ae7f 04bc c0a4 563d
00000020: 77b1 1e3d fa03 8abb 2a5a 6e3c 7fbf 5fbc
00000030: 3cc3 8fbd 6782 363c 005b aabd fda0 8c3d
00000040: 6b10 463d ad22 c53d fa6f 173c e954 273d
00000050: 3bb5 7d3d 68a8 0fbb 1fd8 82bc 8f23 313d
00000060: 1005 053d 79e9 423d 550e a83c 105e debb
00000070: 9983 bd3e 76cd 10bd 5156 353d 6c09 39bc
00000080: 2f63 a0bd 0e5e 543d d5bd 98bd 5e64 ebba
00000090: 88a1 f23c a2c6 05be 4fb8 843b cd2c 81ba
000000a0: 7c95 b83e 4a12 043d cdc8 9ebc e142 a83d
000000b0: adb7 58bd 1ee2 8cbd 15f8 403e b70c 9f3d
000000c0: 6ef6 2f3d 73ee ec3d 7907 ffbc 3915 14bd
000000d0: e298 09bd 4975 f3bc 075a 8d3d 470c 503d
000000e0: 808a 3bbd fe42 3f3d 79b3 a4bd c62d 193e
000000f0: 27af 4a3d d990 753d 053c beba 8bf9 473d
00000100: 7484 003e d396 8d3d 0c7a 023e 2425 c73c
00000110: 246c 903b 4a1e 3b3c b568 3b3d 9da0 c2bd
00000120: 1034 d2bd 8f0c 83bc 7fa2 b33b c04b 0a3e
00000130: 6636 01bd c746 0bbe 45a9 bd3d 6c9f b03d
00000140: cd94 303e 7f71 9f3b b17f f1bd c03e a93d
00000150: 74dc 0a3d 4b8f 33be fa51 a03b 7f64 ec3c
00000160: b0bd 1a3e cacb 45bd acff 17bc 1d71 bcbd
00000170: 6f29 453b 2887 df3d ac81 873c aa63 873c
00000180: c181 e9bd 3838 d9bb 709e 973c 915d 2fbd
00000190: 4c58 2dbe 2833 493d 0889 033c 4da9 833e
000001a0: b820 4ebd 6397 b43c f32e 233e 7483 743d
000001b0: a932 983d 82dd 893e fefb b4bc 6080 e33d
000001c0: 6bd4 e0bd 28f5 553d 4cd5 253d 0ced 6cbc
000001d0: a05b 35bd 5545 753d 00f6 563d d64e 0c3d
000001e0: c228 30bd 8e1a 8cbd 718c abbd d8fa 1fbd
000001f0: 7818 dfbc 9087 0ebc 037e 263c ba97 6cbd
00000200: d091 c43d 42a0 4d3d 2092 0c3e d5ec 1bbd
00000210: 117c aebd 0bbf 1ebd de7d 61bd feb1 12bc
00000220: a1ce 66bb 9eb6 c0bc 24a6 bcbd 561f ae3d
00000230: c65b 3c3d 6f4d d8bb 7e1a 993c 20dc 3d3c
00000240: e506 50bc a8d4 143d 69f3 d8bd 3b87 653e
00000250: 08d4 a9bc 679e 953d eaad 953c efbd 9abd
00000260: f358 42bc 8ac0 003d 458b d7bb c305 633d
00000270: 002e 54bd cd0e adbd 0c4a f2ba 9996 fdbd
00000280: bfe8 483e 9f09 a9bd c2bc 053c 220c 84bd
00000290: ca9c 8c3d ea33 f0bd 7503 e93d 6d0e f23d
000002a0: ee81 083d 34b4 12bc 0111 bc3d 7190 083c
000002b0: 5c79 21be 6895 c23d a6c5 85bd fbb1 973c
000002c0: 6eca 8b3e d2e4 5bbc 183b 0abd 23cd 9e3d
000002d0: 3581 95bd 76d5 e83d 32db 87bd 4b5f d7bd
000002e0: acfc d63e 91a2 113d c6f6 15bd 53ab af3d
000002f0: afe5 543c d897 b33c cfd5 823d c9b0 463d
00000300: 7fe8 0c3d 7b4f 56be bc59 bd3d 2e74 f23b
00000310: f505 91bd 0b05 bc3b 2c27 1e3d b822 bb3d
00000320: 5f8e 383c 88e0 ea3d 5fa0 babd f72e 4fbe
00000330: c10a 023d 418f ac3c 68d2 d2bc a936 123c
00000340: 9693 f1bd 2d67 193d d1ce 0b3e fbd9 dabe
00000350: 10bb e33a 2cb9 cebc dbff cdbc fc63 433e
00000360: 57c3 d43c 5836 8bbd fb9e f23c c4e1 f3bd
00000370: 7bbc a4bc 7c26 3c3d 61a5 643d 68fe 97bd
00000380: 73ab 0fbd acb6 02bd 4279 f4bc 6c1f 69bc
00000390: ac03 8a3d 9a7b 9e3d ad40 2dbe a78a 0a3d
000003a0: 40fa 053d 082a a63c 71af 173e 61a8 e8bd
000003b0: 02bb 83bd d855 57be c9a6 423e 6974 e13c
000003c0: 4374 9abd 46f8 2fbd 03a1 1cbd 0311 15bd
000003d0: 7f14 8a3c fe24 213d a3bb f33d e45e df3d
000003e0: 30a5 753c 16e1 143c 77f9 0ebd 094b 473b
000003f0: 74bc d638 0392 38bd 469f 90bb 9533 bb3b

bias f4 [16]
-0.05800093 0.19035028 -0.19741389 -0.015220858 0.005892983 0.051704254 -0.17219894 -0.054859977
0.21697272 -0.0079578925 -0.13698858 -0.3791938 -0.30712834 0.30827624 0.2544465 0.11290756
00000000: 6292 6dbd 2feb 423e de26 4abe e860 79bc
00000010: ed19 c13b d7c7 533d eb54 30be dbb4 60bd
00000020: 192e 5e3e d261 02bc bc46 0cbe b125 c2be
00000030: ed3f 9dbe 62d6 9d3e d046 823e 143c e73d

weight f4 [16]
1.1179537 0.4479453 0.31247753 -0.05040074 0.30429846 0.11415792 0.18354899 0.12001245
0.1301832 0.3514939 0.40404513 0.30048162 0.33150968 0.6741889 0.28883272 0.772191
00000000: 1b19 8f3f 1659 e53e 0efd 9f3e 0271 4ebd
00000010: 02cd 9b3e a1cb e93d 44f4 3b3e 16c9 f53d
00000020: bf4e 053e 02f7 b33e 01df ce3e bad8 993e
00000030: a3bb a93e a597 2c3f e2e1 933e 4fae 453f

weight f4 [56, 16, 1, 1]
0.13669631 -0.018100431 -0.0512167 0.30105373 0.0018348894 -0.2503311 0.24934189 -0.2558242
0.2756872 -0.32180426 0.22366306 0.22973464 -0.26357743 -0.08146203 0.0527279 -0.12643649
0.14457512 -0.4055998 0.15482454 -0.012178222 -0.011419298 -0.17054601 0.13441373 -0.005846238
-0.06250721 -0.15665004 -9.960778e-05 -0.060607344 0.09427191 0.033689972 0.1391926 0.073558375
0.19783103 -0.109479256 -0.08061118 -0.03634258 -0.002545195 -0.13007505 0.04129055 0.048937883
0.5644982 0.046348467 -0.15507588 -0.173141 -0.09300926 -0.05923881 0.0942905 0.04964917
-0.14905584 0.083871804 0.09562051 -0.00015548633 -0.08166814 0.25342384 0.11789338 -0.085108496
-0.07012934 0.05459936 -0.6154996 -0.081183776 -0.09847768 0.16337705 0.008445216 -0.16374476
-0.08732064 -0.2102234 0.004234556 0.16906567 0.06853122 0.07270116 0.035428327 -0.11682804
0.27149212 -0.015804496 -0.30322564 0.384874 -0.361417 -0.3672492 -0.08743636 0.21187006
-0.25954092 0.060194965 0.01202264 -0.15953451 -0.09826173 0.24808197 0.054856826 -0.042252798
-0.030361114 0.057049517 -0.83398616 0.18104553 -0.15590851 0.37227082 0.02229956 -0.26430324
-0.14263141 -0.03951662 -0.23250818 0.07685017 -0.1758943 -0.051661685 0.043298833 -0.054171033
0.12934722 0.017101232 -0.07295076 0.24506181 -0.022232683 -0.075952135 0.13565211 -0.17255743
-0.078825414 0.26728347 0.39611718 0.1373452 -0.21246508 -0.075824045 -0.081512384 -0.1567925
0.0011254909 -0.46994305 0.017196206 -0.08480928 0.14285818 -0.04440668 -0.060433634 0.0648057
0.02906212 0.026649095 -0.19278367 -0.015402067 -0.045472216 -0.0653479 0.031981017 -0.029904677
0.2118315 -0.02691412 -0.007001281 -0.02948349 -0.17116858 0.17158231 -0.020568084 0.10291687
0.046709664 0.13191138 0.16797557 -0.007694102 -0.0054182946 0.10866941 -0.044166747 -0.010451106
0.033641946 0.017603189 -0.0010631423 -0.07605224 -0.26641217 0.2847578 0.058473464 0.124944285
-0.24191588 -0.11224019 0.24818367 0.0032118252 -0.14312138 -0.023036098 -0.010739324 0.0003388265
-0.44423166 0.07014491 0.040047523 0.19393894 0.3803191 -0.34895572 -0.22330894 -0.3481939
-0.072183914 0.16305317 -0.20027742 0.070745386 -0.057092413 -0.28838015 -0.13018782 -0.14427592
0.27856818 -0.22031435 -0.0774978 0.16961558 0.08232819 -0.17277738 -0.24358778 -0.21196175
-0.0764137 -0.14219259 -0.058735292 0.24907045 -0.15224649 -0.02247719 0.08428667 -0.08299166
0.19146766 -0.179457 -0.061072778 -0.00032741486 -0.24543378 -0.20873773 0.10097583 -0.15571155
0.17397174 0.1429427 0.14057603 -0.1495721 0.20339248 -0.16891615 -0.07090561 0.123474814
0.18916757 0.103612356 -0.14268576 -0.05343198 -0.0007625618 -0.038271267 -0.09718858 -0.20884013
-0.014429078 -0.089092046 0.34055492 -0.14643635 0.17664468 0.12723549 0.066210315 0.008615172
-0.25134176 -0.06712881 -0.056587473 -0.13816969 0.28392002 0.037978735 -0.025189517 0.19405161
-0.11301825 0.066075884 -0.17767996 -0.015773108 0.057610072 -0.07455976 0.09098895 -0.055079557
-0.15433022 -0.109128095 0.054357115 0.03175774 0.15457742 0.12238055 -0.107307054 0.149358
00000000: 1efa 0b3e 5b47 94bc 9ac8 51bd b723 9a3e
00000010: ac80 f03a 662b 80be 7b53 7f3e 64fb 82be
00000020: df26 8d3e 87c3 a4be ee07 653e 8f3f 6b3e
00000030: 9ff3 86be 91d5 a6bd 36f9 573d 9178 01be
00000040: 800b 143e c7aa cfbe 538a 1e3e 2a87 47bc
00000050: 0218 3bbc 9da3 2ebe c1a3 093e cd91 bfbb
00000060: c803 80bd de68 20be 85e4 d0b8 683f 78bd
00000070: a211 c13d 7ffe 093d 8188 0e3e c6a5 963d
00000080: 3894 4a3e a936 e0bd 7917 a5bd f5db 14bd
00000090: 49cd 26bb 6532 05be 4820 293d 1773 483d
000000a0: f482 103f e4d7 3d3d 36cc 1ebe e04b 31be
000000b0: a47b bebd 65a4 72bd 611b c13d ee5c 4b3d
000000c0: 18a2 18be fbc4 ab3d b0d4 c33d 0b0a 23b9
000000d0: a041 a7bd c5c0 813e 1672 f13d 5d4d aebd
000000e0: f99f 8fbd 94a3 5f3d 6291 1dbf ae43 a6bd
000000f0: aaae c9bd 504c 273e ce5d 0a3c b5ac 27be
00000100: 2ad5 b2bd ce44 57be 08c2 8a3b 8d1f 2d3e
00000110: 195a 8c3d 59e4 943d 4b1d 113d 8a43 efbd
00000120: 0401 8b3e 6e78 81bc 6440 9bbe 340e c53e
00000130: a60b b9be 1608 bcbe d611 b3bd 77f4 583e
00000140: 8ce2 84be ff8e 763d 9bfa 443c 045d 23be
00000150: 723d c9bd 3309 7e3e 8db1 603d 4511 2dbd
00000160: dfb7 f8bc c1ac 693d 1e80 55bf 0064 393e
00000170: 7ba6 1fbe 489a be3e 91ad b63c c152 87be
00000180: f80d 12be 2edc 21bd a016 6ebe 9f63 9d3d
00000190: a31d 34be 349b 53bd 1e5a 313d 72e2 5dbd
000001a0: 9973 043e e217 8c3c 3567 95bd 7cf1 7a3e
000001b0: 5121 b6bc cb8c 9bbd 63e8 0a3e e5b2 30be
000001c0: 386f a1bd 61d9 883e dfcf ca3e 38a4 0c3e
000001d0: 7290 59be a349 9bbd f7ef a6bd 378e 20be
000001e0: 3585 933a 609c f0be 0fdf 8c3c 7db0 adbd
000001f0: 6a49 123e c7e3 35bd 4289 77bd dab8 843d
00000200: af13 ee3c 344f da3c 1569 45be f458 7cbc
00000210: 1341 3abd 1fd5 85bd 87fe 023d a7fa f4bc
00000220: 5bea 583e 007b dcbc 006b e5bb 5c87 f1bc
00000230: d146 2fbe 46b3 2f3e 667e a8bc 14c6 d23d
00000240: a252 3f3d c713 073e ca01 2c3e ce1e fcbb
00000250: f38b b1bb 118e de3d 31e8 34bd 1e3b 2bbc
00000260: 23cc 093d 9034 903c 2359 8bba 47c1 9bbd
00000270: 2d67 88be c6cb 913e df81 6f3d cae2 ff3d
00000280: ccb8 77be 2fde e5bd dc23 7e3e 7c7d 523b
00000290: 698e 12be 33b6 bcbc fdf3 2fbc 86a4 b139
000002a0: 5572 e3be 22a8 8f3d df08 243d ee97 463e
000002b0: 2fb9 c23e 53aa b2be 19ab 64be 7946 b2be
000002c0: 29d5 93bd 69f7 263e 8615 4dbe f5e2 903d
000002d0: bcd9 69bd 90a6 93be f54f 05be 11bd 13be
000002e0: 7da0 8e3e 169a 61be 2bb7 9ebd b5af 2d3e
000002f0: af9b a83d 8eec 30be 136f 79be 800c 59be
00000300: c97e 9cbd ef9a 11be 6b94 70bd 530c 7f3e
00000310: 81e6 1bbe 1522 b8bc 7d9e ac3d 88f7 a9bd
00000320: 1910 443e 93c3 37be 7327 7abd e1a8 abb9
00000330: fe52 7bbe 58bf 55be 6acc ce3d d972 1fbe
00000340: a625 323e 925f 123e 2af3 0f3e 6e29 19be
00000350: 1e46 503e 5bf8 2cbe f636 91bd 5de0 fc3d
00000360: 25b5 413e b732 d43d 371c 12be 7edb 5abd
00000370: a8e6 47ba 55c2 1cbd ce0a c7bd 30da 55be
00000380: f167 6cbc e475 b6bd 375d ae3e 69f3 15be
00000390: 58e2 343e 054a 023e 4699 873d a626 0d3c
000003a0: deaf 80be d47a 89bd 44c8 67bd 5b7c 0dbe
000003b0: f75d 913e 978f 1b3d 3f5a cebc 77b5 463e
000003c0: 1d76 e7bd cb52 873d bcf1 35be 9b36 81bc
000003d0: 8af8 6b3d cab2 98bd 6a58 ba3d 1a9b 61bd
000003e0: be08 1ebe 8d7e dfbd 91a5 5e3d 6714 023d
000003f0: 8b49 1e3e a7a2 fa3d cdc3 dbbd 4ef1 183e
