FSRCNN/FSRCNN_torch/FSRCNN_56_12_2_X3_150.pth (torch, 50441 bytes, 16 tensors)

weight f4 [56, 1, 5, 5]
-0.08276004 -0.22798102 -0.07400257 0.0352776 -0.031032931 0.096060745 0.1675111 0.07810691
-0.16991669 0.08746807 -0.16892228 0.026944473 -0.0052893576 0.3276374 -0.40134737 0.2600602
-0.15473238 0.094299495 -0.21129006 0.21545672 -0.1412895 0.14839055 -0.09772675 -0.16919808
0.11793887 -0.19167505 0.1720271 0.0821907 -0.044191882 -0.22154069 0.23559046 0.069271155
-0.07049102 0.029490473 0.042238314 0.051306836 0.15926483 0.13460383 -0.3139549 0.06894487
-0.27153695 -0.08860232 0.19488706 0.15968122 0.074934654 0.13202983 -0.4466401 -0.027540866
0.25702202 0.028444579 0.39585146 -0.2845574 -0.15445662 0.08669736 -0.0037440634 -0.29899204
-0.42180458 0.6107155 -0.0591184 0.038287725 -0.24196638 0.6760143 -0.015156282 -0.22861621
-0.02137249 0.25677592 0.0015709753 -0.47690982 0.16239828 0.04463904 -0.076550804 -0.034899723
0.07312617 0.024684409 -0.054011438 -0.6982716 -1.6571065 -1.3697085 -0.1409172 -0.85476816
-0.061585855 0.12052134 0.43210304 0.11908861 0.03485205 0.0069787414 -0.075979374 -0.016684525
-0.06882118 0.01431378 0.014047164 -0.01625776 0.05662873 -0.065771066 -0.064868204 0.0050717858
0.08795352 0.053984404 0.05216327 0.030895142 -0.0032396412 -0.025937872 0.111706235 -0.061826564
0.030226244 -0.10524342 -0.22769384 0.042971212 -0.0955509 -0.011869661 -0.107752584 0.106478736
0.4720262 -0.08682909 0.015959932 0.12944624 -0.20886743 -0.0148494365 -0.1487978 -0.119416974
-0.17412418 -0.118325695 -0.20151645 -0.14024441 -0.25012496 -0.015538868 0.03033029 0.18464407
-0.18478918 0.086279765 0.07973455 0.20524725 -0.0058128606 0.1540328 -0.019285114 0.21890973
0.09919809 0.5755513 -0.010976909 -0.08989757 -0.13205652 0.081837825 -0.049599204 -0.2016862
-0.2379726 -0.1497245 -0.028097827 0.06340772 -0.13090856 0.00086719217 -0.021674285 -0.019638645
0.0825037 -0.022307683 0.05828773 0.08469639 0.5885059 0.064311974 -0.044964943 0.013006163
-0.07090525 0.015661154 -0.8259455 0.15738195 -0.07437432 -0.051084757 0.050534755 0.1267627
-0.06264654 0.016069569 -0.015684213 0.04749897 -0.07188427 0.021705728 -0.024669772 -0.0032932772
-0.08706787 0.12555899 -0.05483161 0.0018345886 0.021647807 -0.30076948 0.12331299 0.25531486
0.029174566 0.058727164 0.2297875 -0.82655305 -0.12613691 0.06689801 -0.022483757 0.36315542
0.24955867 -0.13536853 -0.0929072 -0.06849073 -0.099264406 0.12930346 0.0015306829 0.04975848
0.24272977 -0.1433307 -0.04857343 -0.01658955 -0.077768676 0.0029083784 -0.10472776 0.1433747
-0.016778618 0.027798524 -0.13510036 0.15261178 -0.071109995 0.092653744 -0.034736414 -0.52359927
0.0133132255 0.45500645 -0.014304135 -0.0043841265 0.30054286 0.07202098 -0.29600543 -0.02813434
-0.033227775 0.17874177 -0.10191509 0.05079824 -0.041771293 -0.0583174 -0.06863711 -0.10020645
-0.10972974 0.111819655 0.04025969 0.048626628 -0.274319 0.7254109 0.11120126 -0.17563216
0.050828446 -0.1610863 0.029807968 -0.099168375 0.10828465 0.04993175 0.06309149 0.06388452
-0.052563783 0.11442962 -0.14179163 0.07049025 0.008289304 0.056022674 -0.014509903 0.33567616
00000000: 197e a9bd db73 69be a98e 97bd 3f7f 103d
00000010: c638 febc 7fbb c43d 0888 2b3e 84f6 9f3d
00000020: a4fe 2dbe 7622 b33d f6f9 2cbe a8ba dc3c
00000030: 5952 adbb 17c0 a73e 677d cdbe 9c26 853e
00000040: 2a72 1ebe 1820 c13d 6c5c 58be b0a0 5c3e
00000050: 32ae 10be b1f3 173e f624 c8bd 4342 2dbe
00000060: ef89 f13d 7746 44be df27 303e 9953 a83d
00000070: 8c02 35bd 90db 62be a03e 713e 09de 8d3d
00000080: 995d 90bd 0196 f13c 1502 2d3d 1e27 523d
00000090: 5216 233e 96d5 093e b2be a0be f832 8d3d
000000a0: e406 8bbe 2275 b5bd 7990 473e 7983 233e
000000b0: 5777 993d d432 073e 03ae e4be 629d e1bc
000000c0: 6498 833e 9b04 e93c 0bad ca3e 82b1 91be
000000d0: e029 1ebe 638e b13d f65e 75bb 7c15 99be
000000e0: c5f6 d7be da57 1c3f 2326 72bd 97d3 1c3d
000000f0: 09c6 77be 460f 2d3f 0e52 78bc 5e1a 6abe
00000100: 5c15 afbc 2278 833e 2fe9 cd3a 862d f4be
00000110: bc4b 263e 6dd7 363d abc6 9cbd 03f3 0ebd
00000120: 2cc3 953d f536 ca3c 193b 5dbd edc1 32bf
00000130: 111c d4bf 9c52 afbf 994c 10be 16d2 5abf
00000140: 7341 7cbd e4d3 f63d 9c3c dd3e bbe4 f33d
00000150: 06c1 0e3d edad e43b 139b 9bbd fcad 88bc
00000160: 1ef2 8cbd 5884 6a3c 1326 663c fe2e 85bc
00000170: 87f3 673d fbb2 86bd 9fd9 84bd 3931 a63b
00000180: fa20 b43d c01e 5d3d 27a9 553d cf17 fd3c
00000190: 2950 54bb a97b d4bc 3dc6 e43d da3d 7dbd
000001a0: 079d f73c dd89 d7bd 9328 69be 9502 303d
000001b0: 31b0 c3bd f778 42bc 63ad dcbd 8611 da3d
000001c0: 6bad f13e 73d3 b1bd 67be 823c 8e8d 043e
000001d0: 58e1 55be 0d4b 73bc 735e 18be e390 f4bd
000001e0: 9c4d 32be be54 f2bd 545a 4ebe 3b9c 0fbe
000001f0: 6110 80be bc96 7ebc 3a77 f83c 5613 3d3e
00000200: 6039 3dbe 72b3 b03d de4b a33d 562c 523e
00000210: cf79 bebb c6ba 1d3e d1fb 9dbc df29 603e
00000220: 5e28 cb3d 5457 133f 7ed8 33bc 381c b8bd
00000230: d339 07be 979a a73d 8928 4bbd d486 4ebe
00000240: 17af 73be 6151 19be 6a2d e6bc e8db 813d
00000250: e50c 06be 4854 633a 458e b1bc 39e1 a0bc
00000260: b3f7 a83d 9abe b6bc 1dbf 6e3d 4d75 ad3d
00000270: 53a8 163f ffb5 833d 292d 38bd cd17 553c
00000280: c636 91bd d24b 803c 2a71 53bf bc28 213e
00000290: 9051 98bd 403e 51bd 88fd 4e3d 15ce 013e
000002a0: d44c 80bd 54a4 833c 2e7c 80bc 488e 423d
000002b0: 0f38 93bd 36d0 b13c 4318 cabc 06d4 57bb
000002c0: a450 b2bd 8992 003e 1c97 60bd 9476 f03a
000002d0: be56 b13c 75fe 99be 858b fc3d a1b8 823e
000002e0: 80ff ee3c e58b 703d 6a4d 6b3e fb98 53bf
000002f0: 092a 01be d301 893d db2f b8bc 82ef b93e
00000300: 4f8c 7f3e 0c9e 0abe 2146 bebd de44 8cbd
00000310: 234b cbbd 2068 043e 32a1 c83a 8ccf 4b3d
00000320: 278e 783e 48c5 12be eff4 46bd cfe6 87bc
00000330: 2f45 9fbd 7e9a 3e3b 827b d6bd d1d0 123e
00000340: 5073 89bc bbb9 e33c c057 0abe 4346 1c3e
00000350: 1ea2 91bd 3fc1 bd3d c547 0ebd 9a0a 06bf
00000360: b71f 5a3c 9bf6 e83e e45b 6abc b8a8 8fbb
00000370: c1e0 993e bc7f 933d 068e 97be fd79 e6bc
00000380: d919 08bd 1508 373e dcb8 d0bd d111 503d
00000390: 6018 2bbd 3ade 6ebd 9d91 8cbd 0a39 cdbd
000003a0: fcb9 e0bd b401 e53d 58e7 243d b72c 473d
000003b0: 8a73 8cbe 87b4 393f 7cbd e33d ebd8 33be
000003c0: 7d31 503d cff3 24be d72f f43c ca18 cbbd
000003d0: 58c4 dd3d 3c85 4c3d 1c36 813d e3d5 823d
000003e0: 1f4d 57bd 145a ea3d d331 11be 315d 903d
000003f0: dccf 073c 0878 653d f2ba 6dbc bfdd ab3e

bias f4 [56]
0.07433587 0.00047081884 -0.058773447 -0.007670862 -0.09907416 -0.055670977 0.08551438 -0.033413537
0.017773401 -0.06358007 -0.053896856 0.16101485 0.29113376 -0.16663557 -0.17079383 0.08281385
0.112071045 0.10003046 0.06881808 -0.018299848 -0.23532203 0.00034501188 -0.056489322 0.12195741
-0.09309914 0.009191833 -0.16075955 -0.021228325 -0.14478755 0.097884536 0.12064123 0.030755304
0.016407317 0.13672349 0.118902884 0.13132198 -0.12818895 0.18646604 0.1319164 0.004887449
-0.04908411 -0.26040444 -0.012403209 0.092064776 0.14330947 0.1250854 -0.097064756 0.3178996
0.010460902 -0.30440554 -0.09278867 -0.1890324 -0.30432874 0.122740276 0.07604228 -0.08835018
00000000: 683d 983d 3cd8 f639 6dbc 70bd db5b fbbb
00000010: 65e7 cabd 4007 64bd 2a22 af3d a2dc 08bd
00000020: 8699 913c 4536 82bd f3c2 5cbd 14e1 243e
00000030: 7c0f 953e 84a2 2abe 94e4 2ebe 4f9a a93d
00000040: 8185 e53d c5dc cc3d 7ef0 8c3d 90e9 95bc
00000050: 42f8 70be b6e2 b439 5961 67bd cec4 f93d
00000060: c3aa bebd 5899 163c 279e 24be 06e7 adbc
00000070: 3043 14be b077 c83d c012 f73d 8cf2 fb3c
00000080: a368 863c 3e01 0c3e 5b83 f33d 4579 063e
00000090: f743 03be f4f0 3e3e 1815 073e e526 a03b
000000a0: 6b0c 49bd bb53 85be d436 4bbc 758c bc3d
000000b0: b8bf 123e 6316 003e e3c9 c6bd bdc3 a23e
000000c0: 3464 2b3c 0bdb 9bbe fc07 bebd b691 41be
000000d0: fad0 9bbe 415f fb3d 0ebc 9b3d f0f0 b4bd

weight f4 [56]
0.5704631 -1.4151272 -0.6335018 -0.020654405 0.25656042 0.9863459 -0.1532849 -0.091908686
-1.119671 0.9486474 -0.025186423 0.04666963 0.9306943 -0.10837819 -0.013013875 1.0499548
0.43534946 -0.2559485 0.968484 0.79152966 0.8423477 -1.2170929 0.50662005 -1.8056431
0.4621413 -0.055788793 -0.008803051 0.036383905 -0.55707383 0.18633959 0.63851476 -0.7940619
-0.69538975 -0.030953135 -0.014624738 -0.4896178 -0.09848329 -0.0020576736 1.0434691 0.84656274
-0.000852 0.09455377 0.9275377 1.281367 0.20458364 -0.7135894 1.1128107 -1.3285459
-0.039361134 -0.015073078 1.1646048 1.1160862 0.0035741054 0.045686126 -0.23626816 -0.4091729
00000000: df09 123f e322 b5bf 2d2d 22bf 6d33 a9bc
00000010: e35b 833e 2a81 7c3f b8f6 1cbe 9f3a bcbd
00000020: 6151 8fbf 8eda 723f c253 cebc a728 3f3d
00000030: fb41 6e3f 62f5 ddbd 2638 55bc eb64 863f
00000040: 20e6 de3e af0b 83be 91ee 773f b0a1 4a3f
00000050: 19a4 573f b3c9 9bbf dab1 013f 501f e7bf
00000060: c99d ec3e ca82 64bd ac3a 10bc 4a07 153d
00000070: 649c 0ebf cecf 3e3e b475 233f a447 4bbf
00000080: 1005 32bf 6e91 fdbc 999c 6fbc 2faf fabe
00000090: 9bb1 c9bd 09da 06bb 6590 853f 56b8 583f
000000a0: c158 5fba 68a5 c13d 1c73 6d3f d503 a43f
000000b0: 607e 513e cbad 36bf 9570 8e3f cb0d aabf
000000c0: 2439 21bd 12f5 76bc c511 953f eadb 8e3f
000000d0: 8a3b 6a3b 6021 3b3d 48f0 71be 1c7f d1be

weight f4 [12, 56, 1, 1]
0.052874286 0.061652113 -0.041691866 -0.24477759 0.28688416 -0.2264884 0.11518141 -0.08145235
0.028076531 -0.24267025 -0.15361321 -0.054940104 0.09687878 0.0139582595 0.19290279 0.2635916
-0.024595048 0.2648402 -0.26632252 0.07051849 -0.13600278 -0.14018409 -0.102144435 0.04402219
0.046770714 0.005491459 0.10154268 0.37104753 -0.021444302 -0.21741344 0.06182139 0.054757
0.05399586 -0.07773571 0.41947773 -0.22345746 0.10991937 0.04335246 0.18855587 -0.090118475
0.05506088 0.08516663 0.33604667 0.01366605 -0.06373789 -0.117359444 0.110629514 0.10174822
0.00627655 -0.13772896 -0.078985035 -0.016347464 -0.23945326 0.05970893 -0.046948012 -0.26814196
0.019465206 -0.083611466 0.14669983 -0.094134554 -0.08046882 -0.08367746 -0.026202692 -0.48940247
-0.0062000235 -0.1876056 0.122650325 -0.075438365 0.070186175 -0.13616991 0.16747038 0.25990486
-0.13575582 0.10600547 -0.34658787 -0.08608805 0.1864134 -0.12099849 -0.30533424 0.07651133
0.0732994 0.24382593 0.14777738 0.16469027 -0.14139438 -0.14399612 0.039653532 0.063104235
0.13594855 -0.11696415 0.33567217 0.045226526 -0.12190623 0.16981159 0.13619813 -0.025129413
-0.03395701 0.16557124 0.19381972 0.11704993 -0.11207845 -0.05532651 0.27127388 0.09185777
0.16828719 0.014718085 -0.33362475 -0.023475338 0.1398903 -0.13850302 -0.15802649 0.21236542
-0.17551126 -0.07499331 0.025882002 -0.021982888 -0.44091204 -0.14958198 0.07068434 -0.18669173
-0.09795872 -0.3279443 -0.02788131 -0.03600184 -0.2174233 0.0886497 -0.008895235 0.65033185
-0.19770834 0.030588089 -0.32655963 0.13070105 0.13158874 -0.111442424 -0.06058898 0.0319894
0.12542118 -0.019973906 0.17822628 -0.2544077 0.063946955 -0.020314986 -0.022275431 -0.0064304145
-0.113228135 0.29523245 -0.60577685 0.016868565 -0.06935742 -0.37962058 0.29141954 -0.045032658
0.0032684274 -0.037531544 0.21959674 -0.020838303 -0.2528713 0.018758949 -0.07524997 0.18988824
0.0006025494 -0.3847783 -0.06589373 -0.046409637 0.11314884 -0.008114481 0.18836041 -0.12574185
-0.070433475 -0.048894897 -0.7846674 0.22776102 0.0147133265 0.011788792 -0.25030094 0.33613467
-0.3436499 -0.31412765 -0.6135868 -0.38939115 0.065858886 -0.03911341 0.31561646 -0.029205028
-0.4970831 0.3272982 -0.03420194 0.1334507 -0.11359068 0.21265276 -0.36047837 -0.14726351
0.037055213 -0.0667185 0.08401195 0.22732577 0.8378689 -0.10107782 -0.050573885 0.29362658
-0.08197996 0.44610885 0.039609957 -0.28039542 -0.9684065 -0.33193633 0.63330305 -0.15440387
0.08651682 -0.36544615 0.13589984 0.15026282 0.3079949 -0.33357257 -0.024216406 -0.31118253
0.3642601 -0.35065526 -0.100918375 0.1755358 0.009229665 0.086021766 0.44370982 -1.0600542
0.06395344 0.0045290473 -0.053983107 -0.24616654 -0.12474724 -0.29656145 0.2968282 -0.008410026
0.08937123 -0.3274268 0.15795943 -0.18894294 0.09033254 -0.18016826 -0.3549781 0.30110115
0.049932588 0.20542529 -0.20397492 0.011037408 0.03548952 -0.007227394 -0.028357076 -0.052386947
0.030409226 -0.19402365 -0.07030071 0.11495724 -0.06375559 -0.34859687 0.08906975 -0.0089841
00000000: b592 583d ed86 7c3d 17c5 2abd faa6 7abe
00000010: 7be2 923e 93ec 67be 3be4 eb3d 7dd0 a6bd
00000020: c100 e63c 8d7e 78be c84c 1dbe e008 61bd
00000030: 6268 c63d 2fb1 643c 4f88 453e 7af5 863e
00000040: 8e7b c9bc 2299 873e 6d5b 88be 006c 903d
00000050: 5044 0bbe 6b8c 0fbe 1a31 d1bd 9d50 343d
00000060: a692 3f3d b2f1 b33b 9cf5 cf3d f1f9 bd3e
00000070: f6ab afbc a1a1 5ebe 6d38 7d3d e048 603d
00000080: c32a 5d3d e633 9fbd c9c5 d63e 08d2 64be
00000090: 681d e13d 5992 313d ca14 413e 0990 b8bd
000000a0: 8487 613d d86b ae3d 4f0e ac3e 91e7 5f3c
000000b0: 0389 82bd 265a f0bd ba91 e23d 5f61 d03d
000000c0: 84ab cd3b d208 0dbe e8c2 a1bd 1eeb 85bc
000000d0: 3c33 75be 5a91 743d 8f4c 40bd e749 89be
000000e0: 7f75 9f3c 7d3c abbd 7b38 163e 9ec9 c0bd
000000f0: d6cc a4bd 175f abbd 07a7 d6bc f692 fabe
00000100: 9129 cbbb af1b 40be 1830 fb3d 6e7f 9abd
00000110: c5bd 8f3d 2070 0bbe 5b7d 2b3e 4012 853e
00000120: 9303 0bbe 6519 d93d f773 b1be ee4e b0bd
00000130: 28e3 3e3e 0ece f7bd c554 9cbe f9b1 9c3d
00000140: ff1d 963d 81ad 793e f452 173e 91a4 283e
00000150: b0c9 10be b873 13be be6b 223d cb3c 813d
00000160: 1936 0b3e e68a efbd 39dd ab3e 733f 393d
00000170: f9a9 f9bd 17e3 2d3e 8677 0b3e 33dc cdbc
00000180: 8116 0bbd 828b 293e ad78 463e e0b7 ef3d
00000190: 6389 e5bd 0d9e 62bd 69e4 8a3e ed1f bc3d
000001a0: 7a53 2c3e 1f24 713c ddd0 aabe 5a4f c0bc
000001b0: 673f 0f3e bcd3 0dbe b2d1 21be 5276 593e
000001c0: 39b9 33be 1896 99bd 7e06 d43c 7515 b4bc
000001d0: 39bf e1be 052c 19be f4c2 903d 1e2c 3fbe
000001e0: 959e c8bd 51e8 a7be 5867 e4bc aa76 13bd
000001f0: 37a4 5ebe f98d b53d 52bd 11bc 267c 263f
00000200: 0e74 4abe df93 fa3c d332 a7be 7fd6 053e
00000210: 33bf 063e ed3b e4bd 262c 78bd 5107 033d
00000220: 696e 003e 51a0 a3bc f380 363e ba41 82be
00000230: 9ff6 823d 9d6b a6bc f77a b6bc 3ab6 d2bb
00000240: 27e4 e7bd b528 973e 3114 1bbf f22f 8a3c
00000250: 430b 8ebd a15d c2be f134 953e 2a74 38bd
00000260: 1d33 563b adba 19bd f8dd 603e 17b5 aabc
00000270: 5978 81be 5eac 993c a81c 9abd 1072 423e
00000280: 68f4 1d3a a901 c5be 4bf3 86bd 0818 3ebd
00000290: 94ba e73d 9af2 04bc 8de1 403e 79c2 00be
000002a0: 6d3f 90bd 0446 48bd f6df 48bf 2f3a 693e
000002b0: 2a10 713c c725 413c 7227 80be d819 ac3e
000002c0: e1f2 afbe 57d5 a0be 0614 1dbf 475e c7be
000002d0: 06e1 863d 6235 20bd 7b98 a13e 623f efbc
000002e0: ad81 febe a193 a73e 5517 0cbd 4da7 083e
000002f0: 3ba2 e8bd a5c1 593e 9f90 b8be 3fcc 16be
00000300: 35c7 173d b5a3 88bd 750e ac3d 16c8 683e
00000310: 947e 563f e301 cfbd 9026 4fbd 3956 963e
00000320: 1ce5 a7bd 6168 e43e 0d3e 223d fd8f 8fbe
00000330: 7de9 77bf 8ff3 a9be 2620 223f 0c1c 1ebe
00000340: bb2f b13d c21b bbbe 5429 0b3e 7fde 193e
00000350: 82b1 9d3e 06ca aabe 7c61 c6bc 5153 9fbe
00000360: 4d80 ba3e 1689 b3be 4bae cebd a8bf 333e
00000370: 0538 173c 2e2c b03d ef2d e33e dbaf 87bf
00000380: 05fa 823d 6768 943b 641d 5dbd 1513 7cbe
00000390: 7b7b ffbd e7d6 97be def9 973e 35ca 09bc
000003a0: 4308 b73d 7ca4 a7be 1ec0 213e 427a 41be
000003b0: 4400 b93d 077e 38be b1bf b5be ee29 9a3e
000003c0: 1d86 4c3d 025b 523e cdde 50be 3fd6 343c
000003d0: 755d 113d c6d3 ecbb 194d e8bc b293 56bd
000003e0: c51c f93c 23ae 46be d2f9 8fbd b46e eb3d
000003f0: 4a92 82bd 4a7b b2be 336a b63d 0c32 13bc

bias f4 [12]
0.037491318 -0.025305346 -0.2706115 -0.060700625 -0.04679394 -0.15968724 -0.07389336 -0.044572808
-0.005151439 -0.018361947 -0.17262228 -0.029002609
00000000: 7f90 193d 284d cfbc 978d 8abe 38a1 78bd
00000010: 01ab 3fbd 0d85 23be 6755 97bd fa91 36bd
00000020: 67cd a8bb cb6b 96bc e5c3 30be e196 edbc

weight f4 [12]
0.8230241 -0.32205418 0.29611096 0.03640784 0.0619338 0.9786632 1.0187458 0.36623484
0.31004938 0.4209499 1.048367 1.0367742
00000000: b5b1 523f 49e4 a4be db9b 973e 6320 153d
00000010: 4cae 7d3d ac89 7a3f 4366 823f 2283 bb3e
00000020: cbbe 9e3e bf86 d73e e430 863f 04b5 843f

weight f4 [12, 12, 3, 3]
-0.18420357 -0.0051711123 0.060967427 -0.035419535 0.09517217 -0.011355868 -0.17033069 0.28282744
-0.013093019 0.10084893 -0.03256428 0.16546863 0.21449904 0.0009515352 -0.05553252 0.017467255
-0.94148535 -0.021503715 -0.40605128 -0.12545273 -0.24846071 -0.3289632 -0.15640615 -0.049757633
-0.15384066 -0.55715877 0.3343034 -0.07802559 -0.15708546 0.20500365 -0.024222422 -0.2979211
-0.7217069 0.04636469 -0.065263785 0.27689442 -0.11074129 -0.77460474 -0.1644129 -0.6030451
0.67524546 -0.27112174 -0.038647283 0.5209364 -0.1378899 0.022405295 -0.044543035 0.045328952
0.094559886 -0.16655225 -0.35443762 0.057737987 0.16405128 -0.3098903 -0.24335471 -0.0083126575
0.038030528 0.023051258 0.11240107 0.29710153 0.07054028 -0.06731914 0.13183427 0.0016386355
-0.0847526 -0.10604478 0.11325313 0.47025415 0.16979095 -0.07182935 0.119386956 0.013205162
0.36360863 -0.28351155 -0.110506885 0.27845258 -0.4642757 0.2854244 0.20524067 0.14386173
-0.052487873 -0.07645961 0.32083663 -0.18344803 0.15717863 -0.3351577 -0.51561856 0.12827206
-0.04411333 0.02427128 0.025594523 0.06319029 0.08707451 -0.020371571 -0.019483196 -0.06481763
0.24256086 -0.25261194 0.115538426 -0.09395346 0.17924039 0.04551273 0.09322105 -0.56859785
0.038594082 -0.040888492 0.009915431 -0.006383997 -0.1897254 0.31922066 0.37086868 -0.0101870885
-0.41543347 -0.108539596 -0.043059405 0.15430345 0.08930835 -0.24547431 -0.3487032 0.13791883
0.123655036 0.0038538077 -0.14018694 0.21964987 -0.0018018679 -0.06233738 -0.43796322 -0.0973504
-0.037828162 -0.020973584 0.13954403 -0.14323615 0.0062637473 -0.033026274 -0.14354257 -0.10890501
-0.3061535 -0.43340927 -0.24125783 -0.042195994 -0.28832182 -0.077633984 0.061016724 -0.16672857
-0.07287018 0.7497026 0.010551988 0.2835342 -0.3971571 0.029573085 -0.055839792 0.20986849
0.073851414 0.048891257 -0.0057478035 0.22960986 -0.18684113 0.16442661 -0.08337075 0.030119255
-0.025783414 -0.053081498 -0.111810975 -0.05042751 0.087114125 -0.09543508 0.0030800705 -0.12359805
0.046665914 0.09993945 -0.05291929 0.052628186 0.43765047 0.01459645 -0.18624835 -0.08084841
-0.035768546 0.026163513 -0.1571644 -0.008959666 0.3678765 -0.18768863 -0.06671797 0.0854639
0.3914478 0.28084013 0.21033888 -0.0015994363 0.17736074 0.28127903 0.4598543 -0.18038073
-0.14544584 0.01594538 -0.056016676 -0.053509187 0.123402506 -0.046345714 0.041072227 -0.10840768
-0.107398614 0.07452759 0.058949195 0.30267185 0.038454976 -0.007971692 0.024358198 0.22407211
-0.19144231 -0.043862425 -0.14213753 0.19782162 -0.2388203 -0.0083114235 -0.042960413 -0.017168954
0.07259683 -0.070718445 -0.020289393 -0.11639749 0.09257806 0.21154828 -0.1296399 0.21720749
0.12835674 0.016323447 0.11209951 0.021451848 -0.18534903 -0.019384036 0.049765233 -0.07692325
0.32018837 -0.042973075 -0.12162614 0.013822857 -0.16484733 0.04190226 0.107379 -0.095487036
-0.14373696 -0.15883759 -0.007934928 0.18212768 0.062476937 0.021819191 0.12996665 0.25325516
0.12262171 0.09910676 -0.092202954 0.086696796 0.27008024 0.002559514 0.18557778 -0.15357189
00000000: dc9f 3cbe 6f72 a9bb fbb8 793d 1314 11bd
00000010: a0e9 c23d f60d 3abc 2b6b 2ebe c2ce 903e
00000020: 1a84 56bc e289 ce3d 1f62 05bd 9c70 293e
00000030: a3a5 5b3e 7270 793a 1176 63bd 7d17 8f3c
00000040: 2f05 71bf 8f28 b0bc f4e5 cfbe ae76 00be
00000050: 7c6c 7ebe dd6d a8be ef28 20be a9ce 4bbd
00000060: 6888 1dbe f5a1 0ebf d129 ab3e e1cb 9fbd
00000070: 03db 20be 7aec 513e 1a6e c6bc 1d89 98be
00000080: c9c1 38bf e7e8 3d3d 05a9 85bd 1bc5 8d3e
00000090: 54cc e2bd 7f4c 46bf db5b 28be 2a61 1abf
000000a0: e3dc 2c3f 78d0 8abe 9d4c 1ebd 175c 053f
000000b0: 0333 0dbe 4f8b b73c c272 36bd daaa 393d
000000c0: 9da8 c13d ac8c 2abe d978 b5be ab7e 6c3d
000000d0: 0ffd 273e f1a9 9ebe fa31 79be d031 08bc
000000e0: e6c5 1b3d fed5 bc3c 8832 e63d b11d 983e
000000f0: 6c77 903d 9ede 89bd 90ff 063e 7cc7 d63a
00000100: c592 adbd 012e d9bd 42f1 e73d 27c5 f03e
00000110: aedd 2d3e 441b 93bd 2681 f43d 775a 583c
00000120: e92a ba3e 6d28 91be 6f51 e2bd 5691 8e3e
00000130: 8bb5 edbe 2623 923e 9c2a 523e 7d50 133e
00000140: 86fd 56bd db96 9cbd b344 a43e cdd9 3bbe
00000150: 6ff3 203e ca99 abbe 94ff 03bf c059 033e
00000160: 2eb0 34bd 90d4 c63c 9bab d13c e969 813d
00000170: 1f54 b23d 48e2 a6bc 399b 9fbc 1bbf 84bd
00000180: e061 783e 5a56 81be 699f ec3d ac6a c0bd
00000190: cb8a 373e 8e6b 3a3d aeea be3d a18f 11bf
000001a0: d414 1e3d b17a 27bd 5574 223c d930 d1bb
000001b0: 6047 42be e470 a33e 80e2 bd3e bfe7 26bc
000001c0: b2b3 d4be 024a debd 0f5f 30bd b901 1e3e
000001d0: 4ce7 b63d 9e5d 7bbe 3a89 b2be 983a 0d3e
000001e0: da3e fd3d 2a90 7c3b 2a8d 0fbe e5eb 603e
000001f0: a72c ecba 7b55 7fbd b73c e0be a65f c7bd
00000200: b4f1 1abd cbd0 abbc a1e4 0e3e 7fac 12be
00000210: 1f40 cd3b 8f46 07bd d3fc 12be 9709 dfbd
00000220: 27c0 9cbe d2e7 ddbe 4b0c 77be b5d5 2cbd
00000230: eb9e 93be 91fe 9ebd acec 793d e5ba 2abe
00000240: f63c 95bd 82ec 3f3f 3fe2 2c3c 652b 913e
00000250: 2d58 cbbe 4143 f23c 44b8 64bd c4e7 563e
00000260: 693f 973d 3342 483d 1258 bcbb d91e 6b3e
00000270: 4853 3fbe 735f 283e 49be aabd a8bc f63c
00000280: bd37 d3bc fc6b 59bd 27fd e4bd 148d 4ebd
00000290: e468 b23d 7873 c3bd 02db 493b f920 fdbd
000002a0: c224 3f3d 0ead cc3d e6c1 58bd a790 573d
000002b0: b913 e03e f325 6f3c e3b7 3ebe da93 a5bd
000002c0: 0a82 12bd dd54 d63c b4ef 20be 90cb 12bc
000002d0: 4f5a bc3e 7331 40be 6ea3 88bd b207 af3d
000002e0: d96b c83e 47ca 8f3e 1363 573e 2da4 d1ba
000002f0: 0e9e 353e ce03 903e 0672 eb3e bab5 38be
00000300: c1ef 14be e39f 823c be71 65bd 732c 5bbd
00000310: 74ba fc3d 01d5 3dbd 5a3b 283d d904 debd
00000320: cef3 dbbd eca1 983d b674 713d cef7 9a3e
00000330: f782 1d3d b39b 02bc d88a c73c 2973 653e
00000340: 7409 44be 16a9 33bd 808c 11be c091 4a3e
00000350: 4f8d 74be a32c 08bc 42f7 2fbd e8a5 8cbc
00000360: a6ad 943d d5d4 90bd f135 a6bc cf61 eebd
00000370: 9199 bd3d 1da0 583e 52c0 04be a46b 5e3e
00000380: f36f 033e c0b8 853c 6e94 e53d c9bb af3c
00000390: 23cc 3dbe 45cb 9ebc a1d6 4b3d f089 9dbd
000003a0: bbef a33e 8904 30bd 2017 f9bd 4479 623c
000003b0: bdcd 28be b4a1 2b3d 85e9 db3d b58e c3bd
000003c0: c82f 13be 52a6 22be 8001 02bc ae7f 3a3e
000003d0: d1e7 7f3d 29be b23c fa15 053e a9aa 813e
000003e0: 1721 fb3d 7cf8 ca3d e7d4 bcbd 178e b13d
000003f0: f547 8a3e 85bd 273b 1a08 3e3e f341 1dbe

bias f4 [12]
-0.08017718 0.074480675 0.012658732 0.05282927 0.0696441 0.06414437 -0.07077289 0.012226111
-0.033162553 0.07581174 -0.05845708 -0.016541248
00000000: ef33 a4bd 5389 983d 9266 4f3c 8163 583d
00000010: 91a1 8e3d 205e 833d 60f1 90bd 0750 483c
00000020: 75d5 07bd 2f43 9b3d b170 6fbd 8381 87bc

weight f4 [12]
-0.020821787 -0.7704554 2.170132 0.41826215 0.9987005 0.8885558 -0.047603227 -0.40520367
-0.018262295 0.9848152 0.29057577 0.994511
00000000: 7492 aabc 913c 45bf 71e3 0a40 7526 d63e
00000010: d6aa 7f3f 6578 633f 9afb 42bd db76 cfbe
00000020: cf9a 95bc d91c 7c3f 59c6 943e 4698 7e3f

weight f4 [12, 12, 3, 3]
-0.034868173 0.035983674 0.02357934 -0.06091974 0.24051878 -0.12376594 0.012464326 0.1121691
-0.052934904 0.024373317 -0.030928822 -0.00050117675 -0.0032560169 -0.01832186 0.033719197 -0.043315712
0.01408833 -0.044101134 -0.03246077 -0.0017125731 0.04687897 0.03725598 -0.04255735 0.09277962
-0.038714405 -0.025247753 0.040980145 0.06992972 0.034176517 -0.07068169 0.06728285 -0.07430677
0.26170224 -0.029717876 0.023842096 0.019487342 -0.024825893 -0.027228957 0.026042864 -0.14321287
0.4411946 0.06757647 0.016548933 -0.09239426 -0.0105927 0.02145518 0.04811967 0.01142925
0.112816595 0.2264901 0.01864523 -0.030469336 -0.08820244 0.12616569 0.08322498 -0.20058802
0.022953028 0.0867181 -0.29687756 0.08398333 0.040231355 -0.11579735 0.05786112 -0.06442839
0.09263678 -0.055614833 0.0016404208 -0.038417466 0.06144073 0.0021686314 -0.10778011 0.013562471
0.002648816 0.035230268 0.041356646 0.101914436 0.07537431 0.046386104 -0.021118937 0.07807115
-0.06269885 -0.04869585 -0.0013908386 0.09003319 0.14840013 -0.3505986 0.054906823 -0.025010383
-0.020585395 0.057325233 0.029835315 0.013520649 -0.041994605 -0.12691145 -0.11258382 0.056929234
0.012278884 -0.044742197 0.023080064 0.03990345 0.032490302 0.025757505 -0.00092835934 0.21526304
0.036214944 0.0003050046 0.06924174 0.037390962 -0.056315746 -0.025147934 0.1632408 0.0455753
-0.016553005 -0.09897477 0.1447531 0.13689002 -0.047691476 0.11915422 -0.07117332 -0.0514855
-0.020008536 0.02929814 0.019730901 -0.04314684 -0.16733134 0.0077660107 0.090409346 -0.033216354
-0.0073036263 -0.101552956 0.26232794 -0.02897908 -0.07707522 -0.20153166 0.23171973 -0.018995263
0.3250086 0.1413827 0.111413494 0.22588956 -0.13757962 0.003992273 -0.025354499 -0.041681923
-0.044678427 -0.016009409 0.023516914 0.08161606 -0.19909441 -0.20724472 0.06401858 -0.23107421
-0.06316172 0.03448449 -0.06554581 -0.005553693 -0.08614923 -0.21694143 -0.07432467 -0.15988174
0.013242245 -0.06728997 0.22876672 -0.33428922 -0.17901154 -0.054429915 -0.076676525 0.18019131
-0.19811384 0.12983413 -0.03837869 0.045049716 -0.36983076 0.021693151 0.10733251 0.057373796
-0.024339454 0.05226594 -0.2334283 -0.08319064 0.09946422 -0.02310516 -0.056814857 0.097068585
-0.2043992 -0.12961677 -0.3526685 -0.16523905 0.031621214 -0.022822231 0.106536046 -0.102451354
0.0051263333 -0.17006609 -0.2002448 -0.046417687 -0.18196999 -0.0006124071 0.0700825 -0.028432047
0.21652165 -0.12106358 0.11786347 -0.026309114 -0.027892105 0.01855638 0.018884636 0.06328896
-0.12496662 -0.014584747 -0.005076492 -0.24742666 -0.20343475 -0.018904101 -0.08924008 0.060689475
-0.05646958 0.013549463 0.049021784 -0.0053557036 0.14024886 -0.0768702 -0.029857326 -0.032582864
-0.043595776 -0.013770579 -0.0279108 0.0714346 -0.016786579 0.07935723 -0.011978501 -0.019293742
-0.06178197 -0.022722919 0.006276354 -0.043941874 0.024765436 -0.049565606 -0.016615804 0.0030154537
0.013964012 -0.031456318 0.022703188 -0.028371295 -0.3156858 0.119278125 0.16740935 0.2059697
-0.17874844 -0.014895317 -0.108081825 0.048869655 0.010858882 0.15749003 -0.023761278 -0.06245389
00000000: eed1 0ebd 9e63 133d 7629 c13c fa86 79bd
00000010: 8e4a 763e ff78 fdbd 2c37 4c3c eab8 e53d
00000020: 45d2 58bd 8daa c73c 715e fdbc 6761 03ba
00000030: e662 55bb ba17 96bc 241d 0a3d d16b 31bd
00000040: bdd2 663c 64a3 34bd 96f5 04bd 6b78 e0ba
00000050: 2a04 403d ba99 183d 9e50 2ebd 3e03 be3d
00000060: ff92 1ebd 60d4 cebc ccda 273d 5037 8f3d
00000070: adfc 0b3d 90c1 90bd 97cb 893d 262e 98bd
00000080: d6fd 853e e772 f3bc 8050 c33c eba3 9f3c
00000090: ac5f cbbc 430f dfbc d857 d53c 65a6 12be
000000a0: 42e4 e13e 8865 8a3d a191 873c 3439 bdbd
000000b0: 018d 2dbc c6c2 af3c 2219 453d c041 3b3c
000000c0: 630c e73d 05ed 673e e2bd 983c d49a f9bc
000000d0: 7ba3 b4bd 9431 013e dc71 aa3d f266 4dbe
000000e0: fd07 bc3c 4299 b13d 5600 98be 74ff ab3d
000000f0: a2c9 243d 2927 edbd c8ff 6c3d 08f3 83bd
00000100: 5ab8 bd3d 61cc 63bd 6303 d73a a25b 1dbd
00000110: 46a9 7b3d 991f 0e3b d1bb dcbd 2035 5e3c
00000120: c297 2d3b 9d4d 103d 9665 293d 84b8 d03d
00000130: d95d 9a3d 5bff 3d3d 9f01 adbc c4e3 9f3d
00000140: 4168 80bd 4d75 47bd cd4c b6ba 5263 b83d
00000150: 34f6 173e a981 b3be fae5 603d 93e2 ccbc
00000160: b4a2 a8bc ddcd 6a3d 3169 f43c b685 5d3c
00000170: 8902 2cbd 13f5 01be 5992 e6bd a12e 693d
00000180: 5f2d 493c 9843 37bd 6712 bd3c cd71 233d
00000190: 8d14 053d 6701 d33c 245d 73ba ea6d 5c3e
000001a0: 1f56 143d 06e9 9f39 9dce 8d3d 4427 193d
000001b0: 57ab 66bd 0a03 cebc 9928 273e 2aad 3a3d
000001c0: 2b9a 87bc 49b3 cabd 283a 143e e62c 0c3e
000001d0: 2358 43bd 2107 f43d 51c3 91bd 76e2 52bd
000001e0: f1e8 a3bc a702 f03c b3a2 a13c beba 30bd
000001f0: e858 2bbe 057a fe3b 8928 b93d df0d 08bd
00000200: 4253 efbb fffa cfbd d94f 863e 8965 edbc
00000210: 9dd9 9dbd 515e 4ebe f047 6d3e f49b 9bbc
00000220: 8767 a63e a0c6 103e c22c e43d 984f 673e
00000230: ace1 0cbe 9dd1 823b 3db4 cfbc aaba 2abd
00000240: ba00 37bd 2a26 83bc 8ba6 c03c 5226 a73d
00000250: 68df 4bbe f637 54be 2c1c 833d b89e 6cbe
00000260: ef5a 81bd 9c3f 0d3d e23c 86bd c1fb b5bb
00000270: 026f b0bd e525 5ebe 8837 98bd 0ab8 23be
00000280: 00f6 583c 53cf 89bd d341 6a3e f527 abbe
00000290: cd4e 37be e7f1 5ebd 9508 9dbd 1284 383e
000002a0: 5bde 4abe 3df3 043e f932 1dbd 0d86 383d
000002b0: 755a bdbe d6b5 b13c 26d1 db3d c900 6b3d
000002c0: 8963 c7bc cf14 563d d407 6fbe db5f aabd
000002d0: e6b3 cb3d 0847 bdbc b2b6 68bd e5cb c63d
000002e0: 064e 51be 42ba 04be f790 b4be 6d34 29be
000002f0: 3f85 013d b0f5 babc 922f da3d 04d2 d1bd
00000300: cdfa a73b ce25 2ebe f90c 4dbe 7920 3ebd
00000310: 5756 3abe f289 20ba 6a87 8f3d 53ea e8bc
00000320: dab7 5d3e 2ff0 f7bd 6762 f13d 3686 d7bc
00000330: fc7d e4bc 8d03 983c f4b3 9a3c a49d 813d
00000340: 80ee ffbd ddf4 6ebc b458 a6bb 6a5d 7dbe
00000350: 3351 50be c6dc 9abc 81c3 b6bd 8795 783d
00000360: a54c 67bd 91fe 5d3c 11cb 483d e67e afbb
00000370: 669d 0f3e 206e 9dbd 5a97 f4bc 9c75 05bd
00000380: 7c91 32bd ff9d 61bc 31a5 e4bc 4e4c 923d
00000390: 0284 89bc 0b86 a23d 7a41 44bc e90d 9ebc
000003a0: 170f 7dbd 6a25 babc e0a9 cd3b 65fc 33bd
000003b0: e2e0 ca3c 4e05 4bbd de1d 88bc eb9e 453b
000003c0: 50c9 643c 57d8 00bd 09fc b93c eb6a e8bc
000003d0: 92a1 a1be 1748 f43d 5b6d 2b3e b9e9 523e
000003e0: d509 37be 7d0b 74bc 015a ddbd 8c2b 483d
000003f0: 74e9 313c 1145 213e 03a7 c2bc a6cf 7fbd

bias f4 [12]
0.15475127 -0.2953046 0.10980629 -0.38976833 -0.106485225 -0.018832304 0.12703547 -0.10744442
-0.025431579 0.087853044 -0.02224374 -0.02713624
00000000: 1e77 1e3e 2a32 97be 1fe2 e03d b78f c7be
00000010: ed14 dabd 3446 9abc 9615 023e d20b dcbd
00000020: e355 d0bc 4cec b33d 8138 b6bc d24c debc

weight f4 [12]
0.42085305 0.2992278 1.0973711 0.5311651 0.91883814 0.8055683 0.6180405 0.29503784
0.22963369 0.18169057 0.0077543044 2.4627383
00000000: 0d7a d73e 6334 993e a876 8c3f 70fa 073f
00000010: fa38 6b3f b939 4e3f e737 1e3f 330f 973e
00000020: 1825 6b3e 180d 3a3e d217 fe3b 819d 1d40

weight f4 [56, 12, 1, 1]
0.2588412 -0.011017408 0.26216847 -0.56222165 -0.09159781 0.034611475 0.047494285 -0.063059896
0.06728296 0.104146816 -0.23666248 0.053848118 0.31708 0.010275423 0.08170706 -0.24518876
-0.0521489 0.12832327 -0.027474098 -0.22474204 0.055891138 0.08459588 0.06649359 -0.027129214
0.16030599 0.051367573 0.23620972 0.145036 -0.037100375 0.015654635 0.20707022 -0.24629119
-0.08154612 -0.09624926 0.15667686 -0.10096928 0.056366794 -0.05232208 0.2095844 -0.33120307
-0.08932245 -0.035474017 0.016136274 0.051412802 -0.05065684 0.007969837 -0.07244159 -0.0039317007
0.06477034 -0.106927566 0.022090025 -0.21364315 0.073938064 -0.10055719 0.21428247 0.14381057
-0.1606369 -0.010767992 0.1360234 -0.03285915 -0.2827718 0.1915077 -0.05343659 0.40728384
0.026840648 0.07362093 -0.25188425 0.25036684 -0.13876882 -0.26111042 0.08832214 -0.12514299
0.03440965 0.6092682 0.003871344 -0.045859367 0.15329123 -0.04504158 0.12582149 0.419871
-0.25892803 -0.16563003 0.21531244 -0.38228706 -0.26810372 0.14481507 0.21459876 -0.044547588
0.15379977 -0.015881363 -0.2086946 -0.5448517 0.04181784 -0.20678917 -0.42432305 0.09147359
-0.0053993897 0.32079104 -0.111185536 0.586638 -0.058950942 -0.23679832 0.23971686 0.54670274
-0.11638903 -0.06566876 -0.44665414 0.2054563 -0.37530118 0.045001686 -0.3870544 0.2287631
-0.031374626 0.008864245 -0.09462579 0.21469519 0.09124442 -0.060886294 0.08468341 0.09455835
-0.021521552 0.024724156 0.17121845 0.35503316 0.14469291 -0.057885088 -0.041789107 0.18140629
-0.084711894 0.22210959 -0.10546022 0.039311312 -0.07266876 0.28134644 -0.07984734 -0.024783414
0.08275959 -0.032045968 0.088889666 0.03350037 0.021404602 0.07222665 -0.4836169 -0.009649656
-0.14555784 0.03008085 -0.03949481 0.20472243 0.14508316 0.042557072 0.20976317 -0.12432584
-0.3265215 0.17135003 0.24681392 0.023531565 0.13873936 0.15081674 0.19247326 -0.28532302
0.0031430267 0.089935966 -0.0058153733 0.29712778 0.13649558 -0.0051815677 -0.01028363 -0.050983142
-0.07550113 0.30340037 0.07999987 0.0056089014 -0.014822605 -0.03833796 -0.15182237 0.016779538
-0.4036555 -0.2164786 0.06775114 0.017669916 -0.0048142066 0.15718122 -0.21436304 -0.012310323
-0.13002592 0.25508034 0.04529301 0.21960558 0.06956661 0.56144786 0.031719297 -0.06160344
0.17449386 -0.27039158 0.22843961 -0.15022661 -0.25840673 -0.038492437 0.42960948 -0.02678111
-0.038336802 0.1290312 0.09203723 0.103464805 -0.07906908 0.11572681 -0.34873876 0.06661473
-0.060764868 0.09936633 0.051525462 0.021341663 0.047776334 0.10205102 0.30073294 -0.019688621
0.23717882 -0.07781567 0.036374353 -0.10046972 0.06761561 0.19961484 -0.14117074 0.2742791
0.062242776 0.19467033 -0.02834281 -0.17308998 -0.13487121 0.17165823 0.19841157 0.73934364
-0.11850674 0.090334676 -0.5633247 -0.44125783 0.084213436 -0.08408882 -0.29630497 0.07888094
-0.015079653 0.0867655 0.26661575 0.020205095 0.09208655 0.038299553 0.07823366 -0.2548347
-0.07747754 0.13207594 -0.08572166 -0.011146128 -0.078091666 0.14567874 0.0023368467 -0.0005496646
00000000: d586 843e 5c82 34bc f23a 863e c2ed 0fbf
00000010: a297 bbbd c3c4 0d3d 5e89 423d 8c25 81bd
00000020: a6cb 893d ed4a d53d a657 72be d88f 5c3d
00000030: 4f58 a23e 3f5a 283c 0856 a73d c312 7bbe
00000040: 169a 55bd 2d67 033e 5c11 e1bc c722 66be
00000050: 1bee 643d 9b40 ad3d cb2d 883d 163e debc
00000060: 4127 243e ce66 523d f6e0 713e 5184 143e
00000070: 90f6 17bd 263e 803c 370a 543e c233 7cbe
00000080: a701 a7bd 551e c5bd e66f 203e fbc8 cebd
00000090: dee0 663d ad4f 56bd 4b9d 563e 7393 a9be
000000a0: b0ee b6bd 344d 11bd 3830 843c 3b96 523d
000000b0: 8c7d 4fbd eb93 023c 425c 94bd 7fd5 80bb
000000c0: 50a6 843d d7fc dabd 24f6 b43c 45c5 5abe
000000d0: d76c 973d eef0 cdbd dd6c 5b3e 1443 133e
000000e0: 007e 24be 3b6c 30bc b849 0b3e 5197 06bd
000000f0: 77c7 90be 981a 443e 53e0 5abd 8287 d03e
00000100: ebe0 db3c 92c6 963d f9f6 80be 1530 803e
00000110: 6a19 0ebe 44b0 85be 3de2 b43d 7c25 00be
00000120: 22f1 0c3d 00f9 1b3f 60b6 7d3b 08d7 3bbd
00000130: 60f8 1c3e 857d 38bd 59d7 003e 55f9 d63e
00000140: 3792 84be eb9a 29be dd7a 5c3e 21bb c3be
00000150: e444 89be 674a 143e c7bf 5b3e 8877 36bd
00000160: b07d 1d3e a219 82bc 0ab4 55be 677b 0bbf
00000170: 2f49 2b3d 8ac0 53be df40 d9be 8156 bb3d
00000180: 5ded b0bb b93e a43e 3eb5 e3bd e82d 163f
00000190: 8b76 71bd 427b 72be 5678 753e b6f4 0b3f
000001a0: 5f5d eebd 587d 86bd daaf e4be 2363 523e
000001b0: 7a27 c0be b053 383d ff2b c6be e040 6a3e
000001c0: ae82 00bd 573b 113c 2bcb c1bd 0ed9 5b3e
000001d0: 5bde ba3d e863 79bd 7f6e ad3d cfa7 c13d
000001e0: f74d b0bc 508a ca3c e453 2f3e e8c6 b53e
000001f0: 612a 143e ea18 6dbd 0e2b 2bbd 92c2 393e
00000200: 6e7d adbd b270 633e 87fb d7bd e604 213d
00000210: 5cd3 94bd a40c 903e 0187 a3bd 9606 cbbc
00000220: dc7d a93d a242 03bd c90b b63d af37 093d
00000230: b458 af3c 91eb 933d a29c f7be 9719 1ebc
00000240: 1d0d 15be 1d6c f63c 4fc5 21bd c2a2 513e
00000250: ae90 143e 5350 2e3d 28cc 563e 8c9e febd
00000260: d32d a7be 6276 2f3e cabc 7c3e 45c5 c03c
00000270: b111 0e3e b46f 1a3e b617 453e dc15 92be
00000280: 3dfb 4d3b 5930 b83d e38e bebb 2221 983e
00000290: 7fc5 0b3e 24ca a9bb ac7c 28bc b3d3 50bd
000002a0: 56a0 9abd 4b57 9b3e f9d6 a33d e0ca b73b
000002b0: 83da 72bc 4408 1dbd 5377 1bbe 3e75 893c
000002c0: efab cebe 91ac 5dbe 1cc1 8a3d 80c0 903c
000002d0: 7ec0 9dbb 1df4 203e fc81 5bbe 3db1 49bc
000002e0: 8425 05be e499 823e 2a85 393d 49e0 603e
000002f0: f078 8e3d 0cbb 0f3f 18ec 013d e453 7cbd
00000300: 85ae 323e c470 8abe 13ec 693e 01d5 19be
00000310: e34d 84be 3faa 1dbd c6f5 db3e 0f64 dbbc
00000320: 0d07 1dbd c120 043e 047e bc3d 5be5 d33d
00000330: f8ee a1bd 2e02 ed3d e38d b2be 4e6d 883d
00000340: 95e4 78bd 9380 cb3d 5d0c 533d b6d4 ae3c
00000350: 1eb1 433d 2000 d13d abf9 993e 084a a1bc
00000360: 01df 723e d25d 9fbd 46fd 143d 12c3 cdbd
00000370: 0e7a 8a3d d567 4c3e 108f 10be 4f6e 8c3e
00000380: 48f2 7e3d a957 473e 2e2f e8bc 803e 31be
00000390: ae1b 0abe 2dc7 2f3e 672c 4b3e a045 3d3f
000003a0: a9b3 f2bd 6301 b93d 0c36 10bf 8cec e1be
000003b0: 1878 ac3d c236 acbd 49b5 97be 558c a13d
000003c0: a610 77bc 1cb2 b13d dc81 883e 2885 a53c
000003d0: e097 bc3d fedf 1c3d f838 a03d b279 82be
000003e0: 8bac 9ebd ea3e 073e d68e afbd 409e 36bc
000003f0: 86ee 9fbd cf2c 153e c825 193b 5e17 10ba

bias f4 [56]
0.08403736 0.141602 0.16975516 0.006585736 0.2008625 -0.38053277 0.012068741 -0.2395887
-0.0720302 -0.41597623 0.12882563 0.015185276 0.018156942 0.030115647 -0.3148483 -0.03478847
0.22338612 -0.18333448 0.044820797 0.079435065 0.16177073 0.10135336 -0.035774417 0.10476294
-0.035439 0.04076038 0.11646712 0.05799009 0.07213373 -0.18920347 0.08782084 -0.3139145
-0.32010785 0.06353963 0.13874333 0.111020565 0.16460556 0.14598058 0.16543962 0.11755565
-0.027127916 -0.03379959 0.027052062 -0.11915345 -0.005047465 -0.054312516 0.034276888 -0.13908824
0.1137319 -0.12857845 -0.03131979 -0.029176302 -0.26681513 0.041606914 0.02713784 -0.10669254
00000000: c81b ac3d 1d00 113e 4cd4 2d3e 28cd d73b
00000010: e6ae 4d3e 31d5 c2be f8bb 453c bd56 75be
00000020: 9284 93bd d6fa d4be deea 033e aacb 783c
00000030: debd 943c 17b5 f63c cc33 a1be 5b7e 0ebd
00000040: 55bf 643e 09bc 3bbe 0396 373d daae a23d
00000050: 3aa7 253e 5a92 cf3d 3288 12bd f48d d63d
00000060: 7c28 11bd 5bf4 263d 5086 ee3d 0487 6d3d
00000070: d9ba 933d 8ebe 41be 6adb b33d 67b9 a0be
00000080: 2de5 a3be 1121 823d bb12 0e3e c05e e33d
00000090: 5c8e 283e ef7b 153e 0169 293e 04c1 f03d
000000a0: 5d3b debc 7071 0abd 499c dd3c b906 f4bd
000000b0: 3565 a5bb cd76 5ebd ec65 0c3d 266d 0ebe
000000c0: 45ec e83d 12aa 03be 2e49 00bd 2403 efbc
000000d0: fe9b 88be 036c 2a3d 2d50 de3c 9e81 dabd

weight f4 [56]
0.8058565 0.59164125 0.71659845 0.78497106 0.35592598 0.38271478 0.55673826 0.26504523
-0.007105871 0.48100182 1.0457578 0.3840327 0.9797456 0.88274664 0.27443355 0.1208539
0.9159031 0.31220374 0.91629946 -0.016214916 2.4624052 1.0863652 -0.0037780583 1.192134
0.683841 0.8277443 1.322385 1.2012 0.8863472 0.4285677 0.84005004 0.26574758
0.33910224 1.0304841 0.7232029 1.2687963 0.962148 0.2391181 1.7516471 0.97378236
0.10631712 0.99019104 0.85990566 0.8384241 0.4032534 0.13500522 1.1110425 0.30723628
1.0093895 0.08433139 0.723021 -0.021921324 0.30872267 0.9158654 -0.7425722 0.92421675
00000000: 9d4c 4e3f cd75 173f ff72 373f ddf3 483f
00000010: ee3b b63e 31f3 c33e 6686 0e3f 02b4 873e
00000020: 5ed8 e8bb df45 f63e 64db 853f ef9f c43e
00000030: 9cd0 7a3f affb 613f 8e82 8c3e 4082 f73d
00000040: a078 6a3f 2bd9 9f3e 9a92 6a3f 25d5 84bc
00000050: 0c98 1d40 040e 8b3f 4d99 77bb d997 983f
00000060: 3410 2f3f 0de7 533f e943 a93f ecc0 993f
00000070: a6e7 623f 3a6d db3e 850d 573f 1110 883e
00000080: cf9e ad3e e7e6 833f d323 393f eb67 a23f
00000090: 554f 763f 60db 743e f935 e03f cd49 793f
000000a0: cabc d93d 297d 7d3f c722 5c3f f6a2 563f
000000b0: 3b77 ce3e cf3e 0a3e a436 8e3f 134e 9d3e
000000c0: ad33 813f f0b5 ac3d e717 393f 5994 b3bc
000000d0: e610 9e3e 2876 6a3f 3619 3ebf 7899 6c3f

weight f4 [56, 1, 9, 9]
-0.028317217 -0.035183866 -0.041078355 -0.040809833 -0.06699995 -0.040629894 -0.08323614 0.066399775
0.054915793 0.00048709867 -0.008992469 -0.11404609 -0.06105298 0.014659987 -0.019493254 -0.0018689407
-0.0006528435 -0.034059945 -0.023877978 0.08520211 -0.059187867 0.089541905 -0.0731627 -0.027858993
0.034051884 -0.089524604 -0.046852987 0.0379982 -0.03598454 0.008328173 0.038361948 0.041414026
0.07988155 0.037202936 0.06814879 0.009658223 -0.07635835 0.076762155 -0.04820064 0.09086886
-0.053012848 0.095415056 0.09052591 0.06419637 0.02667254 0.014349665 0.022480862 -0.03987947
-0.029096456 0.038477723 0.07376938 -0.0064031896 0.103736304 -0.0761637 0.027218163 -0.08165293
0.014182183 -0.015812784 -0.025326172 0.1159349 0.12928902 0.05611564 0.088854216 0.0066042827
0.022106523 -0.016147057 -0.06699565 0.08426826 0.05739915 0.052053187 0.054186556 -0.06625341
-0.08025541 -0.042862684 0.032383487 -0.043164056 0.020666841 -0.058155354 -0.052908637 -0.0040658475
-0.017748969 -0.05424557 0.08389393 0.029738555 -0.08296718 -0.09757734 0.07707279 -0.052740738
0.042422727 0.06719082 -0.09952296 0.0017535138 -0.004327741 -0.004118421 0.089700624 0.10275609
-0.008894646 0.0031224843 -0.067926034 0.004508095 0.003523562 -0.05021804 -0.09242162 -0.013239743
0.034201995 0.017300198 -0.022951245 -0.06763431 0.066643596 0.021270934 -0.0394973 0.039558247
-0.10282363 0.08172065 -0.032985646 0.07668728 0.086645514 0.016344683 -0.106035575 0.06793091
-0.08370404 0.030164734 0.019869864 -0.050623912 -0.06940535 -0.0869066 0.066423565 0.062170357
-0.011451278 0.036870483 0.09098968 -0.012683354 0.13251086 0.052946303 -0.06122247 0.04173458
0.03965998 0.018749094 -0.04308529 0.07318458 0.06792287 0.08210604 0.008200511 0.017948255
0.05811186 -0.039788708 0.05446121 0.027148344 -0.03043686 -0.063917376 0.051925782 0.06712005
-0.04834862 0.099984534 0.010826281 0.10314046 -0.054056723 -0.011983909 0.024716772 -0.10958012
-0.109864 0.09442916 0.006430776 0.0878696 0.081366606 0.028689127 0.049819846 -0.05031662
-0.07666497 -0.012091469 0.031737763 0.048885 -0.033197407 0.08600826 -0.08906704 0.009771836
0.10513509 -0.011429405 0.035686776 -0.0794713 -0.0011731051 -0.010170299 0.038581338 -0.06350288
0.09755769 0.09538906 0.097875364 0.035608552 0.10039773 -0.11307408 -0.06572205 0.0029101213
-0.05919034 0.076841526 0.049861632 -0.052684803 0.03429437 -0.064557634 -0.051433366 0.06406696
0.08323377 -0.028975183 0.058754083 0.03480671 0.04988197 -0.06445744 -0.092802 -0.03916504
0.06490506 -0.03488989 -0.027021037 0.10204884 0.13529153 0.11666372 0.05412011 0.06549426
-0.09217019 -0.09618674 0.044453755 0.024437483 0.123677954 -0.02904616 -0.005288269 0.022192085
0.044933166 0.09304846 0.09777649 0.045957692 0.012926256 0.062424127 0.06914933 0.049435012
0.0062770313 -0.056582008 -0.0073043033 -0.053838447 -0.034335546 0.05635707 -0.064675465 0.10253178
0.058939043 0.0774906 0.05106404 -0.07072208 -0.045534916 -0.014885352 0.049847536 0.076148145
-0.07668195 0.06018315 -0.037699513 -0.059729137 -0.022421865 -0.03731652 0.033577915 0.02678934
00000000: 82f9 e7bc f51c 10bd c741 28bd 3628 27bd
00000010: 4537 89bd 886b 26bd b677 aabd 9bfc 873d
00000020: 62ef 603d 4761 ff39 2655 13bc ff90 e9bd
00000030: b112 7abd 7130 703c 51b0 9fbc 3ef7 f4ba
00000040: 9623 2bba 7182 0bbd c09b c3bc 727e ae3d
00000050: fa6e 72bd bf61 b73d 53d6 95bd 8b38 e4bc
00000060: fd79 0b3d ad58 b7bd ebe8 3fbd 00a4 1b3d
00000070: 8664 13bd e472 083c 6b21 1d3d c1a1 293d
00000080: f098 a33d 1b62 183d 9891 8b3d 863d 1e3c
00000090: c461 9cbd 7a35 9d3d 096e 45bd 7419 ba3d
000000a0: 0024 59bd f868 c33d a665 b93d 6379 833d
000000b0: 5f80 da3c db1a 6b3c c929 b83c a858 23bd
000000c0: b15b eebc d19a 1d3d 6714 973d d9d1 d1bb
000000d0: b373 d43d b7fb 9bbd a0f8 de3c a739 a7bd
000000e0: 635c 683c d089 81bc d578 cfbc 476f ed3d
000000f0: 5764 043e 83d9 653d 33f9 b53d bd68 d83b
00000100: bd18 b53c d546 84bc 0435 89bd d694 ac3d
00000110: 5f1b 6b3d b935 553d b9f2 5d3d deaf 87bd
00000120: f35c a4bd c890 2fbd 8ca4 043d cbcc 30bd
00000130: 824d a93c 4f34 6ebd bab6 58bd cd3a 85bb
00000140: 4966 91bc 9a30 5ebd 95d0 ab3d 459e f33c
00000150: b2ea a9bd a1d6 c7bd 57d8 9d3d ac06 58bd
00000160: 74c3 2d3d 579b 893d b2d2 cbbd 29d6 e53a
00000170: b9cf 8dbb d2f3 86bb f6b4 b73d c971 d23d
00000180: d9ba 11bc 98a2 4c3b ce1c 8bbd a4b8 933b
00000190: 90eb 663b 6eb1 4dbd 8c47 bdbd 82eb 58bc
000001a0: 6417 0c3d 25b9 8d3c 4004 bcbc db83 8abd
000001b0: 707c 883d 6240 ae3c ecc7 21bd d407 223d
000001c0: 3295 d2bd 285d a73d f51b 07bd 380e 9d3d
000001d0: 3473 b13d 49e5 853c 2e29 d9bd 5c1f 8b3d
000001e0: 066d abbd 081c f73c 20c6 a23c 055b 4fbd
000001f0: 6424 8ebd 16fc b1bd 1409 883d 58a6 7e3d
00000200: 249e 3bbc 8105 173d cc58 ba3d d8cd 4fbc
00000210: edb0 073e 39de 583d 6ac4 7abd e1f1 2a3d
00000220: 8172 223d b397 993c 337a 30bd cce1 953d
00000230: 251b 8b3d 3627 a83d 705b 063c 3808 933c
00000240: b406 6e3d 7cf9 22bd b812 5f3d 3466 de3c
00000250: b956 f9bc 1de7 82bd 21b0 543d 3d76 893d
00000260: 3409 46bd b1c4 cc3d b760 313c 4e3b d33d
00000270: 956a 5dbd 2858 44bc d47a ca3c 8b6b e0bd
00000280: 6000 e1bd 1364 c13d 42b9 d23b faf4 b33d
00000290: 89a3 a63d 7605 eb3c e50f 4c3d cd18 4ebd
000002a0: 8602 9dbd 4c1b 46bc 75ff 013d a33b 483d
000002b0: 01fa 07bd 1925 b03d c868 b6bd 0d1a 203c
000002c0: 1151 d73d 6642 3bbc 4c2c 123d d9c1 a2bd
000002d0: e0c2 99ba 53a1 26bc 7707 1e3d cc0d 82bd
000002e0: 54cc c73d 575b c33d e172 c83d 46da 113d
000002f0: 539d cd3d 6293 e7bd 4899 86bd bcb7 3e3b
00000300: 9271 72bd 175f 9d3d b63b 4c3d 05cc 57bd
00000310: 4178 0c3d cb36 84bd cbab 52bd 8a35 833d
00000320: 7876 aa3d 5d5d edbc 1fa8 703d 7b91 0e3d
00000330: 0951 4c3d 4302 84bd fa0e bebd 856b 20bd
00000340: f2ec 843d b4e8 0ebd 395b ddbc fbfe d03d
00000350: dd89 0a3e 63ed ee3d 0cad 5d3d db21 863d
00000360: b9c3 bcbd 8efd c4bd 2415 363d 1e31 c83c
00000370: de4a fd3d 36f2 edbc 3749 adbb 2dcc b53c
00000380: d70b 383d 3190 be3d 0a3f c83d 223e 3c3d
00000390: a6c8 533c 71b0 7f3d 2a9e 8d3d 5e7c 4a3d
000003a0: 8eaf cd3b 89c2 67bd f058 efbb b485 5cbd
000003b0: 6ea3 0cbd acd6 663d 9274 84bd 2ffc d13d
000003c0: 116a 713d 64b3 9e3d 8728 513d bdd6 90bd
000003d0: d282 3abd b1e1 73bc ee2c 4c3d 8ff3 9b3d
000003e0: 6d0b 9dbd 9b82 763d ce6a 1abd 8aa6 74bd
000003f0: 0fae b7bc 35d9 18bd ff88 093d 5175 db3c
