ESPCN/ESPCN_mytorch/ESPCNModel_tanh_50_0.0001.pth (torch, 95484 bytes, 6 tensors)

weight f4 [64, 1, 5, 5]
000000 82 a1 02 3e e5 8e ed bd 0a 1b 15 3e 35 b9 9a bd
       0.12756923 -0.115995206 0.14561096 -0.07554857
000010 bc e8 cd bd 43 74 e5 bc b1 7f 55 bd 2f 97 3e be
       -0.10054156 -0.02800954 -0.05212373 -0.1861236
000020 b9 4a 9a 3d d7 4d 49 3d d4 a9 47 be 91 8f eb bd
       0.075337835 0.0491465 -0.19498378 -0.115019925
000030 02 d4 2c 3e 49 8e 65 3e e4 a4 79 bd 9c f0 d9 3d
       0.1687775 0.22417559 -0.060948268 0.10641596
000040 ae 97 a1 3b 22 9c 55 3e 31 b1 3d 3e 38 fc f0 bd
       0.0049314117 0.20860341 0.18524624 -0.11766857
000050 d2 0d a5 3d 6d 94 4b 3e 1f 0c 33 be e5 7b f6 3c
       0.08059277 0.19880839 -0.17485093 0.030088374
000060 cf 71 1f bd cd 3a 74 bc f1 dd e0 bd 77 8f 3a 3e
       -0.038926896 -0.014906597 -0.10979832 0.1821879
000070 74 06 54 3e 09 fd 00 bc ca 7f 9a 3d 9e 5e 1a bd
       0.20705587 -0.007872828 0.07543905 -0.03768789
000080 da c3 d7 bd 78 e8 17 bd 1f 98 e6 3c cb 2e ef bd
       -0.105354026 -0.037086934 0.028148709 -0.11678847
000090 46 59 f0 3d 2b fd 34 3d 25 46 0b 3e f9 d3 19 3d
       0.117357776 0.044186752 0.13600977 0.03755567
0000a0 17 d1 99 3d 14 d5 15 be f5 5f 7c 3d 72 1d 2d be
       0.07510584 -0.14632064 0.06161495 -0.16905764
0000b0 42 3a 78 3d 8c 52 3c be a5 a7 9f bd 20 75 bd 3d
       0.060602434 -0.18390864 -0.077956475 0.092508554
0000c0 d7 a4 d7 3d 58 47 2e be 7f fa c1 3c 6a 48 0c 3e
       0.105294876 -0.17019403 0.023679016 0.13699499
0000d0 d5 f7 ad bc 37 0c a8 bd 32 8b 19 3e 7e 98 4f bd
       -0.02123634 -0.08205455 0.14994505 -0.050682537
0000e0 5b 3d 3c be 40 f3 46 be a3 4d 45 3e 92 5c 21 ba
       -0.1838278 -0.1942873 0.19267897 -0.00061554566
0000f0 26 71 ce bd 9e a3 1b bd fa b4 60 bd 99 2c 34 3d
       -0.10080175 -0.037997834 -0.054860093 0.043987844
000100 e3 ed 08 3e 0b 19 42 be 66 04 02 3e ee fa d2 bd
       0.13371997 -0.18954866 0.1269699 -0.10301767
000110 73 93 86 bd 34 c0 1d 3e 6a 5e 51 bd c5 56 9a 3d
       -0.065710925 0.15405351 -0.05111543 0.07536081
000120 c4 1e bb 3c 26 15 04 be fd fa 12 3e d6 02 8e bd
       0.022841819 -0.12898692 0.14353557 -0.06934135
000130 96 7e c1 bd 4a 80 a9 3d 9b a2 f7 bd bb 3a 4d 3d
       -0.094479725 0.08276422 -0.120915614 0.050104838
000140 d1 66 3c be be 01 1d be 8b 97 fb bd 61 4e 55 3e
       -0.18398596 -0.15332696 -0.12284764 0.2083068
000150 81 27 29 be f2 88 cb bd 95 21 38 bd a6 47 81 bd
       -0.16518976 -0.099382296 -0.0449539 -0.06312494
000160 42 6b 53 3e fe 16 2a 3e a7 64 b8 bc 95 8a 62 3e
       0.20646384 0.16610333 -0.022508932 0.22123177
000170 02 60 13 3e 44 90 77 3e 43 a9 8a bd 20 1c 36 3e
       0.14392093 0.24176127 -0.06770565 0.17784166
000180 d7 db 0a bd e9 aa 29 be df 7d 1b 3e b8 05 9e bd
       -0.033901062 -0.16569103 0.15184735 -0.077159345
000190 68 27 66 be 96 cc 31 be ce 5e 8f be 95 f0 ef 3d
       -0.2247597 -0.173632 -0.28002018 0.11715809
0001a0 57 e9 30 be 74 93 89 be 03 68 b8 be 1f 67 b3 be
       -0.17276512 -0.2687031 -0.36016855 -0.35039613
0001b0 40 81 11 be fb de 14 bd bc d1 e5 bd 7f 9f ee bd
       -0.14209461 -0.036345463 -0.11221644 -0.11651515
0001c0 99 65 7b be b2 17 f7 3c 74 f4 2a bd ab 11 c6 bd
       -0.24550475 0.030162666 -0.041737035 -0.09671339
0001d0 63 3f 67 be 22 9a 15 bd 36 ec 07 3e a8 ff 21 be
       -0.22582774 -0.036523946 0.13273701 -0.15820181
0001e0 32 94 0d 3d 59 aa 4a be e3 f2 98 bc 8e bb 1e be
       0.03456516 -0.19791545 -0.018670505 -0.15501234
0001f0 18 9c f3 3d 77 69 5f 3c a4 c5 76 3d a4 a2 6a bd
       0.11895007 0.013635985 0.06024708 -0.057284012
000200 fb 68 46 3e 77 ae 07 bd 73 13 af bd 84 38 99 3e
       0.19375984 -0.033125367 -0.085486315 0.2992593
000210 18 4e 90 be e3 78 b7 bd 99 51 66 3e c1 72 79 bc
       -0.2818458 -0.08958604 0.22492065 -0.015225113
000220 83 61 15 3e 63 3d 29 be 53 b2 06 be 7a d7 54 3e
       0.14587979 -0.16527323 -0.13153963 0.20785323
000230 a6 47 56 3d 3e d3 5f 3e 54 64 e1 bc 17 ca 31 be
       0.052314423 0.21857926 -0.02751366 -0.17362247
000240 fc f6 0d be 3a db 90 3c e4 71 ef bd 98 7b 20 be
       -0.13863748 0.01768266 -0.11691645 -0.15672147
000250 9b e0 81 bc 2a a4 a6 bd c8 fc 06 3e 23 8e 5e bd
       -0.01585417 -0.081367806 0.13182366 -0.05433477
000260 be 9b 4b 3d 5c 06 3a 3e 68 66 8e 3c 8f 06 59 3d
       0.049709074 0.18166488 0.017382815 0.05298477
000270 b2 cb fe bd 27 7d 7e 3d 9b e0 64 be 35 dc 6b bd
       -0.124411955 0.062131073 -0.22351305 -0.057583053
000280 3b 5b 09 bb 5e 0a 6a 3c 24 92 14 be b8 56 27 3e
       -0.0020958919 0.014284698 -0.14508873 0.16341674
000290 12 d7 ba bb 77 c9 07 be 68 c7 f2 3b 3c 38 7f be
       -0.005701908 -0.13260446 0.007409025 -0.24923795
0002a0 d4 7b 3b be 07 d1 03 3d c7 e5 23 3e e4 b0 e9 3d
       -0.18308955 0.032181766 0.16005622 0.11410692
0002b0 9c 87 ae 3d cc d9 a5 3d a8 1d 5d be 55 7b 89 3d
       0.08521959 0.08098182 -0.21593344 0.06712977
0002c0 c8 d7 cf bc 7a a8 2e 3e 28 2a 6e bc 4c bb 13 be
       -0.025371447 0.17056456 -0.014536418 -0.14426917
0002d0 96 9a ce bd 09 d5 40 bd e2 05 8e 3d da 35 33 3e
       -0.10088079 -0.047078166 0.06934716 0.17501011
0002e0 03 8e 09 be e8 24 33 be 4e a8 9b bd d9 4b 93 3d
       -0.1343308 -0.17494547 -0.07600461 0.07192201
0002f0 a2 0d d7 3d 7d 92 11 be ca f4 54 bc 9e 45 79 bc
       0.10500647 -0.14216037 -0.012997815 -0.015214352
000300 a6 b3 7b bd de ae 36 3e e1 7b 3f be 87 0d 2a bd
       -0.061450623 0.17840144 -0.186996 -0.041516807
000310 13 4d f1 3d 50 9b c6 bd 76 8b 59 be 27 75 68 3d
       0.11782279 -0.09697592 -0.21244606 0.05675235
000320 f6 3a 36 3e 0e a7 4c 3e a8 1a e4 3d e1 5e 43 be
       0.1779593 0.19985601 0.11137897 -0.19079162
000330 c5 62 08 be e8 e4 52 be 3e 15 59 3b 80 10 28 3e
       -0.13318928 -0.20595133 0.0033124234 0.16412544
000340 0d 87 b3 3d b1 b4 54 3e 01 90 f0 3d e6 59 29 3e
       0.08765993 0.20772053 0.117462166 0.165382
000350 44 9f 22 3d 51 12 37 3e e0 cf 2b be 39 58 51 be
       0.03970267 0.17878081 -0.16778517 -0.2044381
000360 fb 34 46 be 83 03 07 3e 61 e8 05 3c 4e 67 17 bd
       -0.19356148 0.13184933 0.008173079 -0.036963753
000370 69 25 92 3d a8 9e 33 bd 60 c6 3e 3b 8a 09 96 bd
       0.07136042 -0.04385248 0.002910994 -0.07326038
000380 2c 52 22 be 41 01 d1 3d 99 9c 83 3d 62 6f 1f 3e
       -0.15851659 0.10205317 0.06426353 0.15569833
000390 70 55 53 bd a5 fa a8 3d 92 72 a8 bc 95 08 43 be
       -0.05159515 0.08250932 -0.020562444 -0.19046243
0003a0 bb 72 57 be 99 23 b6 3d 47 a7 36 be a0 a7 8c bd
       -0.2103986 0.088935085 -0.17837249 -0.068679094
0003b0 db d2 b5 be 18 eb 8f be 51 68 66 be 33 80 8a 3d
       -0.35512432 -0.2810905 -0.22500731 0.06762733
0003c0 dc 46 c8 bc 4c d8 87 be b2 da 8e be fc 78 a0 be
       -0.02444785 -0.2653221 -0.27901226 -0.31342304
0003d0 3e 1c 32 be cb 07 e4 bd ac cc e2 bd a6 9f 87 be
       -0.17393586 -0.11134299 -0.11074194 -0.2648899
0003e0 a3 f2 69 bd 8a 93 f6 3b 4a 2b 38 be 13 30 dd bb
       -0.057116162 0.0075249122 -0.17985263 -0.0067501157
0003f0 44 3c fc bd 12 ce 68 3e 3a 1f 1b 3d 3d c1 03 be
       -0.12316182 0.2273486 0.037871577 -0.12866683

bias f4 [64]
000000 62 67 3b be 9d 3c 71 be 1a 59 06 3e 4a 8a a5 bc
       -0.18301156 -0.23558278 0.13119927 -0.020207543
000010 1c 1a 0d be 81 14 05 3d d5 85 46 3e d7 50 30 3e
       -0.13779491 0.032490257 0.1938699 0.17218338
000020 8c 43 45 3d d9 c8 14 be 25 f7 41 be f4 20 23 3e
       0.04816012 -0.14529742 -0.18941934 0.1593054
000030 01 f4 81 bc 2c 73 22 bd 7c e5 42 be 70 7b 06 be
       -0.01586342 -0.039660618 -0.19032854 -0.13133025
000040 a4 db 5a be dc c0 b6 3d 6c fd 40 3d f9 36 3f 3e
       -0.21372849 0.08923504 0.047116682 0.18673314
000050 95 98 b9 bd b0 97 3b be 04 96 c6 bc 15 b1 3c bd
       -0.09062306 -0.18319583 -0.024241455 -0.046067316
000060 21 0a 7b 3e e7 52 5a 3e 2c 93 1d be 5e 6f fa bd
       0.24515583 0.21320687 -0.15388173 -0.12228273
000070 06 60 f8 bc 8a 2a fe bd e7 71 fc bd 7c 05 69 be
       -0.030319225 -0.124104574 -0.12326413 -0.22755998
000080 78 68 23 3e eb 04 56 3e 50 3d 0a be 92 3a 85 3d
       0.1595782 0.20900314 -0.13499951 0.06505312
000090 d1 d9 eb bd 67 ed d5 ba 6d d0 56 3c e9 3a dc 3d
       -0.115161546 -0.0016321362 0.013111216 0.10753424
0000a0 2d 5a 69 be 9a 4a 25 3e 41 43 e4 3c d7 a1 7e 3d
       -0.22788306 0.1614174 0.0278641 0.06216606
0000b0 44 c6 57 be 72 86 05 3c 7d f3 70 3e 59 15 6f be
       -0.21071726 0.00814973 0.23530383 -0.23347987
0000c0 81 91 bf 3d c4 34 51 3d 1c d5 6e 3e 2c e9 52 3c
       0.093539245 0.05107571 0.23323482 0.012872975
0000d0 1f 96 78 3d 51 5f 70 3c 3a a6 45 be 05 d9 53 be
       0.06069004 0.014671163 -0.19301692 -0.20688255
0000e0 ab 51 35 3e b1 c9 bc bc 94 70 a7 3d ee 83 84 3d
       0.17706935 -0.023045393 0.081757694 0.06470476
0000f0 d6 a8 0b be 80 f6 27 be 67 9c 67 bd a4 6a 65 be
       -0.13638625 -0.16402626 -0.05654564 -0.22403961

weight f4 [32, 64, 3, 3]
000000 94 da 4a bd 02 b2 24 3d b0 00 af bd 51 04 88 bd
       -0.04952486 0.040208824 -0.08545053 -0.06641448
000010 16 26 91 bd aa 46 97 bd d5 d6 d9 bc f2 cd 55 3d
       -0.070873424 -0.07386525 -0.026591698 0.052198358
000020 00 22 33 bd 70 15 23 bb 9d cf 14 3d 55 b1 85 3d
       -0.043733597 -0.0024884604 0.036330808 0.06527964
000030 be 3f fe 3c ff 91 85 bd fd 1f 36 3c 78 b2 8b 3c
       0.031036254 -0.06521987 0.011116025 0.017052874
000040 aa 35 4f bc 2e 3e 03 3d 7a fb e9 3b 19 ad 85 bc
       -0.012647072 0.03204172 0.007140574 -0.016317891
000050 27 bd 14 3d 47 6c 24 3d b5 ef 6e bc 03 3d 2f 3d
       0.036313202 0.040142324 -0.014583518 0.042782795
000060 84 66 7d bc 06 f0 cd 3c 4e 97 6a 3d b8 86 4a bc
       -0.015466336 0.025138866 0.0572732 -0.012361221
000070 3c 61 19 bd ba 63 95 bd 9c 7f f7 bc 14 06 c1 bb
       -0.037446246 -0.07294412 -0.030212216 -0.005890617
000080 7e e7 d8 bd 27 2d d7 bd 5a f4 93 3d 65 d3 8f bc
       -0.10591029 -0.10506659 0.07224341 -0.017556855
000090 9b cc d8 3c 4a 7e ed 3c 47 4f 17 3d a7 c5 07 bd
       0.026464751 0.028990883 0.03694084 -0.03314748
0000a0 5a 06 d8 3b 69 b0 21 bd f7 86 f1 3c 28 49 b3 3c
       0.006592554 -0.03947488 0.029483302 0.02188547
0000b0 96 4c 9f bc 75 b6 b5 3d 68 45 66 3d 92 29 87 bd
       -0.019445699 0.088726915 0.056218535 -0.06599726
0000c0 73 00 81 3e f3 de 23 bd 4e 6f 8f bd 5d 8a a4 3e
       0.25195655 -0.040007543 -0.070036516 0.32136813
0000d0 b4 ef 5d bc 7e 3c da bd c1 53 ae 3c 65 af 0a 3c
       -0.013545919 -0.10656069 0.021280171 0.008464669
0000e0 8f 77 e1 bc 25 fc 56 3c 9b ba ad 3d 91 7d c6 bc
       -0.02752283 0.013121639 0.08482858 -0.024229797
0000f0 4b 23 27 bc d4 1a 45 bc d2 95 a8 3c c8 bb 7d 3c
       -0.010201286 -0.012030322 0.020579252 0.015486665
000100 81 62 8f 3d 92 c1 0b bd 32 23 10 bd f8 01 7b 3c
       0.0700121 -0.03412015 -0.035189815 0.015320294
000110 8c a1 1d 3c d8 96 d3 bc 58 64 21 3d 5d e2 46 3b
       0.009621035 -0.025828764 0.039402336 0.0030347325
000120 15 b0 94 bc ed e8 15 bd a5 01 7b 3d b5 d9 21 bd
       -0.018150369 -0.03659909 0.061280865 -0.039514262
000130 bc c7 65 bc 32 9d 40 3c 8e b0 93 bd 2c c3 a3 bd
       -0.014024671 0.011756228 -0.072114095 -0.079962105
000140 7f ce 12 bd 85 74 5f 3d 3f d8 02 3b 65 37 27 3b
       -0.03584146 0.05455448 0.0019965318 0.0025515195
000150 fa 3a 34 3d f4 ff e3 bb 19 df 30 3d 8c 0a a0 bc
       0.044001557 -0.006958002 0.043181513 -0.01953628
000160 d3 d2 22 3c 8c 21 6d 3c 94 96 82 3d d2 e1 d4 39
       0.00993796 0.01447333 0.06376377 0.0004060404
000170 8f 2a 2e 3c 37 82 07 bc b8 a4 01 bd ed 4a 7f bc
       0.010630264 -0.008270792 -0.03165123 -0.015581829
000180 ba 10 91 3d 27 6d 03 bd 17 17 a5 3d 56 95 86 bd
       0.070832685 -0.032086518 0.08061045 -0.06571452
000190 4b 73 21 be 7e 2c ae bd 36 e6 95 bd 08 42 9e 3d
       -0.15766637 -0.0850458 -0.073193 0.07727438
0001a0 df c0 70 3d 76 42 fb bc 7e 97 f8 3d 05 43 90 3d
       0.058777686 -0.03067134 0.1213827 0.07044033
0001b0 54 ab 0c bd c0 52 eb 3c 60 dc c6 3d c7 6b c2 3c
       -0.03434308 0.028725982 0.09710002 0.023733033
0001c0 54 51 cd bd 4f d3 ab bb a0 03 8b 3d 89 5c e6 bd
       -0.10025278 -0.005243696 0.06787801 -0.112481184
0001d0 f6 cd c0 bd da 32 eb bb 9d 1f 94 3c 57 ef 1d 3d
       -0.09414284 -0.007177693 0.01808148 0.03855833
0001e0 0a 9a 15 3d 04 99 0a 3d b2 17 58 3d 64 14 4e 3d
       0.036523856 0.033837333 0.052756973 0.050312415
0001f0 1b be 42 bc 71 e7 9b 3d 38 81 a2 3b 67 43 b7 3d
       -0.011886145 0.07612503 0.0049592517 0.08948403
000200 00 68 de bb d9 c2 87 bd b5 78 f0 bc 05 37 ff bd
       -0.0067873 -0.06628961 -0.029354433 -0.12461666
000210 19 cd 18 bd ce bd 2e bd ad 0e ec 3c a0 47 07 3d
       -0.03730497 -0.04266148 0.028815592 0.03302729
000220 a9 68 f5 bc a8 16 f7 bc 11 34 1d 3d 4b c5 3b 3d
       -0.029957132 -0.03016217 0.038379733 0.04584245
000230 62 09 25 3d 61 22 81 3d b8 26 47 3d 0a a3 e7 3c
       0.04029215 0.063053854 0.04862091 0.028275985
000240 ed ff fb 3c dd 41 12 bd 77 86 8a 3d 2f f7 e2 3c
       0.030761683 -0.035707343 0.067639284 0.027705757
000250 0d ac 16 be cd f2 dd ba ff 6f 01 3b 15 01 bd bc
       -0.1471407 -0.0016933322 0.0019750593 -0.023071805
000260 c6 d9 f7 bc 69 d5 2d 3c f2 bc 9a bd 6c db 9c bc
       -0.03025521 0.010609963 -0.0755557 -0.019147597
000270 67 fc 03 3d dc 88 cf 3c e4 9b 34 bd 14 0c 1e bd
       0.03222313 0.025333814 -0.04409398 -0.038585737
000280 35 75 52 3b 8c c8 68 bc ce c3 37 bd 4e 67 20 3e
       0.0032113318 -0.01420797 -0.04486447 0.15664408
000290 6c 69 68 3d 1a 5a a1 3d b0 59 e1 3c 6a 1e 8a 3d
       0.056741163 0.07878514 0.027508587 0.06744082
0002a0 2a 48 11 3c b5 d9 e9 bd 98 53 b3 3c 97 31 33 bc
       0.008867303 -0.114184774 0.021890447 -0.010937116
0002b0 a8 69 af bc 82 fe 7a bc 4a d5 0d 3c a2 4f 83 3b
       -0.021412686 -0.015319468 0.008656809 0.0040072957
0002c0 59 54 04 3d 12 39 a1 ba c8 e3 b9 3b 64 6f c8 3c
       0.032307003 -0.0012300333 0.0056729056 0.024467178
0002d0 7b b6 94 3d 9a bf a8 3d 37 a0 d7 3c 2d 44 66 bd
       0.07261368 0.0823967 0.026321514 -0.05621736
0002e0 ff f6 80 3d b2 91 e6 3d e8 cd c8 bc c5 30 df bc
       0.06297111 0.11258258 -0.024512246 -0.027244935
0002f0 9d f0 8e 3d 32 14 27 3d f4 99 7d 3c e0 d0 a2 3d
       0.06979487 0.040790744 0.0154786 0.07949996
000300 44 c8 4b 3d 05 2f c9 bc fa b3 a4 3c ea f8 ef bc
       0.049751535 -0.024558553 0.02010535 -0.029293496
000310 70 3b 39 bc 70 aa 7f bc 9e 67 c1 bd 85 01 58 bd
       -0.011305675 -0.0156046 -0.094435915 -0.052735824
000320 cf a5 d7 bd 64 30 7d 3d 49 c3 31 bd 0e 9f 48 3b
       -0.10529672 0.061813727 -0.04339913 0.0030612382
000330 bf 9d 59 3d 18 55 49 bd f7 26 74 3d b2 7d 14 bd
       0.053128954 -0.049153417 0.059607472 -0.036252685
000340 c3 f4 ae 3c 65 49 1c b9 92 da d9 bc 3c dc 8a 3d
       0.021356946 -0.00014904661 -0.02659348 0.067802876
000350 90 29 04 3d 25 84 fe bc bf 36 33 3d d1 b3 35 3d
       0.0322662 -0.03106887 0.04375338 0.04436094
000360 88 10 5c bc f5 24 a5 bb f9 b5 22 bd 67 eb 75 3d
       -0.013431676 -0.005039806 -0.039724324 0.06003895
000370 8a e2 7a bc 49 45 e5 bc ec bd 46 bd b0 80 c6 3c
       -0.0153128 -0.02798714 -0.048520967 0.024231285
000380 81 e0 55 bd cd f1 8e bd 40 54 ee bc e9 f0 0d bc
       -0.052216057 -0.069797136 -0.029092908 -0.0086633945
000390 37 7e 51 3d 0c ac 5f 3b 2b 6b 84 3d 8e 5a de 3c
       0.05114576 0.0034129648 0.06465753 0.02714279
0003a0 e6 01 34 bb 65 d6 4a 3c 4a de c6 3c e3 2f 3d bd
       -0.0027466952 0.012380217 0.024275918 -0.046188246
0003b0 82 0f 36 bd e9 2f 96 3c ea bf a4 bc 77 b9 d7 bd
       -0.044448383 0.018333392 -0.020111043 -0.105334215
0003c0 6b 95 80 bc dc cf e9 3c 4d 14 40 bc fa ee cd 3b
       -0.015696248 0.028541498 -0.01172359 0.0062845917
0003d0 f9 90 95 bc a5 c3 19 3c e7 8b 9d bc e4 8d 0c bd
       -0.018257605 0.009385024 -0.01923175 -0.034315005
0003e0 99 0e 90 3c bb 07 f3 3c 06 1e 2d 3d a3 ce 91 3d
       0.017585086 0.029666772 0.04226496 0.07119491
0003f0 ef 86 3c 3c bf 06 89 3d 1e 28 3b 3d 6d 87 7a bd
       0.01150678 0.0669074 0.045692556 -0.06116431

bias f4 [32]
000000 a7 17 64 3c dd 56 a4 bc 06 13 95 3a 48 2c 91 bb
       0.013921655 -0.02006095 0.0011373467 -0.0044303276
000010 c4 d1 2c 3d 1b e5 10 3c fc a5 54 bd 25 70 a1 bd
       0.042192236 0.0088436855 -0.051916108 -0.07882718
000020 a7 db d7 bc 04 45 01 3d b2 2e 59 3d fe 84 0c 3e
       -0.026349856 0.03155996 0.053023048 0.13722607
000030 a4 f0 3f 3c d7 e2 06 bd ce cb 6d bb 9f 61 42 3d
       0.011715088 -0.032931175 -0.0036284807 0.04745638
000040 4c cc 85 3d ea 86 39 bd fa da c1 bd 78 94 b6 3c
       0.06533107 -0.04529468 -0.094655946 0.022287592
000050 4b a8 5d bc bc 11 4a 3c ed 7d 78 bc 5e 0a f6 3c
       -0.013528894 0.01233333 -0.015166742 0.03003424
000060 6f b0 7d 3b 43 ba 38 3c 29 32 68 3d ab 51 9d 3d
       0.00387099 0.011274877 0.05668846 0.076815926
000070 35 35 20 bd 7f 19 08 bd c5 a7 e2 3c f8 85 5c 39
       -0.039113242 -0.03322744 0.02766789 0.00021030742

weight f4 [9, 32, 3, 3]
000000 08 ee 36 bd 71 ce 03 be cb 8b 04 bd 53 bf c7 bb
       -0.044660598 -0.1287172 -0.03235988 -0.0060958057
000010 e1 68 8c bd 14 8b a2 bc a5 71 0e 3d a4 ce 2b 3c
       -0.068559416 -0.019841708 0.03477635 0.010486279
000020 58 65 96 bd 7b 36 fc 3c ff 8b 85 3d 00 8c f3 bd
       -0.073435485 0.030787697 0.06520843 -0.11891937
000030 cc 35 5e 3e 8c 35 61 3e a8 33 f8 bd 23 0b 4b bb
       0.2170021 0.21993083 -0.12119228 -0.003098198
000040 7a 6f da 3d 6a 71 64 bd 1b c5 f3 bc cc 2b 57 bd
       0.10665794 -0.055772223 -0.029757073 -0.052532002
000050 d9 84 1f 3d 8f ff 9d bd e0 58 ea bd d8 97 fb 3c
       0.038945053 -0.077147596 -0.11442733 0.030712053
000060 99 68 c9 39 42 97 6c 3d d5 77 64 3d 5a 03 8f 3c
       0.0003841564 0.05776144 0.055778343 0.017457653
000070 d7 b2 1c 3e 72 f2 9d 3d a1 2d 0f bd 3d 5b e0 39
       0.15302597 0.077122584 -0.034955624 0.00042792587
000080 d1 4f 4c bd d2 d4 b6 3c 98 9f 9c 3d 04 46 25 3d
       -0.049880806 0.022318278 0.076476276 0.040349975
000090 b4 1d 06 3c 60 f5 44 3e e8 4b 03 bd 95 2a 4a bd
       0.008185793 0.19234228 -0.03205481 -0.049357016
0000a0 e6 a4 77 be d0 8f 6d bc e6 0a 3c 3d c7 6c 58 bd
       -0.24183998 -0.01449962 0.04590883 -0.052838113
0000b0 44 d9 96 3d 42 ce 33 3d fc ee 97 3d be 86 d4 3d
       0.07365659 0.043897875 0.074186295 0.103772625
0000c0 de 62 dc 3d 22 b1 02 3e 4f 09 00 3e fa 33 fa 3b
       0.10761045 0.12762883 0.12503551 0.0076355906
0000d0 42 33 88 bc d4 bc 53 3d 5c 29 84 bc 55 ab 65 3c
       -0.016626004 0.051693752 -0.016133003 0.0140178995
0000e0 6a f3 32 3d 7f 69 d3 bb 17 21 62 bd 0f b5 b6 3d
       0.04368917 -0.006451785 -0.05520734 0.08921253
0000f0 6e 0d 9e 3d 3c e9 a4 3d d6 a5 09 3d ba 14 d7 3c
       0.07717405 0.080522984 0.03360542 0.026255
000100 63 bd d8 3d 89 9b c5 bc 42 b4 61 3d fc 2c bc 3d
       0.10582998 -0.024122017 0.055103548 0.091882676
000110 d2 60 ea 3d 76 14 84 3b 15 ff 03 3e 40 e7 45 3c
       0.11444248 0.0040307594 0.12890275 0.01207906
000120 0b 3c 1a be 60 10 c1 bd 40 d1 7f ba 50 27 0f be
       -0.15061967 -0.094269514 -0.00097586587 -0.1397984
000130 c4 30 15 be 1b 98 da 3c 82 81 23 3c 0b 87 bb 3d
       -0.14569384 0.026683858 0.009979608 0.09156617
000140 fb 88 c8 3c e6 bc 2c 3d 40 c6 51 bd e0 45 52 bc
       0.02447938 0.042172335 -0.051214457 -0.012834042
000150 e7 27 6a bd 8f b0 e3 bd eb 47 32 bd 30 89 1a bd
       -0.05716696 -0.1111766 -0.043525618 -0.03772849
000160 11 4c 62 bc a9 10 b6 3b 1d 36 f0 bd 8d 5e a5 bd
       -0.013812081 0.0055561853 -0.11729071 -0.08074675
000170 38 aa 3c bd a0 06 6e 3c ef 1c 76 3d 07 17 90 3d
       -0.04606077 0.014527947 0.060086187 0.07035642
000180 ac e7 53 be bc 92 15 bd 7d 99 20 bd 9f 30 d8 bd
       -0.20693845 -0.03651689 -0.039208878 -0.10556149
000190 2f 26 25 be 5c 35 d4 3c 9b c3 24 be 14 fc 60 be
       -0.16127847 0.02590435 -0.16090243 -0.2197116
0001a0 bb 24 c6 3c f2 ab 47 3d c2 d7 58 3b d9 a4 c1 3d
       0.024187436 0.048747964 0.0033087586 0.0945527
0001b0 dd ce e0 3c a5 4f 0d be 18 9a 78 bd 89 b0 f9 3d
       0.02744239 -0.13799913 -0.06069383 0.121918745
0001c0 35 19 04 bd f8 99 6f 3c 36 07 9e 3d 00 a2 22 3d
       -0.0322506 0.014624111 0.07716219 0.039705276
0001d0 ca 44 94 3d d9 0d 75 3d 3a 02 ae 3d 39 ec 7f bc
       0.07239683 0.05982766 0.084965184 -0.015620285
0001e0 66 7b d0 3d 43 4c 5e 3e c4 11 4d 3c 87 a9 c4 bd
       0.101797864 0.21708779 0.012516443 -0.09602647
0001f0 96 25 83 3b 40 0c 1c 3c 34 b7 f1 b9 c4 d4 4d 3d
       0.0040022833 0.009524405 -0.000461036 0.050251737
000200 68 42 f3 3c d2 17 23 3d 89 5d fa 3d 05 b9 48 3d
       0.02969475 0.03981764 0.12224872 0.049004573
000210 84 c8 89 3b ec 8c 4c bc 06 9e e1 bc ee ba d4 bd
       0.0042048115 -0.01248477 -0.027541172 -0.103872165
000220 33 2d 9b bd 33 3f 5a bd 3f c4 c3 3c 9d 73 2a 3b
       -0.075769804 -0.053282928 0.023897288 0.0026008852
000230 28 0f d1 bc 49 e1 9a bd 65 52 fd bd 88 0d f0 bc
       -0.025519922 -0.07562501 -0.12369231 -0.029303327
000240 50 67 d2 3c 1b ab c1 bd 38 45 06 bd a3 63 6b 3d
       0.025684029 -0.09456464 -0.032780856 0.057468068
000250 09 7d c8 3c 95 3c 69 bc 1e 85 25 bd 2f c1 b7 bd
       0.024473684 -0.014235635 -0.040410154 -0.08972394
000260 57 91 bc bc a2 bb 0a 3e 3f 15 86 3d b2 37 a9 3d
       -0.023018522 0.13548139 0.06547021 0.08262576
000270 00 db af 3d ee b6 0b 3d 71 f8 c8 3d a9 5d 1b bb
       0.08586693 0.034110002 0.098130114 -0.002370695
000280 a4 c1 28 be 14 28 72 bc 78 c8 25 bc 2b a8 ea 3d
       -0.16480118 -0.014780063 -0.010118596 0.11457857
000290 d9 11 7e bd 49 3d c8 3d e1 4c 94 3d a6 92 19 3d
       -0.06202874 0.09777314 0.07241226 0.03749337
0002a0 99 60 a3 3d 8b b4 e1 3d 90 4a a5 bc db 42 e4 bc
       0.07977409 0.11020764 -0.020177156 -0.02786391
0002b0 66 65 0d be 70 86 75 bd 6e 0d 18 be 4e 05 cc bd
       -0.13808212 -0.059942663 -0.14848873 -0.09961949
0002c0 62 0c 0e be 3d 26 39 bd 64 66 11 be 38 1e b9 bd
       -0.13871911 -0.045202482 -0.14199215 -0.09038967
0002d0 8c fa 43 bd 77 ae 09 3e 1f e1 7e bd 00 f8 17 3b
       -0.047846362 0.1344546 -0.06222641 0.002318859
0002e0 d9 bc 06 3e 66 9b 70 bd 0d 20 9b ba dd e6 0e bc
       0.13157977 -0.05874195 -0.0011835113 -0.008722034
0002f0 1b 7a 11 3b d5 43 43 3d ae 1f 88 3d 14 6f be 3b
       0.0022198025 0.04767211 0.066466674 0.0058115814
000300 84 1c a1 3d e8 ba 3b bc a2 06 d0 3c 82 4b ac 3d
       0.07866767 -0.011458136 0.025393788 0.084128395
000310 99 ad 6a 3d 4e 55 c6 3b 95 d3 cb 3d 97 9b a2 bd
       0.057294462 0.0060526496 0.099524654 -0.07939833
000320 ba 43 94 3c a0 c0 4e 3d f0 74 3e be 52 f8 d8 3d
       0.0180987 0.05047667 -0.18599296 0.10594238
000330 38 d1 37 3d 4d fd e6 3c 86 93 82 3c ef a7 89 bc
       0.04487726 0.028196955 0.015939485 -0.01680371
000340 aa 50 0b be 2f 23 8e bd 65 47 8b bd 71 1d 4e bd
       -0.1360499 -0.069403045 -0.06800727 -0.050321046
000350 2c 64 90 3c 9a 9d 09 3d 3b 36 1d 3c 53 65 b8 ba
       0.01762589 0.033597566 0.009595449 -0.0014068283
000360 45 5f c6 bd 7d 42 02 bd 79 ec 83 3d b8 af 16 bd
       -0.0968614 -0.03180169 0.06441588 -0.036788672
000370 f3 3f 80 bd d4 87 7a 3d 85 28 43 bd 1c 6c 80 bd
       -0.06262197 0.061164692 -0.047646064 -0.0627062
000380 11 5e 0c bc 79 b4 0a 3e 8b c5 05 3e f4 21 db 3b
       -0.008567349 0.13545407 0.13063638 0.006687397
000390 f2 0e 99 3d 05 a6 9d bc b8 40 f3 3b 17 10 b5 bd
       0.07473554 -0.019244203 0.0074234866 -0.088409595
0003a0 66 de 6d bd b6 a8 a3 3d d8 ca 5a bd 43 bd 2c bd
       -0.058073424 0.079911634 -0.053416103 -0.04217268
0003b0 ab 4b 92 bd d4 fa 71 3c 3b c9 cf bd 5f c5 89 bd
       -0.07143339 0.014769275 -0.101458035 -0.06727099
0003c0 10 df d0 bd d1 c3 a0 bc a4 ea 6f bd 2e 7f b2 bd
       -0.10198796 -0.019624623 -0.05857338 -0.08715664
0003d0 67 30 e0 bc 6e 24 37 3d 3d 94 10 be 2c 7a 98 bd
       -0.02736683 0.044712476 -0.14119048 -0.074451774
0003e0 d9 a1 2b bd 1a 45 b6 3d ce 41 1d 3d fe ea 11 3c
       -0.041902397 0.08899899 0.038392834 0.008906124
0003f0 5b aa 4e 3b bc 9d cf 3d bd 40 5c bc 5c 88 43 3a
       0.0031534645 0.10137507 -0.013443169 0.0007458979

bias f4 [9]
000000 a8 5b 42 bd df c6 d2 bb 5d 81 2a bd 37 40 f2 bc
       -0.04745069 -0.0064323987 -0.041627277 -0.029571636
000010 e4 f5 fe bc a8 da fc bc b3 41 d4 3c cd 0e 38 bd
       -0.03112311 -0.030865982 0.025910234 -0.04493599
000020 45 50 bd 3c
       0.023109565
