ESPCN/ESPCN_mytorch/ESPCNModel_relu_50_0.0001.pth (torch, 95484 bytes, 6 tensors)

weight f4 [64, 1, 5, 5]
0	0xbe18c051	-0.14917113
1	0x3da47f0f	0.08032047
2	0x3e6163ee	0.22010776
3	0x3d2c2e5d	0.042036403
4	0xbe29b571	-0.1657312
5	0xbe2076d2	-0.15670326
6	0x3dd318bc	0.10307452
7	0xbe3fc2a0	-0.18726587
8	0x3cf97101	0.030449392
9	0x3e1b9cdf	0.1519656
10	0xbe08ce5d	-0.13359971
11	0x3e6398be	0.22226235
12	0x3da8dbae	0.082450256
13	0x3db63f20	0.08898759
14	0x3dea16b5	0.11430112
15	0x3dca6b30	0.09883726
16	0xbe0c74ea	-0.13716474
17	0xbde85942	-0.113451496
18	0x3d0cdd8d	0.034390975
19	0xbdd69a4f	-0.10478651
20	0x39939086	0.00028145703
21	0xbdb03868	-0.08604509
22	0xbbfa823b	-0.007644919
23	0x3e4cd56f	0.20003293
24	0xbcdf3f36	-0.027251821
25	0xbdd9afb9	-0.106292196
26	0x3d60ff0d	0.054930735
27	0x3df3f71f	0.11912369
28	0x3e8704aa	0.26370746
29	0xbc9bf72b	-0.019038757
30	0x3d7c0e44	0.061537042
31	0xbd2b7e4e	-0.0418685
32	0xbf1bf1f8	-0.6091609
33	0xbd639cc5	-0.05556943
34	0x3e2c95d6	0.16854033
35	0x3e0c225b	0.1368498
36	0x3cae0e8d	0.021247173
37	0xbde1352a	-0.10996468
38	0xbedb1c95	-0.42795244
39	0x3eed62c0	0.46364403
40	0xbe3d55c2	-0.18489745
41	0xbe089f08	-0.13341916
42	0xbed0f1d9	-0.40809515
43	0xbed64966	-0.41852874
44	0x3dd7b55a	0.10532637
45	0x3c37faa7	0.011229194
46	0x3e799c5a	0.2437605
47	0x3df50d27	0.11965399
48	0x3e458759	0.19289912
49	0x3cd137c7	0.025539292
50	0x3c31cee3	0.010852548
51	0xbd89718a	-0.06711109
52	0xbd06d686	-0.03291943
53	0x3e16b127	0.14716016
54	0x3c8514e9	0.016245322
55	0xbe1dc912	-0.15408733
56	0x3d255e1c	0.040372953
57	0x3d4a9a50	0.04946357
58	0xbdb6bf63	-0.08923223
59	0x3db11c0c	0.08647928
60	0x3e137f6f	0.14404081
61	0x3e9df34c	0.30849683
62	0xbe196075	-0.14978202
63	0x3dde3ab9	0.10851044
64	0xbca6ad4c	-0.020346306
65	0x3d9d020a	0.076664045
66	0xbdcd206a	-0.10015948
67	0x3e7733e4	0.24140888
68	0xbcde67ac	-0.027149044
69	0x3e779e5a	0.241815
70	0x3c3390c2	0.010959806
71	0x3d6de71c	0.05808173
72	0x3e80e6fc	0.25176227
73	0x3de36342	0.11102916
74	0x3e64a96d	0.22330256
75	0x3e6efb37	0.23338018
76	0x3e18d729	0.14925827
77	0xbd11d200	-0.035600662
78	0xbb48816a	-0.0030594715
79	0x3dc36192	0.095400944
80	0x3dff618a	0.12469776
81	0x3dbd52f0	0.09244335
82	0xbe4d1564	-0.20027691
83	0x3d103350	0.035205185
84	0xbc65663d	-0.014001426
85	0xbd9151cd	-0.070956804
86	0x3d799c09	0.060939822
87	0xbe45fcce	-0.19334719
88	0x3e8afb2f	0.27144763
89	0xbd80a3f4	-0.062812716
90	0xbd28eb24	-0.041239873
91	0x3e4f958f	0.20271896
92	0x3e07c4cb	0.13258664
93	0x3de58fa1	0.11209036
94	0xbd93a296	-0.07208745
95	0x3d00ddb9	0.03146145
96	0x3d8eb7a8	0.069686234
97	0x3e1992db	0.14997427
98	0xbdcf3da5	-0.1011918
99	0x3d84c549	0.06482942
100	0x3970e0f3	0.00022971984
101	0x3d6cd2c4	0.05781819
102	0x3d1d7a21	0.03844655
103	0xbe08f3d4	-0.13374263
104	0x3ca361b8	0.019944057
105	0xbd3293fe	-0.043598168
106	0x3df1df76	0.118102
107	0x3e0e438a	0.13892952
108	0x3e437c02	0.19090274
109	0xbdb1f780	-0.08689785
110	0xbe4a8d83	-0.19780545
111	0xbea55bd0	-0.3229661
112	0xbdb59218	-0.08865756
113	0x3e27ddff	0.16393279
114	0xbc392350	-0.011299923
115	0x3d2971a6	0.04136815
116	0xbd71205a	-0.058868743
117	0xbe79726b	-0.24360053
118	0xbe1f8a1c	-0.15580028
119	0x3dae6822	0.085159555
120	0xbcf4fd8c	-0.029906057
121	0xbe154259	-0.14576091
122	0x3e40f71f	0.18844269
123	0x3cc71aa5	0.024304697
124	0xbdc17b11	-0.09447301
125	0xbcbe401e	-0.023223933
126	0x3d97da05	0.07414631
127	0xbe92b3ac	-0.28652704
128	0xbe7c82cc	-0.2465927
129	0xbdfeaa99	-0.12434883
130	0x3d8e84c4	0.06958917
131	0xbef9c4e8	-0.4878304
132	0xbefb32c5	-0.49062172
133	0xbe88a62f	-0.26689288
134	0xbed5ee89	-0.4178355
135	0xbe6d6649	-0.2318355
136	0xbec7dd23	-0.390359
137	0xbe910b9f	-0.2832918
138	0xbecb91b3	-0.39759597
139	0xbde9b84f	-0.11412107
140	0xbe7e1dc9	-0.2481605
141	0xbef365ff	-0.47538754
142	0xbe185cda	-0.1487917
143	0xbe33ba85	-0.1755162
144	0xbe8ba003	-0.27270517
145	0xbc0852b1	-0.008320496
146	0xbdb114a9	-0.08646519
147	0x3b622050	0.0034504123
148	0xbdf96c9b	-0.12178918
149	0x3e019968	0.12656176
150	0xbda9dcb8	-0.08294052
151	0xbd5f6a8c	-0.05454497
152	0x3e47d3dd	0.19514413
153	0xbb0526ce	-0.002031732
154	0x3e5f0fc0	0.21783352
155	0x3d06d58b	0.032918494
156	0x3ccfd6c5	0.025370965
157	0x3dc085cf	0.09400522
158	0x3dcc75e2	0.09983422
159	0xbe21d1c2	-0.15802673
160	0x3cd2dadc	0.025739126
161	0x3db13413	0.086525105
162	0x3949bfc1	0.00019240288
163	0xbe09de91	-0.13463809
164	0xbdc861f0	-0.09784305
165	0x3db026c1	0.08601142
166	0x3d046d9b	0.03233109
167	0xbce9dcbd	-0.028547639
168	0xbdca7779	-0.09886069
169	0x3d35f840	0.044426203
170	0x3e246713	0.16054945
171	0xbd7ff4c1	-0.062489275
172	0xbd07de47	-0.033170965
173	0x3dee97bd	0.116500355
174	0xbd882f37	-0.066496305
175	0xbd28ae14	-0.04118164
176	0x3d2bdc10	0.041957915
177	0xbe0d2c07	-0.13786326
178	0x3cd2aff5	0.025718668
179	0xbdeaa842	-0.11457874
180	0x3d2c3da6	0.04205098
181	0x3cac3c7d	0.021024937
182	0x3eb4449a	0.3520859
183	0x3c4875ef	0.012235149
184	0x3e6391f8	0.22223651
185	0xbdd98720	-0.10621476
186	0x3e7e2acc	0.24821013
187	0xbcbbba47	-0.022915972
188	0xbf04a569	-0.51814896
189	0x3cb80e12	0.022467647
190	0xbdfcecc6	-0.123498484
191	0x3e564727	0.2092558
192	0xbee54467	-0.4477875
193	0xbf029b57	-0.5101828
194	0xbe05591f	-0.13022278
195	0x3c5d6a5c	0.013514128
196	0x3de77f6e	0.11303602
197	0x3d4bcd8c	0.04975657
198	0xbdfc3e61	-0.12316585
199	0x3def6444	0.11689046
200	0x3dc9f9e2	0.098621145
201	0x3d4c7ed6	0.049925648
202	0xbd3c9850	-0.046043694
203	0xbc9f121e	-0.019417819
204	0x3da2c85c	0.07948372
205	0xbdbded07	-0.09273725
206	0xbdf77a67	-0.12083893
207	0xbd83c36a	-0.06433757
208	0xbe326638	-0.17421806
209	0x3df2a446	0.11847739
210	0x3e155ea4	0.14586884
211	0xbeada62a	-0.33915836
212	0xbe9e3633	-0.30900726
213	0xbe81d759	-0.2535961
214	0xbdf3d6d5	-0.1190621
215	0x3dc871f4	0.0978736
216	0xbc114def	-0.0088686785
217	0xbe6d570b	-0.23177736
218	0xbe30f675	-0.17281516
219	0xbd8cd62c	-0.068767875
220	0xbd9c15ef	-0.07621371
221	0xbcdd4afc	-0.027013294
222	0x3d269999	0.040673826
223	0xbda7dbfa	-0.08196254
224	0x3d36b1f1	0.044603292
225	0x3cfaea16	0.030629199
226	0xbc27bde3	-0.010238144
227	0xbd2a11ec	-0.041520998
228	0x3db014af	0.08597695
229	0xbb79644f	-0.0038054173
230	0x3d7b0f00	0.061293602
231	0xbe8a8a78	-0.27058768
232	0xbef5c57d	-0.48002234
233	0xbe7f7c4d	-0.2494976
234	0xbdf462fe	-0.11932944
235	0xbd38f695	-0.045157034
236	0x3ed0974b	0.40740427
237	0xbdc460b1	-0.09588755
238	0xbde26e76	-0.11056225
239	0x3e099cb6	0.13438687
240	0x3dfd90b3	0.12381115
241	0x3deda476	0.11603634
242	0x3e6787ee	0.22610447
243	0x3cc732c9	0.024316208
244	0x3ded65c1	0.11591674
245	0xbdd7c110	-0.105348706
246	0x3ca5a1e8	0.020218804
247	0xbe477f5b	-0.19482176
248	0x3e2082ae	0.1567485
249	0xbd0deb75	-0.034648377
250	0x3c39b255	0.011334022
251	0x3daa010f	0.08300983
252	0x3d281f06	0.04104521
253	0xbd57772e	-0.052603893
254	0x3d6d4707	0.057929065
255	0xbe2655b2	-0.16243628

bias f4 [64]
0	0x3e3acf5b	0.18243162
1	0x3c340454	0.01098736
2	0xbd8373de	-0.06418584
3	0x3c091a81	0.008368135
4	0x3e1d8192	0.15381458
5	0x3e302e2d	0.17205115
6	0x3de84115	0.113405384
7	0x3dd93a66	0.10606842
8	0x3e553afe	0.20823285
9	0xbc3bf3bf	-0.011471688
10	0x3dd3d6fb	0.10343739
11	0x3d8d7fc8	0.06909138
12	0xbe13b9e2	-0.14426377
13	0x3dc3f062	0.09567334
14	0x3e3a74a4	0.18208557
15	0x3e66c582	0.22536281
16	0xbd819131	-0.06326521
17	0xbe4cbf54	-0.19994861
18	0x3e400e1c	0.18755382
19	0x3e1fe248	0.15613663
20	0xbe308175	-0.17236884
21	0xbd9089dc	-0.070575446
22	0xbe193d42	-0.14964774
23	0xbe02ff0e	-0.12792608
24	0xbee1c920	-0.4409876
25	0xbec5d0a1	-0.38635734
26	0xbd79b49e	-0.060963266
27	0x3e477498	0.1947807
28	0x3e55125f	0.2080779
29	0xbefbed94	-0.49204695
30	0x3b6d2a9f	0.0036188734
31	0x3d0c07a0	0.03418696
32	0x3c85a82e	0.016315546
33	0x3ddd8cb4	0.108178526
34	0x3df46c84	0.1193476
35	0xbe20f06f	-0.15716718
36	0xbd9c4ddf	-0.0763204
37	0x3e41f63a	0.18941584
38	0xbc3945a5	-0.011308108
39	0x3e42f84f	0.19040035
40	0x3e69c839	0.22830285
41	0xbdddc752	-0.10829033
42	0x3c5dcf6d	0.013538224
43	0xbd44d8cd	-0.04805832
44	0x3e3aac41	0.18229772
45	0x3d2da92e	0.04239767
46	0x3d5332a0	0.05156195
47	0x3c8d38a4	0.017238922
48	0xbd36220f	-0.044466075
49	0x3c1b2fc4	0.009471837
50	0x3e3d5c0a	0.18492141
51	0xbdf3e84d	-0.11909542
52	0xbda7af0f	-0.08187687
53	0x3a949a73	0.0011337533
54	0x3dc07cd9	0.09398813
55	0xbdf997be	-0.12187146
56	0x3d0fab38	0.035075396
57	0x3e646455	0.22303899
58	0xbdf16d30	-0.11788404
59	0xbc2ee87d	-0.010675547
60	0x3ded9896	0.11601369
61	0x3d009685	0.031393547
62	0x3ddc434d	0.10755024
63	0x3e693725	0.22774942

weight f4 [32, 64, 3, 3]
0	0xbc5e5953	-0.013571101
1	0x3c78fddd	0.0151972445
2	0x3ca95aed	0.02067324
3	0x3d7527a3	0.059852254
4	0x3d50d0d5	0.050980408
5	0xbc1b23ce	-0.009468986
6	0x3c4009a2	0.011721047
7	0x3d1c339a	0.03813515
8	0x3d414829	0.047187958
9	0x3e44ef6e	0.1923196
10	0xbe35cef0	-0.17754722
11	0x3e41d6a5	0.18929537
12	0xbdf0de3b	-0.11761137
13	0x3e421625	0.1895376
14	0xbd984559	-0.07435102
15	0xbf0eb135	-0.55739146
16	0x3e5c4b58	0.21513116
17	0xbe26153c	-0.16219038
18	0xbd191997	-0.03737792
19	0x3b6651c0	0.0035143942
20	0xbd9564ca	-0.072946146
21	0x3d31caf5	0.043406446
22	0xbaaaf83c	-0.001304395
23	0xbcfb7a5d	-0.030697996
24	0x3cfab9fd	0.030606264
25	0x3d2241d1	0.03961355
26	0x3d516b2a	0.05112759
27	0xbd4af1da	-0.049547054
28	0x3d17718f	0.036973532
29	0xbd8c6f35	-0.068571486
30	0x3d413a92	0.047174998
31	0x3d597997	0.053094473
32	0x3cfea080	0.031082392
33	0x3d38be02	0.04510308
34	0x3cd891a0	0.026436627
35	0x3bf7d27f	0.007562935
36	0x3d2163ed	0.039401937
37	0x3de7728e	0.113011464
38	0x3d27b6a3	0.04094566
39	0xbc3ef192	-0.011654275
40	0x3d47723e	0.048692934
41	0x3d9844ea	0.07435019
42	0x3dd545ff	0.10413741
43	0x3c1b10fa	0.009464497
44	0xbbe55570	-0.0069987103
45	0x3d8220cd	0.063539125
46	0x3db995f3	0.09061804
47	0x3d736d84	0.059430614
48	0x3e0e2d0f	0.13884376
49	0x3e3c196c	0.18369073
50	0x3e225162	0.15851358
51	0x3d9f11ca	0.07767065
52	0x3e07f5f0	0.13277411
53	0x3d9408de	0.07228254
54	0x3d88d1a4	0.06680611
55	0xbc9269e3	-0.017872756
56	0x3b02983c	0.0019927165
57	0x3d1989da	0.03748498
58	0x3d8e5039	0.06948895
59	0x3ce3c015	0.027801553
60	0x3da659d0	0.08122599
61	0x3cc079c3	0.02349556
62	0x3d43e9a2	0.04783023
63	0x3ab11254	0.001350949
64	0x3eb2c4aa	0.34915668
65	0xbe7243a1	-0.23658611
66	0x3e997d03	0.2997819
67	0x3e66ee38	0.2255181
68	0x3e830131	0.25586846
69	0xbeb52f24	-0.35387528
70	0x3e86f021	0.2635508
71	0xbe91b272	-0.28456455
72	0x3d60be78	0.054869145
73	0x3da7dc62	0.081963316
74	0x3db92243	0.09039738
75	0x3e332bc0	0.17497158
76	0x3dc3d40d	0.0956193
77	0x3d91f218	0.07126254
78	0x3c10c6d8	0.008836471
79	0x3d830d09	0.06398971
80	0xbbdd5a94	-0.0067551825
81	0x3d679fa9	0.05654875
82	0xbcc2788c	-0.023739122
83	0x3dc51f3e	0.096250996
84	0xbcc7abb6	-0.02437387
85	0x3cb83152	0.022484455
86	0xbd993db4	-0.07482472
87	0xbd038604	-0.03211023
88	0x39ff7df8	0.00048731244
89	0x3e8317c4	0.2560407
90	0x3cd43290	0.025903016
91	0x3ab1fba4	0.0013579023
92	0xbce364f3	-0.027758097
93	0xbcdb6a31	-0.026784034
94	0x3c575f70	0.013145313
95	0x3bead9ff	0.0071671004
96	0x3d5021f3	0.050813626
97	0xbc23a5d0	-0.009988263
98	0x3d51cdcf	0.051221665
99	0x3d40e5cf	0.047094163
100	0x3c07fd4b	0.008300136
101	0x3e0b44c8	0.13600457
102	0x3dbb2682	0.09138204
103	0x3c2535b8	0.010083608
104	0x3d77ec12	0.06052787
105	0x3dbe717f	0.092989914
106	0xbd8e6fea	-0.0695494
107	0xbe1b1b08	-0.1514703
108	0x3d1b8127	0.037964966
109	0x3c0467f6	0.008081427
110	0x3bca3c04	0.006171705
111	0x3a062ca5	0.0005118347
112	0xbd803f84	-0.06262115
113	0x3c4dadc2	0.012553634
114	0x3cc5ffbf	0.0241698
115	0x3d0c9134	0.034318164
116	0xbd6035a5	-0.05473866
117	0x3d02cb81	0.031932358
118	0xbc04d96f	-0.008108481
119	0x3b8c0361	0.0042728637
120	0x3b17ec11	0.0023181478
121	0x3caa4e01	0.020789148
122	0x3d3d925c	0.046282157
123	0x3d6a1623	0.057150017
124	0xbbfe60dd	-0.007763012
125	0xbc7d6475	-0.015465845
126	0x391e0c03	0.00015072529
127	0x3d07df0f	0.03317171
128	0x3d58e1d3	0.052949738
129	0x3d0a6c6a	0.033794798
130	0x3c559cac	0.013037842
131	0x3d67a79c	0.05655633
132	0xbc167bd0	-0.009184793
133	0xbc64e013	-0.013969439
134	0xbca5279a	-0.020160485
135	0x3d06002f	0.03271502
136	0x3ac37fb0	0.0014915373
137	0xbcae896a	-0.021305759
138	0xbc6ac166	-0.014328336
139	0x3cf20530	0.02954349
140	0xbcdf5b99	-0.027265357
141	0x3d45c9eb	0.048288267
142	0x3c00bf89	0.007858166
143	0x3d7fabaa	0.06241957
144	0xbac4d2a1	-0.0015016386
145	0xbd3a8984	-0.0455413
146	0xbd477a44	-0.048700586
147	0xbd7cd4d5	-0.06172641
148	0x3c337262	0.010952564
149	0xbd2bc4b0	-0.041935623
150	0xbd7b6f5c	-0.061385497
151	0xbafc75c3	-0.001926117
152	0x3d143fd0	0.03619367
153	0xbbe24bee	-0.006906024
154	0x3d1edc67	0.03878441
155	0xbc932480	-0.01796174
156	0x3ce94b8f	0.028478412
157	0xbbd319d9	-0.0064422903
158	0x3d1a3987	0.03765252
159	0x3d0a0764	0.033698454
160	0x3c819063	0.01581592
161	0x3c11cba8	0.008898653
162	0x3d8b6111	0.06805623
163	0xbc163951	-0.009168939
164	0x3bf15e91	0.0073660095
165	0x3e324d60	0.17412329
166	0x3dcbe6e9	0.09956152
167	0x3bf7af4b	0.0075587383
168	0x3ddbeab4	0.107381254
169	0x3d990d05	0.074731864
170	0xbd1c6b4a	-0.038188256
171	0xbca717c7	-0.02039708
172	0x3d9b3128	0.07577735
173	0xbc9ae4f1	-0.018907996
174	0x3bb63d76	0.005561526
175	0x3cf27acb	0.029599568
176	0x3d89756f	0.06711852
177	0x3d874e27	0.06606703
178	0x3b776627	0.0037750097
179	0xbc589971	-0.013220177
180	0xbbf036f3	-0.007330769
181	0x3c81485e	0.015781578
182	0xbd2a8c66	-0.0416378
183	0xbd1c8d69	-0.038220797
184	0xbbecb019	-0.007223141
185	0x3c0841ff	0.008316516
186	0x3ced92da	0.029000688
187	0xbd01be8c	-0.03167586
188	0xbb27791a	-0.002555436
189	0xbcd2c9db	-0.025731018
190	0x3d5d5f6d	0.054046083
191	0x3cc941ba	0.024567474
192	0xbdc407a9	-0.095717736
193	0x3d340ef9	0.04395959
194	0x3cc5caab	0.024144491
195	0xbd7fe856	-0.062477432
196	0x3cdc4299	0.026887225
197	0x3d0d5e34	0.034513667
198	0xbcb11bf3	-0.021619773
199	0xbcbe4054	-0.023224033
200	0x3cefdd90	0.029280454
201	0x3aaf331e	0.0013366675
202	0xbd035368	-0.032061964
203	0xbb0ef026	-0.002181062
204	0xbc85d30e	-0.01633599
205	0x3b5e9aa0	0.0033966675
206	0x3b00bec9	0.0019644967
207	0xbc810164	-0.015747733
208	0xbd394d12	-0.045239516
209	0x3d2b545b	0.041828495
210	0xbc158255	-0.009125312
211	0x3ccf9d94	0.025343694
212	0xbdbca5f5	-0.09211341
213	0x3c3ca9fd	0.011515138
214	0xbd56f27f	-0.052477356
215	0x3d8a9fea	0.067687824
216	0xbeddb20f	-0.4329991
217	0x3e757523	0.23970465
218	0x3f3afbce	0.73040473
219	0xbf1e7c0b	-0.61908025
220	0xbf5a599b	-0.8529298
221	0x3d79e4de	0.06100928
222	0x3e170a2a	0.14749971
223	0xbeca5492	-0.39517647
224	0xbec1bb9f	-0.37838456
225	0xbca665a0	-0.02031213
226	0x3e35ed67	0.17766343
227	0x3e24de83	0.16100506
228	0xbeda1fa7	-0.42602274
229	0xbe0a12d4	-0.13483745
230	0x3d0af52c	0.03392522
231	0xbe251679	-0.16121854
232	0x3d800af6	0.06252091
233	0xbe3fead6	-0.18741927
234	0xbe05d342	-0.1306887
235	0x3e7270b1	0.23675801
236	0xbe0845aa	-0.13307825
237	0xbdaadf0f	-0.08343326
238	0x3e141e12	0.14464596
239	0xbe925f83	-0.28588495
240	0xbd1d7c6f	-0.038448747
241	0x3dd603fb	0.10449978
242	0x3d62b107	0.055344608
243	0x3cce06fe	0.025149819
244	0x3cd9416d	0.026520455
245	0x3c76de3b	0.015067632
246	0x3cf24045	0.029571662
247	0x3cec23a1	0.028825583
248	0x3d52507e	0.051346295
249	0x3b08660c	0.0020812778
250	0x3d3957bb	0.045249682
251	0xbc9a7ba6	-0.018857788
252	0x3d488141	0.04895139
253	0x3ce22e15	0.027609864
254	0x3d4f1eb5	0.050566394
255	0x3da00666	0.078137204

bias f4 [32]
0	0x39544acf	0.00020245764
1	0x3b83dc97	0.004024099
2	0x3ce4114e	0.027840283
3	0xbcb4f668	-0.022090152
4	0x3d8085d1	0.062755235
5	0xbcfc742d	-0.030817116
6	0x3d01e060	0.03170812
7	0xbc65b118	-0.014019273
8	0x3d423ac3	0.04741932
9	0x3d798afc	0.06092356
10	0xbb48d0d2	-0.0030642045
11	0xbd325588	-0.0435386
12	0x3d20a83d	0.039222945
13	0x3d5aac2e	0.05338686
14	0xbcc16ce6	-0.023611497
15	0x3d3ba0d3	0.04580767
16	0x3cdde4b2	0.02708659
17	0xbbb168f1	-0.0054141213
18	0xbca5d6d4	-0.02024404
19	0x3dd59994	0.10429683
20	0xbd1925db	-0.037389617
21	0x3d09c3b1	0.03363389
22	0x3d507834	0.050895885
23	0x3e50fcc5	0.20408924
24	0x3cb24d93	0.021765506
25	0xbd2a188d	-0.04152732
26	0x3d7dc6ef	0.061957296
27	0x3c7d871f	0.01547411
28	0x3d46ec24	0.048565045
29	0xbce99feb	-0.028518638
30	0x3af77216	0.0018878605
31	0xbc15b0ec	-0.00913642

weight f4 [9, 32, 3, 3]
0	0xbc8ddacb	-0.017316243
1	0x3d6eeb15	0.05832966
2	0xbae2cd89	-0.0017303686
3	0xbb849b3d	-0.004046826
4	0xbda97e53	-0.082760476
5	0xbc897ff3	-0.016784644
6	0xbd71ff7f	-0.05908155
7	0xbd8ed6f6	-0.06974594
8	0x3d126df8	0.035749406
9	0x3c533a8c	0.012892377
10	0x3d01292e	0.031533413
11	0x3d48a171	0.048982088
12	0xbb055862	-0.002034687
13	0xbd72dc94	-0.05929239
14	0x3cf3ec7e	0.029775854
15	0x3cbb8812	0.022892032
16	0xbd38df32	-0.04513473
17	0x3d2a2c7c	0.04154633
18	0xbd5f027a	-0.05444572
19	0x3d02b551	0.031911198
20	0x3c0b3814	0.008497257
21	0xbb400e6e	-0.0029305476
22	0x3ca23327	0.019799782
23	0xbce6c5ca	-0.028170485
24	0x3cc7ab3a	0.02437364
25	0xbda6f481	-0.08152104
26	0x3c107e22	0.008819135
27	0x3d59e11b	0.053193193
28	0x3daf3826	0.08555631
29	0x3cfa2fd1	0.030540379
30	0x3cd43775	0.02590535
31	0x3e13b3db	0.14424078
32	0x3d449e9a	0.048002817
33	0x3c8282cf	0.015931515
34	0x3da4ec9e	0.08052944
35	0xbca8f46a	-0.020624358
36	0xbc55ad88	-0.013041861
37	0xbc429a5a	-0.011877621
38	0xbd750b89	-0.059825454
39	0xbda94240	-0.08264589
40	0xbd9c8f76	-0.076445505
41	0xbd78a76e	-0.06070655
42	0xbd3bd494	-0.045857027
43	0xbcdf4203	-0.027253157
44	0xbd78dbd5	-0.060756523
45	0x3d674780	0.056464672
46	0x3d3d0949	0.046151433
47	0x3c3f835a	0.0116890315
48	0xbc3638ee	-0.0111219715
49	0xbd0c02ea	-0.034182467
50	0x3c16e6c8	0.009210296
51	0x3ca08ced	0.019598449
52	0x3d05b958	0.03264746
53	0x3c37fa7f	0.0112291565
54	0x3dcf4142	0.10119869
55	0xbd803cc6	-0.062615916
56	0xbd1462fc	-0.03622721
57	0xbd07585a	-0.033043243
58	0xbe1305cd	-0.14357682
59	0xbd4ae99b	-0.04953919
60	0xbcf82498	-0.030290887
61	0xbca61637	-0.020274265
62	0x3d20fba0	0.03930247
63	0x3d2f9e49	0.042875562
64	0xbc520b5c	-0.012820091
65	0x3d6a28fe	0.057168
66	0xbd02488b	-0.031807464
67	0x3c7be0fe	0.015373467
68	0x3c187a54	0.009306509
69	0xbd13f21c	-0.036119565
70	0x3cb89bdc	0.022535257
71	0x3a854f40	0.0010170713
72	0xbc9abb38	-0.018888101
73	0xbdab99bf	-0.08378934
74	0xbd8816de	-0.066449866
75	0x3be20a28	0.0068981834
76	0x3c2b25df	0.010446041
77	0xbd67d384	-0.0565982
78	0xbd799932	-0.060937114
79	0xbd9b3ac7	-0.0757957
80	0xbd56e333	-0.052462768
81	0x3d412f59	0.047164295
82	0xbdcb551f	-0.09928345
83	0xbd1dd702	-0.038535126
84	0xbc1ea396	-0.009682557
85	0xbc03e0bc	-0.008049186
86	0x3d0ad8cd	0.033898164
87	0xbc9eb87e	-0.019375082
88	0xbcbfc42f	-0.023408977
89	0xbb27c6eb	-0.0025600742
90	0x3ca08572	0.019594882
91	0xbd8a9fe8	-0.06768781
92	0x3c109ab4	0.008825947
93	0xbc3ff298	-0.011715554
94	0xbddce496	-0.10785787
95	0xbd2ef948	-0.042718202
96	0x3cd074fa	0.025446404
97	0xbda9c151	-0.08288825
98	0xbc71a8a2	-0.014749678
99	0x3d048ab0	0.032358825
100	0x3bac5f93	0.005260417
101	0xbd9c00f0	-0.07617366
102	0xbcaf9793	-0.02143458
103	0x3e24a461	0.1607833
104	0x3c99324a	0.018700738
105	0xbbfec7a5	-0.0077752643
106	0xbd09a4f8	-0.033604592
107	0x3c5ec1dc	0.013596024
108	0x3d0876fb	0.033316594
109	0x3daee19b	0.085391246
110	0x3d378ddc	0.044813022
111	0x3d4ebc19	0.050472353
112	0x3d7f258a	0.06229166
113	0x3d0be84b	0.03415708
114	0x3d21dbcf	0.039516266
115	0xbceb7c1e	-0.028745707
116	0xbb152e17	-0.0022763067
117	0xbcdbabf7	-0.026815398
118	0xbd317055	-0.04332002
119	0xbcc66267	-0.024216844
120	0x3ae2459c	0.0017263177
121	0x3c56edd5	0.013118227
122	0xbc77f39d	-0.0151337655
123	0xbd7a1eaf	-0.06106442
124	0xbce3c561	-0.027804079
125	0xbd7a663d	-0.06113266
126	0x3d1d8d4b	0.038464826
127	0x3daeb72c	0.08531031
128	0xbc891a90	-0.016736299
129	0x3d331def	0.04372972
130	0x3e013e59	0.1262144
131	0x3d1d1d3f	0.03835797
132	0xbb6001f1	-0.0034180845
133	0x3c1fc94d	0.009752584
134	0x3d64c2c1	0.055849794
135	0xbb9c4cb4	-0.004769886
136	0x3b9e4dd5	0.0048310556
137	0x3ce84a0b	0.028355619
138	0x3c3ee9fb	0.011652465
139	0xbcb3607a	-0.02189659
140	0x3c38a3ac	0.011269491
141	0x3d420533	0.04736824
142	0xbd44381c	-0.047905073
143	0xbcca54fb	-0.024698725
144	0xbd105556	-0.035237633
145	0xbd849989	-0.06474597
146	0xbd784e66	-0.06062164
147	0xbc2a30eb	-0.0103876395
148	0x3d3ed219	0.046587083
149	0xbc9b380d	-0.018947626
150	0xbbd122d0	-0.006382324
151	0xbc776644	-0.015100066
152	0x3c79f6c0	0.015256584
153	0x3d601d44	0.05471541
154	0xbd21fe3d	-0.0395491
155	0x3dc54212	0.096317425
156	0x3dbc5c49	0.091972895
157	0x3d5a0a33	0.053232383
158	0xbd8574e9	-0.065164395
159	0xbd304396	-0.043033205
160	0x3d739b59	0.059474323
161	0xbd07a9f7	-0.033121075
162	0xbd34d490	-0.044148028
163	0x3d3d00f1	0.046143476
164	0x3d4cf8ba	0.05004189
165	0xbd39c3cb	-0.04535274
166	0x3d633ae1	0.055476073
167	0x3e106644	0.14101511
168	0xbd379abe	-0.044825308
169	0x3daa2e13	0.08309569
170	0x3d9758b1	0.073899634
171	0x3d2ec522	0.04266847
172	0xbe929666	-0.2863037
173	0x3daca8f7	0.08430665
174	0xbe572552	-0.2101033
175	0xbee88321	-0.45412543
176	0xbd032a83	-0.032022964
177	0x3de3ef2f	0.11129605
178	0xbb4493fd	-0.0029995434
179	0x3cf38a48	0.029729024
180	0x3d3017ec	0.042991564
181	0xbd0eb1aa	-0.034837402
182	0x3d0241e2	0.031801112
183	0xbd45959d	-0.048238385
184	0xbaf2a6cb	-0.0018512843
185	0x3ce9b293	0.028527534
186	0x3cb06006	0.021530163
187	0x3d2fc42c	0.042911693
188	0xbc62e1c2	-0.01384777
189	0x3de3f1c1	0.11130095
190	0xbeb7d808	-0.35907006
191	0xbbb7cbb2	-0.005608999
192	0x3dcf2400	0.10114288
193	0x3eed25b7	0.46317837
194	0x3e074065	0.13208158
195	0xbe8c446f	-0.2739596
196	0xbe6c3878	-0.23068416
197	0xbdd87ae1	-0.10570312
198	0xbd5562af	-0.052096065
199	0xbccbff95	-0.024902144
200	0x3c71186b	0.014715294
201	0xbdb04d83	-0.08608534
202	0x3bfe2f79	0.007757124
203	0xbcbe50dc	-0.023231916
204	0x3c9502f4	0.018189885
205	0xbda00c69	-0.07814867
206	0x39ec220b	0.00045038792
207	0xbe4b086b	-0.1982743
208	0xbe9d8163	-0.30762777
209	0x3cb3e5c1	0.021960141
210	0xbe900722	-0.28130442
211	0xbec50af2	-0.38484913
212	0xbb172948	-0.0023065377
213	0x3ca4e409	0.020128267
214	0xbcb79fa9	-0.022415
215	0xbd0e3c4a	-0.034725465
216	0xbe0cbce9	-0.13743939
217	0xbbb05943	-0.0053817346
218	0xbd779a22	-0.060449727
219	0xbdf06b1e	-0.11739181
220	0xbdd11061	-0.10208202
221	0xbd756d42	-0.05991865
222	0x3d4cd9cb	0.05001239
223	0x3d42360a	0.047414817
224	0xbaec35ca	-0.0018021401
225	0x3b40ed29	0.0029438233
226	0x3d8494c3	0.064736865
227	0x3cc88cf5	0.024481276
228	0x3c09c922	0.00840977
229	0xbc4d871c	-0.01254442
230	0xbcc73635	-0.02431784
231	0x3c863a88	0.016385332
232	0xbd5cd725	-0.053916115
233	0xbd004e41	-0.03132463
234	0xbd82cd32	-0.06386794
235	0x3d208a7a	0.03919456
236	0xbc269636	-0.010167649
237	0xbc965c8b	-0.018354675
238	0xbd403ce6	-0.046933077
239	0xbdc004df	-0.09375929
240	0x3cf64729	0.030063229
241	0x3ca981ce	0.020691779
242	0xbcd499ba	-0.025952209
243	0x3c24ed96	0.0100664105
244	0xbcc1035e	-0.023561176
245	0x3c04a697	0.008096359
246	0x3d9a971b	0.07548352
247	0x3d5234f3	0.051320028
248	0xbc34e16c	-0.011040073
249	0x3d7076ac	0.058706924
250	0x3cfbf3c9	0.030755894
251	0xbb1d491a	-0.002399987
252	0xbda8e341	-0.0824647
253	0x3ae82557	0.0017711323
254	0xbd170caf	-0.03687733
255	0xbd80fbbb	-0.06298014

bias f4 [9]
0	0x3c863b97	0.016385837
1	0xbd2fc8e1	-0.042916182
2	0xbd84fe83	-0.06493857
3	0x3cbf1864	0.02332706
4	0xbd958dd8	-0.07302445
5	0xbd57f7a2	-0.052726395
6	0xbb8592d3	-0.0040763407
7	0x3d0b8a85	0.03406765
8	0xbacc96f9	-0.0015608958
