ESPCN/ESPCN_mytorch/ESPCNModel_tanh_50_0.001.pth (torch, 95474 bytes, 6 tensors)

weight f4 [64, 1, 5, 5]
00000000: 3486 863b aaff 243e bf1f 5abe d52b d9bd
00000010: 5178 d23c 37fd 823d a1f6 2d3e 6da7 b93e
00000020: 1e0b e3bc d5a0 413d d708 b3bd a53d 943d
00000030: bb36 e4be 4d8c fcbe 0795 9fbd cd87 423d
00000040: 9481 b33e 5e13 c33e b6d4 10be 1f07 a6bb
00000050: 0738 273c 6ac3 123e 828e 3fbd 8ede 2f3e
00000060: 8020 f63b 4f09 1d3d 5fe0 5a3e 0c9a 26be
00000070: 06e6 c4bd faef 92bc df24 81bd c96b 503e
00000080: bac7 21be 0e0f bbbd 74d2 02be b17d 3abe
00000090: 82eb 2bbe f98a 313e 1872 c13d 7754 db3d
000000a0: 4632 043d a7cc efbd df91 423c 247d 6cbe
000000b0: bbe5 0dbe b8eb 8fbd c712 1b3e ee7d 013e
000000c0: 67ce 87bd 1321 123d d6bd 763d c419 5d3e
000000d0: 49b6 0e3e c806 203d 7989 d33d f16a 34be
000000e0: e16b 083e 1f7e 38be d134 28be 7bdb 0fbe
000000f0: 435f 633d 9feb 273e 74b5 09be 711b 283e
00000100: e430 1a3e 524e f6bb 2c94 863d 2774 db3d
00000110: 61c9 6e3e c71a 833e c812 12be de0e 48bd
00000120: 4866 7b3d 6029 1a3e 7207 293e 5e86 453e
00000130: b7ad 7a3d 8dd5 32be de9f 013d ee3a aabd
00000140: 2a38 3dbe 91c8 873e 3908 583e e5d4 7ebe
00000150: 518b 163d 4164 58bc ef8d 103d 047f 71bd
00000160: 553e b23d ce73 0abe e9b8 d53d 1853 3c3e
00000170: 684c 7e3e 8ba4 b73d 663d 56be 9270 11be
00000180: 9e06 bf3d 329d 573d 764a 30be 9883 c0bd
00000190: 0ab8 5e3e 91c0 393e 4152 8bbd 64a7 8dbd
000001a0: fce8 47be 5293 093d b9ff 3bbe e556 87be
000001b0: ca50 7ebc 3a8a 1b3d eff1 b8bd 8bb3 103e
000001c0: 5de7 35be e0ba 863e 470d 0d3e 2da9 1bbe
000001d0: 2bac 1bbd e030 733c ddcc 8a3d 0d4d 683d
000001e0: 3311 fa3d 400a 6e3d 99ec a8bd dfb8 f13d
000001f0: d5bf 3abe 8a6d b1bd 0660 c4bd 6326 b5bd
00000200: 8077 0c3e bd65 b5bd 7db7 b13d c64e 30be
00000210: c98f a2bf 45fc 96bd 7359 7e3d 900c 373d
00000220: 9faf e03e 5c81 c4bd 0ba0 42bd 9115 263e
00000230: 3627 493e 8994 233f 2123 5c3f 196f 99be
00000240: ff8c 90be a448 3fbe 2bc7 3d3d 2be1 913d
00000250: 82d6 dd3c 3067 b83c e693 19be 8b2b 10be
00000260: 38b0 0bbc 6611 173e 8f26 153e 8834 24be
00000270: a468 1e3e de6b 20be 0651 87bc b0da 27bd
00000280: c6ff 9abb b7d2 0abd e5be 54be 7664 2ebe
00000290: 4565 103c d448 363d ffe6 91bd dd65 c53d
000002a0: d6a4 1ebe fa0c f93c 5300 5b3e e2c2 42bd
000002b0: 61b5 563e c2fb de3d 13ed 0dbe 4199 023e
000002c0: fc0e 9ebc bbbb bfbd fd90 3a3e ef73 2cbe
000002d0: 94a4 fe3c d96e 7ebd 28e7 533e 7c13 cc3d
000002e0: 51dc cd3d ac74 8c3d 98e0 90bd 2659 06be
000002f0: e568 5fbe 2d29 083e 4879 1b3e 5747 1e3e
00000300: 5182 61be 25bd fbbc 3a1e 36be d4a9 ddbd
00000310: a16c 0ebe e93b 943d febf e0bd 9302 173d
00000320: f38a 453c c975 213e 1bb2 1bbe bef2 0abe
00000330: d64e c5bd 914f 213e f05e 5abd 2a38 763e
00000340: cb33 d93d 7f7d 4f3d 971e 693c d9da 37bc
00000350: 847e e03d a5ec 9a3b e764 e33c c846 d43c
00000360: b38a 1abe 6d29 c3bd 7a1b 493e 46ef 19be
00000370: c192 cbbc e1f3 533e 5b25 c03d 8c3e 1c3b
00000380: 345f 32be 3f1e bb3d 6e1c 29be 27ad 6fbd
00000390: 8cd1 a1bd 48a4 2ebd f995 cebc d537 5f3e
000003a0: 3fa5 723d 0296 6b3e cda0 af3d ef36 31be
000003b0: b037 de3d bd5b b2be 2687 14be 88a2 813d
000003c0: f25f 593d 72ee 4f3e 5e3d 0ebe e3cc 823b
000003d0: 4fbc a83d 83ac 4ebe 98e9 0d3e 75f4 37be
000003e0: f0f3 793c cc25 d0bc 7132 a3bd 5972 033d
000003f0: 2c2b 343e 464f 8cbd 6b9f d4bd f1fd 3dbd
0.0041053537 0.16113153 -0.21301173 -0.106040634 0.025692137 0.06395953 0.16988613 0.36260548
-0.027715262 0.047272522 -0.087419204 0.0723832 -0.44573006 -0.4932579 -0.077920966 0.04749279
0.35059798 0.38100713 -0.14143643 -0.005066767 0.010206229 0.14332357 -0.046766765 0.17174742
0.0075111985 0.038338955 0.21374653 -0.16269702 -0.09614186 -0.017936695 -0.06305861 0.20353617
-0.15798846 -0.09133731 -0.12775594 -0.1821201 -0.16789058 0.1733817 0.0944559 0.1070947
0.032274507 -0.11708956 0.011875599 -0.23094612 -0.13857166 -0.07027382 0.15143882 0.12645695
-0.06631165 0.035676073 0.060239635 0.2159186 0.13936724 0.039068967 0.10328955 -0.1761892
0.13322403 -0.18016861 -0.16426398 -0.14048569 0.05551077 0.16398476 -0.13448125 0.16416718
0.15057713 -0.0075166607 0.0657123 0.10715514 0.23319007 0.25606367 -0.14264977 -0.048842303
0.06137684 0.15054846 0.16506746 0.19289538 0.061200824 -0.17464276 0.0316466 -0.08312021
-0.18478456 0.26520208 0.21096887 -0.248859 0.036753956 -0.013207496 0.03529161 -0.058959022
0.08703295 -0.13520738 0.104356594 0.18391073 0.24833834 0.08966931 -0.20921859 -0.14203098
0.09327434 0.052640148 -0.17215905 -0.094000995 0.21749893 0.18139865 -0.06802798 -0.06916693
-0.1952247 0.03358776 -0.18359269 -0.26433483 -0.015522191 0.03797362 -0.0903052 0.1413099
-0.1776404 0.2631445 0.13774596 -0.15201254 -0.03800599 0.014843196 0.06777356 0.056714106
0.12210312 0.058115244 -0.082482524 0.118028395 -0.1823724 -0.08663471 -0.095886275 -0.08845212
0.1371746 -0.08857296 0.08677576 -0.1721755 -1.270013 -0.07372335 0.062097024 0.044689715
0.43883988 -0.09594986 -0.04751591 0.16219164 0.19643864 0.6389852 0.859911 -0.29967573
-0.2823257 -0.18680054 0.04633252 0.071230255 0.027079824 0.022510141 -0.14997825 -0.1407911
-0.008525901 0.1475273 0.1456549 -0.16035664 0.15469605 -0.15666148 -0.016518127 -0.04098004
-0.0047301976 -0.03389236 -0.20775945 -0.1703051 0.008813207 0.044503048 -0.07124137 0.096385695
-0.15492567 0.030401696 0.21386842 -0.047549136 0.20967628 0.10887863 -0.13859968 0.12753774
-0.019294254 -0.093619786 0.18219371 -0.168411 0.031084336 -0.06211743 0.20693648 0.09964654
0.10051788 0.06858191 -0.07074088 -0.13119945 -0.21817358 0.13296957 0.15182984 0.15456901
-0.22022368 -0.03072984 -0.17784968 -0.10823408 -0.13908626 0.072379895 -0.109741196 0.03686769
0.012057054 0.15767588 -0.1520466 -0.13569161 -0.096341774 0.15753008 -0.053313196 0.24044862
0.10605582 0.05065679 0.014228485 -0.011221611 0.10961631 0.0047279173 0.027758075 0.025912657
-0.15091972 -0.09529386 0.19639388 -0.15032682 -0.024850251 0.20698501 0.09382125 0.0023840992
-0.1741913 0.09136628 -0.16514751 -0.05851474 -0.07901296 -0.04263714 -0.025217997 0.21798642
0.059239622 0.23006442 0.08575592 -0.17306112 0.10850465 -0.34835616 -0.1450468 0.063298285
0.053070016 0.20305803 -0.13890597 0.0039917096 0.08239042 -0.20182995 0.1385864 -0.17964347
0.015255913 -0.025408648 -0.07968605 0.032091472 0.17594594 -0.06851058 -0.10381969 -0.046384756

bias f4 [64]
00000000: 9b94 4bbe d811 5e3e 4687 e13d 40de a5bd
00000010: 8627 ed3c cc11 8b3c 497c c93d b761 ab3d
00000020: 09c9 36be 4471 073e 8d63 50ba acda 7f3d
00000030: e32f 32be 17b1 8dba 4fe0 40be 7d12 a13d
00000040: d142 123e 6fe0 393d 8a14 57be 605e 0fbe
00000050: 11b4 edbc 7814 6ebe 2fbe 54be 751f 7f3e
00000060: eae1 5e3e 7c81 2f3e 99c4 573e 567a 003e
00000070: e679 303e 68dd 523e dde6 d4bd e091 df3c
00000080: 681f 3e3e 0c05 6dbd 4fd4 41be a34b 5ebe
00000090: 2591 353e 6646 653e e637 633e 5787 a43d
000000a0: 6b1e 4c3e 92d7 82be 0eea 4bbe 142f 7dbe
000000b0: b79f 513e f885 163d 1b9a 4cbe bf54 c03d
000000c0: bfc2 cbbc 2969 2bbe f48a 373d 9757 ba3c
000000d0: 896b 51be 4346 4dbe 0233 1e3e 23dd 663e
000000e0: 6b1a 703d daba 21bb b3bd 173e 6c65 55bc
000000f0: cde2 6bbe 6ad4 3abe c5f9 c23d 1538 3b3e
-0.19880907 0.21686494 0.110121295 -0.080990314 0.02894951 0.01697626 0.09838159 0.08368247
-0.17850126 0.13226801 -0.00079494045 0.0624644 -0.1740108 -0.0010810223 -0.18835567 0.078648545
0.14283301 0.045380052 -0.21003929 -0.14000845 -0.029016526 -0.23249996 -0.20775674 0.24914344
0.21765867 0.17139238 0.2107109 0.12546667 0.17234 0.20592272 -0.10395596 0.027291238
0.18566668 -0.05786614 -0.18928646 -0.2170854 0.1773115 0.22390136 0.22189292 0.080336265
0.19933479 -0.25555092 -0.19913504 -0.2472499 0.20471083 0.036748856 -0.19980662 0.09391164
-0.024873136 -0.16739334 0.04481025 0.022746844 -0.20451178 -0.20046334 0.15449145 0.22545294
0.058618944 -0.0024678023 0.14818458 -0.013024669 -0.23035736 -0.18245092 0.09520296 0.18283112

weight f4 [32, 64, 3, 3]
00000000: 14ff 8fbd 2e02 39bd 79d9 93bd d705 073e
00000010: da80 333e f1d1 aabc 1ad7 11bc b9e6 b5bd
00000020: c677 a7bd 1341 243d a600 ab3d 7bcb bc3b
00000030: 5733 a13d 7f84 36bc c11f 373c 0bae 043d
00000040: 99a1 34bc a473 613d 4596 3ebb fc31 e0bc
00000050: e17e ee3a b786 f6bb bcfa 28bc 8acc 333d
00000060: baa5 00bc d4f8 1a3d b903 463d 06ef b43d
00000070: 42b1 a03c eafb 52bd 00d1 d23b 46bc 3fbd
00000080: 78cf 113d e46b 013e eaba dcbc 92fd c9bd
00000090: da19 533d 4b82 9abd 7d48 8e3c 611b 65bd
000000a0: 8109 d3bb 8832 f0bc ca3e 55bb e72b b0bc
000000b0: 8fe3 673c 8043 5dbd 4f74 793d 6fab b1bd
000000c0: d7b9 32bd 7d54 28be 57d2 5abd 5534 213d
000000d0: c1df 183e 4ba7 11bd 5bfd 593d 260e 15bd
000000e0: b175 103d 0fb7 ba3c c0a8 993c 59ca 1a3d
000000f0: e1d0 233c 9772 363d ac7b 683d 74c1 5abb
00000100: b076 833d 2048 103c 096d a8bb 4e6a 123e
00000110: fb39 3c3d 37ab 303d ffe7 0b3d 00b4 c6bc
00000120: ff92 753b b73a b6bc a9c1 983c 0de0 aebd
00000130: 38e9 aebd 422f 32bd b08b 19bd e847 1bbe
00000140: 8a35 8ebd 5938 84bc e588 d03c 529a 533c
00000150: 3eaa 763e 329d 403e 1c1b 26bc 7325 1cbe
00000160: 44c4 813e a69a 8fbe 2559 8c3c 1109 18bd
00000170: 819c bc3c ee4f 67bd 595c fcbc f65d 203d
00000180: c023 e1bc 0ca5 d3bc 83f3 81bc c9be dc3a
00000190: 8994 913d 15ba 43bd 08a5 333d b66c 813d
000001a0: 250b 9e3c 34b7 77bc 9b4f ffbc dd20 113d
000001b0: b08e d4bd fecb d1bb 3d8d 253d fae3 ccba
000001c0: c8d5 c8bd 47a4 03bd d8f4 3e3d 618a 78bd
000001d0: 1bba cfbc a07b b73c 3b7e a73b 2be6 2dbc
000001e0: 8265 603c efc0 f9bc 6d91 11bc 6df8 95bc
000001f0: b90e 83bd d705 5a3c 9a85 2abb e902 1f3d
00000200: a059 b73c 21eb 63bc 9fa6 023c ac90 b6bc
00000210: a105 1c3b b548 67bb 693c c43b 4563 e63c
00000220: 9f06 183d 5488 b43c ee08 b43b ba29 403d
00000230: dfca a9ba a1a7 543d 2634 99bb 35e3 893c
00000240: 63c9 a8bc affa 713d dd97 fbbb 8d92 3e3d
00000250: 275e 9a3c 7d1e 723d b066 413d 27c1 533c
00000260: fd82 7e3c ee53 8cbc 8133 8dbc a49a 79bd
00000270: 5bc1 25bd ff7a c5bc f1b1 7bbc 6ce9 09bd
00000280: 3598 77bd 6184 0abd d795 4bbd 3fe5 08bb
00000290: 957d 55bd b504 11bd 1cc6 1fbd 3bf9 7cbd
000002a0: b788 3abd 7d61 0cbd 7faa ebbc 10af a8bd
000002b0: 2d53 5bbb f305 133d e87f 7b3c f348 9c3c
000002c0: 7281 a4bb aee7 85bd cb7d 713c 7996 b43d
000002d0: c5fe 1a3b 1fd1 43bd b988 013d b9de dabb
000002e0: f6cc 043d d6e4 8bbc ca43 853b f8b7 23bd
000002f0: 3c4c 1abb 6620 d0bc 10ad 433d 3a77 62bd
00000300: 50f2 143d 5719 703d ba6b ddbc 3e1b cf3d
00000310: 0e55 31bd 75fc fe3c 3dde 21bd 1635 01bd
00000320: 8503 afbc 0c80 8fbd f0e0 bebd 3f29 6c3c
00000330: a7b9 acbd 77c3 e2bc c456 233d 99fb 0f3c
00000340: 01f6 09bc bfd1 ff3c 1915 413d cf4a 0aba
00000350: 7e6b a73c b35a 7f3b 5401 c83b b1b5 58bb
00000360: 94ab 58bd 26f8 053d 9b96 2abd 8682 06bc
00000370: eda0 843b 647e 363d 9473 c43d 7223 fb3c
00000380: 5fa6 f43b 1c5f 343d 60f0 0d3d 6f01 6a3d
00000390: 50db a73d 1b8c ab3d 0929 1bbc 914b 833c
000003a0: 6f3c 463a dbcd 723d bb25 d83c 0ce1 ad3c
000003b0: 7c26 ac3d 93db 373d 1c81 193c e2f7 c63d
000003c0: 3653 1a3c 3f57 833d ccc6 ecbb fe35 3a3c
000003d0: 7cf8 45bd 6792 083d 7771 32bc b459 fbbb
000003e0: 3b58 643d 5457 f8bc 6b4b 463d c665 3a3d
000003f0: b78c 1a3d 1f42 5c3d 696a 573d 45ce fe3c
-0.07031074 -0.045168094 -0.07219214 0.13185821 0.17529622 -0.020852061 -0.008901382 -0.088818975
-0.08177142 0.040101122 0.08349733 0.0057615614 0.078711204 -0.011139988 0.011177004 0.032392543
-0.011024856 0.055041924 -0.0029081267 -0.027367584 0.0018195772 -0.0075233835 -0.010313686 0.043896236
-0.007852012 0.037834957 0.048343394 0.088346526 0.019615773 -0.051509775 0.006433606 -0.04681041
0.03559825 0.12638813 -0.026944596 -0.09862818 0.051538326 -0.07544383 0.01736855 -0.055934314
-0.006440342 -0.02932097 -0.0032538646 -0.02150531 0.014153375 -0.05401945 0.060901936 -0.086752765
-0.043634262 -0.1643848 -0.053423252 0.03935655 0.14929105 -0.035559934 0.053220134 -0.036390446
0.03526849 0.022792367 0.018757224 0.03779063 0.009998531 0.044542875 0.056758568 -0.0033379467
0.06419122 0.008806258 -0.005139951 0.14298365 0.045953732 0.043132033 0.034156796 -0.024255753
0.003747165 -0.022244794 0.018647032 -0.08538828 -0.08540577 -0.0435021 -0.037486732 -0.15164149
-0.069438055 -0.01614015 0.025455901 0.012915211 0.2408838 0.18809965 -0.010138299 -0.1524866
0.2534505 -0.28047675 0.017132351 -0.03711802 0.023023846 -0.05647271 -0.030805754 0.039152108
-0.027482867 -0.025835536 -0.015863186 0.0016841526 0.07108409 -0.047784884 0.043858558 0.06319563
0.019292424 -0.015119363 -0.031165889 0.03543173 -0.10378778 -0.0064024916 0.0404179 -0.0015631907
-0.098064005 -0.03213909 0.04662022 -0.060678843 -0.025357297 0.022397816 0.0051114834 -0.010613958
0.013696076 -0.030487506 -0.00888477 -0.018306935 -0.063992925 0.013307056 -0.0026019574 0.038821135
0.022381604 -0.01391104 0.007974296 -0.022285782 0.0023807066 -0.003529114 0.0059886468 0.028123507
0.03711569 0.022037663 0.0054942286 0.046914794 -0.0012954137 0.051917676 -0.004675406 0.016831974
-0.020603841 0.05907696 -0.0076780156 0.04652648 0.018843723 0.059111107 0.04721707 0.012924469
0.01553416 -0.017129865 -0.017236473 -0.060938492 -0.0404676 -0.0241065 -0.015362249 -0.033669874
-0.06044789 -0.033817653 -0.049703445 -0.0020888594 -0.052121717 -0.03540488 -0.03900729 -0.061761122
-0.045540538 -0.03427266 -0.028767822 -0.082365155 -0.0033466325 0.035894345 0.015350319 0.019077754
-0.005020314 -0.0653833 0.014739464 0.08817763 0.002365039 -0.047806855 0.03162453 -0.0066793826
0.03242203 -0.01707689 0.004066919 -0.03997037 -0.0023543974 -0.025406074 0.047772467 -0.055289485
0.0363639 0.058617916 -0.027028907 0.10112618 -0.043294005 0.03112624 -0.039518584 -0.031544767
-0.021363983 -0.07006845 -0.09320247 0.014414131 -0.08433848 -0.027681096 0.039877668 0.008788013
-0.008420468 0.031227944 0.04713926 -0.00052754296 0.020436998 0.0038963973 0.006103674 -0.003306728
-0.052898005 0.032707356 -0.041647535 -0.00820983 0.004047504 0.04455413 0.09592357 0.03065655
0.007466122 0.044036016 0.034653068 0.057130273 0.081961274 0.08376332 -0.009470233 0.016027244
0.0007562106 0.05927835 0.026385179 0.021225475 0.08405778 0.044887137 0.009369161 0.09715249
0.009419253 0.06413125 -0.007225847 0.011365412 -0.048332676 0.033342745 -0.01089131 -0.0076706056
0.055748206 -0.030315079 0.048411768 0.045507215 0.037731852 0.053773995 0.052591715 0.031104216

bias f4 [32]
00000000: 37d9 333d 496a 2abb 718c 5bbd 4e5a c13c
00000010: fcf8 9fbd 2bea 8d3d a3a1 2abe d00e 8d3b
00000020: a51e 2bbd 1c53 d8bd 17d5 98bd cd1a 2abd
00000030: 7a7f 433d 0894 723d 5d8d cd3c 9c60 a5bc
00000040: 724f 683e 094f 93bd 1c28 9a3d 6f51 30bd
00000050: f010 b43c 9ad0 59bd 4853 82bd 5b58 2c3c
00000060: 5117 32bd e4a3 4fbd ce85 82bd b372 e53c
00000070: c8fe 67bd c053 45bd 3303 5bbd ed8e d73b
0.043908324 -0.0026003292 -0.053600732 0.023602631 -0.07811162 0.069294296 -0.16663222 0.0043047443
-0.04177727 -0.10562727 -0.07462519 -0.041529465 0.047728993 0.059223205 0.025091821 -0.020187669
0.22686556 -0.07192809 0.075271815 -0.04304641 0.021980733 -0.053177454 -0.06363541 0.010519112
-0.043479268 -0.050693408 -0.063731775 0.028008794 -0.056639463 -0.048175573 -0.053469848 0.0065783174

weight f4 [9, 32, 3, 3]
00000000: bda6 de3b 5270 9abd eab9 383c 25c9 21bb
00000010: 95c8 babc fc72 ddbb de0f 883c 8ff4 06bd
00000020: 93eb f0bc fb35 f7bc 3c83 0a3e f05b 29be
00000030: 6f56 2c3e 2773 e3be 3803 783e 1075 cd3c
00000040: 3a3a 31bd 15e7 ae3d 7390 38bd 8cf3 c83b
00000050: 165e c8bd e67f 433e 10c4 98bd a9e1 973b
00000060: e572 33bd 9968 34bd 57ec 2cbd a409 103e
00000070: 6eb1 39be 821c 583d f675 0dbe ef58 85be
00000080: 61cd 9c3d dc0b 883c f40c 963d 5719 aabb
00000090: 1683 ae3d f3f9 773d 3c92 c9bb 49bb 0d3d
000000a0: 9e9a d73c ed60 873d 6a17 d73c d9ad 223d
000000b0: fa30 f737 2950 48bc 866c dcbd 4b05 78bd
000000c0: c931 aebd 0973 12be 3c45 e8bb f4f6 583c
000000d0: 9af4 47bd 328b 0a3b 5868 5c3c 6bce 083e
000000e0: 755a 65bd 621d 253e 0122 9d3d 4b86 893d
000000f0: 1c22 49bd 90c9 2a3b 17cd b7bc 2845 08bd
00000100: 93f6 d1bd 355f 22bd baf9 d6bd 8731 f6bc
00000110: bd72 84bd ff72 b3bb f1b0 bbbd 6bff 94bc
00000120: 68e3 c83d 0993 e7bd 6e0c 22bd ee89 343d
00000130: 4a15 ab3d 70ac 02bc 4c23 14bd 5ae7 ccbc
00000140: 83d1 47bc 03e9 983d 323f af3c 8655 893d
00000150: f511 f13d a561 d83d 982b 2a3d 554d 22bc
00000160: 8768 80bc c844 97bc 5e55 9b3d d196 403d
00000170: a664 22be a3c6 343d ad2e 823f 192b 4bbe
00000180: 3c7f 92bd 5679 b1bd 5ca5 d6bd 0669 cabd
00000190: 817e 2bbe 7eca f03b e1f9 0bbe 5170 42be
000001a0: 1bc4 1c3d e021 763d 8166 c1bc ae7f 353d
000001b0: e27a d43d f921 963d 49ac 1bbd c476 2f3e
000001c0: d580 89be 46ad 453d 48cb 3ebd 61ae b03b
000001d0: bfa4 a73c 7364 dc3d b589 29be 3ca3 25bd
000001e0: 91d1 c6bc 29b1 263e bf11 1e3e c570 343d
000001f0: cb1e bcbd e1e7 1dbe 9fcb efbd 4679 babd
00000200: 8ecd 18bd 3f1d 8e3e d9ad 9e3e 0ab4 b8bc
00000210: 0544 2cbe e219 0dbe 3a7f c63c 04ac 073d
00000220: 90bf de3d 6860 873c 2db6 9cbc 83e1 45be
00000230: 9c41 12bb 6b0d 753c 48ca c03d fdb0 5c3c
00000240: a011 0dbe 2cb5 dfbd b91e 0cbd 85a6 41be
00000250: 2930 15be beba 843c b4d5 d23c 57d7 dfbd
00000260: 886e 213d 4c23 483e c3cb 463e 28f4 e7bd
00000270: 1d7c 323e 2e00 453e d92f 9cbd 4d59 a6bd
00000280: 7cbd 0fbe cf64 50bd e8ed 44bd 92d7 d1bd
00000290: d153 863d 5c01 85bd 73eb 15be 667c 933c
000002a0: 236b e43c 5f65 aabd e168 14bd 1bee 1a3d
000002b0: b781 02bb 9280 083d 5377 103e edb8 e1be
000002c0: 8736 843e 691b 30bc b549 37bd 457b 333d
000002d0: a07f 783d e288 c5bd f032 d6bd 78d8 c7bd
000002e0: 43d9 d3bd b0d4 cdbd 04c1 51bc 502e 1e3b
000002f0: 0d30 65bc 33d1 cf3d a48d d0bd 43fc d9bc
00000300: 0314 20bc 8bc0 343e 8255 9a3d d486 263c
00000310: 54a0 ce3c 3a12 09bd 0628 2dbd 217b 163e
00000320: dcf2 afbd 1d37 debd 4de8 ae3e 1054 a13c
00000330: 4960 8ebd 080f 18be 37a2 d1bd c4d0 57bc
00000340: 8e32 ddbc f4be d5bc 4b60 d4bd ccf6 f2bd
00000350: 6141 8ebd e9c8 6abd 3ae3 8bbd 98b2 a1bb
00000360: 84d3 5dbe 7cca 59be aca4 bb3b 7ce0 833e
00000370: c9bc 553e 13ed d63c 761a 3bbd d136 c7bc
00000380: 3247 45bc f2f1 18bd eb5b f0bc a748 703c
00000390: 4315 813c e1f2 323d 6256 6d3d f82e ba3d
000003a0: a64c 8d3d 9406 abbc 715f d13d c844 be3e
000003b0: 75d2 bfbd 3a6e 4a3e 8dbb 933e a7de b4bd
000003c0: d81d cebd 18eb 17be b63b 36bd 6575 813d
000003d0: de37 ed3d 69f5 4abd e811 3e3e 587e a13d
000003e0: 8939 723d bf4e c33d 850f 103e 493e 873a
000003f0: 997a 65bd 4dcf 9a3d e84b d03b 7ac4 8fbd
0.006794779 -0.07540955 0.011274794 -0.0024686542 -0.022800723 -0.006758092 0.016609129 -0.032948073
-0.029409206 -0.030177107 0.13526624 -0.16538978 0.16829847 -0.44423792 0.24219978 0.025080234
-0.04326842 0.08540169 -0.045059633 0.0061325487 -0.097835705 0.19091758 -0.07459271 0.004635055
-0.043810744 -0.044045065 -0.04221758 0.14066178 -0.1813409 0.052761562 -0.1381453 -0.26044413
0.076563604 0.016607217 0.07326689 -0.005191009 0.085210964 0.060541105 -0.0061514657 0.034602437
0.026318844 0.06610284 0.026256282 0.039716575 2.9467501e-05 -0.012226143 -0.10762887 -0.060551923
-0.085055895 -0.14301695 -0.0070883315 0.013242472 -0.048817255 0.0021140096 0.013452612 0.13359992
-0.05599447 0.1612449 0.07672501 0.067150675 -0.049104795 0.0026060082 -0.022436662 -0.033269078
-0.102521084 -0.039641578 -0.1049685 -0.030052913 -0.06467197 -0.005476355 -0.09164608 -0.018188199
0.09808999 -0.113073416 -0.039562635 0.044076853 0.0835367 -0.007975683 -0.036166474 -0.02501266
-0.012195948 0.074663185 0.021392439 0.067057654 0.11771003 0.10565499 0.04154548 -0.009906133
-0.015674843 -0.018465415 0.07584642 0.04701883 -0.15858707 0.044134747 1.0170494 -0.19840659
-0.07153174 -0.08665721 -0.104807585 -0.09883313 -0.16747476 0.0073483577 -0.1366954 -0.18988158
0.03827296 0.0600909 -0.023608448 0.044311218 0.103750005 0.073306985 -0.0380061 0.17135149
-0.26856104 0.04826095 -0.046580583 0.0053918813 0.0204643 0.10761347 -0.16556437 -0.040438876
-0.02426985 0.16278519 0.15436457 0.044052858 -0.09185561 -0.15420486 -0.117087595 -0.09105162
-0.037305407 0.27756688 0.3099201 -0.022546787 -0.16822822 -0.13779405 0.024230588 0.03312303
0.108763814 0.016525462 -0.019129837 -0.19324307 -0.0022316938 0.014956812 0.09413582 0.013469932
-0.13776255 -0.10923228 -0.034208987 -0.18911178 -0.14569153 0.016202327 0.025736667 -0.10929745
0.03941205 0.19544715 0.19413666 -0.11325866 0.17430158 0.1923835 -0.07626314 -0.081225015
-0.14037126 -0.05087739 -0.048078448 -0.10246195 0.065589555 -0.064944 -0.14640598 0.018003654
0.027883118 -0.08320116 -0.036232833 0.03782473 -0.0019913742 0.03332574 0.14108019 -0.440864
0.2582285 -0.010748723 -0.044748027 0.04381873 0.060668588 -0.09645249 -0.10458934 -0.09758085
-0.10344174 -0.100503325 -0.012802366 0.002413649 -0.013988507 0.101473235 -0.10183266 -0.026609546
-0.009770396 0.17651574 0.075358406 0.0101639815 0.025222935 -0.033464648 -0.042274497 0.14695407
-0.085912436 -0.10850356 0.34161606 0.019693404 -0.06951959 -0.14849484 -0.10236018 -0.013172332
-0.027001645 -0.02609203 -0.10369929 -0.11863479 -0.06946064 -0.05732051 -0.068304494 -0.00493462
-0.21662718 -0.21268648 0.0057264175 0.25757205 0.20872797 0.026236093 -0.045679532 -0.02431813
-0.0120409 -0.037340112 -0.029340705 0.014665759 0.015757209 0.04368866 0.05794371 0.0909099
0.06899385 -0.02087716 0.10223282 0.3716185 -0.09366313 0.1976861 0.28854027 -0.0883153
-0.10064286 -0.14835775 -0.04449054 0.06321219 0.115829214 -0.049550448 0.18561518 0.07885426
0.0591369 0.09536504 0.1406842 0.0010318245 -0.05602512 0.07559071 0.006356705 -0.07019897

bias f4 [9]
00000000: fe02 1fbd d4d2 8dbd b057 db3b 29ed fc3b
00000010: e0cc 033c b82e b1bd d759 39bd cf0e 31bc
00000020: b62b 66bd
-0.038821213 -0.06924978 0.006693803 0.0077187014 0.0080444515 -0.08651489 -0.045251694 -0.010806753
-0.05619403
