ESPCN/ESPCN_mytorch/ESPCNModel_relu_50_0.001.pth (torch, 95474 bytes, 6 tensors)

weight f4 [64, 1, 5, 5]
00000000: 22bc 663d ecc4 a73d 8ad3 49bd e8ce 0d3e
00000010: a860 b83d 65a9 13be 9bd4 a6bd ca72 213e
00000020: 18d5 44be 5e8e b8bd 68f7 45bd 4541 acbc
00000030: bcae ddbd 1353 09be 05a4 1b3e c59b 613d
00000040: 5364 1c3e 0b58 923d e1d7 a8bd bbac 913d
00000050: fc07 35be 7934 43bc e340 183e d859 1cbd
00000060: 00af 11bd c5e0 2a3e 6264 663e 41d2 07be
00000070: 97ec 09be fc6c 1cbe 71fe 663d f6ee 10bd
00000080: 6c51 053e 0f46 58bd 79ef 243e 33f0 8fbd
00000090: 73a5 3d3d bf83 15be 5f5a dfbc d896 593e
000000a0: 004f 123e d0c8 06be d804 99bd 9915 3e3e
000000b0: 4d2d 703c a757 813d d252 2a3e b1bb cabd
000000c0: 6bfb b6bd dfd9 ee3d 1947 503d 0302 2c3d
000000d0: fa39 78be c47d f2be ee65 fb3d 32b1 0e3e
000000e0: eeda 923c 0efd 6abe c3e6 b93e 7715 ef3d
000000f0: 6735 78be 3f63 d7be b722 6d3e e06e 22bc
00000100: 1365 58be f3b0 f9bd 7696 e43e 1140 b73d
00000110: f12d b53e e72c ae3c 0aec b03d 3dcc ec3d
00000120: c56c 1abe ae14 5ebe b9d2 04be 7a48 d23d
00000130: d9d5 31be 0d26 62bd fb26 ab3d 6da2 4d3d
00000140: 73eb 283c d253 483d c4ee 5dbe 9efc f23d
00000150: 6cda 163c 2cd4 eabd 270a 1d3c a94f 053e
00000160: 4bc8 c7bd a5b9 073e 7d58 ac3d af8f a73d
00000170: 8fa8 293e 934c 43bc 30d3 b2bd 0c43 08bd
00000180: f172 2d3e 64ae c8bd 0a05 b2bd 251a c1bc
00000190: eb72 52bd 82b8 083e abed e63c 4a3c df3d
000001a0: ab51 b2bc 7210 01be 34e5 343e 747a be3c
000001b0: e2e9 26be 2fd8 0f3e bce6 463d 77ae 05be
000001c0: 6951 3fbc 9309 59be 04b3 0fbe 1cfa 4ebd
000001d0: e4ac 323e e78e 89bd 90fc 5a3d ef75 20be
000001e0: b316 c73d bf5c a8bd b3ac 853d 45c6 303e
000001f0: 2fb1 983b 129c c13c 62ca cfbd a8b8 963d
00000200: 498a 123c 09a4 c6bc aac7 e03c 2238 c5bc
00000210: e75b 7e3e d634 33be 2956 453e 9a16 91bd
00000220: 79c2 c13c 78be 8cbe fa11 33bf dcc9 94bd
00000230: 771a ed3d 6074 e0bc e1ef 16be 4d46 83be
00000240: 4cbe 2b3e 70e9 96bd bff2 323d d1e5 813d
00000250: ac7b debc 2123 ea3c b2da 323d 23ea a73d
00000260: dbf2 0e3e 608a ce3b 5c09 f03d d38c aa3d
00000270: c2d0 3bbd 5fbe d0bd f6e0 453e 86b9 eabd
00000280: f76a 783d 3ee0 313d 7e92 50be 8b51 dbbd
00000290: ca55 b73d 37d6 e4bd 96cb efbd 8636 d23d
000002a0: c05a 18be 2c62 cebd 8710 e73d 927f e43d
000002b0: 84a3 513d c756 b3bd 628c ab3d 8ac2 073d
000002c0: 86f8 cbbc 7edc b53d 33b6 9bbc 6127 b9bc
000002d0: bad2 c63d 6ab3 a5be ffe2 c6bd 271a 033e
000002e0: 2431 bbbc 4980 e83c 02fa 04bf 86dc edbe
000002f0: c7d0 bcbc f971 ed3c 6362 3a3d 75f3 753d
00000300: c911 1b3e bbf8 a43d ec8c 2abd 9923 b6bc
00000310: ab8d 16bd 7191 61bc b926 4cbd 0659 e53c
00000320: b9f5 6d3b 0c4b 0bbd 5309 1bbd d1e7 7abc
00000330: aeab 02bd 5e61 2b3e 44a9 cbbd 2f19 a53e
00000340: 4fc0 b73d 751a 253c 0dcc d2bd 2485 afbe
00000350: 0efa 64be 491a 7f3d 673e 45bb 05d8 4fbd
00000360: 75e3 4e3e 9b37 9fbe 7cdc f63d a825 89bd
00000370: 2c14 43bd d135 0b3e 0138 28bd 4500 b3bd
00000380: 9e1d bc3b 60b7 013e 3d70 0e3e 7fab abbb
00000390: 5714 143e bf01 f63c 4c8d e43d 78ee 053e
000003a0: 2d84 083e c7a1 013e 9e95 35be 61db 453d
000003b0: 26c9 9dbc 3cf1 ae3d f130 a0bd aad3 4c3e
000003c0: a6b3 94bd 914c b23d fbc6 393e 9c78 33be
000003d0: b963 aebd 5aa8 32be 49c3 1d3e c15b 02be
000003e0: a798 123e 6a59 6fbd 0053 11bc 5931 413c
000003f0: 0931 913c f93e 763d 160d efbb bf7c c53e
0.05633176 0.08191857 -0.049274005 0.1384846 0.09002811 -0.14420088 -0.0814602 0.15766445
-0.19221914 -0.090115294 -0.048331648 -0.021027217 -0.108243436 -0.13410597 0.15199287 0.055080194
0.15272646 0.07145699 -0.08244301 0.07113024 -0.17678827 -0.011914366 0.14868502 -0.03817162
-0.035567284 0.16687305 0.2249923 -0.13263799 -0.13469158 -0.15275949 0.056394998 -0.03538414
0.13019341 -0.052801188 0.16106977 -0.07028236 0.046300363 -0.14601038 -0.027264772 0.21248949
0.14287949 -0.13162541 -0.07471627 0.18562926 0.014659238 0.063155465 0.16633156 -0.098990805
-0.08934673 0.11662649 0.050849054 0.041994106 -0.24240866 -0.47361577 0.12275301 0.13934782
0.01792666 -0.22948095 0.3630887 0.11674016 -0.24239121 -0.42067906 0.23157774 -0.00991413
-0.21132307 -0.121919535 0.44646043 0.089477666 0.35386613 0.021261645 0.08638771 0.11562393
-0.15080555 -0.21687576 -0.1297101 0.1026773 -0.17366733 -0.05521207 0.08357044 0.05020373
0.010310042 0.048908062 -0.21673113 0.11864589 0.009207349 -0.1146625 0.00958494 0.13018669
-0.09755 0.13254412 0.08415315 0.08181702 0.16568206 -0.011920112 -0.08731687 -0.033267066
0.16938378 -0.09798887 -0.086923674 -0.023572037 -0.051379126 0.13351634 0.0281895 0.10900171
-0.021767458 -0.1260393 0.17665559 0.02325175 -0.16300157 0.14047311 0.04855989 -0.13054834
-0.011677125 -0.21195059 -0.14033133 -0.05053149 0.17448765 -0.067167096 0.05346352 -0.15669988
0.097211264 -0.08220815 0.065270804 0.17263134 0.004659794 0.02363399 -0.10146023 0.07359439
0.008944103 -0.02424814 0.027438957 -0.024074618 0.24839745 -0.17500624 0.19271149 -0.07084389
0.023652302 -0.27489066 -0.69949305 -0.07265064 0.115773134 -0.027399242 -0.14739944 -0.25639573
0.16771811 -0.073687434 0.043688532 0.06342662 -0.02715858 0.028581204 0.043665595 0.08198955
0.1395983 0.0063031167 0.11720535 0.08327641 -0.045853384 -0.101925604 0.19324097 -0.11461167
0.060648885 0.043426745 -0.20368382 -0.107089125 0.0895191 -0.11173671 -0.11708753 0.10264306
-0.14878368 -0.100773185 0.11282449 0.111571446 0.05118133 -0.08756786 0.08376385 0.03314451
-0.024898779 0.08879946 -0.019007778 -0.022601785 0.09708162 -0.32363445 -0.09711265 0.12802945
-0.02285058 0.028381484 -0.5194398 -0.4645731 -0.023048772 0.02898501 0.045503985 0.06004663
0.15143503 0.08055254 -0.0416383 -0.022233771 -0.0367562 -0.013767586 -0.049841616 0.027996551
0.0036309792 -0.034007117 -0.03785069 -0.015314058 -0.031902008 0.16736361 -0.09944394 0.32245776
0.08972227 0.010077109 -0.10292826 -0.34281266 -0.22361013 0.062280927 -0.003009701 -0.05074312
0.20203955 -0.3109711 0.12053773 -0.066966355 -0.04762666 0.13594748 -0.041069034 -0.08740286
0.0057408353 0.12667608 0.13910003 -0.00523895 0.14460884 0.03003013 0.11159763 0.1307925
0.13331671 0.1265937 -0.17732856 0.04830492 -0.019260954 0.085421056 -0.07821835 0.20002618
-0.07260828 0.0870601 0.18142311 -0.17526478 -0.08515114 -0.17447034 0.15406527 -0.12730314
0.14316045 -0.05843488 -0.008869886 0.011791551 0.017723577 0.06011865 -0.007295261 0.38571736

bias f4 [64]
00000000: 7731 5e3e 1bda 363c bd23 393d 696d 693d
00000010: 031a 183e ffe6 583e 0e98 443e 237b 823e
00000020: e9e5 0e3e 92a8 55bd 33b3 83bd 8b50 633d
00000030: 2329 753e 076d 8bbd 667b 3ebd 028c 473d
00000040: 2fe1 89bd 45ce afbe 4c32 653e 3f48 7a3e
00000050: 3c5a 7b3e 1644 7a3e bf39 22be d1fb 613e
00000060: 96f2 123d 2f70 04bc 534f 693e 2868 703c
00000070: e2ed 3b3d da25 203d 1c74 6b3e 5ae1 32ba
00000080: 3303 44bd 22f1 b63d 3515 0cbd bca9 19be
00000090: 127b a9bd 817b 493e 733d 1d3d 49df 383d
000000a0: 0d76 013c 2cac b8bc bb06 753e c036 30be
000000b0: f891 96bd 7cfe 8f3c 8560 0fbe 9aa7 513e
000000c0: f6c4 22be 3d7a cf3d e35f 513e 53f4 6fbc
000000d0: db83 a93d bc25 a5bd db4c 64bd a69a 043e
000000e0: 3033 d9bd d978 23bf e497 4c3e eb5e 86bb
000000f0: a4b3 2ebf a3a3 d7be 8843 483e a579 5b3e
0.21698557 0.011160399 0.0452001 0.056989107 0.14853673 0.21181868 0.1919863 0.2548457
0.13954891 -0.052162714 -0.06430664 0.055496734 0.23941474 -0.06807905 -0.0465044 0.048717506
-0.067324035 -0.3433706 0.22382468 0.24441622 0.2454614 0.24440035 -0.15842341 0.22068717
0.03587588 -0.008083387 0.22784166 0.01467327 0.04588116 0.039098598 0.22993511 -0.0006823741
-0.047854614 0.08932711 -0.034199912 -0.15006155 -0.08275427 0.19676019 0.03838868 0.045134816
0.007901681 -0.022543035 0.23928349 -0.17208385 -0.0735206 0.017577402 -0.14001663 0.20474091
-0.15895447 0.10130737 0.20446734 -0.014645654 0.082771026 -0.08063838 -0.055737358 0.12949619
-0.10605466 -0.63856274 0.19979817 -0.0041006706 -0.6824286 -0.42117032 0.19557011 0.21433122

weight f4 [32, 64, 3, 3]
00000000: 0f02 44bd bead cfbb cd4f dd3c dd99 433c
00000010: 8f9b dfbc 7cb0 c0bb 1878 78bd b22b c6bc
00000020: acdf 9a3c b005 14bd 5ef0 8dbd 49de 2a3d
00000030: f947 443d 0207 cabb 790d b4bc 62e5 d7bc
00000040: dadf 293d 0725 e43d fdc7 5c3c 8c24 91bb
00000050: df98 d13c 7d15 893a 3e49 d73b b139 e43c
00000060: 04f2 02bd bed8 8cbc 87c5 1e3d b53d 43bd
00000070: 7c8e 353d 89b9 fe3c d8fb 16bd 784e 7a3d
00000080: 48b0 133d b0c1 c5bc 1d2c 2fbd df1c 083d
00000090: abe8 74bc bf35 8ebc 59f9 423b 5063 2dbc
000000a0: f297 ef3c 7e65 303b daa1 033c 827f 563d
000000b0: e330 6aba 521e 283e 2793 193e 68cc 3b3b
000000c0: d515 a0be 49cc 0a3d ee3b 11be a9d1 5c3c
000000d0: 8af8 813e 7338 80bd 6d04 d03b 0b50 61bc
000000e0: eeca f83c f942 e0bc 457f 3d3c a13e b1bb
000000f0: 271d 173d debe bb3c 64dc 253c 5b2d a4bd
00000100: c40d ccbd ba6b 08bc 6c89 d2bd 3048 8ebe
00000110: 3516 a63d c6ca bf3e c505 cc3d f1e9 083f
00000120: 2138 c8bc 3c39 3f3b 4eae 0cbc ad6a 213c
00000130: d403 27bc 785a eabc 5675 42bd d986 193d
00000140: 26ae 89bb b1ac 813c ff22 3e3d 474e 893b
00000150: 6b7b 373d b198 96ba 05b8 c43c cf87 4e3d
00000160: 7839 683d e941 f73b 82df a63d 85fb bc3d
00000170: 8de9 29be 0c73 9a3d 0ad8 253d 12d8 c3bc
00000180: 4210 003e efe0 663d 6c76 0ebf 1138 053d
00000190: 4376 b83a df1f b53c 07d2 cc3c a845 bbbc
000001a0: 27d7 67bb 27b7 17bd 4354 bb3c 528a 323d
000001b0: e98e 33bc 209b b43c 0c9b c6bc 0f9e 7c3c
000001c0: 7a17 783c 4b76 cc3c 8d1a 803b 009c c3bc
000001d0: 5225 c2b7 05bc dabc 4d15 4c3d 8543 873d
000001e0: 76a7 1a3d 313d 9a3d 8416 b33d 376f 0cbc
000001f0: 2607 6d3c 278a 7dbc 43db 283d 1392 d03d
00000200: e332 aebd 94e2 1fbe 386b bdbd d170 193d
00000210: 81ad 553c 6c04 f2bc ac0c 143d 730e 823c
00000220: 8223 ad3c 4d1c 4ebd 3188 ee3c 9572 003d
00000230: 943d 07bd ce1b d3bc 2e15 49bc cc31 b23b
00000240: e788 ea3e 04dd 1d3f dbf4 b93d 2a68 883e
00000250: c3a2 8c3e e27a a23d 2c1b f53c 9a25 2f3d
00000260: 5932 02be 72aa 783e 9842 3d3e 6085 3ebc
00000270: 1926 b43e 14b2 8c3e 96de 843d 1c93 3a3e
00000280: 010b c43d 9329 72bc 298b 763f 9b88 183f
00000290: bcdf ac3e e4fd 953b abb7 76bf 76b3 123f
000002a0: a8ca 0d3f bc73 123e de6b 423e de33 ee3c
000002b0: 156f 74b9 4b91 893c 4fd1 adbc 0c9b 563c
000002c0: e786 a83b 1db3 d23b 4ada 07bd 717b b8bc
000002d0: fbfc 243d b7e1 a53c 6cfe 35bd 215a a9ba
000002e0: 2ef9 b03a eeeb 5ebc 1ef7 82bc 04d5 f7bc
000002f0: 2c92 77bc f769 193c 7881 60bc 91a3 e13c
00000300: d20e 8d3c 97be acbc 0247 80bc 03ad 07bd
00000310: 152d 5ebc efda 7fbb 40cf 6d3d 4fe3 593d
00000320: 9c9e a5bb e4ff 733d d2b7 713c 13bc e43c
00000330: 91b5 133d 5132 863d 3e60 c33c 7fdc 453b
00000340: f79a 983b d62a 01bd fad2 cbba 43e5 b6bc
00000350: 92f4 283d 2203 2c3c 26c6 d0bb 9892 813a
00000360: 44a2 9fbc aac2 29bd f48a 64bd 1d82 673d
00000370: 6cb5 1fbc e763 9bbc 1e6b 863c dcfd 863c
00000380: 661d 1cbd f563 a7bb c40b 753c 215c 8b3c
00000390: 1485 503c 123a 283d 7cfd bc3b 01a3 20bd
000003a0: 1769 5a3c cc0e 483d 2548 7cbb 9d24 e2bc
000003b0: 8106 9a3c 4ca7 cdbc f46f 7e3c a697 973a
000003c0: 7aac d3bc 63de 143c 1411 12bd 1f32 853c
000003d0: 5170 143d b669 283c bbfa 2a3d 3d60 303d
000003e0: f5f6 973d 3e5d d6bc cf0a 343d bc2c 34bd
000003f0: bb5a 953a 6ae0 b43c 93cd 02bc bc5d d7bc
-0.047853526 -0.0063378504 0.027015591 0.011938539 -0.027295856 -0.0058804136 -0.060661405 -0.024190757
0.018905483 -0.036138237 -0.06930612 0.041715894 0.0479202 -0.006165386 -0.02197908 -0.026354495
0.041473247 0.11139875 0.013475415 -0.0044294056 0.02558559 0.0010458675 0.0065700104 0.02785954
-0.031969085 -0.017193194 0.038762596 -0.04766627 0.044325337 0.03109433 -0.03686127 0.06110999
0.036056787 -0.024140209 -0.04276668 0.03323066 -0.0149480505 -0.017359613 0.0029750674 -0.01058276
0.029247258 0.0026915963 0.008034194 0.052367695 -0.0008933676 0.16417816 0.1499754 0.0028655771
-0.31266657 0.033886228 -0.14183018 0.013477721 0.25384933 -0.06260767 0.006348184 -0.013751994
0.030370202 -0.027375685 0.011565988 -0.0054090773 0.036893036 0.022918161 0.010123346 -0.08016463
-0.09963563 -0.008326465 -0.102801174 -0.2778945 0.081097044 0.3745939 0.09962038 0.53481966
-0.024440827 0.0029178401 -0.008586479 0.009852094 -0.010193784 -0.028607592 -0.04747518 0.037482116
-0.0042016683 0.015829416 0.046420094 0.0041902396 0.044795435 -0.0011489597 0.024013529 0.050422486
0.05669543 0.007545699 0.081480995 0.09227661 -0.16592999 0.07541475 0.040489234 -0.023906741
0.12506202 0.056366857 -0.5564945 0.032524172 0.0014073331 0.022109924 0.025002493 -0.022860363
-0.0035376044 -0.037039902 0.022867328 0.043588944 -0.010959365 0.022046626 -0.024243854 0.0154185435
0.015142316 0.02495875 0.003909415 -0.023878098 -2.314398e-05 -0.026700983 0.049825 0.06604675
0.03775736 0.075312026 0.08744529 -0.008571438 0.014467036 -0.015474833 0.04122473 0.101841114
-0.085057996 -0.15613776 -0.09248966 0.037461106 0.013041855 -0.029543124 0.036144897 0.01587603
0.021135096 -0.05031996 0.029117675 0.031359274 -0.03301771 -0.025770094 -0.012273116 0.005438065
0.45807573 0.6166537 0.090799056 0.2664197 0.27467927 0.07933594 0.029920183 0.04276047
-0.12714519 0.2428377 0.18482435 -0.011628479 0.35185316 0.27479613 0.064877674 0.1822018
0.09572411 -0.01478042 0.9630609 0.59583443 0.33764446 0.0045773853 -0.96374005 0.57305086
0.55387354 0.14301962 0.1898646 0.029077467 -0.00023311035 0.016792914 -0.02121797 0.0130984895
0.0051430347 0.0064300434 -0.03316716 -0.022519799 0.040280323 0.02024923 -0.04443209 -0.0012920537
0.0013501996 -0.013606055 -0.015986975 -0.030252941 -0.015110534 0.009363643 -0.013702743 0.027543815
0.017218981 -0.021086974 -0.01565886 -0.03312398 -0.013560553 -0.0039040407 0.058058977 0.053195294
-0.005054308 0.05957021 0.014753299 0.027921712 0.036061827 0.06552566 0.023849603 0.003019124
0.004657145 -0.031534992 -0.0015550547 -0.022326117 0.041248865 0.010498794 -0.0063712774 0.0009885607
-0.019486554 -0.04144541 -0.05579658 0.05652057 -0.009747844 -0.018968536 0.0164085 0.016478471
-0.038113974 -0.0051083514 0.014956418 0.017011704 0.012727041 0.041071005 0.0057675224 -0.039217953
0.013330719 0.048842236 -0.003849515 -0.02760535 0.01880193 -0.025104187 0.015529621 0.001156558
-0.02583908 0.009086224 -0.03566082 0.016259251 0.036239926 0.01027911 0.04174302 0.04306053
0.0742015 -0.026167508 0.04395562 -0.043987975 0.0011394838 0.022079665 -0.007983583 -0.026289813

bias f4 [32]
00000000: 19e7 71bd 1c69 99bc 4c04 8dbb 7b4a ca3d
00000010: b450 ee3c 0126 dbbc 0062 253d 7e57 1f3d
00000020: 8f54 16bc 9d03 3fbd a359 b63d b429 273d
00000030: 8acc ab3d 52c3 613c 9fc9 853c b857 7f3c
00000040: 878b 8a3d a297 b83d aba5 9dbc e567 88bc
00000050: 56a8 39bd 1ab0 613e b90a ba3d 0668 a7bc
00000060: f737 dfbb 17ae c73c 5092 0ebd 7359 6c3b
00000070: 3ccd adbc f1c4 703d cc6e 91bd 4c3f 89bd
-0.059058283 -0.018726878 -0.0043034907 0.09877487 0.029091217 -0.02675152 0.040376663 0.0389018
-0.009175434 -0.046634305 0.089038156 0.040811256 0.08388622 0.013779478 0.016331492 0.015584879
0.06764894 0.09013297 -0.019244036 -0.016651103 -0.045326553 0.22039834 0.090840764 -0.020435344
-0.0068120915 0.024375005 -0.034807503 0.0036064058 -0.021216027 0.058781568 -0.07101211 -0.06701526

weight f4 [9, 32, 3, 3]
00000000: b568 6c3d db8c 613d 1619 cf3c 91b3 5a3d
00000010: d83c ff3d dc6d af3d 892a b3bc 4444 373c
00000020: f192 8cbc 2008 ef3c 5da2 023d 7554 ff3c
00000030: 8111 323c 082e 083c af86 e4bc 2b50 17bd
00000040: 93ba e4bb 309a 1cbd 4b0e 73bd 6ed0 01be
00000050: 8aab 8ebd e802 3bbd 60e3 ac3e 7a47 d53c
00000060: a9cb 42bd 05cb 0ebd c933 69bd 0252 273d
00000070: 3fcb ae3a 0a5f 0cbd ea69 52bd 10a2 c43d
00000080: 62be 0fbd 2a60 d93c 03b2 8f3d 24b8 033c
00000090: a1f1 cdbc 9284 9ebc 8541 8c3a 7e43 1bbd
000000a0: ed36 8cbd 1bd8 54bc 3be0 3fbd 5343 9cbd
000000b0: 2710 cbbc d32f f23c edb5 4f3d 886b 4dbc
000000c0: 25ec bebb c1e8 653d 6d07 103d b517 8c3a
000000d0: 817d 253d d466 27bd 2913 61bd fa95 ccbd
000000e0: c392 c7bc 96eb f7bb 1354 073d 3448 96bd
000000f0: cad4 933d 06e4 00bd 2786 95bc e555 5d3d
00000100: d3a6 f83c c647 bb3c dce7 203d 6108 d0bd
00000110: 06a7 94bd d6cd 85bd 9574 293d f806 043c
00000120: a478 353b 108c 813c 8edd c0bc 6f6f c73c
00000130: 75a2 26bd 13f9 303d e40a 22bd b29f 2a3d
00000140: a037 22bd ed26 1a3c 87aa 093d 2d6b b7bc
00000150: bede 843c 7185 50bc 7783 04bd 9a77 2fbc
00000160: 7e80 4fbc 08c2 47bd 12cf ba3d 7b10 913d
00000170: 3593 a13d de72 adbd eefd 0ebd 0663 1b3d
00000180: e65d 28bd c251 713d 979e 92bc d2f5 973d
00000190: d019 ecbc a6f5 043d 136f 363d ee13 4e3d
000001a0: edeb b63d 95e0 d9bd b8c6 bfbd 3330 983b
000001b0: c830 87bc c000 a3bb dfeb 03bd cdaa 9dbd
000001c0: 8fa8 9bbb 943d 313b 3bad 4d3d be5e 923c
000001d0: 191d e73c 50ed da3c 26fd 8abd ed12 84bb
000001e0: 5815 6f3c de4e 36b9 eb3b 393b 6247 cabc
000001f0: ec3e 713c b7a1 26bd f9b6 b83d 2a50 903e
00000200: 1532 34bc 1355 f23c 343f 63bf 0e37 f83d
00000210: 99db 373e 8f0b 893d 1c6c 913d bf4a 6f3d
00000220: 9407 8abd ef68 b13c 9068 acbd 09c6 d83c
00000230: 56c5 27bd ffb4 ac3c 3938 75bd 8f15 4dbd
00000240: c509 c73d ad67 043e ad54 313d 3791 fbbd
00000250: 8a97 6dbf 0063 5d3d 8d37 413e 17de 9c3e
00000260: 400e 693d f1b9 de3c aad8 29be 72aa 80bc
00000270: ac40 aebd 8aef e6bd fec5 483d ef6b 8b3d
00000280: bb0c 9f3c 6c32 a13b c58a 1d3b 4ec8 87bc
00000290: 4ecc 4e3d 2ec5 523d 56bc 20bd 20c9 bdbc
000002a0: d6c8 0d3d e653 223d a776 8a3c 6c3d 963d
000002b0: 2671 78b9 5cd4 a43c 3f99 833d ee70 a63d
000002c0: dc19 e0bc 1db6 763c 7eef 2dbd fe13 95bc
000002d0: 5426 273d d113 813d 7318 31bd d660 4dbd
000002e0: 3006 3b3d 637a 60bd 2fb7 bf3c 783d b53c
000002f0: 58c3 bf3c 2f31 7bbe 6311 cabe 9b26 60bc
00000300: 1550 a7be 9263 fbbe a99b ca3c 870a c53d
00000310: 543d 1bbd a5ae 3a3b 84ad 733d f086 12bd
00000320: 3fc0 e63c 25ae c3bd 66d6 d9bd 6102 8dbd
00000330: 771b dcbc 0d9d 5bbd 211e 8e3c daac fe3c
00000340: a204 8cbd 22d6 cb3c 14b7 743d a277 a43d
00000350: d6f9 e93c e103 c8bc 3f7a 143c 94a3 163d
00000360: 5f7d 423d 7a69 b83c d2ed 54bd 1977 203c
00000370: 861c 623d 1b27 ccbc 94d3 353c 6dbe 423d
00000380: 2d86 703d cb23 3abd 4c64 4a3d e201 e63c
00000390: ba75 1a3e 36b4 213d 6620 44bd fc45 3b3d
000003a0: 9dec a4bd 9a6f 88bd 4d34 41bd 1507 c33d
000003b0: 1c6e 51bc 7a64 d5bd fbb8 c83e 5138 a1be
000003c0: c57d b9bc c1d5 463e f7ca 12bd 4739 6bbc
000003d0: 6550 e5bd d336 f8bc acea 8ebd bf0c 893d
000003e0: 29c5 5dbc 2f70 f4bc f46f 193d e2e6 a0bc
000003f0: 21ce 41bd a226 963d 490d 42bc c266 8cbd
0.057717044 0.05506597 0.025280517 0.053393904 0.12462777 0.08565876 -0.021870868 0.011185709
-0.01715991 0.029178679 0.031893123 0.031168202 0.010868431 0.008311756 -0.027896253 -0.03694169
-0.006980249 -0.038232982 -0.059339803 -0.12677166 -0.06966312 -0.04565707 0.33767223 0.02603506
-0.047557507 -0.034861583 -0.05693415 0.040849693 0.0013335719 -0.034270324 -0.05137054 0.096012235
-0.035093673 0.026535112 0.07016375 0.008039508 -0.025139632 -0.019350324 0.0010700679 -0.037906162
-0.06846414 -0.012990977 -0.046844702 -0.076300286 -0.024787975 0.02956382 0.050710607 -0.0125378445
-0.0058264905 0.056130175 0.03516333 0.0010688218 0.040402893 -0.04086955 -0.054949913 -0.09989543
-0.024361974 -0.007565926 0.033039164 -0.073379904 0.07218321 -0.03146746 -0.018252445 0.054036994
0.030352985 0.022861373 0.03928362 -0.10157848 -0.0725842 -0.06533401 0.041370947 0.008058302
0.0027690316 0.015813857 -0.023543146 0.024345128 -0.040682275 0.043206286 -0.039561167 0.041656204
-0.03960383 0.009408695 0.033609893 -0.022389973 0.016219493 -0.012727127 -0.032351937 -0.010709668
-0.012664912 -0.048769027 0.09121527 0.070832215 0.07889406 -0.08469175 -0.034910135 0.037936233
-0.041105174 0.05891586 -0.017897887 0.074199334 -0.028820902 0.03246083 0.044539522 0.050311975
0.08931718 -0.10638539 -0.093640745 0.0046444177 -0.016502753 -0.0049744546 -0.032207366 -0.07698593
-0.0047503184 0.002704476 0.050214034 0.017867442 0.028212117 0.026724488 -0.067865655 -0.0040305764
0.014592491 -0.00017386253 0.0028264474 -0.024692241 0.014724474 -0.040681567 0.09019274 0.2818616
-0.010998269 0.029581582 -0.88768315 0.12119876 0.17954864 0.06691658 0.07100698 0.058420893
-0.06739727 0.021656482 -0.08418381 0.026461618 -0.04095968 0.0210824 -0.05986807 -0.050069388
0.0971866 0.12930174 0.043293644 -0.12283557 -0.92809355 0.054049492 0.18868847 0.3063819
0.056898355 0.027188273 -0.16586557 -0.015706275 -0.08508429 -0.11276157 0.049016945 0.06807696
0.01941525 0.004919341 0.0024039012 -0.016575005 0.05048781 0.051457576 -0.03924211 -0.023167193
0.03461536 0.039630793 0.016902281 0.07335934 -0.00023693274 0.020120792 0.06425714 0.081270084
-0.02735608 0.015058068 -0.042464726 -0.01819801 0.040808037 0.06302608 -0.043236207 -0.050141178
0.045660198 -0.054804217 0.023402778 0.022124037 0.023408577 -0.24530481 -0.3946639 -0.013681079
-0.32678285 -0.49099404 0.024732428 0.096211486 -0.037900284 0.0028485444 0.05949165 -0.035773218
0.028167842 -0.095547 -0.106365964 -0.06885219 -0.026868565 -0.053616572 0.017348351 0.031088281
-0.06836821 0.02488238 0.05974491 0.08030631 0.028561514 -0.024415912 0.009062349 0.036777094
0.047482844 0.022511233 -0.051984616 0.00979402 0.055202983 -0.02492099 0.011097807 0.047544885
0.05872171 -0.04544429 0.049412057 0.02807707 0.15083972 0.039478503 -0.04788246 0.04572104
-0.08052943 -0.06661911 -0.04716902 0.09522835 -0.0127826 -0.10419555 0.3920363 -0.31488279
-0.02264298 0.19417478 -0.035838094 -0.014356918 -0.11196975 -0.03029958 -0.06978354 0.06691884
-0.013535776 -0.02983865 0.037460282 -0.019641344 -0.04731572 0.073315874 -0.011843988 -0.06855537

bias f4 [9]
00000000: 81a9 99bd fc83 a1bd f90c a4bd c61f f7bc
00000010: ec2f debd ea86 94bd 1833 59bd 5e78 a5bb
00000020: 1f29 47bd
-0.075030334 -0.07886502 -0.08010287 -0.030166518 -0.10848984 -0.07252295 -0.053027242 -0.0050497493
-0.0486232
